2-hypertuning-mlflow/mlruns/2/e3af18b863e446d6949b90f08f07c346/artifacts/pytorch_models/20250921-1131model.pt (torch, 52229 bytes, 12 tensors)

weight f4 [8, 1, 2, 2]
0.53755575 0.23939587 0.27042148 0.7073683 0.6595872 0.65633863 -0.03043933 0.687787
-0.58337194 -1.00184 -0.27662367 -0.49831626 0.40455812 0.37614527 0.6067547 0.080894426
0.6045295 0.63823026 -0.35394076 0.1470499 0.40348583 0.5891961 0.064787544 0.68402493
-0.48069412 -0.044320844 -0.6610636 -0.7631326 -4.0004404e-09 -1.4769049e-06 -5.4632193e-05 -0.0032609543
00000000: 419d 093f 3124 753e af74 8a3e 1716 353f
00000010: b5da 283f cf05 283f e75b f9bc cf12 303f
00000020: dd57 15bf 4b3c 80bf 9ea1 8dbe 4f23 ffbe
00000030: 3e22 cf3e 1d96 c03e 4754 1b3f faab a53d
00000040: 72c2 1a3f 0f63 233f b937 b5be 4094 163e
00000050: b295 ce3e 8ed5 163f 55af 843d 421c 2f3f
00000060: 8a1d f6be c689 35bd 773b 29bf a85c 43bf
00000070: 3f74 89b1 113a c6b5 df24 65b8 bcb5 55bb

bias f4 [8]
0.03888877 0.5073492 0.2512504 0.054021448 -0.20102632 0.38771784 0.14181544 -0.012322461
00000000: d549 1f3d a3e1 013f e4a3 803e 9845 5d3d
00000010: d8d9 4dbe f482 c63e 1138 113e 26e4 49bc

weight f4 [8, 8, 2, 2]
0.41891223 0.3245163 0.19534427 0.02840469 0.24539302 0.14914839 0.1479502 0.1004714
-0.10544789 -0.24033183 -0.2319208 -0.11913632 0.38800386 0.17460586 0.29319707 0.17612766
0.1962412 -0.049961187 0.03235392 -0.042435944 0.21147788 -0.019360991 0.14034902 -0.05247629
-0.32072702 -0.26134574 -0.35215405 -0.3923293 -0.0024500594 -0.0031303992 1.8935656e-05 -0.0021484802
-2.6857196e-25 1.1465928e-16 5.2323334e-25 5.502653e-24 8.096311e-26 -7.4216215e-12 -1.8424876e-11 1.3409783e-22
4.5272175e-23 7.900181e-14 4.7877612e-23 8.335914e-17 -4.1483158e-24 -1.5986356e-20 -4.750059e-23 7.120236e-14
-5.6186366e-23 5.398664e-26 3.159839e-24 -3.1936162e-11 3.934465e-24 9.987619e-14 -4.5086716e-12 7.3300447e-25
-9.464371e-18 -1.8572716e-17 5.3042254e-21 -5.7509045e-12 1.166393e-16 5.4450465e-11 1.4398067e-19 -1.43249e-12
0.037271526 0.0036655902 0.2508111 0.015444827 -0.099941544 -0.035137475 0.15673262 0.0077352556
0.077857904 0.27352405 0.06627159 0.44832307 0.15737237 -0.045028284 0.2154777 -0.1553263
0.4254586 0.29578248 0.21871027 0.20819432 0.16690159 -0.091809236 0.0074481834 -0.22020543
0.27717176 0.3403675 0.19315124 0.39070112 0.0017107155 0.0021115062 0.00071860617 -0.0013379732
0.12086029 0.04627341 0.2538138 0.28381345 0.102367245 0.11235309 0.31043085 0.22545457
-0.21777467 -0.18559326 -0.27648872 -0.39430353 0.3160686 0.16414145 0.104600914 0.1988131
-0.4793123 -0.4314478 -0.5087059 -0.33145705 0.321076 0.32086238 0.32005054 0.24959332
-0.21025144 -0.58792776 -0.26408276 -0.5240746 -0.00033655396 -0.0011344352 0.0001519494 0.0007538725
0.040287703 0.10664284 -0.21299969 -0.2915731 0.100053236 0.10909776 -0.20206383 -0.1418516
0.33202484 0.3754613 0.37129545 0.295352 -0.12360202 0.0786037 -0.2858271 -0.11978596
0.6382948 0.6015507 0.18517978 0.45104527 -0.015902063 0.083473295 0.038018487 -0.17871477
0.1281753 0.25696623 0.19812317 0.46432596 0.0020130086 0.0018224528 0.0016874307 0.002594941
-7.5128764e-07 -2.3439087e-20 -0.00029986436 -5.0754307e-09 -5.9143807e-05 -8.920196e-07 -0.0019055824 -1.6255439e-05
-3.030008e-19 1.2498462e-13 2.1899258e-22 1.5426959e-14 -9.006236e-09 2.6666626e-15 -0.00012971283 -6.023585e-08
6.2325053e-15 -2.0223943e-25 -5.190174e-08 -2.3981856e-14 -5.9875325e-05 -2.3988624e-08 0.0020549896 -2.641176e-06
-1.9911508e-11 7.4054404e-20 -3.1303188e-17 -1.0336045e-19 -1.2926316e-20 -6.3942303e-27 5.1679256e-23 3.3116835e-22
-0.34725028 -0.15280885 0.026479213 0.02039018 -0.10380523 0.055940703 0.0025155302 0.14891343
0.24574445 0.24997482 0.18660185 0.12782864 -0.26231757 -0.29719198 -0.13166535 0.181347
0.17826784 0.56883514 0.44505784 0.41406882 -0.16748306 -0.16660857 -0.03114533 0.010269409
0.29841748 0.38692322 0.25820032 0.32527792 0.005405523 0.006788309 -0.00041921614 0.0045311633
-0.009981941 -0.012035695 -0.009954669 -0.0010889445 0.020466441 -0.018239982 -0.02603384 -0.02269818
-1.4651669e-19 2.137444e-07 4.073793e-05 0.00035003055 -0.008795303 0.0025458138 -0.008271147 -0.0024802044
-0.0032271903 -0.0060708243 -0.0041446392 -0.0031705764 0.015595451 -0.015853813 -0.017105725 -0.018857641
-1.306532e-19 2.806232e-15 3.192608e-08 5.049569e-06 9.71547e-22 2.3861972e-26 7.51766e-25 1.0109895e-13
00000000: aa7b d63e 0027 a63e 5408 483e f4b0 e83c
00000010: 4f48 7b3e 5bba 183e 4280 173e f3c3 cd3d
00000020: 10f5 d7bd 8c19 76be a57c 6dbe befd f3bd
00000030: 71a8 c63e e1cb 323e ed1d 963e cf5a 343e
00000040: 74f3 483e 1aa4 4cbd 8b85 043d 50d1 2dbd
00000050: a88d 583e f19a 9ebc a7b7 0f3e 61f1 56bd
00000060: 5536 a4be 1ccf 85be 894d b4be 63df c8be
00000070: 2d91 20bb 6227 4dbb 03d8 9e37 84cd 0cbb
00000080: ed3c a696 7231 0425 d1ee 2117 a3df d418
00000090: 7874 c815 0390 02ad 2211 a2ad 451d 221b
000000a0: 3dec 5a1a 71e5 b129 9d85 671a 8d36 c024
000000b0: ee7a a098 a3fc 969e e2b2 659a 5e55 a029
000000c0: add9 879a 19aa 8515 0f7b 7418 ec74 0cae
000000d0: 0e35 9818 b4e6 e029 81a2 9eac 99da 6217
000000e0: 3a96 2ea3 964d aba3 5263 c81d 8b57 caac
000000f0: d879 0625 c679 6f2e 7dfb 2920 e49a c9ab
00000100: 07aa 183d 663a 703b 506a 803e 4d0c 7d3c
00000110: 27ae ccbd 50ec 0fbd 847e 203e 0778 fd3b
00000120: f773 9f3d 580b 8c3e 66b9 873d 9a8a e53e
00000130: 3926 213e 946f 38bd 30a6 5c3e dc0d 1fbe
00000140: b6d5 d93e cd70 973e 96f5 5f3e e430 553e
00000150: 40e8 2a3e 7b06 bcbd e40f f43b 887d 61be
00000160: 75e9 8d3e a644 ae3e 70c9 453e fa09 c83e
00000170: 163a e03a 3261 0a3b d860 3c3a ee5e afba
00000180: 9a85 f73d 3089 3d3d e2f3 813e ff4f 913e
00000190: eba5 d13d 6019 e63d cbf0 9e3e 90dd 663e
000001a0: 5300 5fbe 290c 3ebe ee8f 8dbe 27e2 c9be
000001b0: bed3 a13e b214 283e 0139 d63d a995 4b3e
000001c0: 6c68 f5be bae6 dcbe 8d3a 02bf bdb4 a9be
000001d0: 1364 a43e 1348 a43e aadd a33e 6495 7f3e
000001e0: 274c 57be 6f82 16bf db35 87be c129 06bf
000001f0: 8273 b0b9 54b1 94ba 9b54 1f39 879f 453a
00000200: b804 253d 9067 da3d 971c 5abe 1249 95be
00000210: b6e8 cc3d a56e df3d d2e9 4ebe 8c41 11be
00000220: 29ff a93e 773c c03e 701a be3e 6138 973e
00000230: 0e23 fdbd fafa a03d ee57 92be 5752 f5bd
00000240: 4a67 233f 3aff 193f c59f 3d3e 68ef e63e
00000250: 0b45 82bc 0cf4 aa3d 46b9 1b3d 0101 37be
00000260: 6340 033e 1491 833e cde0 4a3e 22bc ed3e
00000270: aeec 033b 5edf ee3a c72c dd3a e30f 2a3b
00000280: 18ac 49b5 3c60 dd9e 1d37 9db9 f663 aeb1
00000290: 2e11 78b8 1f73 6fb5 bcc4 f9ba 4a5c 88b7
000002a0: 30dc b2a0 5db8 0c2a 765f 841b 25f4 8a28
000002b0: d8b9 1ab2 3e27 4027 8603 08b9 025b 81b3
000002c0: b78c e027 3c5c 7a96 91ea 5eb3 6502 d8a8
000002d0: a422 7bb8 8b0f ceb2 01ad 063b 0f3f 31b6
000002e0: bb24 afad 24db ae1f 485c 10a4 8f0d f49f
000002f0: d42b 749e 334d fd93 d2e7 791a d22d c81b
00000300: caca b1be ec79 1cbe efea d83c 4f09 a73c
00000310: d697 d4bd 1422 653d 98db 243b c37c 183e
00000320: 6fa4 7b3e 66f9 7f3e 8e14 3f3e 83e5 023e
00000330: 7d4e 86be 8c29 98be 48d3 06be 07b3 393e
00000340: d88b 363e 2e9f 113f 9fde e33e d400 d43e
00000350: ae80 2bbe 709b 2abe 7e24 ffbc 0641 283c
00000360: 2dca 983e cd1a c63e d532 843e d48a a63e
00000370: d020 b13b 7770 de3b 3dca dbb9 277a 943b
00000380: 4c8b 23bc 5d31 45bc e818 23bc eaba 8eba
00000390: 3da9 a73c 046c 95bc eb44 d5bc 89f1 b9bc
000003a0: f4f9 2ca0 9d81 6534 05de 2a38 4e84 b739
000003b0: 2d1a 10bc abd7 263b b483 07bc ed8a 22bb
000003c0: 457f 53bb c4ed c6bb c1cf 87bb 72c9 4fbb
000003d0: 1084 7f3c dbdf 81bc 4e21 8cbc 577b 9abc
000003e0: 823f 1aa0 d835 4a27 191f 0933 786f a936
000003f0: e7d0 921c 4951 ec14 0aa9 6817 94a7 e329

bias f4 [8]
-0.021920208 -4.8999074e-20 -0.04444728 -0.07389905 0.21045147 -0.00045397977 0.2265695 -0.022955326
00000000: 0292 b3bc 3f64 679f 5a0e 36bd 6358 97bd
00000010: 9780 573e 2204 eeb9 d601 683e cf0c bcbc

weight f4 [8, 8, 2, 2]
0.3106223 -0.05551059 -0.112250194 -0.16858721 3.9267943e-26 -2.0264655e-19 8.059933e-25 -1.073576e-11
-0.14748515 0.2945707 -0.084194414 0.5755926 0.3091408 -0.14306939 0.024322934 -0.016239198
-0.32644945 -0.19078511 0.041630786 0.25449404 -4.9825576e-26 -5.2985542e-20 8.013306e-24 -6.452335e-20
-0.29523364 -0.3696106 0.07090588 -0.018119527 0.002752084 0.0027710039 0.0012905275 -3.7587593e-05
0.102712795 -0.19323622 0.0586454 0.2817592 3.9707013e-25 1.2756156e-18 -3.003737e-24 3.236824e-25
0.038701385 -0.2060677 -0.06329226 0.06638664 -0.16377698 0.07791614 0.22454293 0.30034962
-0.2587392 -0.10870169 -0.6903101 -0.6243434 -5.7605834e-26 -4.0039605e-21 -1.2353451e-19 -8.680721e-14
0.06519011 0.11157013 -0.15875305 -0.31157574 -7.42584e-08 -1.3336359e-05 2.2783099e-05 -0.0006818777
-0.027679682 -0.018302606 -0.026502475 -0.018155027 8.754672e-16 5.355852e-24 5.5188743e-25 -2.7544984e-25
-0.010030091 -0.012376653 -0.009318277 -0.012929787 0.013340142 -0.030699203 -0.011934633 -0.021788534
-9.1539425e-09 2.695332e-05 -0.005184194 -0.003502233 8.111258e-24 -2.941752e-23 -4.3856458e-21 5.9892174e-20
-0.0013633223 0.0002754026 -1.922021e-06 4.8145944e-06 5.4130546e-25 7.171694e-26 -1.0704822e-17 2.6889724e-25
-0.5779128 -0.26741722 0.08723834 0.019405073 -2.265851e-23 -2.6556995e-25 -3.480635e-11 -2.6207797e-24
0.19809926 0.29762688 0.17482427 -0.018109595 -0.43509883 -0.0843135 0.23070055 0.10660678
0.15034087 0.2590709 0.37539774 0.31228393 -6.550048e-25 -1.3865841e-19 1.225431e-15 6.8434265e-11
0.38134572 0.5501241 0.20656309 0.35454327 0.00085289695 0.004974482 -9.98691e-19 4.7624277e-07
-9.569616e-23 8.521386e-25 1.3807224e-15 -9.1737296e-20 1.1463181e-19 -6.190844e-16 -7.992572e-23 2.550314e-13
1.3422506e-18 1.1000372e-16 -9.133153e-14 3.3425404e-10 1.6117589e-21 1.214665e-16 -5.034419e-12 -1.3639215e-12
2.7233788e-14 2.5265775e-14 -2.5946422e-11 9.827705e-19 7.56684e-27 2.1929367e-18 5.1781407e-25 7.621174e-23
6.6319156e-18 5.2687055e-10 -5.2732628e-18 4.9229773e-19 1.339013e-23 1.0083634e-17 4.4597317e-23 9.214946e-25
0.012871877 -0.006463116 -0.0154485535 -0.008294664 2.3536813e-11 -2.0758218e-11 1.3002629e-19 -3.410494e-23
2.025731e-15 1.8603096e-06 1.0368085e-05 -9.969512e-05 -0.014563503 -0.0112570515 -0.0069473274 -0.0012604195
3.3318429e-10 -5.44701e-13 0.0002839339 -0.002349403 2.4296202e-11 6.041489e-24 -5.407001e-19 3.957299e-18
-4.287465e-14 -1.6711407e-09 -7.3199967e-06 -0.00047195586 5.778624e-19 7.272226e-24 3.8102494e-24 -2.630234e-24
-4.445899e-21 3.1253576e-15 -4.818183e-22 7.789716e-21 -1.4852939e-25 -1.8465344e-19 8.6531335e-16 -3.555523e-14
-2.7288921e-14 1.2998992e-16 2.134648e-15 -9.6554006e-23 -0.0031496445 -0.004636319 -0.028014764 -0.004862114
-0.022261556 -0.011474546 0.05493339 -0.006614955 -8.812573e-12 1.2024856e-25 -6.151209e-19 2.099581e-23
-0.0054897442 -0.0053158016 -0.006215967 0.03431499 -3.873863e-18 -1.00849876e-25 -5.743348e-23 -3.7136665e-14
0.060300924 0.031671695 -0.086284965 -0.036584653 7.716008e-22 2.1348312e-25 2.029498e-14 -4.929492e-18
-0.3601616 -0.45770308 -0.24607667 -0.27041525 0.09163223 0.13557492 0.2358312 0.30872548
-0.046275374 -0.12438602 -0.3887793 -0.5128769 1.1403768e-15 1.2000916e-19 -4.541357e-19 2.2124414e-20
-0.095434 -0.16715941 0.05416154 -0.28051242 0.00014281925 -4.363658e-07 -0.003937309 -0.011959236
00000000: e309 9f3e 135f 63bd 6ee3 e5bd 20a2 2cbe
00000010: 0872 4215 293e 6fa0 5e71 7917 91dd 3cad
00000020: 5906 17be f9d1 963e 1f6e acbd 095a 133f
00000030: b447 9e3e c880 12be e440 c73c 1108 85bc
00000040: 6224 a7be 2c5d 43be 0b85 2a3d 0b4d 823e
00000050: 6cb9 7695 9737 7a9f f8ff 1a19 f959 989f
00000060: dd28 97be 9a3d bdbe 1a37 913d 676f 94bc
00000070: 4f5c 343b bb99 353b eb26 a93a 5fa7 1db8
00000080: 165b d23d b7df 45be 2936 703d be42 903e
00000090: 46c6 f516 653f bc21 2467 6898 8659 c816
000000a0: 5885 1e3d 6903 53be 5f9f 81bd b8f5 873d
000000b0: 27b5 27be 7f92 9f3d 95ee 653e 6dc7 993e
000000c0: 7779 84be fe9e debd 2ab8 30bf f8d4 1fbf
000000d0: 09a0 8e95 ee43 979d 04d8 11a0 f378 c3a9
000000e0: 6482 853d e17e e43d 2990 22be db86 9fbe
000000f0: fd77 9fb3 3abf 5fb7 551e bf37 0ac0 32ba
00000100: 80c0 e2bc 59ef 95bc b81b d9bc dab9 94bc
00000110: 1456 7c26 ca31 cf18 07cd 2a17 c57e aa96
00000120: 4055 24bc 72c7 4abc b0ab 18bc 75d7 53bc
00000130: 9c90 5a3c e57c fbbc 7b89 43bc de7d b2bc
00000140: 7743 1db2 d019 e237 2ce0 a9bb b885 65bb
00000150: 01e5 1c19 2041 0e9a 5daf a59d 996a 8d1f
00000160: 81b1 b2ba e963 9039 12fc 00b6 0d8d a136
00000170: a386 2717 0390 b115 1878 45a3 7870 a616
00000180: 18f2 13bf e9ea 88be 04aa b23d 63f7 9e3c
00000190: c123 db99 3d61 a496 7714 19ae e4c5 4a98
000001a0: 88da 4a3e 8d62 983e 2205 333e 935a 94bc
000001b0: 46c5 debe 8eac acbd c43c 6c3e a854 da3d
000001c0: f5f2 193e f1a4 843e 2234 c03e aee3 9f3e
000001d0: d4b6 4a97 efb2 23a0 6d9a b026 117d 962e
000001e0: bf3f c33e efd4 0c3f 4685 533e b286 b53e
000001f0: f294 5f3a fb00 a33b 7b61 93a1 4fae ff34
00000200: 0e61 e79a b0dc 8317 aafb c626 cb9b d89f
00000210: 5755 0720 5e70 32a6 a03f c19a e691 8f2a
00000220: cb14 c621 bca6 fd24 0ba9 cda9 13c2 b72f
00000230: e78f f31c 950a 0c25 0422 b1ac 73f4 bfab
00000240: d74c f528 e992 e328 263a e4ad 0508 9121
00000250: 70e0 1514 67cf 2122 7541 2017 c844 b81a
00000260: acac f422 38d3 1030 8f8c c2a2 f74c 1121
00000270: 5b80 8119 9d02 3a23 cea8 571a 2998 8e17
00000280: 91e4 523c 8cc8 d3bb ee1b 7dbc 58e6 07bc
00000290: 3108 cf2d 5a97 b6ad 0982 1920 dfeb 249a
000002a0: 24f8 1127 c0af f935 96f2 2d37 6913 d1b8
000002b0: c29b 6ebc 7f6f 38bc 68a6 e3bb a934 a5ba
000002c0: 852b b72f d851 19ab f7dc 9439 71f8 19bb
000002d0: 2fb6 d52d 02b8 e918 2596 1fa1 a2ff 9122
000002e0: 1b17 41a9 09ae e5b0 4b9e f5b6 d870 f7b9
000002f0: 0c8e 2a21 52aa 0c19 e266 9318 2781 4b98
00000300: 19f6 a79d ac34 6127 e39e 119c c124 131e
00000310: d8de 3796 1400 5aa0 db68 7926 6420 20a9
00000320: f8cb f5a8 41de 1525 4ed1 1927 0974 e99a
00000330: 446a 4ebb 43ec 97bb 387f e5bc 5e52 9fbb
00000340: de5d b6bc bcff 3bbc d601 613d 44c2 d8bb
00000350: 4d08 1bad 4adc 1416 398d 35a1 1c0f cb19
00000360: 50e3 b3bb 2d30 aebb 4faf cbbb e08d 0c3d
00000370: 9aeb 8ea2 34b1 f995 9add 8a9a a93f 27a9
00000380: 1afe 763d 2eba 013d 2cb6 b0bd cad9 15bd
00000390: b833 691c c023 8416 0acd b628 bcdd b5a2
000003a0: 1a67 b8be 0f58 eabe 86fb 7bbe de73 8abe
000003b0: aea9 bb3d 27d4 0a3e bc7d 713e 4411 9e3e
000003c0: 3f8b 3dbd 19be febd 150e c7be e74b 03bf
000003d0: 7a58 a426 8bae 0d20 8609 06a1 8df5 d01e
000003e0: e772 c3bd d62b 2bbe 7ed8 5d3d 539f 8fbe
000003f0: c0c1 1539 a945 eab4 8b04 81bb acf0 43bc

bias f4 [8]
0.16216333 -0.15872076 -0.05484349 0.24164829 -4.4956428e-07 -0.014885162 -0.039545543 0.18713564
00000000: 250e 263e b287 22be 91a3 60bd a672 773e
00000010: a55b f1b4 e5e0 73bc 82fa 21bd 7ca0 3f3e

weight f4 [128, 8]
-0.0052586547 0.015233381 -0.0044209184 0.6304404 4.5123818e-24 0.00078391546 -0.00017269509 0.046766367
-0.34909698 0.26975688 -0.00020220646 0.5125016 -3.9114138e-07 1.1780983e-20 -9.1792464e-17 -0.00409571
-0.0014243091 -0.0070384326 -2.4534052e-06 0.0231003 -9.6031696e-14 0.00031144932 4.813314e-06 -0.004468213
-0.06308575 -0.023210198 -0.035803117 0.6393481 -1.0357895e-06 2.8541738e-10 2.1082993e-09 -0.10119633
0.114689946 -0.26309347 0.004513898 -0.33611962 9.167887e-06 -1.1496926e-15 -5.054746e-09 0.39218324
0.8700473 0.47206223 6.439018e-05 0.08812056 4.191007e-11 -3.1871308e-20 1.1734727e-15 0.5478943
-0.38288793 0.25308657 -0.00014518874 0.36987796 -6.4729834e-25 9.290718e-19 -4.8668056e-18 -0.005831938
4.813935e-17 -9.6100755e-24 6.049606e-10 6.2949533e-07 2.295958e-10 7.678678e-05 2.8270686e-06 -2.5558862e-07
0.17428249 -0.17638913 -1.0265866e-13 -0.28806508 1.0882015e-18 7.41121e-12 -8.424839e-16 -0.074641965
-0.36551905 -0.01890261 0.005486326 0.70876765 0.00010652665 -0.00029363317 -1.4356763e-17 0.4007975
-0.66214544 0.45718014 -0.0019950338 0.6535979 3.3334132e-22 -5.672635e-06 4.858133e-05 -0.17065407
-0.046533145 0.13010807 0.0055452418 -0.440441 -1.3966782e-15 2.0160929e-19 1.138102e-06 0.1290132
-2.996736e-06 -5.283652e-09 4.7798378e-05 -0.00017800348 -1.6696088e-20 -2.0056194e-05 -6.2024934e-05 3.2106391e-21
-0.44113702 0.079259984 0.006458986 0.09010337 1.1434306e-05 -8.096512e-05 7.1996237e-20 0.32249036
-0.19576864 0.086393796 0.018651187 0.40639585 -1.1638769e-24 -1.10281576e-07 1.9055178e-06 -0.07675555
-0.0001412348 -1.1363878e-22 0.00015524155 -4.551877e-08 0.00010613421 6.342642e-12 -9.312747e-05 4.15646e-23
-0.25819114 0.06746577 2.2852846e-05 -0.36817673 -2.9240163e-17 -1.2716608e-21 2.3829326e-12 0.22136289
0.0016515054 -0.0017307595 8.974343e-24 -6.6085086e-06 -2.7235153e-06 -3.5345605e-21 -3.6780497e-07 -0.0026259995
0.1124263 0.051298365 -0.004358013 0.41328597 -3.1096126e-24 6.102428e-16 -1.2505598e-06 -0.17303014
-0.16075084 0.07272759 0.0066784127 -0.50211686 -4.301992e-25 -9.964759e-19 -5.2420944e-07 0.25456497
-4.4345653e-25 -3.7845342e-07 -1.57679e-09 -1.7818003e-07 -7.070627e-05 -1.2336679e-18 -8.568966e-09 -5.6797026e-06
0.026771938 0.039819043 0.027629143 -0.43933958 -0.00053690857 -6.897329e-05 0.00039107352 0.19315867
-0.21616268 -0.077633984 -0.002902967 0.6539694 -1.992497e-06 9.264127e-17 0.0006585131 0.23677325
1.5467786e-20 -5.046433e-09 -1.4431872e-05 -7.882794e-06 -6.0493646e-25 -5.6699125e-09 1.4173483e-24 -1.186612e-07
0.15205172 -0.1852758 0.0012415497 -0.059471443 -4.7506478e-24 5.2304783e-14 1.0591485e-18 -0.075530425
0.103305906 0.057174753 0.007459489 -0.19064412 2.743586e-06 -1.05348384e-07 -4.3993047e-12 0.39821398
0.587907 -0.20102023 -0.0012003359 0.39421195 -8.371087e-06 2.6487515e-07 -3.606841e-14 0.05972922
-0.48716056 0.08557627 -0.004431139 0.34990916 1.3732189e-07 2.6177438e-06 2.7147373e-10 -0.038802475
5.4687484e-06 -1.4923586e-09 -3.893098e-16 -1.04629944e-10 -0.00046208015 -2.0796499e-05 -1.9502609e-07 -1.7990764e-07
-0.02564152 0.12839723 0.030786132 -0.50604767 -2.149415e-08 3.8929857e-23 1.5523622e-06 0.05842872
-0.14752312 0.14250773 0.0047293357 0.4172479 -1.4315501e-18 3.0539208e-20 -3.8745818e-14 0.0009347012
-0.00030638522 6.177973e-22 4.8343006e-23 6.9438816e-26 1.35270586e-14 0.0001982681 4.3596753e-25 2.4086677e-19
00000000: cb50 acbb 6e95 793c 5add 90bb 8b64 213f
00000010: 7790 ae18 ad7f 4d3a 7c15 35b9 178e 3f3d
00000020: d7bc b2be 931d 8a3e 6207 54b9 4e33 033f
00000030: 10fe d1b4 5789 5e1e b5a8 d3a4 4e35 86bb
00000040: e2af baba a7a2 e6bb 2ea5 24b6 d73c bd3c
00000050: 813e d8a9 054a a339 0d82 a136 166a 92bb
00000060: 1a33 81bd 5023 bebc 4aa6 12bd 51ac 233f
00000070: 7505 8bb5 ede8 9c2f 98e1 1031 0540 cfbd
00000080: 90e2 ea3d 30b4 86be 52e9 933b df17 acbe
00000090: c6cf 1937 2cb0 a5a6 04ae adb1 3ecc c83e
000000a0: 6bbb 5e3f 24b2 f13e 3709 8738 8d78 b43d
000000b0: 8b52 382e 0c82 169f 801d a926 cd42 0c3f
000000c0: e309 c4be 9094 813e ce3d 18b9 a560 bd3e
000000d0: 4254 4897 571b 8921 ae8d b3a2 d719 bfbb
000000e0: ea00 5e24 cae2 3999 514a 2630 97fa 2835
000000f0: 7971 7c2f 9708 a138 abb8 3d36 d537 89b4
00000100: 1c77 323e 5a9f 34be b02a e7a9 447d 93be
00000110: 1797 a021 1f61 022d 57d4 72a6 e3dd 98bd
00000120: 5025 bbbe a5d9 9abc a3c6 b33b cc71 353f
00000130: 0f67 df38 c7f2 99b9 f36a 84a3 5435 cd3e
00000140: 5d82 29bf 8413 ea3e 1dbf 02bb 3152 273f
00000150: 127e c91b 9057 beb6 cec3 4b38 f1bf 2ebe
00000160: 8a99 3ebd 0d3b 053e dcb4 b53b 7c81 e1be
00000170: 5548 c9a6 ab04 6e20 e3c0 9835 091c 043e
00000180: 881b 49b6 7f8b b5b1 1e7b 4838 72a6 3ab9
00000190: aab0 9d9e 593e a8b7 6213 82b8 cb96 721d
000001a0: b6dc e1be 0f53 a23d e7a5 d33b 1e88 b83d
000001b0: f8d5 3f37 d1cb a9b8 0eff a91f 751d a53e
000001c0: 9377 48be 3bef b03d 60ca 983c 1e13 d03e
000001d0: ea19 b497 f0d3 ecb3 18c1 ff35 0432 9dbd
000001e0: 6e18 14b9 8061 099b 56c8 2239 6b80 43b3
000001f0: 5f94 de38 7129 df2c 6e4d c3b8 7cfe 481a
00000200: a131 84be 7e2b 8a3d 1db4 bf37 a981 bcbe
00000210: b1d8 06a4 ff2a c09c 19af 272c f4ac 623e
00000220: 5377 d83a a7da e2ba cb96 2d19 a8be ddb6
00000230: a3c5 36b6 2c88 859d bb76 c5b4 f618 2cbb
00000240: c33f e63d 3c1e 523d aacd 8ebb 389a d33e
00000250: 3998 7098 f9e3 2f26 e8d8 a7b5 d02e 31be
00000260: de9b 24be 34f2 943d 96d6 da3b bb8a 00bf
00000270: e423 0597 cc0d 93a1 66b7 0cb5 5756 823e
00000280: 3f3e 0997 3e2e cbb4 5eb6 d8b0 c151 3fb4
00000290: 2448 94b8 a80e b6a1 b636 13b2 4694 beb6
000002a0: d350 db3c 4b19 233d 8356 e23c 1ef1 e0be
000002b0: 53bf 0cba c1a5 90b8 0009 cd39 63cb 453e
000002c0: c059 5dbe 91fe 9ebd b43f 3ebb 8a6a 273f
000002d0: d6b6 05b6 c19d d524 11a0 2c3a b074 723e
000002e0: d016 921e e564 adb1 6b20 72b7 5840 04b7
000002f0: 0138 3b97 14d1 c2b1 f352 db17 afd2 feb3
00000300: 72b3 1b3e f0b8 3dbe 7fbb a23a 5498 73bd
00000310: 23c8 b798 4f8f 6b29 804d 9c21 b2af 9abd
00000320: 0c92 d33d 1330 6a3d bb6e f43b 3638 43be
00000330: 731e 3836 e33b e2b3 6ac9 9aac b4e2 cb3e
00000340: 1381 163f 3fd8 4dbe 9754 9dba 26d6 c93e
00000350: 8b71 0cb7 2a34 8e34 0c70 22a9 a0a6 743d
00000360: 1c6d f9be 9d42 af3d 1733 91bb 4b27 b33e
00000370: c172 1334 7fac 2f36 883e 952f 58ef 1ebd
00000380: 3180 b736 b31b cdb0 fc6b e0a5 6c15 e6ae
00000390: 5943 f2b9 2474 aeb7 5d68 51b4 a32c 41b4
000003a0: 2a0e d2bc 907a 033e 3333 fc3c 578c 01bf
000003b0: 23a2 b8b2 d440 3c1a c25a d035 f452 6f3d
000003c0: 4d10 17be 8ced 113e 8bf8 9a3b 84a1 d53e
000003d0: 6f42 d3a1 a337 101f e37e 2ea9 bc06 753a
000003e0: 54a2 a0b9 c0b7 3a1c bec5 691a 14ec ab15
000003f0: 8cae 7328 30e6 4f39 e8ec 0617 c22e 8e20

bias f4 [128]
-0.097702175 -0.10325454 -0.051513653 0.32331392 0.041364625 0.309326 0.20432565 -0.0018107696
0.23118533 0.26381126 0.07280482 0.18221684 -1.2555752e-07 -0.16612566 0.17099981 -4.2001693e-16
0.38905984 -0.0038405596 0.2161146 0.023649545 -1.3313485e-05 0.017618045 0.016145257 -0.00012117349
0.5115798 0.07156461 0.3079866 0.18529633 -0.00013357114 0.07791769 -0.06719947 -1.0537292e-06
-0.3404217 0.013073756 0.41315216 0.13245168 -0.00039916113 -0.120408714 -7.432134e-10 -0.14665881
-0.00023100397 0.09478095 0.23503865 -0.2895285 0.34520087 0.16232273 0.22987801 -0.067067444
0.25172737 -6.317132e-17 -0.22531185 -7.615686e-05 -0.07470928 0.40056086 0.34192535 0.4751724
-0.24237147 0.3945272 -0.001819735 0.21007653 0.14887689 0.4028263 0.1487267 0.39200792
-0.09281191 -0.0068173916 -0.02502169 -2.2607015e-05 0.4124196 0.23310572 9.015229e-14 -0.00064195885
0.06800222 0.086759605 0.078947425 -0.096139304 -0.0007757582 0.15472656 0.08964018 0.14554353
-0.22425835 0.30398333 0.14717574 0.11213082 0.12129586 0.29083788 0.402193 0.026528122
-0.052847333 0.40484318 -5.038793e-05 0.031267446 -0.004006154 -0.13585989 -6.684152e-10 0.18800205
0.07792217 -0.06412709 0.2687955 0.38434005 -1.043945e-05 -0.056445144 -0.11351394 0.012184144
0.41072276 -0.00071513053 -5.099383e-06 -0.0004967012 0.31767997 0.3887653 6.0585506e-20 0.43107888
0.096971855 -0.086976744 0.3034127 -0.22598606 -0.10701633 -0.09507972 -0.04812973 0.25220236
7.1791827e-19 -0.011937934 0.084858336 0.48767632 0.1618058 0.1960417 0.018307721 0.15280965
00000000: 1418 c8bd 1e77 d3bd fbff 52bd 6789 a53e
00000010: f46d 293d fa5f 9e3e be3a 513e 5857 edba
00000020: d9bb 6c3e 4512 873e b21a 953d 0d97 3a3e
00000030: fdd0 06b4 d81c 2abe 931a 2f3e 8f1f f2a5
00000040: da32 c73e e6b1 7bbb 254d 5d3e b1bc c13c
00000050: fc5c 5fb7 b853 903c 0f43 843c 861e feb8
00000060: e5f6 023f 7790 923d 6bb0 9d3e 52be 3d3e
00000070: 3b0f 0cb9 4f93 9f3d e09f 89bd dc6d 8db5
00000080: c14b aebe 4f33 563c ae88 d33e 6aa1 073e
00000090: 8046 d1b9 d898 f6bd fe4a 4cb0 ba2d 16be
000000a0: a839 72b9 841c c23d f9ad 703e 143d 94be
000000b0: 2bbe b03e ee37 263e 2465 6b3e a85a 89bd
000000c0: 69e2 803e c4a9 91a4 26b8 66be 67b6 9fb8
000000d0: 2e01 99bd 5016 cd3e d710 af3e cc49 f33e
000000e0: 3a30 78be 78ff c93e 2d84 eeba 4d1e 573e
000000f0: 2f73 183e 403f ce3e d04b 183e 43b5 c83e
00000100: 2c14 bebd 6d64 dfbb 4afa ccbc 32a4 bdb7
00000110: a928 d33e 44b3 6e3e 4201 cb29 2149 28ba
00000120: bf44 8b3d 05af b13d 30af a13d afe4 c4bd
00000130: 405c 4bba a470 1e3e 4595 b73d 5d09 153e
00000140: fba3 65be b4a3 9b3e 3db5 163e d8a4 e53d
00000150: f769 f83d b4e8 943e 3eec cd3e 8151 d93c
00000160: 7276 58bd 9b47 cf3e a157 53b8 4b12 003d
00000170: 0e46 83bb db1e 0bbe 8abb 37b0 9c83 403e
00000180: a995 9f3d 1055 83bd 909f 893e 38c8 c43e
00000190: 1925 2fb7 0633 67bd ff79 e8bd 01a0 473c
000001a0: 414a d23e 9977 3bba 5e1b abb6 0e35 02ba
000001b0: f3a6 a23e 3f0c c73e b10d 8f1f 5fb6 dc3e
000001c0: 2e99 c63d dd20 b2bd e958 9b3e e468 67be
000001d0: 612b dbbd 28b9 c2bd ae23 45bd ab20 813e
000001e0: 5fe4 5321 5397 43bc 35ca ad3d b6b0 f93e
000001f0: 6bb0 253e 28bf 483e 13fa 953c 227a 1c3e

weight f4 [64, 128]
0.004059088 1.0850733e-24 -6.2718914e-25 -0.002899768 -0.0359558 -0.013713495 0.07388163 5.5481345e-24
-0.0547206 0.02495157 -0.02123891 8.7773016e-16 -1.9866901e-25 2.7715156e-25 0.04153834 9.273001e-25
0.020999162 9.711735e-24 0.031865746 9.8529914e-23 -1.9459467e-24 -8.1194754e-26 -0.009608686 -9.52813e-25
-0.015447535 -0.011988628 0.03156491 -1.5413883e-23 8.184641e-29 -1.5398557e-23 1.0944872e-22 6.633747e-27
-6.4836586e-25 0.05295396 0.01575105 0.0037892184 -2.7308156e-24 1.1839028e-24 1.0326137e-24 4.0590276e-25
1.301202e-24 0.012204199 -0.06279236 2.463218e-24 -0.054325353 0.023191782 -0.030853262 -1.5543212e-25
-0.029733436 7.681475e-25 2.5338654e-24 -3.6012875e-26 0.007077186 0.03073558 0.0055122143 -0.0022052815
-2.2408826e-23 -0.06591293 8.980228e-25 9.448755e-24 -0.05428801 -0.046866164 5.1912377e-25 0.0035011298
-8.65728e-26 -1.7379667e-24 -2.8502365e-25 -8.601273e-25 0.08183608 0.03509893 -1.10603545e-23 8.3836606e-26
-0.007675157 -2.4920757e-26 -0.0009227981 2.296949e-24 -9.3230504e-23 -0.013837437 -0.011065522 -6.57576e-05
3.664729e-24 -0.07091096 -0.04318331 -0.013125657 -0.101467595 -0.04462794 -0.044937644 -6.871003e-24
5.94446e-25 0.049689736 -1.9086342e-25 -1.3646972e-23 -4.840635e-24 2.6134575e-24 -1.2677551e-24 0.015005246
-0.02157598 5.308407e-24 0.04134164 -0.081132196 -1.4814692e-25 5.6734324e-25 -1.8010807e-24 -2.7256754e-24
-0.03099348 9.764758e-24 -4.81379e-25 1.1592464e-24 -0.014027465 -0.029855488 -4.53068e-24 -0.061994366
0.0075866263 -6.3224095e-26 0.016842239 -8.246504e-24 1.5598941e-24 -4.824576e-26 9.110271e-25 -0.07170086
-3.8291478e-24 -5.293036e-25 -0.010729019 0.0035148596 0.043126464 -0.051324233 2.08689e-25 -0.020525716
-6.3187105e-07 1.4371376e-14 -5.9506798e-27 -0.0001774881 3.832207e-25 -2.1892012e-05 -7.258925e-06 -5.829686e-25
3.5949137e-24 -0.00018324681 -7.1032926e-05 -8.5286356e-24 1.585842e-22 6.975441e-27 -8.631446e-06 1.174394e-24
-2.7374256e-22 -1.0070013e-23 -1.35695145e-05 -3.8398667e-25 -1.7638812e-24 -1.37490725e-24 -1.674238e-05 -3.8770202e-24
-4.4673176e-10 -5.91773e-26 -1.4750248e-05 -6.789604e-07 4.8407266e-25 -1.4638881e-24 9.077093e-15 2.4820594e-25
-2.383344e-24 1.2597253e-15 -3.426496e-06 -8.254559e-05 7.860628e-25 -6.2762493e-25 -2.785477e-24 1.1500433e-26
-9.305846e-25 -4.4145618e-05 2.3273596e-24 2.5973778e-25 -5.9087015e-06 -8.2074274e-14 1.7985363e-23 -3.6065453e-10
-0.00019253223 1.7522876e-25 -5.491955e-24 -3.9647777e-25 1.219966e-22 -0.0001607162 -2.679922e-26 -1.8640836e-07
-1.3089583e-23 -1.3449927e-08 7.9957147e-25 -3.563203e-08 -1.510036e-06 -4.7695755e-18 -3.191846e-24 -4.4688663e-06
-2.0611988e-11 -2.562064e-25 8.070688e-19 1.0801576e-23 -4.3874097e-06 -1.4453958e-26 -2.5875967e-24 -2.8605992e-25
2.2208047e-25 -3.6180652e-25 -6.1523245e-11 5.5880187e-27 6.337927e-24 -9.003621e-25 -5.74702e-05 -6.0510266e-26
-2.0505307e-24 -6.898696e-05 -1.0585056e-06 1.2634745e-23 -1.2473136e-23 -3.0580371e-12 -2.0199833e-18 8.914802e-25
-2.3344387e-07 -8.410444e-06 7.313714e-24 -2.1601727e-23 2.0268509e-25 2.1975715e-25 -5.8295172e-24 -3.780365e-06
-1.2503069e-05 -1.8410095e-23 -1.3066936e-07 3.4917895e-24 -9.841126e-23 -1.9180185e-08 -1.6301517e-25 -8.34758e-23
-0.00030400997 -9.085685e-24 6.4033085e-26 -5.2724885e-23 -0.00014050122 -7.1536412e-09 -2.4723835e-25 -1.0779315e-21
-2.0890928e-25 -5.9331137e-07 -5.3883423e-06 -1.0200172e-24 -3.0325943e-25 -6.740339e-10 -1.7117902e-07 -1.7105756e-05
-2.653632e-25 -3.1656833e-25 -1.559234e-06 -3.5106272e-21 8.751333e-25 -1.863065e-05 1.4136634e-27 -4.3787233e-05
00000000: 1902 853b 2fe8 a717 0b1b 4297 090a 3ebb
00000010: 6446 13bd 91ae 60bc 414f 973d 10a2 d618
00000020: b522 60bd 3c67 cc3c 39fd adbc 0efd 7c26
00000030: b9f0 7596 6b8c ab16 1b24 2a3d 247e 8f17
00000040: 6f06 ac3c 2fda 3b19 a885 023d 103b ee1a
00000050: 728f 1698 4a07 c995 c06d 1dbc d070 9397
00000060: a817 7dbc f36b 44bc 354a 013d ed12 9599
00000070: 5b81 cf10 fbec 9499 bd50 041b 1865 0314
00000080: d6a8 4897 40e6 583d 5908 813c 8954 783b
00000090: 6049 5398 3933 b717 0bca 9f17 dc3d fb16
000000a0: ec59 c917 1ff4 473c 4899 80bd 0f95 3e18
000000b0: 4384 5ebd b1fc bd3c fbbf fcbc 686a 4096
000000c0: 8993 f3bc eaba 6d17 600c 4418 be53 3295
000000d0: bde7 e73b 2fc9 fb3c ce9f b43b 7c86 10bb
000000e0: 91b9 d899 5cfd 86bd 59f6 8a17 f8c3 3619
000000f0: 1b5d 5ebd bcf6 3fbd 39a9 2017 3673 653b
00000100: 0858 d695 fa77 0698 cd6b b096 2719 8597
00000110: ad99 a73d e5c3 0f3d 39f0 5599 c391 cf15
00000120: e27f fbbb a0cd f694 efe7 71ba c3b7 3118
00000130: e36a e19a 6bb6 62bc 2a4c 35bc 58e7 89b8
00000140: b8c5 8d18 c439 91bd fce0 30bd ff0c 57bc
00000150: 3ece cfbd c9cb 36bd 8910 38bd 8fe7 0499
00000160: ddf8 3717 7787 4b3d 0847 6c96 44fc 8399
00000170: 5443 bb98 dc34 4a18 f42c c497 90d8 753c
00000180: 1cc0 b0bc eb5b cd18 da55 293d a328 a6bd
00000190: a265 3796 9095 2f17 145a 0b98 90e3 5298
000001a0: 0ae6 fdbc bde0 3c19 c6fa 1497 7b62 b317
000001b0: 74d3 65bc 7f93 f4bc ae45 af98 ceed 7dbd
000001c0: 3c99 f83b 0889 9c95 bcf8 893c b682 1f99
000001d0: c661 f117 c4e6 6e95 80f9 8c17 e7d7 92bd
000001e0: 0b22 9498 c0cf 2397 c4c8 2fbc 8f59 663b
000001f0: 60a5 303d 5c39 52bd 182c 8116 8c25 a8bc
00000200: d99d 29b5 2372 8128 10bb eb93 191c 3ab9
00000210: be33 ed16 bda4 b7b7 b191 f3b6 886b 3497
00000220: 4d12 8b18 f125 40b9 83f7 94b8 c2f7 2499
00000230: 6fb7 3f1b b029 0a14 c7cf 10b7 8aba b517
00000240: 9c77 a59b 4ac8 4299 9fa8 63b7 1ead ed96
00000250: 4479 0898 b0c1 d497 fd71 8cb7 26fc 9598
00000260: e897 f5af 1284 9295 d577 77b7 ce41 36b5
00000270: 30d0 1517 9586 e297 b484 2328 cda1 9916
00000280: fe66 3898 a98b b526 c1f2 65b6 541c adb8
00000290: 5046 7317 923d 4297 0e84 5798 20ca 6314
000002a0: 4100 9097 ff28 39b8 1b12 3418 18c5 a016
000002b0: 5c43 c6b6 99d0 b8a9 9af1 ad19 9d45 c6af
000002c0: 7ae2 49b9 36ec 5816 b075 d498 6968 f596
000002d0: 1e7c 131b ed85 28b9 0cb4 0495 8a27 48b4
000002e0: 7a30 7d99 6811 67b2 9474 7717 d509 19b3
000002f0: 71ac cab5 5ef7 afa2 06f5 7698 45f3 95b6
00000300: 124e b5ad 8695 9e96 6534 6e21 d0ee 5019
00000310: 9037 93b6 2325 8f94 a234 4898 0110 b196
00000320: 0e76 8916 88f2 df96 824a 87ae 3e5d dd13
00000330: ca2f f518 0453 8b97 280c 71b8 f0d0 9595
00000340: f2a6 1e98 18ad 90b8 fa11 8eb5 3a64 7419
00000350: fa43 7199 b330 57ac 680c 15a2 2bf3 8917
00000360: 90a8 7ab4 951a 0db7 c277 0d19 49eb d099
00000370: 78e9 7a16 e905 8816 be84 e198 2db2 7db6
00000380: 46c4 51b7 300d b299 1f4e 0cb4 0215 8718
00000390: 9ff1 ed9a acc1 a4b2 92cd 4996 04d5 c99a
000003a0: 8763 9fb9 22be 2f99 ca89 9e15 3ff6 7e9a
000003b0: 8253 13b9 18cc f5b1 7b08 9996 75e4 a29c
000003c0: ff4e 8196 0c44 1fb5 82cd b4b6 0bd7 9d97
000003d0: 60b5 bb96 eb46 39b0 55cd 37b4 557e 8fb7
000003e0: 7a40 a496 41f2 c396 df46 d1b5 b4a0 849d
000003f0: 9a6b 8717 0449 9cb7 0001 e012 2fa8 37b8

bias f4 [64]
0.018137539 -0.0009230516 0.088176064 -0.012169489 0.0012580471 0.050738722 0.08681013 -0.016863488
0.07228924 0.072547264 0.03263178 0.098198675 -0.00947364 0.012442777 -0.10101163 -0.015512701
0.056870624 0.13613583 -0.09200832 0.017256208 -5.927269e-07 0.13201551 -0.09303305 0.016948888
0.08063167 0.059502814 -0.023613866 0.017709205 0.027394637 0.040732026 -0.027750859 0.0175702
0.04502913 0.023912363 -0.030479401 -0.014467083 0.056159683 -0.00011382387 0.02216206 -0.0005080093
-0.10174725 0.042081166 0.024073115 -0.00614444 -0.022620875 0.088682085 -0.019743238 -0.023254419
-0.005203043 0.008743771 -0.005908658 -0.051863827 -0.008608104 0.00043420296 0.12669209 -0.015781723
-0.0033752625 -0.015196423 0.23900339 0.056057286 0.14790167 0.075762324 0.04881861 -0.019125974
00000000: 2d95 943c f2f8 71ba a795 b43d 8962 47bc
00000010: 0ee5 a43a 68d3 4f3d 82c9 b13d 4c25 8abc
00000020: 620c 943d a993 943d e7a8 053d 631c c93d
00000030: 5337 1bbc cadc 4b3c 2fdf cebd fc28 7ebc
00000040: 2cf1 683d 3167 0b3e dc6e bcbd e45c 8d3c
00000050: e21b 1fb5 132f 073e 1d88 bebd 65d8 8a3c
00000060: 3822 a53d 39b9 733d de71 c1bc e512 913c
00000070: b86a e03c a0d6 263d c555 e3bc 61ef 8f3c
00000080: 7770 383d dce3 c33c f0af f9bc 5807 6dbc
00000090: b207 663d bab4 eeb8 358d b53c ed2b 05ba
000000a0: dd60 d0bd 4d5d 2c3d fb34 c53c 4c57 c9bb
000000b0: 6a4f b9bc f49e b53d 92bc a1bc 0d80 bebc
000000c0: 4a7e aabb 0942 0f3c 6a9d c1bb 2a6f 54bd
000000d0: 0109 0dbc bca5 e339 92bb 013e ac48 81bc
000000e0: 8233 5dbb 6bfa 78bc 4ebd 743e 539c 653d
000000f0: 8973 173e 4729 9b3d 06f6 473d 13ae 9cbc

weight f4 [10, 64]
0.043962147 -2.557944e-19 0.05031021 -3.1855917e-18 0.021649841 -0.003987898 0.3188535 0.0005426415
0.03279403 0.06674372 -0.037914533 0.03714471 0.045407936 6.998119e-18 -0.14019038 -0.006967026
0.053795867 0.14311422 -0.0058453907 0.02650091 6.364653e-22 0.13422205 -0.21925004 -0.13612232
0.064829655 0.08161005 -0.015911156 0.10589639 -0.091714695 -0.09357873 0.01833965 -0.21769492
-0.04218412 -0.07272404 -4.2644545e-21 -0.000179141 0.13996203 -4.8167112e-23 -0.3066778 8.995638e-24
-0.39615503 0.07029861 -0.010157206 0.01148323 7.970442e-22 0.06679889 0.0011133493 0.022512164
0.011967549 -5.362451e-21 -0.047278143 -0.030425128 -4.2061605e-21 -0.0241233 0.14001651 0.024645317
-6.1292914e-05 -0.22137237 0.13065463 -0.014787695 0.085801944 -0.17702259 -0.40324444 0.013443064
0.035626702 -5.1568626e-24 0.15879032 -0.0015437168 -0.0039970446 0.14360677 -0.77644664 -0.0077861133
0.07755765 -0.014810531 0.03543165 0.2882609 -0.35535738 -3.8765554e-20 -0.6077089 0.0261444
-0.1542376 0.08446919 -0.016829064 -0.312893 -5.4284424e-22 0.20397232 -0.15543768 -0.06998391
-0.026571847 0.25447628 0.016817631 -0.003956897 -0.07831432 -0.21452686 -0.01292755 0.019512162
0.08343723 0.22768402 -3.492932e-21 -0.006400155 -0.20155315 -1.725103e-24 -0.63530725 -1.7557442e-20
-0.23349494 -0.3046742 0.10404723 -0.011040245 1.6981879e-21 -0.077461064 -0.0011008041 -0.1834533
-0.0010739833 -4.8747167e-27 0.108866826 0.016469968 8.587512e-23 0.024886431 0.019323276 0.0016011707
-0.009919115 -0.12229758 0.09044882 -0.10330414 0.08496826 0.080141686 -0.620324 0.027499793
0.047663443 -1.1592779e-23 -0.023630295 -6.373012e-19 0.11060583 -0.39194873 0.06374153 0.024536815
0.03305162 -0.087794974 -0.2834901 -0.17485137 0.1559546 4.8000693e-13 0.117542826 -0.023971753
-0.3787817 0.007859273 -5.009527e-08 0.115432896 1.9915317e-23 -0.014428648 -0.14501727 -0.3324114
0.1159817 -0.014196248 -0.020609643 0.11524692 0.07407876 -0.17652814 -0.016073974 -0.3156339
-0.024891537 -0.3592271 4.7009048e-23 0.02340618 0.19531411 3.7759766e-24 -0.10408603 -1.6512449e-23
-0.18900087 0.048899654 -0.06636547 -0.011442952 -7.7143934e-19 0.04342831 -0.008243034 0.21571884
-0.039177284 -4.566475e-25 0.12531178 -0.057705626 -2.1544521e-24 0.17554048 0.08212202 -0.034908693
-0.0073347082 -0.23232648 0.04162485 -0.06595144 0.050362665 -0.20977615 -0.07918384 -0.022547629
0.10345651 3.6966054e-23 -0.024757849 -5.8584705e-20 0.029685488 0.088754244 -0.21253613 -0.01269687
-0.02711333 0.10930837 -0.0016737152 0.18957241 -0.05952618 3.274113e-11 -0.34262484 0.0012275891
-0.09749025 0.08563086 -0.026737237 -0.05312923 -1.2241397e-18 0.09401258 0.011436825 0.03739
-0.025921699 0.1934122 -0.015619443 0.13996664 0.027453497 -0.16361707 0.006690308 0.02591571
-0.02005183 0.2165861 2.1344438e-19 -0.013008798 -0.0889985 2.8303205e-24 -0.07768333 -4.7096795e-24
-0.17623976 0.1735677 -0.0346963 0.010111385 1.141325e-18 0.04673373 0.0011110703 -0.039056167
0.0020410845 -3.7590177e-21 -0.06980593 -0.021353101 -5.6782666e-20 -0.064188235 0.0009774807 -0.0015992689
0.009652849 0.13353975 0.028137296 0.07640161 0.03234502 0.035474926 -0.36869192 -0.014711583
00000000: a711 343d 8ffe 96a0 1412 4e3d 200e 6ba2
00000010: 025b b13c eaac 82bb c440 a33e 0e40 0e3a
00000020: 0853 063d eeb0 883d 454c 1bbd 0d25 183d
00000030: acfd 393d af17 0123 118e 0fbe a64b e4bb
00000040: 0e59 5c3d 898c 123e b18a bfbb 7018 d93c
00000050: 1e5c 401c 8171 093e 1583 60be a663 0bbe
00000060: 69c5 843d 2b23 a73d 1d58 82bc 35e0 d83d
00000070: ead4 bbbd 35a6 bfbd 093d 963c 6beb 5ebe
00000080: 41c9 2cbd 57f0 94bd 461b a19d ccd7 3bb9
00000090: 3552 0f3e ffeb 689a df04 9dbe 3e00 2e19
000000a0: d5d4 cabe b8f8 8f3d 696a 26bc 2824 3c3c
000000b0: 4fe4 701c dbcd 883d ceed 913a 6e6b b83c
000000c0: 8a13 443c 7296 ca9d baa6 41bd 1e3e f9bc
000000d0: 7de7 9e9d 3a9e c5bc 7d60 0f3e fae4 c93c
000000e0: 628a 80b8 70af 62be 54ca 053e 1748 72bc
000000f0: eeb8 af3d 6945 35be 0e76 cebe 4c40 5c3c
00000100: 4eed 113d 187f c798 ee99 223e 8a56 caba
00000110: a4f9 82bb a70d 133e 35c5 46bf a722 ffbb
00000120: 8cd6 9e3d dfa7 72bc c720 113d ef96 933e
00000130: 67f1 b5be ae10 379f cf92 1bbf c82c d63c
00000140: 76f0 1dbe 2ffe ac3d 1bdd 89bc 8333 a0be
00000150: 8a10 249c 1fde 503e 0e2b 1fbe b953 8fbd
00000160: 34ad d9bc b74a 823e 21c5 893c dca8 81bb
00000170: 4263 a0bd eeac 5bbe 13ce 53bc f8d7 9f3c
00000180: 23e1 aa3d 0026 693e 91f5 839d 64b8 d1bb
00000190: f363 4ebe 2f79 0598 7fa3 22bf 4ad3 a59e
000001a0: 4c19 6fbe 42fe 9bbe b716 d53d 25e2 34bc
000001b0: bb4f 001d e8a3 9ebd db48 90ba 2fdb 3bbe
000001c0: e6c4 8cba 801b c193 92f5 de3d 07ec 863c
000001d0: 20a2 cf1a a1de cb3c d94b 9e3c 60de d13a
000001e0: c983 22bc 2777 fabd 3b3d b93d 1f91 d3bd
000001f0: d703 ae3d 5321 a43d 8ecd 1ebf 3f47 e13c
00000200: be3a 433d a93c 6099 5294 c1bc 1e19 3ca1
00000210: 4f85 e23d 81ad c8be eb8a 823d 6e01 c93c
00000220: 2361 073d dacd b3bd 9d25 91be 3d0c 33be
00000230: 90b2 1f3e 251c 072b 4bba f03d 6960 c4bc
00000240: adef c1be 2ec4 003c 5528 57b3 1568 ec3d
00000250: f09b c019 2366 6cbc 687f 14be d431 aabe
00000260: d087 ed3d 6197 68bc 8ed5 a8bc 9406 ec3d
00000270: 9bb6 973d cbc3 34be 91ad 83bc c49a a1be
00000280: 56e9 cbbc 9dec b7be 6252 631a 51be bf3c
00000290: 6c00 483e 7613 9218 0e2b d5bd d8b2 9f99
000002a0: 7289 41be 014b 483d 9fea 87bd 387b 3bbc
000002b0: 4fb0 63a1 e2e1 313d ca0d 07bc 66e5 5c3e
000002c0: 5c78 20bd 5853 0d97 bb51 003e bc5c 6cbd
000002d0: 52b1 2698 e2c0 333e 972f a83d 6bfc 0ebd
000002e0: fe57 f0bb fee6 6dbe d27e 2a3d 8c11 87bd
000002f0: 1549 4e3d 8fcf 56be 232b a2bd ceb5 b8bc
00000300: 02e1 d33d c2c1 321a f9d0 cabc 4854 8a9f
00000310: fb2e f33c c9c4 b53d 12a3 59be 8806 50bc
00000320: c61c debc 11dd df3d 9060 dbba 451f 423e
00000330: b9d1 73bd 3cff 0f2e 866c afbe 0ee7 a03a
00000340: f8a8 c7bd 3b5f af3d 0d08 dbbc 099e 59bd
00000350: b1a6 b4a1 ab89 c03d 8561 3b3c 4226 193d
00000360: be59 d4bc d90d 463e b1e8 7fbc 6a53 0f3e
00000370: 28e6 e03c 3c8b 27be 5f3a db3b 2f4d d43c
00000380: bc43 a4bc bfc8 5d3e 9bfd 7b20 da22 55bc
00000390: d844 b6bd 46fc 5a18 7018 9fbd 6832 b698
000003a0: 3278 34be bbbb 313e b51d 0ebd 39aa 253c
000003b0: 0a6e a821 de6b 3f3d 55a1 913a 5cf9 1fbd
000003c0: b7c3 053b fd02 8e9d 69f6 8ebd b3ec aebc
000003d0: 0413 869f 1f75 83bd cf1e 803a 8f9e d1ba
000003e0: fc26 1e3c a5be 083e 3080 e63c 7378 9c3d
000003f0: 367c 043d 284e 113d 30c5 bcbe da08 71bc

bias f4 [10]
0.11369373 -0.0023050727 -0.10637939 0.07914526 -0.060581177 0.12875149 -0.015857365 0.00052005536
-0.048003945 -0.14951278
00000000: 42d8 e83d b410 17bb 70dd d9bd e916 a23d
00000010: f823 78bd 6ed7 033e 4ee7 81bc 5354 083a
00000020: c99f 44bd e119 19be
