2-hypertuning-mlflow/mlruns/2/8f8f99015e264f3580fabeb34d342398/artifacts/pytorch_models/20250921-1132model.pt (torch, 211653 bytes, 12 tensors)

weight f4 [64, 1, 2, 2]
00000000: d786 1b3e f854 123f 42da 433e 2fc5 8a3e
00000010: 9a58 bdbe 3cd9 753d 1096 013f b807 0f3f
00000020: dab6 c53e 48c4 403e 2739 2e3e c664 973e
00000030: b4ed f53e e465 133f 891f bd3d d26c 0f3f
00000040: 20b5 e6bd 34be 15bf 826b 0cbf a32c 3dbf
00000050: c8fa 9a3e 7b81 0c3f 8382 dbbe 5030 02be
00000060: a043 071b d834 cd97 9cbb aa93 b1e4 d097
00000070: cd1b 773d 4725 c93e d014 91be 3b00 f33e
00000080: 178e 093f 45b5 33be cd82 753e 6bf3 0abe
00000090: 4a3f 04be 8232 123f f421 13be e77e 153e
000000a0: b57b 87be e0cc 1b3f 4ea4 09be 3fd8 f0bd
000000b0: c8f4 02bf 85a9 d2be 8fac b13e 3f81 e93e
000000c0: 3124 283e 1610 cd3e b37c 9cbe 1a8c 133f
000000d0: 5a28 173d 67e3 993e 1105 c53e a9c6 263e
000000e0: 2dc6 883e b608 413e ba8d 81bd fbf4 bf3e
000000f0: c3fe 0e3e 42d8 97be 945c 3f3e 3e74 d83e
00000100: 7dc7 0fbf 631b 1bbf 7833 32bf bb09 27bf
00000110: 76cb e13d 46ae 2cbe 5dda 563e 1b33 753e
00000120: 14bd dd3e 919e c3be 10c4 adbe 81d4 be3e
00000130: 0c94 1bbf f4b6 853d 9ae7 4ebe bb22 b03e
00000140: c4f3 9cbb 72e0 b3b4 69d1 66bb 986b 2017
00000150: 17df 0f3e 9aa3 133f 13b3 d7be f4f6 19be
00000160: f282 ea3e ba28 033f f600 953d d801 e53e
00000170: 9738 123d 3498 dbbe 905c ef3e 32da debe
00000180: 9465 91bc eaf8 04bf cc59 18be 59c3 19bf
00000190: 4ea0 e63e 118b 143f f885 bf3e 8de2 6bbe
000001a0: 9003 ed3e 0e00 d63d 9abb d23d 8bc7 ffbc
000001b0: fb09 8cbe 12dd b83e 75dc c23e 0e8a b13e
000001c0: 9f2e 71be 4389 fe3e ea00 7bbe 7624 713d
000001d0: f030 bfb8 2a57 4ab4 cc4c 96bb 8a3a d518
000001e0: 3bc2 1118 8ce1 0bb4 7be8 041f e3b4 3aba
000001f0: 76ef 7a3e 406f fd3d 3f63 d23e e3ef 603e
00000200: 2f64 871d d49b 86bb 9cf1 2cbb 5efd 5abc
00000210: 385a e63d b916 463d ae3b ecbd 21d4 79bd
00000220: 15f4 25bf 74eb a9be e820 23be cfb3 4bbf
00000230: 0dfe a8bd 3b59 47be 5dba 1d3f 9aec 033f
00000240: 5a0b 57be 863c d3be 8fe8 e4be e6ec b3ba
00000250: 86f7 073f a2f9 f73d 67c3 b6be 747d d73e
00000260: 3731 9cbd 086e 153f effb bb3d c1cb 59be
00000270: ab83 493e 9d2d 0b3f 25d0 193e 7cdf eb3e
00000280: 1eae c1be 858e 0ebf 6c96 00bf 6e67 1cbf
00000290: 0d66 ecbb fb14 c9bc e243 f1ba 2649 cebc
000002a0: 421a a1be 8893 313e 0172 113f 86da 1c3e
000002b0: d885 d6be 6ea9 b43e be9d 3dbc 373c 31be
000002c0: e223 293e cb84 8dbe 8014 843e 4cbe 22bf
000002d0: e751 393e 366b f2be cbe1 573e 26fb 32bf
000002e0: eaae 273c 582d d03d 0256 fd3e 39d3 673e
000002f0: 7cf6 103e 8975 44bf 580d babe 647c 3dbd
00000300: 577f e43e 64bf 403c a9db 2b3d 85e0 933e
00000310: f1de 10bf bb6b bdbd 39bf bc3e 9b96 0abf
00000320: 867d 7b19 5bf5 8bb5 71ae 25ba 054d c831
00000330: 3ed8 dd3e 8646 bbbe 5abc c9bd 4c27 abbe
00000340: ef60 093f 2c23 d83d 16a5 45bc 1bb5 aa3d
00000350: bc0d df3e 9e42 a43e 1cbf f43d f734 dabc
00000360: 929c b13e f8cf 7dbe 243e 263f 9a8c 643e
00000370: 41fe cfbe f9d1 0d3f 47e6 af3e 90a8 7f3e
00000380: abeb 3bbe 5b18 6a3e 8f5f cdbe 817b 0c3f
00000390: 0f04 063f 8883 bc3e c989 153f 58f1 de3e
000003a0: 3228 7bac bcd4 3b17 80ee 9327 d40f 7d30
000003b0: b911 4218 9222 19b4 69ec 82b3 5009 cdbb
000003c0: 461c de3e 0e8c 8abe da1d 093f 2e3b a2bc
000003d0: 09a3 b11b 47d3 74ba 447e 1098 d567 8dba
000003e0: f1cb 4ab2 5712 243b a943 41bb 2c64 e3ba
000003f0: d0d0 f23e 8bf4 033e 26f5 d23e cc8c a1be
0.15188156 0.571609 0.19126227 0.27103564 -0.3698166 0.060021624 0.506196 0.5587115
0.38616067 0.18824875 0.1701399 0.29569072 0.48032916 0.5757735 0.092345305 0.5602542
-0.112650156 -0.5849335 -0.54851544 -0.73896235 0.30269456 0.5488507 -0.4287301 -0.12713742
1.1188789e-22 -1.3261154e-24 -4.309903e-27 -1.3499415e-24 0.060329247 0.39286253 -0.2833619 0.47461113
0.53732437 -0.17549618 0.23975678 -0.13569419 -0.12914768 0.5710832 -0.14368421 0.1459919
-0.26461568 0.6085949 -0.13441584 -0.11759996 -0.51154757 -0.41144958 0.34701964 0.4560642
0.16420056 0.40051335 -0.30563888 0.57635653 0.036903717 0.30056307 0.38480428 0.1628672
0.26713696 0.18850979 -0.0632586 0.37491593 0.13964371 -0.2965718 0.1868766 0.42276186
-0.5616377 -0.60588664 -0.69609785 -0.6524922 0.11025135 -0.16863355 0.20981736 0.23945276
0.43308318 -0.38206914 -0.33938646 0.37271503 -0.60772777 0.06529036 -0.20205536 0.34401497
-0.0047898013 -3.3504654e-07 -0.0035220033 5.183459e-25 0.14049946 0.5767151 -0.4212881 -0.15035611
0.45803028 0.5123402 0.07275574 0.4472797 0.0356985 -0.4288956 0.46750307 -0.43525845
-0.017748632 -0.5194231 -0.14878005 -0.600637 0.45044178 0.580247 0.37406898 -0.23035641
0.4629178 0.10449229 0.102896884 -0.03122308 -0.27351364 0.36106163 0.3805882 0.3467564
-0.23552941 0.49714097 -0.24512067 0.058872662 -9.116705e-05 -1.8844426e-07 -0.0045867916 5.511832e-24
1.8838872e-24 -1.3027437e-07 2.814439e-20 -0.0007122291 0.2450541 0.12374735 0.41091344 0.2196651
3.583779e-21 -0.0041079316 -0.0026389128 -0.0133660715 0.112476766 0.048361514 -0.115348205 -0.060993318
-0.64825565 -0.3318745 -0.15930521 -0.7957124 -0.08251581 -0.19467632 0.6161249 0.515329
-0.21000424 -0.41257113 -0.44708678 -0.0013727217 0.53112066 0.121081606 -0.35695955 0.420879
-0.076265745 0.5837102 0.09178912 -0.21269132 0.19679134 0.54366475 0.15020807 0.46068943
-0.37828153 -0.5568622 -0.50229526 -0.6109532 -0.007214314 -0.024546137 -0.0018407071 -0.025181364
-0.31465346 0.17341435 0.5681458 0.15317735 -0.4189899 0.35285515 -0.011573253 -0.17308126
0.16517594 -0.27640375 0.2579689 -0.6357162 0.1809765 -0.4734742 0.21082227 -0.6991447
0.010234574 0.10164899 0.4947968 0.22639169 0.14156526 -0.76741844 -0.36338305 -0.046261206
0.44628403 0.011764381 0.04195753 0.28882232 -0.5659018 -0.092490636 0.3686464 -0.54136056
1.3001745e-23 -1.0427715e-06 -0.0006320244 5.829522e-09 0.43329042 -0.36577243 -0.09850378 -0.3342842
0.53663534 0.105535835 -0.012063285 0.083353244 0.43565166 0.32082075 0.11950514 -0.026636584
0.34689766 -0.24786365 0.6493857 0.2231926 -0.40623668 0.5539852 0.34355375 0.24966645
-0.18351619 0.22860853 -0.40111968 0.5487595 0.5234994 0.368191 0.5841337 0.43543506
-3.5691558e-12 6.0691467e-25 4.105928e-15 9.2063357e-10 2.508286e-24 -1.4261812e-07 -6.0965995e-08 -0.0062572137
0.43380946 -0.27059978 0.53561175 -0.01980361 2.9387553e-22 -0.0009339344 -1.8675312e-24 -0.0010788391
-1.1804318e-08 0.0025035345 -0.0029489791 -0.0017348579 0.47424936 0.12886254 0.41202658 -0.31552732

bias f4 [64]
00000000: 1575 b3be 4c63 aa3e 22ab f73e fa2d 77be
00000010: 8157 763e 6a78 d43d dc67 45b8 d5a4 a93b
00000020: f065 833b c483 86be 3473 abbd 4b0b 4b3d
00000030: 457e cd3d 9ace 883d f3e7 b03e 0a24 0dbe
00000040: 9bc4 e03e db75 893e a8a2 adbc 5205 b53c
00000050: 09ee f2bb 9217 c8bd 65cf 0b3c 14d8 363d
00000060: 4cc4 933e eee4 2e3e a439 b7be cea4 a03e
00000070: ecff 92bd f82b 01b8 b86d fbb8 ff2c c73d
00000080: 4406 4fb1 71b8 ba3e 91bb 963e 3f3a b73e
00000090: 70d9 9b3e 9ebe 00bd e886 c3bd f230 e23e
000000a0: 4589 a53e 6859 7dbc 7bea 3ebe 6b92 ae3e
000000b0: 8a18 953e 6d8b 723e 2550 c43e b797 813e
000000c0: bfe5 e13b 60ec ff3e 7fed 7abb 15db 8f3e
000000d0: 987e b03b ed79 89be 53f7 41ba 65cb 0c3e
000000e0: 0261 31be 10d7 443e 73b4 b6bb 3175 34bc
000000f0: 01d3 9b3e 2241 35af d16d 25bb 12fc 913e
-0.35050264 0.33278883 0.4837275 -0.24138632 0.24056818 0.1037453 -4.7065187e-05 0.00517712
0.0040099546 -0.26272404 -0.083715826 0.049571317 0.100338496 0.06680031 0.34551963 -0.13783279
0.43899998 0.2684773 -0.021195725 0.022097263 -0.00741363 -0.09770121 0.008533333 0.044639662
0.288607 0.17079517 -0.35786164 0.31375736 -0.071777195 -3.0796946e-05 -0.000119890494 0.09725379
-3.0126026e-09 0.36468843 0.29439977 0.35786626 0.3043933 -0.031431787 -0.09547216 0.44177967
0.3233129 -0.015463211 -0.18644135 0.34096083 0.29120284 0.23685999 0.38342395 0.25311062
0.006893843 0.49985027 -0.0038288531 0.28096834 0.005386185 -0.26850834 -0.000739922 0.13749464
-0.17322162 0.19222665 -0.0055757104 -0.011014269 0.3043442 -1.6484994e-10 -0.0025242458 0.28512627

weight f4 [64, 64, 2, 2]
00000000: f10e 68bd d039 f13c 485f 6abd f8a6 033e
00000010: 8d8b 97bd 7d9b b03d 93a2 823d 9d69 153e
00000020: ef8b 153c 5074 a03a b093 973d 9c22 f73d
00000030: 26cc ac3c 9da5 f63d 018e 903c 9d74 2d3e
00000040: 9e32 803c 07f4 a7bd ae57 acbc fa1d b0bd
00000050: 1d9c 62bd 425a 39bc e1ff 07be 7145 f6bc
00000060: 564b f597 7218 f616 6bb7 f996 7884 3d95
00000070: ca5c e6bd fdcb 393e 1bb1 c23c cbe8 393e
00000080: c08a 55bd 7da8 6ebd 4b78 9ebc 3b7d 5bbc
00000090: dd07 6bbe 1d29 3c3e b335 8bbe 8e6d 643d
000000a0: a4e7 b7be 914f 21bd ac83 37be c665 97b8
000000b0: 70a8 2bbd d18c a3bd 21e2 a33b ceed 9bbc
000000c0: 54bf bfbb 9c1b 133e fd25 4ebc 9f70 273e
000000d0: a2c4 54bd 81a2 6c3d e14a 553d 2391 0e3e
000000e0: 208d 50bd e361 ec3d 202d e8bc f633 b23d
000000f0: 3123 a8bd fb11 c8bd 5cc4 793c 6d6f 723d
00000100: 272b 133d 8fc9 b3bb be0e 4abd 3c84 eebd
00000110: 50e1 2bbc f19b 05bb 0c99 b3bb 81fc 913c
00000120: 0407 63be 568a b9be 530d 9fbd c539 3dbe
00000130: 89e1 eebd 54ef c93d b219 2e3d 64c1 1b3e
00000140: 90a5 a797 94db 9795 393b 4716 18b3 2098
00000150: 7126 a5be 2353 13be ad1e 5abe b4fd b7bd
00000160: bbc3 78bd 5e91 dd3d d0f7 983c 9a8a 3e3e
00000170: 998e 9dbe 6a0e f4be c5ff 07be 65c0 debe
00000180: 954f c93c 9549 fcbd 3045 4abb 36ec 04be
00000190: 392c d93c ea5c 9a3d 7a97 16bc a0ad ad3c
000001a0: f510 bcbc 86f9 ddbd de42 78bd d007 e3bd
000001b0: 82f8 323d 9061 003d 8cd0 1fbc 6491 0e3e
000001c0: a263 95be d952 eb3d 57e0 28be cdc4 fc3c
000001d0: 4f56 9f95 e1cd cf14 2289 0698 5284 c092
000001e0: 437d 7897 7e15 9a15 a8b3 ec15 6879 1194
000001f0: bfbc 1ebd 3775 673c 3c60 bb3d 6f15 283e
00000200: a020 8897 bf97 c717 f541 ae14 01c6 6698
00000210: 1c5c 51bc 3e02 42bc 1cc0 343d 9064 103d
00000220: bef9 233d ad67 cbbc 00df 4e3c 1d0c e9bd
00000230: 3eae e03c e9a2 93bc 55be 833d aeba d13d
00000240: 333d 793d f418 8fb9 61d2 453c d312 b5bd
00000250: 238e 38bd a2dd bf3d f94b 3dbd 2fa1 a83d
00000260: 28db 24be 42b8 05bd 97bf a4bd 0137 b1bb
00000270: 69cf 8fbd 845f 063e 9b00 5f3d 5c26 623d
00000280: b9ff f9bc c0b4 a9bd dabb 103c e895 5fbd
00000290: cf10 ad3b dea9 7539 65d8 a33b 02cd 1d37
000002a0: 1887 b1bd ee92 143b fc61 153d ae9b cd3d
000002b0: e044 3b3a 043d 0f3c e2cc 1bbd e27a 9ebc
000002c0: 6105 04bd 44e1 93bd 4c95 53bc 9040 49be
000002d0: 1cde 97bc e362 5cbe 3a90 c0bd 37a4 45be
000002e0: 776b 8bbc eff0 c03d 9160 743d 8d18 763d
000002f0: cc67 623b 3c8e 1bbd 5b99 aebb 4da7 03be
00000300: 5038 313c 4e95 78bc 4fea 203d 0c0d b93d
00000310: 47d1 2cbd 1b87 1cbd 1b9c 3a3d d1fd 31bd
00000320: f2d5 2596 33e3 7d95 bd36 3598 2573 2714
00000330: 183c 0e3d e5ec 14be 5dea 84bd 804c 83bd
00000340: dbc9 e3bc 9961 a53c 7148 183d 70c6 9b3d
00000350: fa2e 3bbd d0c5 dd3c 177b cabb e5ac ac3a
00000360: f566 78bd e9e9 70bd 1e6a ad3d 47de ef3d
00000370: 00b5 c5bd 41be 6e3d f22b 8a3b ef85 513e
00000380: 7f5a 43be 0dc4 fb3d b204 4fbe 81f3 1d3e
00000390: 9ac4 36bc 7e4d 543d a8cd b93d a9b4 fb3d
000003a0: 13d4 e696 0053 aa17 07f1 aa96 9dcf 3f16
000003b0: 5f80 3518 68b7 7b15 02a7 9097 b93e 8897
000003c0: 243c a3bc 472c b1bc 30f2 0e3b 3bf3 6fbb
000003d0: 9e68 8f16 9603 3d15 dea0 2197 d11b b717
000003e0: 4d94 a815 3e1f 3414 ca43 a716 b8e8 dc96
000003f0: 04d6 79bd f882 3bbd 127c 1b3d 9551 bebc
-0.056654874 0.029446512 -0.057219774 0.12856662 -0.07399664 0.08623407 0.06378665 0.1459107
0.009127601 0.0012241695 0.07401216 0.12067148 0.02109344 0.12043307 0.017645838 0.16939016
0.015649136 -0.082008414 -0.021037903 -0.085994676 -0.055324662 -0.011313023 -0.13281204 -0.03006241
-1.5851771e-24 3.975887e-25 -4.0343873e-25 -3.8272745e-26 -0.11248167 0.18144222 0.023766091 0.1815521
-0.052134275 -0.05826615 -0.01934447 -0.0133965565 -0.22952218 0.18375058 -0.27189407 0.055768542
-0.35918915 -0.03938252 -0.17921323 -7.219198e-05 -0.04190868 -0.07985843 0.005001322 -0.019034293
-0.0058516655 0.14366001 -0.012582299 0.16351555 -0.051945336 0.057772163 0.052073363 0.13922553
-0.050915837 0.11542108 -0.02834183 0.08701317 -0.08209837 -0.097690545 0.01524457 0.059188295
0.035929825 -0.005486674 -0.049330465 -0.116463155 -0.01049073 -0.0020387138 -0.005480891 0.017820599
-0.22170645 -0.36238354 -0.07766213 -0.18479069 -0.11664111 0.09860101 0.042504974 0.15210491
-1.0833916e-24 -6.133485e-26 1.6093779e-25 -2.0769935e-24 -0.3225589 -0.14387183 -0.21300764 -0.08983937
-0.060733538 0.10818742 0.018672854 0.1860756 -0.30772856 -0.47667247 -0.13281162 -0.4350616
0.02457408 -0.12318722 -0.0030863993 -0.12980732 0.026510345 0.07537253 -0.009191388 0.021200955
-0.022957304 -0.108386084 -0.060610645 -0.110854745 0.043694027 0.031343043 -0.009754311 0.1392265
-0.29177576 0.11490411 -0.16491829 0.03085556 -6.435576e-26 2.0982863e-26 -1.7388328e-24 -1.2149523e-27
-8.0291224e-25 6.2234013e-26 9.560309e-26 -7.344572e-27 -0.03875422 0.014127067 0.091492146 0.16414426
-8.79703e-25 1.289838e-24 1.7595526e-26 -2.982677e-24 -0.012778308 -0.011841355 0.044128522 0.035252154
0.040033095 -0.02482971 0.0126264095 -0.113792636 0.027426835 -0.018022018 0.06432787 0.102406844
0.06084938 -0.00027293677 0.012074084 -0.08841481 -0.045057427 0.09368445 -0.04621503 0.08233868
-0.16099226 -0.032646425 -0.08044355 -0.0054081683 -0.07021982 0.13122374 0.054443937 0.055212364
-0.030517446 -0.082864285 0.00883385 -0.05458632 0.0052815448 0.00023428301 0.0050001615 9.405661e-06
-0.08668345 0.0022670585 0.0364704 0.10039459 0.0007143747 0.008742575 -0.03803719 -0.019345704
-0.032231692 -0.072207004 -0.012914013 -0.19653535 -0.018538527 -0.21522097 -0.09402509 -0.19300924
-0.017019017 0.094209544 0.059662405 0.060082007 0.003454673 -0.037977442 -0.00532834 -0.12856789
0.010816649 -0.015172316 0.039285954 0.090356916 -0.04219177 -0.038214784 0.04555903 -0.04345495
-1.3396103e-25 -5.1272172e-26 -2.3421337e-24 8.4540536e-27 0.03472528 -0.14543493 -0.06490014 -0.064110756
-0.027806213 0.02018814 0.03717846 0.07606208 -0.045699097 0.027071863 -0.0061792242 0.0013174085
-0.060645062 -0.058816824 0.08467506 0.11712318 -0.09653664 0.05828691 0.0042166645 0.20461248
-0.1907749 0.12293253 -0.20216635 0.1542492 -0.011155272 0.051831715 0.09072429 0.122903176
-3.7292342e-25 1.1006945e-24 -2.761709e-25 1.5494368e-25 2.3458513e-24 5.0833728e-26 -9.347941e-25 -8.804627e-25
-0.019926138 -0.021627558 0.0021811835 -0.0036613483 2.3168919e-25 3.8171075e-26 -5.222495e-25 1.183312e-24
6.808864e-26 9.093839e-27 2.7023086e-25 -3.5689783e-25 -0.060995117 -0.0457792 0.03796012 -0.02323226

bias f4 [64]
00000000: a652 883d ccc7 18bb 00d6 e63c 1564 a4bc
00000010: 8074 593d 149e 073b 8275 42bc 86ce 593a
00000020: 5551 03bc 4ee1 b63c f3cb bb3d 9ff1 d43c
00000030: 6979 6e3d 5151 533d 8217 f5bb 91d8 273d
00000040: 4427 063d 931a 0cba 0979 18bd 4f85 81bc
00000050: b9d1 4cbd 71b6 28bd df1c 9a3c 3885 ef3a
00000060: e207 2cbd 6bc4 0c3b ef31 793d 28d0 093d
00000070: 0300 ec3b fa1a 65bd a745 b83d 2793 93bb
00000080: 2ed9 4c3d 5d9a 7f3d 0895 b5bb de22 31bd
00000090: 3733 bcba 05cc c2ba 363f 45bd 8b1f bbbc
000000a0: f8c3 8c3d c9a1 56bd 0fe0 bcbb 1333 4ebd
000000b0: a2d7 b43b a12b e53c 4ae4 533d 6f68 db3c
000000c0: 36a3 bb3d a431 ce3b 0db5 313d 83fa 743d
000000d0: c4cd d83c 4795 0abd bb73 883d aa64 94bb
000000e0: fe5d 46bc 79b9 88bc 4947 ff3c bfba 85bc
000000f0: 8b90 31bc 80b8 38bd 0d61 4f3d 101c 2b3d
0.06656389 -0.0023312448 0.028178215 -0.020067254 0.05308962 0.0020693587 -0.011868836 0.00083086675
-0.008014997 0.02232423 0.091697596 0.02599412 0.058221254 0.05159122 -0.007479609 0.04097802
0.03275229 -0.0005344536 -0.037224803 -0.015810637 -0.050004695 -0.041189615 0.018812595 0.0018273955
-0.041999705 0.002147938 0.060838636 0.03364578 0.00720215 -0.05593393 0.0899766 -0.004503626
0.050011806 0.06240307 -0.0055414476 -0.043246143 -0.0014358525 -0.0014861828 -0.048155986 -0.02284219
0.068733156 -0.052400384 -0.0057640146 -0.050341677 0.0055188695 0.027974905 0.051731385 0.026783196
0.091619894 0.0062925387 0.043385554 0.05980922 0.026465304 -0.03383377 0.06662699 -0.0045286017
-0.01210737 -0.016690003 0.031161921 -0.016324399 -0.010837684 -0.045097828 0.050629664 0.04177481

weight f4 [64, 64, 2, 2]
00000000: 12bd b23d 1fd5 a13d f22e 553d dc68 393d
00000010: fa59 9613 89ba 1498 24e3 1e97 0949 0319
00000020: aa09 e83d e9be e33d 1d58 de3d c09f b03d
00000030: 4b41 243d 6eb6 3fbd 6912 4c3d 7c7b 3cbd
00000040: f8f6 503d 6e59 61bc dcd4 d33d c222 0b3d
00000050: 4362 0c18 43c8 0518 b62e 88ab 8ac2 64a0
00000060: 9f58 d43c e272 d13c 72c0 91bb 5c6e abbc
00000070: 6ecd bd17 baa6 3d96 7efb 181a 7ecb 0596
00000080: f4ca 993b 2ca6 913b 219b a93b 8a46 8c3b
00000090: 0577 933d 0c85 ab3c 1a41 703d 0679 04bd
000000a0: 900c 693d 59de f53c e9a3 bb3b 22b3 8f3c
000000b0: 2cc7 4f3d 558b 603c bc4c 473e 44b3 35ba
000000c0: a45c 823d 0fac 47bd 501f f13d 7518 4bbd
000000d0: fb7d 2f3d 990a 403c bde2 f63d a932 503d
000000e0: f89f 8db2 6db5 94b2 5f0e ad36 0f12 76b2
000000f0: a78d 283e 1492 ab3c 114d 493e 07fd 913d
00000100: 806c c53d 34db 3ebd 3042 3c3d 4cb1 9bbd
00000110: 84c5 5722 3c30 4f9d b0a9 022f 0cde 359c
00000120: 1ee6 a43d 299c e13d 7730 ba3d e6f7 cb3d
00000130: df97 b6b7 92e5 1db9 ac60 50b7 fbeb 2a39
00000140: e6c8 073e 44ab 85bd 15b7 583d 4d8c b5bd
00000150: 1645 543e 7741 bdbc e33c 583e ff25 50bd
00000160: e67c bf3b 5361 513c 0a3f 573d dce2 b93c
00000170: 2862 9f3d 4026 9537 aca4 a33d 10ed 03bd
00000180: 3c11 babc 5965 14bd e313 363b 8656 cabd
00000190: a411 603d 3e49 c83d cfcd 043d 5b1c b93d
000001a0: 7a8a 843d 4993 b6bc 850b 933d d273 1e3d
000001b0: da95 b33b 7e4e 0fbb 51ce 003c 35e2 e03d
000001c0: 52e1 b63c fec0 673c a04c 9b3c dacc 59bd
000001d0: 0949 3b3d 0d8b 1d3d 587f 2f3d 2e4b 67bd
000001e0: 5592 17bd b3cf 0a3e 4f20 1cbc e395 013e
000001f0: 35ef b816 ce55 6695 26a6 be9c 14d6 c096
00000200: 183c f53d 2168 fbbc 656d be3d 14f7 73bd
00000210: 6bd8 50bc 913f e23d f568 a73c b481 573d
00000220: c151 f316 94af 5a96 3a69 e596 ecab ef16
00000230: a8e6 1195 3356 b797 076c a098 6091 4398
00000240: 6b79 183c e4cc 68bd 3718 2a3e f563 df3d
00000250: 82cf 4e95 d467 3216 c406 3694 50a0 dd14
00000260: e909 b63a 352f f3ba 4028 9d3a 6ebb 63bb
00000270: d31a 443e 5330 bfbd 4f1f 3a3e 8bbb c43b
00000280: 9e4e 6e3d bbee 503c e2bb d03d b7f4 443d
00000290: 0647 213d c327 753c a935 83bc 82af a6bd
000002a0: 2fbe 093d a837 d53d cf50 203e 6eda 86bc
000002b0: fd36 583d 79f9 9dbd 6eac 023e 3f96 9ebc
000002c0: bdc1 5c3e 08b8 e8bd fedc 6c3e f264 e7bb
000002d0: 13a9 22bd b9d2 893d d18e 9cbc 3ab4 b83d
000002e0: d0ff c23d c7dd 8ebb 2d36 233e e2c2 1b3e
000002f0: df2f 123e 9f22 e9bc fdc8 d83d 4317 8f3b
00000300: a944 063d 82c8 e63d 8b0b 763d fb33 183e
00000310: 4c5a 0b3e f441 7bbc 996c 2f3d 0dee a2bd
00000320: 0430 143c 71c8 313d 6e56 bb3d c16b 1a3d
00000330: ade1 b63d 9aff 1c3d 89db 033e 841f 3f3c
00000340: 2b12 9d3d 117d 76bb ea67 4c3d 208c 62bd
00000350: 9b26 f53d 2da7 993c 206a 433d 92f6 9ebd
00000360: 097f bb3c 0836 283d 6ea5 283d 3976 273c
00000370: bf40 983d 3803 f2bc 17d6 8b3d 609f 0bbd
00000380: 0777 8f19 2acc d696 269b ec9a 4a61 b595
00000390: c402 9c3d cadb 14bd 32b9 db3d d7d5 13bd
000003a0: 4b84 0b3b 5151 843d 77c3 d63d 2dce 103d
000003b0: 4bc2 7537 22ab bc35 a4f7 14b8 a174 a238
000003c0: 6751 8399 085d 3d20 0cec b69d 1f5b 8c9c
000003d0: bbd3 cf39 e069 a5bc 6aa8 053d 641a acbc
000003e0: a86d b73d df49 073b 78e9 3b3d 385c 63bd
000003f0: 0af0 0f3d 77b4 68bd 56cd 3d3e c68f 063d
0.087274686 0.07901978 0.052046724 0.045266017 3.7954047e-27 -1.9222728e-24 -5.1339245e-25 6.7872906e-24
0.11329968 0.111203976 0.1085665 0.0862422 0.04010133 -0.046804838 0.049822245 -0.0460162
0.051016778 -0.013754232 0.10343334 0.033968695 1.8144185e-24 1.7290953e-24 -9.676346e-13 -1.9376719e-19
0.025921164 0.025567476 -0.00444799 -0.020926647 1.2265696e-24 -1.5319908e-25 3.1636017e-23 -1.0807865e-25
0.0046933834 0.004444858 0.0051759635 0.00428087 0.072004355 0.020937465 0.058655836 -0.03234198
0.056896746 0.03001325 0.0057263267 0.017541472 0.050727054 0.013705094 0.19462866 -0.0006931315
0.06365326 -0.048748072 0.117735505 -0.04958387 0.042844754 0.011721277 0.12054966 0.050829563
-1.6487306e-08 -1.731197e-08 5.157475e-06 -1.4323191e-08 0.16460286 0.020943679 0.19658305 0.07128339
0.09639835 -0.046595767 0.04596156 -0.07602176 2.9242497e-18 -2.7421158e-21 1.1883716e-10 -6.0174865e-22
0.08051704 0.11016113 0.09091275 0.09959392 -2.1766811e-05 -0.00015058208 -1.2420274e-05 0.00016300373
0.1326023 -0.06526807 0.052908976 -0.08864651 0.20729479 -0.023102505 0.21116976 -0.050817486
0.0058437465 0.012779552 0.052550353 0.022691183 0.07782394 1.7779996e-05 0.07990393 -0.032208502
-0.022713296 -0.036229465 0.002778285 -0.09879784 0.054704323 0.09779595 0.032422837 0.090386115
0.06471725 -0.022287028 0.071799316 0.038684674 0.00548051 -0.0021866853 0.00786169 0.109806456
0.022324238 0.014145134 0.018957436 -0.053173877 0.04572395 0.038462687 0.042846054 -0.05646818
-0.037004787 0.13555793 -0.009529187 0.12654833 2.9877764e-25 -4.6515818e-26 -1.2616094e-21 -3.1154375e-25
0.119743526 -0.030689301 0.09298209 -0.059561804 -0.012746911 0.110472806 0.02043579 0.05261393
3.9310361e-25 -1.7665302e-25 -3.7063353e-25 3.872103e-25 -2.9464472e-26 -1.1847858e-24 -4.146811e-24 -2.5276555e-24
0.009306292 -0.056836024 0.166108 0.10907737 -4.1765063e-26 1.4411488e-25 -9.189986e-27 2.237853e-26
0.0013888452 -0.0018553498 0.0011990145 -0.0034749168 0.19150858 -0.09335389 0.18176006 0.006003802
0.058180444 0.01275223 0.10192086 0.04808494 0.039374374 0.014963093 -0.016016798 -0.08138944
0.03362864 0.10411006 0.15655826 -0.016461577 0.052786816 -0.07713599 0.12761089 -0.019358752
0.2155828 -0.11363226 0.23131177 -0.007061594 -0.039712023 0.06729645 -0.019111069 0.090187505
0.095214486 -0.004359934 0.15938635 0.1521106 0.14276074 -0.028458891 0.105852105 0.0043667867
0.032780323 0.112687126 0.060069602 0.14863579 0.13608664 -0.015335549 0.042828176 -0.07955561
0.009044651 0.043404046 0.091473445 0.03770042 0.08929763 0.0383297 0.12876715 0.011665229
0.07669481 -0.0037611166 0.049903788 -0.055309415 0.11970254 0.018756473 0.04770863 -0.07761873
0.022887724 0.041067153 0.04117339 0.010221058 0.07434224 -0.02954255 0.06827944 -0.03408754
1.4833928e-23 -3.470241e-25 -9.785797e-23 -7.325881e-26 0.07617715 -0.03634242 0.107286826 -0.036092605
0.002128857 0.064608224 0.10486501 0.035352875 1.4648375e-05 1.4056898e-06 -3.5516583e-05 7.746486e-05
-1.357796e-23 1.6039704e-19 -4.8419066e-21 -9.287977e-22 0.00039639868 -0.020192087 0.032631315 -0.021008678
0.08956462 0.0020643396 0.04587695 -0.05550787 0.03514103 -0.05681273 0.1853536 0.032851957

bias f4 [64]
00000000: 46d1 a33d ca24 903a 2e5f eb3a 1bc9 61bc
00000010: 9c19 3b3d da95 c5bb 6aa8 d93d 01b4 8b3d
00000020: ec13 7c3d 2f56 f0bc 8b61 603c d96e 9a3a
00000030: 1973 03bd ed3c a1bc d2a8 8dbd 2785 adbc
00000040: e894 8b3d 3b05 a220 ae43 db3c d3b6 83bc
00000050: fd44 e13b 4d31 00bc 7e82 dfba fc13 62bd
00000060: 39fb f2bb ac9d f8bc 4118 94bc 381a cb3c
00000070: c279 6e3d a95b 783d 66f1 fabb 4a3c d0bb
00000080: 130f 7b3d 1d4a 14bc 0a6b 483d 7bd2 87bc
00000090: 8fcf cabb 0c2d 59bd b743 a33b 86eb c43b
000000a0: 5cd1 77bc 3368 09bd b2bc 2cbc b025 06bd
000000b0: 61ab 893c c001 b63c 2733 393c 477a 4026
000000c0: 5085 163d 8253 b0bc 7f56 553d ffde 93bc
000000d0: 2ed3 d7bb 6dfb 27bd bfac 863d abaa 3d3d
000000e0: c092 9c3d cab2 f2bc ce58 2db4 58f0 3fbd
000000f0: 778b 243d 2666 aaba 1dd2 de3c df51 873d
0.079989 0.0010997292 0.0017957443 -0.013780857 0.04567872 -0.0060298266 0.106278256 0.068214424
0.061542436 -0.02933797 0.013695131 0.0011782303 -0.032092188 -0.019682372 -0.069169655 -0.021181656
0.06815511 2.744733e-19 0.02676567 -0.016078388 0.006874679 -0.007824254 -0.001705244 -0.05519484
-0.007415202 -0.030348621 -0.018077971 0.024792776 0.058221586 0.06063429 -0.0076581715 -0.0063548433
0.061293673 -0.009050873 0.048930205 -0.016579857 -0.0061892937 -0.053021476 0.0049824375 0.006009522
-0.015125599 -0.033546638 -0.010543035 -0.032750785 0.016805353 0.022217631 0.0113037 6.67791e-16
0.03674823 -0.021524195 0.052084442 -0.018050669 -0.006586454 -0.041011263 0.065759175 0.04630534
0.07645178 -0.029626269 -1.6144187e-07 -0.04686007 0.040172067 -0.0013000413 0.0271998 0.066074125

weight f4 [128, 64]
00000000: 1136 0abd f5fb 14bd c142 94bc e6eb 0cbd
00000010: 4850 76bc 2f36 16bd 33d8 11bd 8d2f 7dbc
00000020: 83c8 2fbc 232c 0621 0efe 10bd 9fe7 8abc
00000030: 4831 e396 1ebb 8d1e cc89 f5bc f095 b81b
00000040: 41fe 95bc 3c7a d79e 3eac 04bd 95e8 b697
00000050: 21ea 79bc f501 cfbc 9598 cebc a931 4ba1
00000060: adba be1a 3f7b 9898 e8e7 cd18 3fe2 45bc
00000070: 0905 71bc 86fa 01bd fad4 8a1f e41f 19bd
00000080: 655f 88bc d4d9 7a1e f603 19bd cffb 8bbc
00000090: b81b 5997 cd15 8299 b3a1 84bc a9d1 d096
000000a0: d200 8996 c914 96bc df44 21bd b83f 01bd
000000b0: 9d7f 10bd c834 b31a dbd8 9718 02c3 701d
000000c0: 86e4 2b98 01a6 7496 e937 f4bc 83e7 75bc
000000d0: b135 0d97 d301 94bc cf52 05bd b192 02bd
000000e0: c50a 18bd 1b28 4a19 8a8b 1518 9668 97bc
000000f0: bfcd dc94 3d31 af96 17fa f8bc 40e8 e6bc
00000100: 8946 223e aa4d 7d3c aeb0 12be 0d93 d73d
00000110: 07e1 34be 0b13 b23d ca9d 91bd a58c 413c
00000120: 7548 813c 69db 9dbc cd57 a53b 010a 4abe
00000130: 3cba efbc d353 d23c 3ca3 4f3b a782 8f3b
00000140: f642 e43a d962 1899 481d f53c 52f4 0224
00000150: f3da ed3c bda1 ee3d f935 643d 11bb 4abc
00000160: bef9 143c 70b4 9817 42b4 87ba 95c2 2bbe
00000170: 7cd4 9d3c ebef 47bd 2e33 1cb7 db26 f83d
00000180: 6987 16be 826b 959e f679 1bbd d465 193d
00000190: 3e55 8c3b 24f6 e8b0 91e4 a13d 2e6e b23c
000001a0: 1bc8 9a37 1e3f c8bc ef4b cf3d 305e 8a3d
000001b0: fbfd 943d 64c8 23bc 5f82 8039 9282 0b1c
000001c0: a479 4b39 82b8 0cbc 621d 953d b51e 773d
000001d0: fa9d 8f1e 67ff 28be aba2 bc3d 30ff 3c3e
000001e0: 885c 033e 72ac 443c 28f7 9d19 cc3b fc3c
000001f0: 8d73 393c d623 8fbb a324 043e 5e17 9abc
00000200: c9a6 91bc e9db 76bc 90c9 f4bc 115e 8cbc
00000210: 3ce1 f2bc b5c3 54bc 9d99 7dbc 3b30 13bd
00000220: 2a84 f1bc ff92 8315 ebd0 09bc d24f f8bc
00000230: c8eb 4898 32ec 5e16 6a80 afbc b48b d816
00000240: 18fc e0bc 1dde da19 4ffd a5bc f219 f018
00000250: 8f4b dcbc a784 fa3a 1f9b e03a ae39 3c9b
00000260: 3d09 8697 7dd7 429f 463d 1618 2e9c fbbc
00000270: d226 f5bc 70c9 c5bc d950 a19a 1901 eebb
00000280: 3774 e5bc a5b5 421b 6e15 4fbc 5647 f4bc
00000290: 7492 4e19 d6a7 9818 2c52 dcbc 239d 6f18
000002a0: 8112 2516 4f84 dfbc 18a5 a9bb bbe3 55bc
000002b0: 2156 89bc 4eb7 121e 0eb1 921d 723b a817
000002c0: 3fd8 e416 d36c a297 9129 c5bc 5845 e8bc
000002d0: bdd2 2b19 4775 edbc eea0 a3bc d51a c7bb
000002e0: 9c88 4bbc b074 8215 6c3c 8318 ae5c e8bc
000002f0: 841b 1b92 9e24 389a 2f65 8cbc a174 d1bc
00000300: a1c6 dcba 3008 83b9 31a8 8aa9 4f7f 4fb8
00000310: 6c2f 8323 43f4 74b9 908c 3bb6 4edf 3f24
00000320: fdeb 91a4 51dd 781b dddb a0b9 d4e3 7a26
00000330: 4741 d996 021a 9620 ba83 90b5 a2c3 bb16
00000340: 666f 3624 56d0 3a1c 91a3 62ba 5254 9e1e
00000350: 5729 efa4 aab7 8a25 570d c525 7e9c 881a
00000360: c1df 5d1a 7837 5e1c 3cdd a497 3220 5c24
00000370: 1104 34a5 a844 19bb 6a77 0a96 738f 00b9
00000380: e01b f024 26a0 e518 0421 45b9 5f29 9625
00000390: c717 f61c 16c7 b919 3f6a 41a4 1a02 059b
000003a0: 4b98 de1b 0ae2 c82a df3d 49b9 a65d 2db7
000003b0: 37fa 08ba e783 3b98 f7b9 1420 0527 0417
000003c0: 8b81 0517 6476 4816 a365 d6b6 a561 eba4
000003d0: 17d3 4298 4bfc d0ab 3d06 14ba ece6 1ab9
000003e0: c2ed aaba ae36 a59d 6522 b998 6a50 8e25
000003f0: 4c63 7e97 62a6 a31a 846b b1ab d8de a1b5
-0.033742968 -0.036373097 -0.018098237 -0.034404658 -0.015033789 -0.036672767 -0.035606574 -0.0154532315
-0.010728958 4.545938e-19 -0.035398535 -0.016956149 -3.670493e-25 1.5006346e-20 -0.029972933 3.0537141e-22
-0.018309714 -2.2814565e-20 -0.032390825 -1.1820186e-24 -0.015253575 -0.025269488 -0.025219241 -6.88448e-19
7.888375e-23 -3.9415526e-24 5.3225423e-24 -0.012077867 -0.014710673 -0.03173306 5.8797614e-20 -0.03738393
-0.01664705 1.3279936e-20 -0.037357293 -0.017087845 -7.015147e-25 -1.345049e-23 -0.016190385 -3.3736527e-25
-2.2134061e-25 -0.018320458 -0.03937232 -0.031554908 -0.03527795 7.411794e-23 3.9251553e-24 3.1864552e-21
-2.2216607e-24 -1.9762545e-25 -0.029811816 -0.01500881 -4.5627325e-25 -0.018067276 -0.032549676 -0.031878177
-0.037119646 1.04512545e-23 1.9328248e-24 -0.018482488 -2.2295476e-26 -2.8303849e-25 -0.03039269 -0.028186917
0.1584722 0.015460411 -0.1432521 0.105260946 -0.17663966 0.086950384 -0.07110174 0.011813317
0.01578162 -0.019269662 0.005045867 -0.19730379 -0.029263608 0.025674736 0.0031682989 0.0043795886
0.0017414975 -7.878178e-24 0.029921189 2.8396204e-17 0.029035067 0.11651943 0.055715535 -0.012373702
0.009092746 9.868319e-25 -0.0010353404 -0.16773446 0.01926636 -0.048812788 -9.310241e-06 0.12116786
-0.14700092 -1.5820453e-20 -0.037958108 0.037450626 0.0042826226 -1.6950179e-09 0.07904924 0.021781053
1.8451412e-05 -0.02444416 0.10121905 0.06756246 0.072750054 -0.009996507 0.00024511197 4.616e-22
0.00019404903 -0.008588912 0.07280995 0.06033202 1.5206052e-20 -0.16503678 0.09210714 0.18456721
0.12828267 0.012004005 1.6333245e-23 0.030790232 0.011319053 -0.0043682856 0.12904601 -0.01880997
-0.017779725 -0.015067079 -0.029881269 -0.017134698 -0.029648416 -0.012986113 -0.015478519 -0.035934668
-0.029481966 5.31424e-26 -0.008411626 -0.030311499 -2.5968433e-24 1.8007547e-25 -0.021423537 3.4984847e-25
-0.027463958 2.2630383e-23 -0.020262389 6.2064744e-24 -0.026891498 0.001911302 0.0017136073 -1.5569633e-22
-8.661879e-25 -4.1259346e-20 1.941798e-24 -0.03071412 -0.029925738 -0.024143904 -6.6718656e-23 -0.0072633144
-0.028009517 1.6105996e-22 -0.012639387 -0.029819172 1.0679526e-23 3.946055e-24 -0.026894651 3.096936e-24
1.3334433e-25 -0.02728477 -0.0051771514 -0.013054783 -0.016764702 7.767082e-21 3.882895e-21 1.0871752e-24
3.6971857e-25 -1.0496476e-24 -0.024067672 -0.028353378 8.883051e-24 -0.028986586 -0.019974198 -0.0060761967
-0.012422707 5.269068e-26 3.3923717e-24 -0.028364506 -4.894329e-28 -3.8079887e-23 -0.017138092 -0.025568308
-0.0016843864 -0.00024992367 -6.1576077e-14 -4.947121e-05 1.4223132e-17 -0.00023360648 -2.794699e-06 4.160567e-17
-6.3283506e-17 2.058559e-22 -0.0003068139 8.704494e-16 -3.5099437e-25 2.54282e-19 -1.0767174e-06 3.033494e-25
3.9559317e-17 6.1811505e-22 -0.0008645589 1.6763775e-20 -1.0371976e-16 2.406364e-16 3.4183092e-16 5.650111e-23
4.5882476e-23 7.352533e-22 -1.0654099e-24 4.7732166e-17 -1.5613889e-16 -0.002338687 -1.1185232e-25 -0.0001226047
1.0413063e-16 5.935682e-24 -0.00018799683 2.6048886e-16 1.6285061e-21 1.9208962e-23 -4.1940198e-17 -1.1002181e-22
3.6825236e-22 3.5683983e-13 -0.00019191903 -1.0333408e-05 -0.0005225273 -2.4235777e-24 1.2597618e-19 4.270075e-25
4.3138124e-25 1.6193229e-25 -6.389529e-06 -1.0208042e-16 -2.5180485e-24 -1.4849314e-12 -0.00056466815 -0.0001477261
-0.0013040828 -4.3731674e-21 -4.785611e-24 2.4687564e-16 -8.2197157e-25 6.7684026e-23 -1.2606448e-12 -1.2060291e-06

bias f4 [128]
00000000: 6abb 06bd 7aee 52bd 1807 aabc 9bfa 2824
00000010: 2d6c 053d 00d7 893c e20d 7d3b f3a5 bf3c
00000020: 5207 253e 39dc 01bd 46bf 133e f85c 2237
00000030: 0c4f 863d 8aed 0abc 74c2 9d3d 28ae 8e3d
00000040: 5dd1 a03d dd85 80bc 9d35 c4bc b7f2 43bd
00000050: 10ff ce3d 9130 83bd 9d10 9bbd f65c 1324
00000060: f42b a1bd 768c 873d 09f6 bb3d f4eb cc3d
00000070: cc95 36bc 71da 0db6 712a 1a3c d6ba 263e
00000080: 6dd9 4bbd da7b 3dbd 1896 b73d 43db 16bc
00000090: 8b8f b43d 1097 153e 41c9 cdbc 0e23 6bbd
000000a0: 48a2 c23d e95d 92bd b1b4 373d 9d1b f8bb
000000b0: ee87 59bc 78c2 93bd 4ab1 b43c 77d2 0a3e
000000c0: 223e a53d 2d5c d03d e68c 253e 99d6 2abd
000000d0: fca5 2c3d 0b53 603d 9f5e 753d 1451 54b7
000000e0: 2c7f a13d 4cd3 56ad 35f9 5bbc 717f b3bb
000000f0: b04b 84bd e483 e93d 3c1c 58bb 205d 5f3a
00000100: 91d8 5abc 2fd8 fa3d 8e4a c9bd 21ce 52bd
00000110: b065 4bbd 02c9 e5bc 49c3 113d 7bb0 0e3e
00000120: 6cf4 503d 8a95 afa0 97b6 013e fc9f afbd
00000130: 9caa 343d 9ab4 0d3d 0f9a 1fb7 4ff5 493d
00000140: b667 4ebd 1fde 053d cb6c 0abd 5eda 84ba
00000150: 9bf6 60bc 01ed d8bd c33d 2cbd bd6b 22bc
00000160: d6dc 4bbb aa24 cdbd 9441 083e c3ce bfbb
00000170: d329 dc3d 2dcf 4bbd 4b55 c33c 5c21 d2bb
00000180: 8f22 c0bc b321 eb3c 9a62 10a3 e408 6bbc
00000190: aeb8 c83b 3e9e e2bb 3ca6 eab9 8796 d5bb
000001a0: e3c9 dd3d c092 a13d 35af f53c 20e6 ccb2
000001b0: a5b9 4a3d 2817 363d 0356 66bd 4c9f fd3d
000001c0: fffb f4bd 66ec 8a3c 7b4e 1b3e 3782 e3bd
000001d0: fb61 213d 782a 233d a80b 1cbd 35e2 1e3e
000001e0: c7f2 a9bd a69a 1cbd 72f2 f43c 4d23 63bd
000001f0: 0fdf de3d f4d4 5c3d f3b8 ff3d 6fad 7b3d
-0.032893576 -0.05149696 -0.020755336 3.6641464e-17 0.032573868 0.016826153 0.003861301 0.02339456
0.16116074 -0.03170416 0.14428434 9.677598e-06 0.06558046 -0.008479485 0.077031046 0.069668114
0.07852433 -0.015688831 -0.023951346 -0.047838893 0.10107243 -0.06405748 -0.07571528 3.1954285e-17
-0.078697115 0.06618588 0.09177787 0.10005942 -0.011144113 -2.1137787e-06 0.009409533 0.1628221
-0.0497679 -0.046260692 0.08964175 -0.0092075495 0.08816441 0.14608407 -0.02512038 -0.057406478
0.09503609 -0.07146818 0.044850055 -0.007571651 -0.013277037 -0.07214826 0.022057194 0.13556848
0.080684915 0.10173831 0.1616703 -0.041708563 0.042150483 0.054766696 0.05990469 -1.2655062e-05
0.07885584 -1.2211409e-11 -0.013426115 -0.0054778387 -0.06459749 0.11402109 -0.0032975813 0.00085206516
-0.0133572975 0.12248265 -0.09828673 -0.05146611 -0.049657524 -0.02804995 0.03558663 0.1393451
0.05101435 -2.974511e-19 0.12667309 -0.085754365 0.04410802 0.034596063 -9.513008e-06 0.04930621
-0.050391875 0.032682534 -0.03379516 -0.0010135879 -0.01373067 -0.1059208 -0.042051088 -0.009913382
-0.003110697 -0.10016759 0.13306266 -0.0058535053 0.10750165 -0.049758125 0.023844382 -0.006412668
-0.023453979 0.028702592 -7.827135e-18 -0.014345381 0.006125531 -0.0069158366 -0.00044755812 -0.0065181884
0.108295225 0.078893185 0.029990772 -2.3853374e-08 0.04949345 0.044455677 -0.05623437 0.12383899
-0.11962127 0.016958427 0.15166657 -0.11108821 0.039400082 0.039835423 -0.038097054 0.15515979
-0.08298259 -0.03823342 0.029900763 -0.055453587 0.10882389 0.053914025 0.12486448 0.061444696

weight f4 [64, 128]
00000000: a6cd c9bc 117e 5abe c73f 58bc ed0b 57bc
00000010: a418 5fbd 097e 4d3d 9f1e db3d c154 cd3d
00000020: a490 7c3b 8ca1 383c f396 bc3d f9ce f73c
00000030: 1dbb e93d e54d 853c bd8d a23a 3067 313e
00000040: f63b 823d f0ea c03c 9d96 84bd 8233 0b3e
00000050: bae4 5f3c 8693 673d 26dd 173d 96f2 5523
00000060: d2da fabd df20 1b3e f3af 7c3b df22 05bd
00000070: 0232 16bc 2f38 c6b8 36ff e23b 26be 82bd
00000080: 80da 8b3d 4e74 e03c 72fe 9fbd dc1b 9b3d
00000090: 06c3 c93c 0523 0abe 8190 c59a 5848 503c
000000a0: 1950 b23d e768 9dbc 0fbe 733d dd3f 91bd
000000b0: ac72 d0bc 8931 2ab9 0e78 133c 4062 913d
000000c0: 1bd7 243d ec4e d33d e9b2 433d e73d 703d
000000d0: 785c b43d 03d2 ba3b 612a e5bd 2777 4eba
000000e0: b59d e5bd fa2a a6ad 1727 5a3a 049b 0939
000000f0: 6a9c 943c 075d 09bd beef 0737 e9ee 003e
00000100: 9ae6 3fbc 7252 06bd 4605 96bd 9c9c 0f3c
00000110: 5181 6d3d fb68 e0bc 50b8 6d3d 5335 46bd
00000120: f84f 05bc 8891 a899 da44 2fbe 2237 63be
00000130: 29a4 9abc 9841 913d 5fd7 c9b9 d672 96bd
00000140: 4665 9ebd 0e4f 94bb ad8d 60be 4a5e 3619
00000150: 69f5 b7bc db74 eebd 4c25 19bc 761a 00be
00000160: e522 4cab 923e 463d 1ec8 42bd 79e2 b63b
00000170: ad34 8bbd 7edd c4bd 212b 7c3d 5d2c ecbd
00000180: df98 a33c cba3 fabc 6c98 3639 47a8 ebbb
00000190: 115c f73c 4ca8 25bb 7397 a1bc 6b4b 0e3d
000001a0: f3b8 ee3d d0a4 4d3d f1e6 0438 caf9 38b6
000001b0: 17e4 b1bc ba0d 603d 10b9 6338 37a8 17be
000001c0: 5950 9e3d f43f 29be 1f99 2a3d e45a c53d
000001d0: 8a4e a6bd 7db6 d03c c093 b63c cc46 d7bd
000001e0: 6241 5c3d 28e3 02be fb1e 52bc af7e d6bb
000001f0: 19d3 14be f552 c4bc 1071 c23d 080c 69be
00000200: e5c9 83bc bda9 0dbe d25a c0bc 7190 4abc
00000210: 0739 b83c 46a4 093d f8a3 aabd a358 093e
00000220: 6e5b 353d 3781 8e3c b249 3cbd fd79 023d
00000230: 3ea2 da3c 72be 253d 0f0e 803e ff0e e7bc
00000240: 3b17 b73d ce56 3c3c c333 3ebd 3dd7 973d
00000250: d40e 673d 6024 403d fa27 e83c be57 4424
00000260: 8ad6 6fbd 229c 80bd 1562 963c 6cab 853d
00000270: a7ff 04bb e118 842c 8135 1c3d 8021 7e3d
00000280: c36d f03c 0449 20bb a5ee 29bc 541a 373c
00000290: 5e84 843d 8d8c bd3c fe18 1b18 993d 3e3c
000002a0: 490b ae3d d491 183a d2b6 fc3d fb34 0cbe
000002b0: c313 25bb ebe7 953a bb92 643c 130e ea3c
000002c0: c12e d9bb 15bf 1ebd 5ff5 723d 7063 f2bc
000002d0: e496 5d3d c516 4e3d de0b 2fbe c6fd a0ba
000002e0: d8e5 0abe 4bb5 892d 545b 0a3c 7ce3 bc38
000002f0: 060b b23b 1944 a0bd aa37 7f2f 247f b13c
00000300: 0edb a8bb 34ee 74bd e179 32be 606c 26bc
00000310: 2acc 233d 6f60 e3bd e5b0 6abd 80f8 ccbd
00000320: c81b bfbd 89da 969a 21fb 4c3d 546f 23be
00000330: 590d 713d 7bc3 0d3d 8e4b 7e1d 3ab5 5ebc
00000340: 5e2b 82bb 97a2 293e a570 3abe 3192 8e19
00000350: 7032 c1bc a3c9 f2bd 4ae5 c13d e54a 4ebd
00000360: a5d1 a0b9 fbf1 0cbc bb26 1fbd 370d 81bc
00000370: a111 a63b 60ba ccbc 9c90 7d3d 532a 473c
00000380: 9154 e33c 709a 72bd de8f 7c3a 017d e9bb
00000390: 92b4 a23d 52ac 913c 41aa c7bc 2366 acbc
000003a0: ea66 aa3d 79a5 cfbb 9321 6f29 beb1 10b7
000003b0: c5ac 1bbd b592 cdbd aa54 90b7 2fe1 e4bd
000003c0: 3afb ba3a 80d7 c7bd 78f8 22bb 0a9c 173d
000003d0: 3a23 303d 48e7 91bc 8482 00bd b665 1abc
000003e0: 89a2 863d dedc 83bd a4bb cfbb 5edd 19bd
000003f0: 347c 5b3c 7015 82bd be3e 84bd f5c0 22be
-0.024634194 -0.21337153 -0.013198799 -0.013125402 -0.05446686 0.050169025 0.106992 0.10025931
0.003853836 0.0112689845 0.09208479 0.03025006 0.11412642 0.016272495 0.001240186 0.17324519
0.06359093 0.023549527 -0.0647404 0.13593867 0.0136653725 0.056537174 0.037076138 1.1598123e-17
-0.12248768 0.15149258 0.0038557022 -0.03250396 -0.009167196 -9.451841e-05 0.006927396 -0.06383924
0.06828785 0.027399208 -0.078122035 0.07573673 0.024629127 -0.13489921 -8.171075e-23 0.012712561
0.08706684 -0.01921506 0.059507426 -0.07092259 -0.025445305 -0.00016230917 0.009000791 0.07098818
0.040244203 0.103177875 0.047778044 0.058652785 0.088066995 0.005701305 -0.11189724 -0.00078760314
-0.11211721 -1.88911e-11 0.0008321865 0.00013123086 0.01814099 -0.033535983 8.102446e-06 0.12591137
-0.011712695 -0.03279347 -0.073252246 0.008765366 0.057984654 -0.027393809 0.058037102 -0.048390698
-0.008136742 -1.7429572e-23 -0.17116109 -0.22189 -0.018877106 0.07092589 -0.00038498171 -0.07346122
-0.0773416 -0.0045260256 -0.21929045 9.428221e-24 -0.022455888 -0.11643382 -0.009347271 -0.12510094
-7.2523785e-13 0.048399515 -0.047554128 0.005581197 -0.067971565 -0.09612559 0.06156457 -0.11531899
0.019970356 -0.03059568 0.00017413654 -0.007191691 0.030195268 -0.0025277315 -0.019725537 0.034739893
0.1165637 0.050206006 3.1686333e-05 -2.7563533e-06 -0.021715207 0.05470059 5.429337e-05 -0.14810263
0.07730169 -0.16528302 0.041649934 0.09636477 -0.08120449 0.025477642 0.02228725 -0.1051155
0.05377329 -0.12781966 -0.012824769 -0.0065458636 -0.14533652 -0.023965338 0.09494221 -0.22758496
-0.016087482 -0.13834281 -0.023480806 -0.012363539 0.02248813 0.03360393 -0.08332056 0.13412718
0.044276647 0.017395599 -0.04596872 0.03185462 0.026688691 0.040464826 0.25010726 -0.028205393
0.08939978 0.011495305 -0.046436083 0.074141 0.056410626 0.04690969 0.028339375 4.2575046e-17
-0.05855421 -0.0627978 0.018357316 0.06526837 -0.0020293982 3.7544278e-12 0.038136963 0.062043667
0.029349213 -0.0024457583 -0.010371839 0.011175711 0.064705595 0.023138309 2.0045898e-24 0.011611366
0.08498246 0.000582007 0.12339558 -0.13692085 -0.002518878 0.0011436915 0.013950999 0.028571164
-0.006627888 -0.03875645 0.059316035 -0.029588431 0.05409898 0.050314683 -0.1709437 -0.0012282662
-0.13564241 1.5655607e-11 0.008444626 9.006911e-05 0.005433443 -0.078254886 2.3211891e-10 0.02166707
-0.0051530665 -0.05979748 -0.17429306 -0.010157675 0.039989628 -0.111023776 -0.057297606 -0.10008335
-0.09331471 -6.239161e-23 0.050044183 -0.15960437 0.05885062 0.034610253 3.365568e-21 -0.0135930125
-0.003972455 0.1656593 -0.18207033 1.4741502e-23 -0.02358362 -0.118548654 0.094675615 -0.050364394
-0.00030673775 -0.0086026145 -0.038855296 -0.015753372 0.0050680195 -0.024991214 0.06190549 0.012156087
0.027750285 -0.059229314 0.0009634475 -0.0071254973 0.07944597 0.017782364 -0.024373176 -0.021044796
0.083204105 -0.0063368645 5.309778e-14 -8.624453e-06 -0.038006563 -0.10037748 -1.7205562e-05 -0.11175763
0.0014265545 -0.097579 -0.0024867337 0.037014045 0.043002345 -0.017810479 -0.03137447 -0.009423664
0.0657397 -0.064386114 -0.006339507 -0.037564628 0.013396312 -0.06351745 -0.064572796 -0.1589392

bias f4 [64]
00000000: 45f0 a13d 402d af3d e69c 01be c8e2 ef25
00000010: 077d 81bb 656f efb9 47a6 5cbd 2f2b 42bc
00000020: 1b6a 83bd 992c 9fbb cbd7 993d 0a67 7e3d
00000030: cadc da3b b8ce c73d eb47 653d 94a7 203c
00000040: d145 f53d d7a5 98bc bc4e 75bc 69a7 fa39
00000050: 0cd9 3ebd 62ca 8ebc 49a1 15bd fb3a 1fbd
00000060: fa3c 1a22 3b38 99bb 6d7a 083d e498 e0ba
00000070: a36e d23b f907 3fba 904d 033d 3531 93bc
00000080: c7b2 133d a452 22bc 43ad 0eae 3f48 d43d
00000090: 0b00 ab3d 4c1d 5e3d 8854 c0bc 7834 343d
000000a0: 31a8 53bc 2a5e 543d f99d 9b3d c67c 2e2a
000000b0: 7e43 053d 789f 433d 1fe0 84bc f443 90bc
000000c0: 7766 bbbc f371 b8bc 9cc7 a23d 78fc 8b3d
000000d0: 195b e7bb 16ca c3bb b48e 2e3d 6d8c 19bc
000000e0: 9ac5 f2bc 7cb6 aa3d 370c 32bc b452 ebab
000000f0: f419 60bd 7b39 ea3b 7179 363d ff90 9c3d
0.07907156 0.08553553 -0.12657508 4.1613564e-16 -0.003951672 -0.00045668628 -0.053869512 -0.011851116
-0.064167224 -0.0048576114 0.07511862 0.062109984 0.006679152 0.09756225 0.05597679 0.009805579
0.11976207 -0.018633766 -0.014972385 0.00047808446 -0.04659371 -0.017430488 -0.036530767 -0.038874608
2.0903173e-18 -0.0046758926 0.03331988 -0.0017135409 0.0064218803 -0.000728726 0.03205639 -0.0179678
0.036059167 -0.009907398 -3.244095e-11 0.10365342 0.083496176 0.05422716 -0.023477808 0.04399535
-0.012918518 0.051847614 0.0759849 1.5497594e-13 0.03253507 0.047759503 -0.01622015 -0.017610528
-0.022876007 -0.022515273 0.07948229 0.06835264 -0.0070604202 -0.0059750183 0.04261656 -0.009371859
-0.02963524 0.083355874 -0.01086717 -1.6720709e-12 -0.05471225 0.0071479655 0.04454941 0.07644843

weight f4 [10, 64]
00000000: 18a4 acbd 7019 ac3d 8bbb 98bb 9aa6 2f9b
00000010: ec1e 2918 c7df 81bc f633 e2a1 2371 89bd
00000020: a59a d93c 8e59 d63a 50dc 80bc 4f81 aabd
00000030: 2f23 cebd e9a5 863c 05df 283e 4f9e 7bbd
00000040: 803c dd3c 4b74 a0bb 249d 3198 df29 19be
00000050: 5c06 f7b9 178d fbbd cfd8 a6be f1c0 f3bd
00000060: 15c8 201b 2346 9199 d2b8 1cbe 195b 75be
00000070: bd49 583d 425d 583c 13a6 653c 28d1 3f3d
00000080: 572f 05be 8e1c 34bd cf98 299b a296 833d
00000090: 108a dc3d 8c7e 6b3d 1c9d 8397 321e c23d
000000a0: f07a 853a 1162 773c 9179 a33d c383 199f
000000b0: 2e4d 38bd 6c3c e63c 65f9 18bd e87c f5b5
000000c0: 9d4b 373d e596 96bd c79f cf3d b7b4 ef3d
000000d0: 6f11 fc39 45b3 62bd 30f0 9c3d 1391 0b3c
000000e0: 8b5d 96bc 1248 79bc 390a 7f3e 9b88 80bc
000000f0: 7a52 0abe e32a 143d b4b3 063d e1f6 bdbd
00000100: c6db d6bc bf74 d538 454c 6f3d 41b1 a217
00000110: 98f9 fa98 adb3 6ebc 6f78 3839 77a6 283d
00000120: af2a aa3b 0155 1738 e929 853d 67c4 dc3d
00000130: cf4d 6c3d 1a83 82bd e31d 80be 07bf 763c
00000140: 0dfa c3bd b2a5 4abc f80f 931b 2709 2c3d
00000150: 6d83 7d38 90be 23be 0647 c63c 4f5b b03c
00000160: d705 359a 8137 829e 273d 4c3d e5e6 4a3e
00000170: 811f 463d 4452 713c 6897 7c3b db29 bb3c
00000180: a9e2 dbba bc9d 3bbd da55 0499 19ad 62be
00000190: f46b 7e3c d13f 53be ae46 6917 e42c d43d
000001a0: 1b66 c6ba 7f61 183d 86eb 273e dd2b 071c
000001b0: 5a69 ca3d 6c36 973b aec6 a3bd 2a57 15bc
000001c0: 230f babc 44e5 69bd c401 f9be 369e 14bd
000001d0: fefc babb 9ee9 dd3d 8cdf 78bd 9ba0 663b
000001e0: 1061 cc3c 96c1 f5be 548f f0bd 5faf 90bb
000001f0: 2d43 18bd 2f9a dd3c 4c73 2e3e feb3 963d
00000200: a0df 59bd d067 4f3d dff1 a7bd 5e89 c719
00000210: d25a 6098 dda5 843c 1008 6129 3476 433e
00000220: 292d 25bc 9553 0f3c a8ac 01be 4eb7 b6bd
00000230: 4b10 d3bd 524d 4a3d 28f8 833d 6950 133d
00000240: 8373 de3d 0fb9 cdbb 3570 ca17 6e49 a0bc
00000250: f1a6 ddba 0301 c93d 88ad 453d 4708 d23d
00000260: d4e8 d61c 5c72 2021 4c08 6cbd 8f1c c6bc
00000270: 3bc4 463a 5c9f 7b3c 874c 4dbd ceb8 21bc
00000280: 6edb 47be bb72 51bc 6cce 0f1c abc3 8f3d
00000290: 69b9 d63d 6a6b 973d a0e6 1899 7e53 8a3d
000002a0: d67d 95bb 74d9 1bbd c7cc 9cbd c980 2b1d
000002b0: d3a3 b5bd 022a 11be 92ba 9bbc c381 13bb
000002c0: b97d 053c 4d91 2f3d 81f9 11be 367f 8f3d
000002d0: c969 83bc 7ba8 00be a0af 11be 5fe1 393b
000002e0: 9723 2d3c 5a2d 16bd f6d6 3a3d dd51 3f3c
000002f0: f77d 283d 2601 d7bb 799b e0bc f765 f13d
00000300: 5d3c 5abd 3f7e fbbd 0ff7 813d 5677 d71b
00000310: 2346 ca98 6915 6b3c fd2d 1ca4 bb98 25bd
00000320: fb64 bebc 9a95 4d38 46ca 293c 5396 7bba
00000330: 5ae1 923d 219c 883d 5204 063d d2fc 683d
00000340: 3d73 00be 7529 92bb 97e1 2c18 c395 e53d
00000350: 2f37 48b9 dc49 913d 27fe 17bd 70bf e2bd
00000360: 913d 699c 2564 8699 1b4a 993d 141d 2cbd
00000370: f9c1 7cbd 543b 68bc 2164 16bd 5e65 2e3c
00000380: 9356 9d3d ecfb d2bc 932e 981e a091 d3bd
00000390: 8436 b23d c1f9 bdbd 1ba1 4918 b968 ad3d
000003a0: 69aa 993a 4393 e53c 3573 283d fe06 fe18
000003b0: 8ccd 543d 7718 633d 2004 de3d 0209 49b7
000003c0: b0ad 8c3c e6bc 2a3d 3a87 06bd 4a41 adbc
000003d0: 7dfa 0f3c 2f38 193d 586e acbd d5b9 75bc
000003e0: 6a64 2abc 35d0 09be 565e aabd bfc5 4fbc
000003f0: 983b 05be f3a7 66bc 7cfb 273d ca5c 953d
-0.08429736 0.08403289 -0.0046610287 -1.4529493e-22 2.185835e-24 -0.015853776 -1.532811e-18 -0.06711032
0.026562998 0.0016353594 -0.015730053 -0.08325445 -0.100653045 0.016436534 0.16491325 -0.06143027
0.027006388 -0.0048966757 -2.295605e-24 -0.14957379 -0.0004711625 -0.1228277 -0.32587287 -0.11902035
1.329954e-22 -1.5020977e-23 -0.15304878 -0.23960532 0.052804697 0.013205828 0.014016646 0.046830326
-0.1300634 -0.043972544 -1.4028727e-22 0.06425215 0.10768521 0.05749373 -8.505337e-25 0.094784155
0.0010183733 0.015099064 0.07982171 -3.2508e-20 -0.04499548 0.028104983 -0.037347216 -1.8290275e-06
0.044749845 -0.073529996 0.10137897 0.117043905 0.00048078175 -0.055346746 0.07663 0.008518475
-0.018355152 -0.015214937 0.24906243 -0.015690139 -0.13508025 0.036173712 0.032886222 -0.09275604
-0.026227843 0.00010178377 0.058422346 1.051375e-24 -6.487551e-24 -0.014569205 0.00017592472 0.04117438
0.0051930766 3.608037e-05 0.06502134 0.10779648 0.05769139 -0.06372662 -0.25022802 0.015060193
-0.09569178 -0.012368606 2.432943e-22 0.042000916 6.04423e-05 -0.15990663 0.024203788 0.021527914
-3.743464e-23 -1.3787241e-20 0.049863007 0.19814642 0.04836989 0.014729086 0.0038542394 0.022847107
-0.0016775924 -0.045804724 -6.841578e-24 -0.22136344 0.015528668 -0.20629813 7.537557e-25 0.10360125
-0.0015136631 0.037202355 0.16398439 4.4724445e-22 0.098833755 0.004614642 -0.079968795 -0.00911502
-0.022712296 -0.05710341 -0.4863416 -0.036283694 -0.0057064286 0.108355746 -0.060760066 0.0035190943
0.024948627 -0.47999257 -0.11746088 -0.004415437 -0.03717344 0.02705106 0.1703617 0.073585495
-0.05319178 0.050636113 -0.0820043 2.06316e-23 -2.8997174e-24 0.016192371 4.996703e-14 0.1908806
-0.010081568 0.008747955 -0.1266352 -0.08921681 -0.10305842 0.049390145 0.064438164 0.035965357
0.10861876 -0.006278164 1.3082269e-24 -0.019566264 -0.0016910714 0.09814646 0.048261195 0.10255485
1.4221517e-21 5.436146e-19 -0.0576251 -0.02418354 0.0007582341 0.015357818 -0.05012181 -0.009870721
-0.195173 -0.0127837015 4.7581525e-22 0.070197426 0.10484583 0.073935345 -7.90479e-24 0.06754206
-0.00456212 -0.038049176 -0.07656246 2.2698242e-21 -0.088691376 -0.14176181 -0.019009862 -0.0022507764
0.00814765 0.04286318 -0.14255334 0.070066854 -0.016041653 -0.1256427 -0.14227152 0.0028363091
0.010567567 -0.036664344 0.04561516 0.011677233 0.041135754 -0.006561416 -0.027417885 0.117870264
-0.053280223 -0.12279939 0.06345951 3.5645885e-22 -5.2286596e-24 0.014348366 -3.386606e-17 -0.04042886
-0.02324151 4.9015136e-05 0.010363167 -0.000959729 0.07171889 0.06670404 0.032718964 0.056881733
-0.1254396 -0.0044605085 2.2344373e-24 0.112102054 -0.00019094044 0.07094166 -0.037107613 -0.1107167
-7.7172806e-22 -1.3895723e-23 0.074848376 -0.04201992 -0.061708424 -0.014174301 -0.036716584 0.010644285
0.07682528 -0.025754891 1.6112889e-20 -0.1033051 0.08701804 -0.092761524 2.6059979e-24 0.0846724
0.001172376 0.028024321 0.041125495 6.566452e-24 0.051953837 0.055443253 0.108406305 -1.1982631e-05
0.017172664 0.041684054 -0.032843806 -0.021149296 0.008787748 0.037407096 -0.08419484 -0.014997919
-0.010399917 -0.13458331 -0.083187744 -0.012681424 -0.13011014 -0.014078128 0.04101132 0.07293089

bias f4 [10]
00000000: d57c 393e 4323 a93c 401c 90bd 79bc 3fbd
00000010: c847 07bd fab7 e1bd bc47 713e d963 41bd
00000020: 36c8 b73c 52ab 773c
0.18114026 0.020646697 -0.07036638 -0.0468106 -0.03302744 -0.11021419 0.2356252 -0.047214363
0.022434335 0.01511653
