2-hypertuning-mlflow/mlruns/2/fce21c99df6c474187954d2d83b21aa2/artifacts/pytorch_models/20250921-1133model.pt (torch, 54917 bytes, 12 tensors)

weight f4 [8, 1, 3, 3]
0.4587694 0.18692744 -0.07587968 0.38271543 -0.08413997 0.063701056 0.4355675 0.12223806
-0.19671881 0.21585591 0.43214694 0.39549252 0.3464801 -0.18677585 0.3085251 0.3275772
0.32579497 -0.02920746 -0.26168975 -0.332194 -0.30557296 0.11502313 0.07519175 -0.112055145
0.2776547 0.20117915 0.4068237 -0.5321093 -0.2770955 -0.62518144 -0.48629838 -0.4608186
-0.57143414 0.15041624 -0.30994913 -0.31386882 -2.6974972e-08 5.4079033e-25 1.4192821e-24 -3.821516e-05
-0.00038675923 -4.1151772e-05 4.3837118e-11 -6.7557594e-25 -1.3880933e-08 0.23167852 0.41125503 -0.021894298
0.19047123 0.025809985 0.41557384 0.06862554 -0.0115869185 -0.030662155 0.37025037 0.20806976
0.09503889 0.21737818 0.01975654 -0.38590065 -0.046606295 -0.099303834 -0.3211294 0.42662752
0.3608683 0.14540489 0.46132293 0.13884969 -0.15628137 0.29228723 -0.08856325 -0.20885545
00000000: d3e3 ea3e e869 3f3e ce66 9bbd 47f3 c33e
00000010: 9451 acbd b375 823d b402 df3e f357 fa3d
00000020: a870 49be 5509 5d3e 5d42 dd3e ff7d ca3e
00000030: d765 b13e 2b42 3fbe 00f7 9d3e 33b8 a73e
00000040: 99ce a63e 7c44 efbc 33fc 85be 5515 aabe
00000050: 0f74 9cbe 3f91 eb3d 22fe 993d 2b7d e5bd
00000060: c228 8e3e e801 4e3e 324b d03e 5138 08bf
00000070: 76df 8dbe e40b 20bf 1afc f8be 6af0 ebbe
00000080: 8249 12bf b706 1a3e a7b1 9ebe 6ab3 a0be
00000090: 97b6 e7b2 d35d 2717 8e9f db17 3749 20b8
000000a0: f2c5 cab9 619a 2cb8 35cc 402e a414 5197
000000b0: fd78 6eb2 223d 6d3e 0590 d23e ac5b b3bc
000000c0: e40a 433e 766f d33c 18c6 d43e 8c8b 8c3d
000000d0: 0fd7 3dbc 332f fbbc 7591 bd3e 3d10 553e
000000e0: c0a3 c23d 6398 5e3e 78d8 a13c c594 c5be
000000f0: 3ee6 3ebd cf5f cbbd 136b a4be ec6e da3e
00000100: bbc3 b83e 05e5 143e 8532 ec3e 9d2e 0e3e
00000110: 3908 20be aca6 953e a660 b5bd 34de 55be

bias f4 [8]
0.2267432 0.09842538 -0.105801016 0.25533557 -5.7112422e-05 -0.24333414 -0.049911972 0.1567433
00000000: 5f2f 683e 3f93 c93d 34ae d8bd 58bb 823e
00000010: ff8b 6fb8 962c 79be 7f70 4cbd 5181 203e

weight f4 [8, 8, 3, 3]
0.16494018 0.15624665 0.121131584 -0.030405432 -0.024317844 -0.044524137 0.076247916 -0.0014527194
-0.0554877 0.13732785 0.12144739 0.11615087 -0.08982706 -0.051472638 0.051333547 -0.10616915
0.10090391 0.015044394 -0.45558563 -0.403422 -0.26316062 -0.42762265 -0.31586292 -0.05862935
-0.33881187 -0.11386865 0.06392949 -0.08776906 -0.0343695 -0.07592078 0.0693989 -0.012366662
-0.0058399094 0.14526853 -0.028940078 0.0496185 1.002805e-23 5.9800153e-24 -1.0948198e-23 8.434344e-25
1.1635292e-24 -8.372472e-23 5.349787e-23 -4.3444414e-25 1.7678878e-22 -0.09751403 -0.11772149 0.006121074
-0.124754846 -0.055683393 -0.114683844 -0.2329191 -0.2126316 -0.18778779 0.225734 0.1205328
0.29218394 0.4374056 0.21465 0.12877959 0.32472277 0.35042366 0.22670712 -0.02622869
0.2015451 0.1755554 0.09672383 -0.026833622 0.109070905 -0.11938615 -0.07876707 0.09004966
0.041632105 -0.08175528 0.063996516 -0.0293598 0.066973954 0.10541321 -0.014033014 0.09676508
0.094138265 -0.04059282 0.07735051 0.09413958 -0.121535376 -0.07556892 -0.021810804 -0.18313122
-0.12208211 0.0050133495 0.27785063 0.28663856 0.29425555 0.31118062 0.1943387 0.15204689
0.3068014 0.2636758 0.14359778 0.2052071 0.09780104 0.25259814 0.23964824 0.28812686
0.21004792 0.28282732 0.15891197 0.27257296 3.5539443e-20 -3.6881189e-22 -1.6475583e-20 -1.1365279e-20
-4.998495e-25 -9.385504e-26 -1.3130673e-24 4.2390047e-25 -8.0519723e-25 0.059657525 0.1398602 0.15959951
0.044839185 0.15833458 0.16496184 0.024986127 0.11765455 0.101608455 0.16038516 -0.010353255
0.19016348 0.36665505 0.40543437 0.4436016 0.46923915 0.5356153 0.43168584 -0.16810392
0.07388177 -0.04727028 -0.059548847 0.0050232247 -0.015205625 -0.17126873 0.0460849 0.11930615
0.2892758 0.25022298 0.01503097 0.15428643 0.1741302 0.16762188 0.22924286 0.08319611
0.08512833 0.29969695 0.024610903 0.08797908 0.3403195 0.1907923 -0.07947862 0.21058212
0.12148045 0.011989858 -0.30390847 -0.059131753 -0.07693453 -0.27836823 -0.061619528 -0.01049483
-0.12962337 0.047282554 0.23976295 -0.16665876 -0.08619152 -0.2174975 -0.28896692 -0.13144182
-0.26292387 -0.23102283 -0.3079197 -0.22112206 -7.33479e-25 -1.8574006e-24 7.1146773e-25 -1.3324826e-19
-1.2747179e-23 -7.9108193e-22 6.3740247e-25 -6.7449715e-26 -1.8488828e-21 -0.050561845 -0.18169817 -0.18326735
-0.021346994 -0.033083573 -0.26495892 -0.05716012 -0.15713121 -0.10584497 -0.39387292 -0.28475577
-0.20727864 -0.31978196 -0.14030105 -0.20612752 -0.12362377 -0.16386132 -0.059227034 0.31943443
0.20011887 0.0382264 0.15336111 0.18138133 -0.0007209388 0.24622494 0.05657437 0.09256706
0.07963675 0.135991 0.068065375 0.010181608 0.2402057 0.21943691 0.097565666 0.13480005
0.16661601 0.060332656 0.23435308 0.07809036 0.10187181 0.066513106 0.23161867 0.18261458
0.18264979 0.107208945 -0.48928726 -0.6008472 -0.42416418 -0.6929608 -0.5719881 -0.41833237
-0.6005937 -0.40045008 -0.2364661 -0.21678552 -0.13490841 -0.26735437 -0.14181451 -0.23747191
-0.37928522 -0.25238922 -0.1316157 -0.3263973 1.9811978e-25 1.1221697e-23 5.531448e-20 -9.630627e-23
00000000: 14e6 283e 1fff 1f3e d613 f83d d014 f9bc
00000010: 3736 c7bc f15e 36bd de27 9c3d 2d69 beba
00000020: 1247 63bd ac9f 0c3e 69b9 f83d 82e0 ed3d
00000030: 40f7 b7bd f9d4 52bd 2043 523d 366f d9bd
00000040: b6a6 ce3d c37c 763c 8542 e9be 548d cebe
00000050: fdbc 86be 5bf1 dabe c9b8 a1be 5425 70bd
00000060: c078 adbe f733 e9bd 77ed 823d 44c0 b3bd
00000070: 08c7 0cbd 5b7c 9bbd 0321 8e3d 8a9d 4abc
00000080: b65c bfbb 46c1 143e be13 edbc c53c 4b3d
00000090: 80f8 4119 3457 e718 dac4 5399 e183 8217
000000a0: 240c b417 176f ca9a 9459 811a 3674 0697
000000b0: 7ab9 551b 70b5 c7bd f717 f1bd 4a93 c83b
000000c0: 787f ffbd 4514 64bd 5ddf eabd 5882 6ebe
000000d0: 19bc 59be 714b 40be d026 673e e7d9 f63d
000000e0: 2299 953e a0f3 df3e 36cd 5b3e ccde 033e
000000f0: 1042 a63e bb6a b33e e925 683e 8ddd d6bc
00000100: d761 4e3e cbc4 333e 2517 c63d 2fd2 dbbc
00000110: 9160 df3d ba80 f4bd a150 a1bd f56b b83d
00000120: 6d86 2a3d 506f a7bd 9b10 833d f783 f0bc
00000130: a429 893d e2e2 d73d baea 65bc c52c c63d
00000140: 90cb c03d a844 26bd f269 9e3d 41cc c03d
00000150: 8ae7 f8bd e1c3 9abd 92ac b2bc c086 3bbe
00000160: 2f06 fabd 0647 a43b 7042 8e3e 4ac2 923e
00000170: aaa8 963e 1153 9f3e b900 473e 2eb2 1b3e
00000180: 1315 9d3e 8400 873e 4c0b 133e cf21 523e
00000190: e94b c83d 8b54 813e 5966 753e 5d85 933e
000001a0: cd16 573e bece 903e d2b9 223e af8e 8b3e
000001b0: 8dd4 271f e0ee de9b 849b 9b9e 1eaf 569e
000001c0: 28b2 1a97 b35f e895 f42f cb97 db30 0317
000001d0: 4c32 7997 735b 743d 8337 0f3e 0e6e 233e
000001e0: 4ba9 373d 7622 223e c2eb 283e b5af cc3c
000001f0: def4 f03d 1818 d03d 023c 243e b3a0 29bc
00000200: 37ba 423e 36ba bb3e 1895 cf3e c01f e33e
00000210: 1d40 f03e 161e 093f ed05 dd3e 6f23 2cbe
00000220: 534f 973d 7b9e 41bd 7ee9 73bd dd99 a43b
00000230: 0421 79bc 1261 2fbe 85c3 3c3d c856 f43d
00000240: f51b 943e 3a1d 803e 7544 763c 43fd 1d3e
00000250: 304f 323e 12a5 2b3e a4be 6a3e b962 aa3d
00000260: c357 ae3d e171 993e ce9c c93c 602e b43d
00000270: 5c3e ae3e 0f5f 433e b0c5 a2bd d7a2 573e
00000280: beca f83d 1c71 443c e499 9bbe 2334 72bd
00000290: da8f 9dbd 4886 8ebe c264 7cbd 82f2 2bbc
000002a0: fdbb 04be 5aab 413d 6b84 753e 98a8 2abe
000002b0: 2e85 b0bd aab7 5ebe 79f3 93be af98 06be
000002c0: f59d 86be 4091 6cbe a7a7 9dbe d26d 62be
000002d0: 3200 6397 9cb5 0f98 4830 5c17 d14f 1da0
000002e0: f990 7699 0017 6f9c 3a44 4517 56ff a695
000002f0: 98b2 0b9d f019 4fbd 160f 3abe 70aa 3bbe
00000300: e4df aebc a482 07bd b2a8 87be bb20 6abd
00000310: 01e7 20be 3fc5 d8bd b6a9 c9be 82cb 91be
00000320: da40 54be 76ba a3be 14ab 0fbe 1813 53be
00000330: 762e fdbd 43cb 27be 0c98 72bd e98c a33e
00000340: f6eb 4c3e 4993 1c3d b20a 1d3e 07bc 393e
00000350: 62fd 3cba 6422 7c3e 87ba 673d cc93 bd3d
00000360: 9818 a33d 3a41 0b3e dc65 8b3d c2d0 263c
00000370: 7cf8 753e 12b4 603e 82d0 c73d 0609 0a3e
00000380: 639d 2a3e 601f 773d 41fa 6f3e d7ed 9f3d
00000390: 2ba2 d03d 0638 883d 722d 6d3e 51ff 3a3e
000003a0: 8c08 3b3e 5d90 db3d dc83 fabe 1fd1 19bf
000003b0: 0c2c d9be e165 31bf d06d 12bf a92f d6be
000003c0: 82c0 19bf cb07 cdbe 2b24 72be 06fd 5dbe
000003d0: 6e25 0abe ace2 88be d337 11be d62b 73be
000003e0: ac31 c2be 2939 81be 44c6 06be 8c1d a7be
000003f0: aa42 7516 270f 5919 8d9b 821f b2da e89a

bias f4 [8]
0.056913614 0.06192936 -0.022110771 -0.06308764 0.118170284 -0.05354124 -0.015115996 -0.06278816
00000000: 401e 693d a4a9 7d3d a621 b5bc 1834 81bd
00000010: 4303 f23d 0f4e 5bbd 15a9 77bc 1497 80bd

weight f4 [8, 8, 3, 3]
-1.0185182e-06 -0.00046308796 -0.0020831737 -1.210368e-06 -0.00019223236 -0.0016029261 -1.0140003e-06 -1.7735521e-06
-1.1690524e-06 -1.1009712e-05 -9.823254e-06 -4.7496488e-07 -1.2281651e-05 -6.829177e-06 -1.8744399e-07 -1.2457474e-05
-1.806829e-05 -6.3637112e-06 -8.239931e-09 -0.00026604047 0.0005905965 -2.9725042e-10 -5.592967e-06 -0.000797362
-3.7038425e-10 -1.70289e-10 -2.388531e-10 -2.0973362e-06 -0.00057582214 0.0037465724 -1.2124891e-06 -0.00015071208
-0.0012223469 -1.0274277e-06 -1.7552935e-07 -1.2863638e-06 -7.622697e-07 -0.0009042511 -0.0035524056 -5.2665234e-07
-8.960396e-05 -0.0007411701 2.770956e-07 -2.1358285e-06 -6.028318e-07 -3.0169592e-06 -0.0007340405 -0.0042701242
-5.7020593e-06 -0.0001415223 -0.001384377 -7.5204257e-06 -5.751701e-06 -5.9400354e-06 -8.7933677e-10 -0.0009054545
-0.0077234204 -5.391463e-10 -3.7745864e-05 -0.0012130995 -2.0256652e-10 -2.750173e-10 -4.888073e-10 -2.2727465e-13
-0.00016683011 -0.008451581 -3.0951773e-14 -2.201959e-06 -0.0003146417 2.6332067e-14 -2.0133134e-13 -2.7595894e-11
0.057534397 -0.03221934 0.07651736 -0.045406308 0.08837132 0.00033509324 0.011380531 0.017359989
0.20176907 0.1938068 0.18841434 -0.091667645 0.17883278 0.11459131 -0.09383981 0.11493466
-0.105671 -0.18719105 -0.29674608 -0.0883596 0.18282735 -0.17455934 0.063047476 0.14535521
-0.09954727 0.06264615 0.019861951 -0.14332412 0.0028093937 0.21714263 -0.014687763 0.01762969
0.11989018 -0.040888265 -0.017245937 -0.008500871 -0.102211446 0.031218622 0.00080133136 -0.03375129
0.11092995 0.12954363 -0.10405333 0.10194038 0.09493621 -0.15077223 -0.052824136 0.1375474
-0.11794385 -0.13517763 0.006614549 0.08783025 0.13592061 0.14416383 -0.06231122 0.022991069
0.16432665 -0.17530599 -0.080080785 0.021429844 -0.10939162 0.09074668 0.09507409 -0.17433186
-0.019487457 0.025906546 -0.17094843 -0.030645486 0.019656017 -0.11312077 -0.081473544 -0.008886135
0.02628717 0.2580463 0.10717874 0.17829533 0.123224795 0.010311433 0.053554077 0.0010195766
-0.008425172 0.0045302557 -0.2497804 -0.21476209 -0.03989569 -0.13757704 -0.15183751 0.17098643
-0.14673963 -0.23534809 0.011088903 0.19815058 0.028218212 -0.043952923 0.12831214 0.04459555
-0.14117108 0.12803565 0.07956225 0.17406173 0.052799787 0.08515775 0.043898772 0.10560551
-0.21027304 -0.018460605 -0.04461477 -0.0043893876 0.09869988 0.09483311 0.031858925 -0.0015448604
-0.018506948 -0.082614 0.096952215 0.010180391 -0.08962836 0.042164024 0.09367854 0.14222236
0.0565 0.05634717 -0.0017528065 -0.095325835 0.064120635 0.046985563 0.14180166 0.22746211
0.12235548 0.1459049 0.10172027 0.0064686704 -0.03382923 0.060231276 -0.032209985 0.15468545
0.22080025 0.07657579 0.046976812 0.00559947 -0.0061669 0.038142744 -0.05087112 0.017473249
0.1393585 0.2245366 0.033891354 0.08830422 0.16682784 0.076155335 -0.0048356387 -0.016400712
0.14932127 -0.025153251 -0.14227878 0.052156337 0.13635781 0.11022225 0.252623 0.18671015
0.3462461 0.4829546 -0.041016847 -0.017021095 0.19761667 0.051301517 0.13728747 0.07430487
-0.18042685 -0.016501058 -0.10566227 -0.068696536 -0.038066126 0.071955815 0.035388574 0.030004932
0.0878699 -0.2448876 -0.058093492 -0.12507598 0.0594797 0.14710268 -0.0064000324 -0.053783443
00000000: 05b4 88b5 9dca f2b9 db85 08bb ee73 a2b5
00000010: fb91 49b9 4619 d2ba c918 88b5 c90a eeb5
00000020: 56e8 9cb5 5ab6 38b7 8ece 24b7 adfe feb4
00000030: 4a0d 4eb7 2f26 e5b6 3644 49b4 7200 51b7
00000040: 5b91 97b7 dd87 d5b6 9a8f 0db2 597b 8bb9
00000050: 43d2 1a3a 476a a3af 39ab bbb6 0f06 51ba
00000060: f39e cbaf 183c 3baf 964f 83af f6bf 0cb6
00000070: c5f2 16ba 0e89 753b cfbc a2b5 7708 1eb9
00000080: 2837 a0ba 26e6 89b5 2479 3cb4 20a7 acb5
00000090: c69e 4cb5 440b 6dba 7acf 68bb 465f 0db5
000000a0: c2e9 bbb8 154b 42ba bbc3 9434 4155 0fb6
000000b0: 49d2 21b5 f776 4ab6 a06c 40ba 66ec 8bbb
000000c0: 5154 bfb6 9a65 14b9 fc73 b5ba f757 fcb6
000000d0: bcfe c0b6 8450 c7b6 d3b5 71b0 065c 6dba
000000e0: bf14 fdbb 0c33 14b0 5051 1eb8 dd00 9fba
000000f0: 68b9 5eaf 3e31 97af c15c 06b0 75e3 7faa
00000100: 1eef 2eb9 8078 0abc f764 0ba9 5ec5 13b6
00000110: 7ef6 a4b9 9d2d ed28 cfad 62aa 6ebc f2ad
00000120: 30a9 6b3d 6df8 03bd 22b5 9c3d f7fb 39bd
00000130: 06fc b43d 74af af39 6875 3a3c 8936 8e3c
00000140: 8d9c 4e3e 4a75 463e b0ef 403e 3fbc bbbd
00000150: f11f 373e d9ae ea3d 162f c0bd dd62 eb3d
00000160: 0a6a d8bd 03af 3fbe 1aef 97be e1f5 b4bd
00000170: 1837 3b3e afbf 32be 091f 813d ffd7 143e
00000180: 70df cbbd a04c 803d 88b5 a23c 8fc3 12be
00000190: ce1d 383b a35a 5e3e f1a4 70bc 246c 903c
000001a0: fc88 f53d 747a 27bd 5a47 8dbc 3d47 0bbc
000001b0: 3c54 d1bd 32be ff3c 7010 523a cb3e 0abd
000001c0: 3e2f e33d 16a7 043e ea19 d5bd 1ec6 d03d
000001d0: ea6d c23d 0964 1abe 1f5e 58bd 3ad9 0c3e
000001e0: 8c8c f1bd 016c 0abe dcbe d83b 59e0 b33d
000001f0: c62e 0b3e af9f 133e 0d3a 7fbd c457 bc3c
00000200: 3f45 283e 6a83 33be 6501 a4bd a48d af3c
00000210: b708 e0bd 65d9 b93d 34b6 c23d 0d84 32be
00000220: 29a4 9fbc f739 d43c 1b0d 2fbe 3e0c fbbc
00000230: a805 a13c ddab e7bd 9adb a6bd 2797 11bc
00000240: 3158 d73c a51e 843e 8780 db3d 0d93 363e
00000250: 485d fc3d 49f1 283c 855b 5b3d 50a3 853a
00000260: bc09 0abc 8a72 943b 6fc6 7fbe 98ea 5bbe
00000270: aa69 23bd ffe0 0cbe 4b7b 1bbe 1117 2f3e
00000280: ea42 16be 17ff 70be 3bae 353c fce7 4a3e
00000290: e129 e73c fb07 34bd 4264 033e d3a9 363d
000002a0: 278f 10be c71b 033e 88f1 a23d 3d3d 323e
000002b0: 9744 583d 3067 ae3d 33cf 333d b447 d83d
000002c0: d151 57be b23a 97bc fabd 36bd dad4 8fbb
000002d0: 2a23 ca3d dd37 c23d 817e 023d ea7c caba
000002e0: e29b 97bc 8731 a9bd e28e c63d a8cb 263c
000002f0: 138f b7bd 2fb4 2c3d 89da bf3d bda2 113e
00000300: 8b6c 673d 4acc 663d 6dbe e5ba 313a c3bd
00000310: ae51 833d ef73 403d 7434 113e d4eb 683e
00000320: 8395 fa3d 1868 153e b852 d03d 24f7 d33b
00000330: 8590 0abd 12b5 763d 9eee 03bd dd65 1e3e
00000340: 7619 623e c5d3 9c3d c26a 403d c27b b73b
00000350: b513 cabb 913b 1c3d 3c5e 50bd 0f24 8f3c
00000360: ffb3 0e3e ecec 653e a9d1 0a3d d8d8 b43d
00000370: ebd4 2a3e 54f7 9b3d 4774 9ebb c95a 86bc
00000380: ade7 183e 310e cebc 87b1 11be e2a1 553d
00000390: 62a1 0b3e 34bc e13d cd57 813e f230 3f3e
000003a0: 2b47 b13e d345 f73e 4801 28bd d36f 8bbc
000003b0: 065c 4a3e 8a21 523d 1695 0c3e 272d 983d
000003c0: d1c1 38be 3a2d 87bc 7665 d8bd c5b0 8cbd
000003d0: 3aeb 1bbd 925d 933d 9cf3 103d e7cc f53c
000003e0: 22f5 b33d d1c3 7abe 71f3 6dbd eb13 00be
000003f0: fca0 733d 16a2 163e 5db7 d1bb 074c 5cbd

bias f4 [8]
-0.004872621 0.1319132 0.01678928 0.18209097 -0.0540393 0.08663576 0.09186739 0.16729093
00000000: 82aa 9fbb 4114 073e ac89 893c 0e76 3a3e
00000010: 5058 5dbd 176e b13d f824 bc3d 504e 2b3e

weight f4 [128, 8]
-5.4947408e-18 0.41399702 -0.25277945 0.34537032 -0.09586895 -0.31517586 0.35782018 -0.086758666
0.00031397064 -0.03689658 -0.13449618 -0.2769416 0.21400096 0.22199441 0.1463265 -0.008721634
1.7650889e-12 -0.032470547 -0.05688526 0.13956079 -0.23837079 0.3754646 0.011770383 0.17118393
8.861969e-23 -0.089722544 0.19262546 0.19667797 0.28449515 0.053516738 0.02223874 0.16656706
-9.425448e-08 -0.18221372 -0.27355862 0.076429956 0.17088403 0.417417 0.086985946 -0.08972878
6.9284605e-14 0.023434063 -0.38727525 -0.057428934 0.14547086 -0.03526969 -0.11257977 -0.0074725603
6.522225e-27 -0.17443816 0.08703967 -0.14630978 0.2877534 -0.16029862 0.06818681 0.050337035
1.03990484e-22 -0.18771303 0.13812135 0.1185102 0.105305664 0.38828123 0.036831606 0.34293395
-8.055772e-18 -0.10602066 0.047985666 0.315911 -0.056840505 -0.1451321 0.16781409 0.06406295
4.5373197e-24 -0.18585132 0.12424453 0.21512161 0.3972489 -0.36058912 -0.14558958 0.16202964
-1.1711851e-06 0.050419614 -0.14831968 0.306045 -0.0039646192 -0.47793493 0.11942995 0.2708171
8.030392e-05 0.015058164 0.0052793305 0.037436686 -0.050312206 -0.114948824 0.010978371 0.21268317
0.0006500161 -0.16299915 0.049573276 0.22509848 -0.05230316 -0.11041358 -0.1244231 -0.24224326
-4.8473686e-07 0.00859769 0.005227623 -0.28782627 0.14160386 -0.23342966 0.25045928 0.14520262
-1.732638e-05 -0.040175244 0.17513357 -0.13192147 -0.18666793 -0.16346972 -0.03901978 0.15817899
-1.3485457e-06 -2.188582e-23 -1.4810638e-18 -6.587618e-08 -2.4682424e-12 9.8655234e-20 -1.9899351e-05 1.2792656e-24
9.454753e-23 0.30268568 -0.17635208 0.16843836 -0.2581035 0.27095324 0.2120769 0.22456524
0.00016779668 0.055219315 0.27663133 -0.12728505 0.12706241 0.28301615 0.1471197 -0.24936794
4.1724823e-14 -3.4470167e-15 -9.111348e-09 -3.5293644e-05 -1.897879e-25 1.7084894e-06 -0.000120781 -1.1589436e-12
2.1003809e-05 0.3404146 0.3427398 0.113686055 0.07812023 0.4248789 0.19809105 -0.26203796
-5.1681007e-05 -0.2278979 0.23831092 -0.4322046 0.16229045 -0.32501146 -0.04213037 0.2688315
7.2719436e-16 -0.092005596 -0.31615937 0.20497188 -0.02849285 0.3602422 0.15193614 0.084972106
3.541004e-19 0.28448394 -0.318751 -0.19745505 0.30261213 0.05932109 -0.094368175 0.042525966
-6.364761e-13 -0.0071537704 0.3018067 0.43145072 0.109436035 -0.23851001 -0.16401464 0.020806184
0.0001483747 -0.21782269 0.34577736 -0.205825 0.2816551 -0.048960377 -0.18139477 0.0634534
-4.980511e-06 0.40454683 -0.1260867 0.07177972 -0.1994643 -0.46948197 0.18036167 -0.047061898
-5.659237e-06 0.102988325 0.31720755 -0.16119952 0.19428793 0.4287332 0.21906154 -0.12262572
-4.8183453e-16 0.12989034 0.2577777 -0.16211852 -0.26615137 0.41827473 0.22482388 -0.10651588
9.726366e-25 -0.016152253 -0.03336549 -0.017958404 -0.021498118 -0.022124762 -0.017199874 -0.020252094
1.628265e-08 -0.00053370075 -7.226169e-22 1.9076506e-05 -1.05621965e-07 -3.810702e-22 -9.4380084e-07 -9.758554e-22
2.682315e-19 0.26833278 -0.08667392 0.23651141 -0.15197003 -0.09241727 -0.15810391 -0.10107177
1.4959416e-05 0.2850753 0.13090074 -0.3725515 0.1219576 -0.22233377 -0.004525334 -0.17572938
00000000: 5cb8 caa2 6bf7 d33e 4f6c 81be 61d4 b03e
00000010: f156 c4bd bb5e a1be 3534 b73e 87ae b1bd
00000020: 6d9c a439 de20 17bd 5eb9 09be 4acb 8dbe
00000030: 1123 5b3e 8152 633e 9dd6 153e 2fe5 0ebc
00000040: 086a f82b d6ff 04bd 8500 69bd 06e9 0e3e
00000050: 7917 74be e53c c03e 91d8 403c d74a 2f3e
00000060: ee44 d61a 74c0 b7bd 9c3f 453e f365 493e
00000070: 59a9 913e 5e34 5b3d 052e b63c 8e90 2a3e
00000080: f368 cab3 3c96 3abe e00f 8cbe 4f87 9c3d
00000090: 39fc 2e3e aeb7 d53e b025 b23d b9c3 b7bd
000000a0: db03 9c29 cbf8 bf3c f148 c6be 9a3a 6bbd
000000b0: 50f6 143e f376 10bd 3990 e6bd 61dc f4bb
000000c0: 9c2f 0114 eb9f 32be db41 b23d 3bd2 15be
000000d0: 6a54 933e 5225 24be 87a5 8b3d 352e 4e3d
000000e0: fe6e fb1a d837 40be af6f 0d3e 7ab5 f23d
000000f0: 7faa d73d cccc c63e bddc 163d 0a95 af3e
00000100: 4f9a 14a3 5c21 d9bd 9e8c 443d 16bf a13e
00000110: 97d1 68bd 829d 14be 75d7 2b3e 7033 833d
00000120: 7087 af18 cf4f 3ebe eb73 fe3d d748 5c3e
00000130: 3564 cb3e 239f b8be 6f15 15be 19eb 253e
00000140: 9d31 9db5 cc84 4e3d 1de1 17be eeb1 9c3e
00000150: a3e9 81bb e3b3 f4be b197 f43d 8aa8 8a3e
00000160: d768 a838 84b6 763c 3cfe ac3b 3657 193d
00000170: 2c14 4ebd 4a6a ebbd a0de 333c 9ec9 593e
00000180: d865 2a3a 40e9 26be 590d 4b3d 3780 663e
00000190: d73b 56bd 8420 e2bd 8ad1 febd 9e0e 78be
000001a0: dd1e 02b5 53dd 0c3c 7b4c ab3b f75d 93be
000001b0: 9a00 113e 2f08 6fbe 333c 803e ffaf 143e
000001c0: 1e58 91b7 cc8e 24bd 3756 333e 6c16 07be
000001d0: e125 3fbe 9b64 27be 34d3 1fbd acf9 213e
000001e0: adff b4b5 aaaa d399 0291 daa1 d077 8db3
000001f0: e7af 2dac 6ef1 e81f 88ed a6b7 eef4 c517
00000200: 169a e41a 9ef9 9a3e a495 34be 1b7b 2c3e
00000210: 2426 84be 62ba 8a3e b02a 593e 6ef4 653e
00000220: 94f2 2f39 a62d 623d 9fa2 8d3e 0357 02be
00000230: a61c 023e 7ee7 903e 8ca6 163e 4f5a 7fbe
00000240: 72e9 3b29 3c62 78a7 2288 1cb2 4308 14b8
00000250: 30f2 6a96 404f e535 ce4b fdb8 581b a3ab
00000260: 5631 b037 d34a ae3e 977b af3e 3cd4 e83d
00000270: 80fd 9f3d ba89 d93e 61d8 4a3e d729 86be
00000280: 0fc4 58b8 115e 69be c707 743e ec49 ddbe
00000290: 782f 263e e767 a6be e590 2cbd 48a4 893e
000002a0: 7999 5126 6e6d bcbd a4df a1be 26e4 513e
000002b0: d669 e9bc aa71 b83e 2695 1b3e db05 ae3d
000002c0: 2406 d120 e1a7 913e 5533 a3be a831 4abe
000002d0: faef 9a3e acfa 723d 1a44 c1bd b52f 2e3d
000002e0: f026 33ab 2d6a eabb 6886 9a3e 1ce7 dc3e
000002f0: 0020 e03d f83b 74be 74f3 27be bb71 aa3c
00000300: 0895 1b39 e90c 5fbe bb09 b13e cac3 52be
00000310: 1935 903e ad8a 48bd 8dbf 39be dbf3 813d
00000320: 441e a7b6 c320 cf3e df1c 01be 3f01 933d
00000330: 5f40 4cbe f15f f0be bbb0 383e fac3 40bd
00000340: 7ae4 bdb6 8beb d23d 0769 a23e 7d11 25be
00000350: 6af3 463e eb82 db3e ab51 603e 3223 fbbd
00000360: 1de1 0aa6 f901 053e 70fb 833e 6602 26be
00000370: fe44 88be 1b28 d63e 3b38 663e ff24 dabd
00000380: 1b82 9617 bb51 84bc 41aa 08bd 811d 93bc
00000390: d21c b0bc fd3e b5bc c0e6 8cbc b8e7 a5bc
000003a0: eddd 8b32 0de8 0bba c665 5a9c 7c06 a037
000003b0: 4ad2 e2b3 c257 e69b 8059 7db5 9477 939c
000003c0: 0056 9e20 ea62 893e 1982 b1bd 0c30 723e
000003d0: 089e 1bbe 4445 bdbd fee5 21be b7fe cebd
000003e0: 34fa 7a37 64f5 913e d80a 063e 12bf bebe
000003f0: e8c4 f93d 77ab 63be 4149 94bb 67f2 33be

bias f4 [128]
0.24006966 0.016175728 0.036454502 -0.18075487 0.24101469 0.29343936 -0.1836207 -0.012012458
-0.07330719 0.32350323 0.21819982 0.04093942 0.11642474 -0.15959892 -0.020431528 -1.068237e-06
-0.28513288 0.024254851 2.504729e-25 0.20647886 0.24493773 0.3289702 0.15090291 0.2758095
0.19812685 0.35934326 0.17626941 0.1761849 -0.018806174 -0.00049831264 0.34275794 0.28717172
0.0373922 0.16203657 0.21945637 0.06365464 -0.0125073185 -0.00025935392 -0.21399099 0.20888735
0.27797687 0.31060874 0.05063606 -0.028087318 0.3782499 -0.07268413 0.18859549 -0.24312553
0.16599996 -0.19209129 -0.025354993 -0.009620914 -0.17542288 0.3368336 0.43260553 0.25757644
0.009616375 -1.303189e-20 0.12037595 0.10208205 -8.0785656e-05 0.2720278 -0.07557475 0.059156083
0.23750478 -0.0634866 0.34623015 0.15680611 0.13947365 -0.20778513 -0.13175598 8.238042e-26
-0.04422056 0.46991864 0.030578593 -0.200517 0.039154023 0.31253102 0.037247196 0.32227123
0.13088042 -0.15058334 -0.09370276 0.3575649 -0.21410759 -0.270922 0.35437962 0.3203984
-0.024293536 0.03978722 0.3120313 0.10708458 0.22044422 0.3377438 -0.050418023 -0.20389196
-0.17796047 -0.1679951 -0.014305006 0.38772693 0.14286728 0.34789404 0.100794405 -0.118958846
0.2013706 -0.036049433 -0.06664724 0.24451452 0.16797829 0.32836643 6.3263075e-25 -9.210123e-16
-0.03621696 -0.062242094 -0.23481175 -0.06920748 -4.900085e-06 -0.16115512 0.08054043 0.2639359
0.24971068 0.34819958 0.32999507 0.49487588 3.2039693e-17 2.1427598e-19 0.1247087 -0.026934093
00000000: d2d4 753e f682 843c 5151 153d ce17 39be
00000010: 8ecc 763e af3d 963e 1107 3cbe e7cf 44bc
00000020: 1422 96bd 37a2 a53e c66f 5f3e 18b0 273d
00000030: 1870 ee3d e66d 23be 0560 a7bc 5860 8fb5
00000040: f0fc 91be 1cb2 c63c 0409 9b16 326f 533e
00000050: f5d0 7a3e c86e a83e 4b86 1a3e e736 8d3e
00000060: c4e1 4a3e d7fb b73e f87f 343e d069 343e
00000070: 680f 9abc 32a1 02ba f87d af3e 2c08 933e
00000080: 9028 193d eaec 253e 2cb9 603e 5d5d 823d
00000090: 7feb 4cbc e5f9 87b9 7420 5bbe 91e6 553e
000000a0: fc52 8e3e 1c08 9f3e c267 4f3d 6017 e6bc
000000b0: f9a9 c13e 6bdb 94bd 2d1f 413e e6f5 78be
000000c0: e5fb 293e 94b3 44be 46b5 cfbc 0aa1 1dbc
000000d0: 0ea2 33be 7475 ac3e 797e dd3e 0fe1 833e
000000e0: 008e 1d3c 5a2a 769e ab87 f63d 6510 d13d
000000f0: 786b a9b8 3a47 8b3e efc6 9abd a64d 723d
00000100: 7434 733e 4305 82bd 1445 b13e c891 203e
00000110: 2ed2 0e3e a0c5 54be 0aeb 06be cbf6 cb15
00000120: 9e20 35bd 2d99 f03e f57f fa3c 5454 4dbe
00000130: f85f 203d 1104 a03e 8490 183d bc00 a53e
00000140: 8405 063e 8532 1abe 3ce7 bfbd bf12 b73e
00000150: 053f 5bbe 4ab6 8abe 3f71 b53e 420b a43e
00000160: 3d03 c7bc edf7 223d 91c2 9f3e 294f db3d
00000170: 21bc 613e c1ec ac3e 2183 4ebd 0ec9 50be
00000180: 453b 36be e806 2cbe 8b5f 6abc 2584 c63e
00000190: cd4b 123e 2b1f b23e 4c6d ce3d b2a0 f3bd
000001a0: 1834 4e3e 92a8 13bd 597e 88bd 0462 7a3e
000001b0: 8002 2c3e a51f a83e 2cca 4317 5bbb 84a6
000001c0: 3c58 14bd 91f1 7ebd 7e72 70be a7bc 8dbd
000001d0: 696b a4b6 d905 25be 62f2 a43d 9b22 873e
000001e0: 28b4 7f3e 3747 b23e 1df5 a83e 5f60 fd3e
000001f0: cbc1 1324 f1f8 7c20 4667 ff3d e3a4 dcbc

weight f4 [64, 128]
-0.022415059 -0.055917747 -0.039235074 0.055526547 0.0647347 -0.053675614 -0.06264364 0.022350062
0.000996456 -0.054750416 -0.23569626 -0.038884774 0.0410182 -0.06122717 -0.05401295 -6.870757e-24
0.0728586 0.1180501 1.0579406e-25 0.00018525687 -0.10514985 -0.13121444 -0.13671473 0.047808804
0.052029133 -0.1280475 0.01667743 0.1103731 0.016513145 5.181932e-16 0.0028452417 -0.020804115
-0.028071117 0.011512404 -0.034391038 0.029452903 -4.7614833e-08 6.684756e-25 -0.023217969 -0.18007825
-0.18543024 -0.075197235 -0.08740368 -0.21589975 -0.098163724 0.0087015545 -0.15449205 0.062109847
-0.033683337 -0.03724798 0.081072845 -0.1315574 0.05077829 -0.13481626 0.017826479 0.066018976
0.04742714 1.9869106e-25 -0.054654468 -0.01837638 -2.669303e-05 -0.12891969 -0.09756043 -0.047824807
-0.04482291 0.013505323 0.0357463 -0.2048062 -0.1352517 0.07535411 0.03684111 7.246521e-25
0.053088933 -0.16369794 0.030827258 0.02973469 0.18350874 0.006694803 0.051864874 0.0152696995
0.0775113 0.053343743 0.10499956 -0.10525492 -0.011257409 0.09466286 -0.05352377 0.073871806
0.15164436 -0.03625124 -0.02391413 0.013389354 -0.110620834 -0.011423568 -0.006262811 0.06966685
-0.00479455 -0.09860814 -0.03376991 0.13222408 0.039922856 -0.014546982 -0.10591695 0.028521886
0.010733947 -0.05947266 0.09260721 0.023527581 0.040801708 -0.07745766 -6.21697e-24 -2.0785743e-25
0.040121302 0.06005812 0.013948617 0.027084555 -3.464758e-25 0.048705433 -0.010376501 -0.2939974
-0.0038951111 -0.026101964 0.04829399 -0.08896492 -2.7971088e-26 3.6997552e-25 -0.11310819 -0.08714655
0.14258055 0.03218107 0.06870963 -0.05262138 0.09020401 0.030507589 -0.065900706 -0.03616398
-0.06901676 0.004706249 -0.026215512 -0.10048641 0.0037899576 0.03123939 -0.046432327 2.2340882e-24
0.028876213 -0.0018139043 -2.070369e-24 0.014962684 -0.10308509 0.09485948 0.09798178 -0.072242506
-0.124882326 0.03508793 0.066982016 0.0722538 0.013720198 9.194007e-25 0.032292705 0.06431111
-0.09045949 0.031580653 -0.086412564 -0.038847324 5.5682213e-18 -1.360238e-25 -0.06064154 -0.27232105
0.16345894 0.026969716 -0.007948766 -0.1992513 -0.054063693 -0.015251472 0.23411605 0.038999554
0.17837416 -0.03420006 0.013207331 0.11853078 -0.016196886 -0.07144601 0.023032818 -0.030766904
-0.03228454 -2.4711058e-24 0.143642 0.0018495631 -0.00011533259 0.0234156 0.16236089 0.02001703
0.25436813 -0.0109956665 -0.015699776 0.17668802 -0.023109384 0.06941696 -0.010785843 -5.9230434e-24
-0.009969569 0.019078843 -0.073042415 -0.072639614 -0.13472298 0.17207503 -0.1066281 0.0017993707
0.04365029 -0.019291144 0.0003469217 0.14664817 -0.00757297 -0.028494122 0.030515673 0.051260762
0.014185609 0.23093438 0.07490232 0.053471625 0.26802316 -0.009315387 0.1098121 0.06412636
-0.07669328 -0.06661563 -0.011253589 -0.11496184 -0.14023063 -0.09081427 -0.12355323 -0.074021965
0.1148666 0.2301389 0.08174039 0.18027948 -0.0212432 0.03499612 -2.108233e-25 7.544157e-25
0.008437994 0.056582037 0.011116188 -0.099896915 -5.123621e-24 -0.014821219 0.05841339 -0.33337364
0.026470473 0.2536435 -0.06567326 6.5539905e-05 -1.2401612e-24 2.1024344e-25 0.15425713 0.230991
00000000: c99f b7bc 020a 65bd f5b4 20bd ce6f 633d
00000010: a093 843d f6da 5bbd 4f4b 80bd 7a17 b73c
00000020: 849b 823a f941 60bd 5c5a 71be a445 1fbd
00000030: b302 283d 57c9 7abd af3c 5dbd 57e6 0499
00000040: e436 953d 40c4 f13d 7af7 0216 8341 4239
00000050: ce58 d7bd 145d 06be f2fe 0bbe 2ad3 433d
00000060: 801c 553d e21e 03be 1b9f 883c 4b0b e23d
00000070: 9346 873c e95b 1526 3c77 3a3b 646d aabc
00000080: 66f5 e5bc 869e 3c3c 9edd 0cbd 3747 f13c
00000090: 1081 4cb3 18e2 4e17 9c33 bebc 6f66 38be
000000a0: 6de1 3dbe 0201 9abd b300 b3bd d314 5dbe
000000b0: 100a c9bd f790 0e3c 2a33 1ebe e566 7e3d
000000c0: 8af7 09bd 5691 18bd 8509 a63d fcb6 06be
000000d0: e5fc 4f3d 460d 0abe d608 923c f534 873d
000000e0: f642 423d b6f7 7516 5ddd 5fbd 108a 96bc
000000f0: d8ea dfb7 8603 04be c3cd c7bd f2e3 43bd
00000100: 3a98 37bd 6e45 5d3c b66a 123d b7b8 51be
00000110: 6c7f 0abe 4153 9a3d b4e6 163d db44 6017
00000120: c873 593d 6fa0 27be 7289 fc3c 2a96 f33c
00000130: b7e9 3b3e 1460 db3b 4370 543d c32d 7a3c
00000140: 3fbe 9e3d f87e 5a3d 020a d73d e48f d7bd
00000150: ff70 38bc 9ade c13d be3b 5bbd 1a4a 973d
00000160: a948 1b3e 2e7c 14bd 91e7 c3bc 055f 5b3c
00000170: 2d8d e2bd eb29 3bbc 4438 cdbb 7ead 8e3d
00000180: 9a1b 9dbb 11f3 c9bd 5152 0abd c065 073e
00000190: 2686 233d 7756 6ebc fcea d8bd bba6 e93c
000001a0: 70dd 2f3c 9b99 73bd d9a8 bd3d eabc c03c
000001b0: b11f 273d 1fa2 9ebd e481 f098 53a8 8096
000001c0: 3c56 243d 81ff 753d bd88 643c 6ee0 dd3c
000001d0: 4875 d696 597f 473d 3302 2abc d486 96be
000001e0: 1f45 7fbb c9d3 d5bc ebcf 453d 3d33 b6bd
000001f0: 9181 0a95 f600 e516 44a5 e7bd e479 b2bd
00000200: a300 123e 4cd0 033d a2b7 8c3d 8489 57bd
00000210: e1bc b83d 0deb f93c f3f6 86bd ae20 14bd
00000220: a958 8dbd e136 9a3b eac1 d6bc d2cb cdbd
00000230: f060 783b c0e9 ff3c d32f 3ebd adda 2c18
00000240: cf8d ec3c 87c0 edba e22f 2098 0c26 753c
00000250: 471e d3bd b045 c23d acaa c83d e1f3 93bd
00000260: 4ec2 ffbd 5cb8 0f3d de2d 893d cdf9 933d
00000270: aeca 603c 3745 8e17 5b45 043d 8bb5 833d
00000280: d342 b9bd b75a 013d 12f9 b0bd 5f1e 1fbd
00000290: 5d6e cd22 aa63 2896 4363 78bd aa6d 8bbe
000002a0: c861 273e 98ef dc3c 8b3b 02bc 8808 4cbe
000002b0: e471 5dbd 4fe1 79bc 1ebc 6f3e ffbd 1f3d
000002c0: b7a7 363e 5d15 0cbd 9063 583c 44c0 f23d
000002d0: 55af 84bc 4952 92bd 52af bc3c e00a fcbc
000002e0: cb3c 04bd 4b31 3f98 e316 133e 0a6d f23a
000002f0: b6de f1b8 13d2 bf3c ef41 263e c1fa a33c
00000300: 8a3c 823e 2b27 34bc d19c 80bc b4ed 343e
00000310: e44f bdbc 7b2a 8e3d 1bb7 30bc fb22 e598
00000320: 6757 23bc 3c4b 9c3c 4397 95bd 14c4 94bd
00000330: d2f4 09be 7034 303e d55f dabd ddd8 eb3a
00000340: a6ca 323d 7608 9ebc 0be3 b539 f02a 163e
00000350: ad26 f8bb 816c e9bc 01fc f93c cef6 513d
00000360: c26a 683c 107a 6c3e 6366 993d 1005 5b3d
00000370: 553a 893e 919f 18bc 2be5 e03d ae54 833d
00000380: 5e11 9dbd c76d 88bd f960 38bc 1d71 ebbd
00000390: 9e98 0fbe d5fc b9bd 7a09 fdbd d498 97bd
000003a0: 2e3f eb3d 88a9 6b3e 8167 a73d 2f9b 383e
000003b0: 3806 aebc 1758 0f3d 497e 8296 f87a 6917
000003c0: 833f 0a3c 91c2 673d ac20 363c c196 ccbd
000003d0: e235 c698 b3d4 72bc e142 6f3d f3af aabe
000003e0: 9bd8 d83c 90dd 813e b47f 86bd 7872 8938
000003f0: d9e7 bf97 6722 8216 95f5 1d3e e888 6c3e

bias f4 [64]
0.010341791 0.095971465 0.20057587 0.026853075 -0.046207998 0.14251937 0.12010615 -0.008398856
-0.0027192635 -0.028358426 -0.004845073 0.12165632 0.034107026 0.20101818 -0.070160225 0.20334242
-0.014358471 0.103055134 -0.05385917 -0.010736698 -0.017193006 -0.0031232783 0.06577536 -0.0679093
0.007879165 0.056829683 0.009890737 0.12118447 -0.012375402 0.07102003 0.024180304 -0.01931967
-0.017619511 -0.106341936 -0.036800597 0.17905091 -0.0049758097 0.14461218 0.1038407 0.042711146
-0.0026415717 -0.006249886 -0.0001944841 -0.0033720958 -4.7936767e-22 0.20420998 -0.026987392 -0.103251494
-0.0694647 -0.03871042 -0.006375704 -0.008401544 -0.007601869 0.14280693 0.057157848 0.024851514
0.042397764 -0.06923885 -0.018663384 0.077842444 0.033973888 0.0363544 0.07126154 -0.068689
00000000: 9e70 293c b08c c43d c363 4d3e fbfa db3c
00000010: 9944 3dbd 99f0 113e 37fa f53d 5b9b 09bc
00000020: ac35 32bb ee4f e8bc 6bc3 9ebb f326 f93d
00000030: cfb3 0b3d b6d7 4d3e 2ab0 8fbd ff38 503e
00000040: cb3f 6bbc 920e d33d 6f9b 5cbd fae8 2fbc
00000050: 59d8 8cbc eaaf 4cbb 3bb5 863d 0814 8bbd
00000060: 9d17 013c 3ec6 683d c20c 223c 902f f83d
00000070: 33c2 4abc f372 913d c615 c63c 4944 9ebc
00000080: cb56 90bc cdc9 d9bd 39bc 16bd 1f59 373e
00000090: 1e0c a3bb 3715 143e 6faa d43d e2f1 2e3d
000000a0: 381e 2dbb d8cb ccbb 6eee 4bb9 61fe 5cbb
000000b0: 47e1 109c 6c1c 513e aa14 ddbc 8575 d3bd
000000c0: 8243 8ebd d18e 1ebd 48eb d0bb a1a6 09bc
000000d0: 1919 f9bb fb3b 123e 591e 6a3d 6795 cb3c
000000e0: 47a9 2d3d 19cd 8dbd f4e3 98bc dc6b 9f3d
000000f0: 3428 0b3d 5ae8 143d 92f1 913d d2ac 8cbd

weight f4 [10, 64]
0.08978533 0.09977508 -0.26361412 0.13232157 -0.064555876 0.017166475 0.053950477 0.00021423501
-4.5693113e-08 -4.9040633e-19 -0.018389666 -0.029271213 -0.017789755 0.11663979 0.010941471 0.03745414
-0.014009434 -0.2058031 -0.17030509 9.3906305e-23 -0.0028932125 -0.041232083 0.04020552 -0.0034717612
-0.2067901 0.10059201 -0.039639343 -0.18785481 0.08652618 3.304601e-10 0.05227761 -0.03576256
-0.2595958 0.08558173 -0.00026127693 0.10601565 0.014862919 -0.064898424 -0.01715188 0.23441286
-0.024501482 0.0333751 -1.8183064e-15 0.017147545 -4.069553e-22 -0.19025096 -0.15059331 0.004939392
-0.12951829 -0.17837724 -0.0010959888 -0.010136675 -6.4015116e-25 0.049971767 0.09008972 0.009655344
0.16321981 -0.04074198 0.057052318 -0.2294648 0.106889024 -0.14424665 0.18540005 -0.11787041
0.048696376 -0.15943445 -0.17275473 -0.057692837 0.060321182 -0.08615284 0.1375288 -0.010075763
7.450165e-08 -2.166212e-24 0.009765265 -0.124397054 -0.039792944 -0.31197113 -0.09583143 9.14799e-05
0.017022273 0.20074719 0.21464336 -3.743144e-23 0.012378407 -0.026831929 -0.009852484 -0.006447352
-0.22480403 -0.0075673205 0.031936195 -0.028633805 0.009333192 -9.106761e-17 -0.24112113 0.021178504
0.08837181 0.11147343 -0.0043148748 0.07361147 0.011514234 -0.22612664 -0.20855269 -0.25714967
0.008292314 0.13595593 -7.748489e-24 -0.019919956 6.357844e-19 -0.22835013 0.18142864 -0.09131514
-0.09123116 0.121606834 -2.8677985e-07 0.010329231 -1.7359979e-24 -0.004932981 0.010466588 -0.016406542
0.17109747 0.16626216 0.023789773 -0.06954515 -0.19496015 0.041825358 -0.06060816 0.14213213
0.08120037 -0.08080174 -0.08566593 -0.11992619 0.06722193 -0.042126447 -0.3329534 0.011332717
0.00017435475 2.2363673e-19 -0.01912581 -0.036292545 -0.10012335 -0.06448692 0.0075460197 0.034613002
-0.019284252 -0.082611546 0.028561508 -1.8239612e-20 -0.0025422734 -0.030846104 0.12616535 -0.015547527
-0.15621309 0.15292235 -0.03916325 -0.053086203 -0.035977207 8.139825e-13 -0.01685348 -0.17284027
-0.1272645 0.0043567424 0.021037163 0.03012282 -0.023671739 -0.18743895 0.10026513 -0.23359555
0.010583739 0.07024118 -3.4425565e-09 0.009257474 -1.8251811e-19 -0.08523774 -0.103253715 0.009909236
0.009951817 0.10190733 -0.016457785 -0.008127127 9.594548e-23 -0.043543648 0.1182448 0.0032863743
0.08317201 0.12924764 -0.031610746 -0.052922796 0.11449163 -0.08240605 -0.068424426 -0.14375085
0.12655824 0.060089983 0.06986275 0.02220481 -0.05871024 -0.09872867 0.049338408 0.010167626
-1.6913821e-08 -1.3356876e-24 0.016142296 -0.03017235 -0.1741937 -0.03981081 0.026047233 0.034600444
0.010763918 0.029791405 -0.060610734 -1.3918004e-20 -0.050795484 -0.004335934 0.13993143 0.014795846
0.10788556 -0.00419993 0.06817031 0.13812795 0.13896853 -3.0959766e-16 -0.053374287 -0.14994141
-0.03836253 0.10650095 -0.021423057 -0.016876763 -0.011243551 -0.3560691 -0.0867376 -0.12065877
-0.028444752 0.054388806 1.673198e-23 0.01324153 1.1244252e-18 0.034282953 0.036124755 0.02268187
-0.011736334 -0.1511012 -2.7857056e-06 0.016065245 1.1660099e-25 -0.085952386 0.057195406 -0.004017387
0.13178822 -0.08348361 0.06533033 -0.33594388 0.039603826 -0.0008195371 0.04552664 0.07153125
00000000: 5fe1 b73d e156 cc3d 6ef8 86be 4e7f 073e
00000010: df35 84bd b5a0 8c3c 2dfb 5c3d 46a4 6039
00000020: 1c40 44b3 0ebe 10a1 eda5 96bc 2fca efbc
00000030: d2bb 91bc d8e0 ee3d db43 333c 8369 193d
00000040: d387 65bc 0cbe 52be 7564 2ebe 300d e31a
00000050: 0d9c 3dbb f9e2 28bd 8bae 243d 7d86 63bb
00000060: c9c0 53be 2f03 ce3d dd5c 22bd 035d 40be
00000070: a334 b13d 20ac b52f 0c21 563d c37b 12bd
00000080: bee9 84be 7945 af3d fffb 88b9 bc1e d93d
00000090: 9a83 733c 77e9 84bd 1982 8cbc ed09 703e
000000a0: 55b7 c8bc 54b4 083d d505 03a7 0279 8c3c
000000b0: 48fd f59b 26d1 42be 2235 1abe a0da a13b
000000c0: 71a0 04be 86a8 36be 48a7 8fba 4c14 26bc
000000d0: 001e 4697 32af 4c3d f680 b83d 7331 1e3c
000000e0: 1823 273e 10e1 26bd b1af 693d d2f8 6abe
000000f0: a2e8 da3d 65b5 13be 83d9 3d3e 0b66 f1bd
00000100: da75 473d c942 23be 9ee6 30be 534f 6cbd
00000110: 5813 773d e670 b0bd 5ad4 0c3e d014 25bc
00000120: b7fd 9f33 409a 2798 7dfe 1f3c e2c3 febd
00000130: edfd 22bd aeba 9fbe 4543 c4bd e6d8 bf38
00000140: 4b72 8b3c ac90 4d3e 78cb 5b3e e101 359a
00000150: cdce 4a3c a2ce dbbc 506c 21bc 4f44 d3bb
00000160: 0733 66be 49f7 f7bb 87cf 023d 7191 eabc
00000170: 3fea 183c d4fc d1a4 75e8 76be 8b7e ad3c
00000180: 48fc b43d 2f4c e43d cb63 8dbb 9cc1 963d
00000190: 33a6 3c3c be8d 67be d68e 55be 1fa9 83be
000001a0: 7cdc 073c 0838 0b3e a9e0 1599 2d2f a3bc
000001b0: 83a6 3b21 9ed4 69be 6ec8 393e 6f03 bbbd
000001c0: 67d7 babd 010d f93d b9f6 99b4 ef3b 293c
000001d0: fb50 0698 d8a4 a1bb 0d7c 2b3c 0367 86bc
000001e0: 2d34 2f3e a140 2a3e c5e2 c23c b06d 8ebd
000001f0: a2a3 47be 1151 2b3d 4340 78bd 168b 113e
00000200: 614c a63d 627b a5bd 9e71 afbd dd9b f5bd
00000210: a7ab 893d c88c 2cbd de78 aabe dcac 393c
00000220: ffd2 3639 0703 8420 bbad 9cbc 7ea7 14bd
00000230: 790d cdbd b811 84bd 9a44 f73b 5dc6 0d3d
00000240: 02fa 9dbc 3e30 a9bd d3f9 e93c ad44 ac9e
00000250: 459c 26bb f8b0 fcbc 7d31 013e 0ebb 7ebc
00000260: 53f6 1fbe ad97 1c3e a569 20bd eb70 59bd
00000270: d65c 13bd 9f1d 652b 4f10 8abc 0afd 30be
00000280: a051 02be 01c3 8e3b 2156 ac3c 22c4 f63c
00000290: 3ceb c1bc ffef 3fbe ce57 cd3d ac33 6fbe
000002a0: 6b67 2d3c 9cda 8f3d 1892 6cb1 a9ac 173c
000002b0: b77a 57a0 2091 aebd af76 d3bd 595a 223c
000002c0: f20c 233c cab4 d03d 7ad2 86bc a427 05bc
000002d0: 60fb e71a d35a 32bd 542a f23d 3660 573b
000002e0: 1656 aa3d 7e59 043e 457a 01bd 93c5 58bd
000002f0: 967a ea3d 81c4 a8bd 1b22 8cbd 6c33 13be
00000300: 7c98 013e ea20 763d 3414 8f3d dde6 b53c
00000310: 267a 70bd 4232 cabd 1217 4a3d 1d96 263c
00000320: e349 91b2 0ab0 ce97 d93c 843c 012c f7bc
00000330: d55f 32be a910 23bd 0261 d53c 32b9 0d3d
00000340: 255b 303c 1b0d f43c f642 78bd ab73 839e
00000350: ed0e 50bd 7314 8ebb 2f4a 0f3e 476a 723c
00000360: 1bf3 dc3d 919f 89bb e09c 8b3d 6a71 0d3e
00000370: c44d 0e3e 8d78 b2a5 ff9e 5abd 3e8a 19be
00000380: 0722 1dbd 2c1d da3d 687f afbc 2341 8abc
00000390: df36 38bc b04e b6be 7ca3 b1bd f21b f7bd
000003a0: f804 e9bc ccc6 5e3d 60d2 a119 01f3 583c
000003b0: 95ef a521 486c 0c3d 8df7 133d 54cf b93c
000003c0: c149 40bc 46ba 1abe 0ff2 3ab6 439b 833c
000003d0: 5458 1016 ce07 b0bd bb45 6a3d 49a4 83bb
000003e0: 7ef3 063e 74f9 aabd e8cb 853d d600 acbe
000003f0: 9f37 223d 34d6 56ba 247a 3a3d fa7e 923d

bias f4 [10]
-0.019860186 -0.13277802 -0.10850652 0.053850066 -0.16688134 0.1590035 0.06869298 0.06641763
-0.01602429 -0.052010357
00000000: d4b1 a2bc f6f6 07be ab38 debd e391 5c3d
00000010: f1e2 2abe d0d1 223e e8ae 8c3d f705 883d
00000020: 5f45 83bc d008 55bd
