2-hypertuning-mlflow/mlruns/2/2c5717a7ddde41ba9a7c17fc1244507b/artifacts/pytorch_models/20250921-1132model.pt (torch, 62853 bytes, 12 tensors)

weight f4 [16, 1, 2, 2]
000000 b2 48 67 bf bb fb df be 29 5d 60 bf 16 c1 3f be
       -0.903453 -0.43746743 -0.8764215 -0.18726
000010 ff 76 01 3e c2 f0 a4 3e c8 8c 19 3f c2 9c c1 bd
       0.1264305 0.32214934 0.5998044 -0.09453727
000020 34 a9 19 bf cc 9e b5 3e a9 59 62 bf a7 d8 cd 3c
       -0.6002381 0.35472715 -0.8841806 0.025127722
000030 61 2b ac b3 5d a5 a1 30 dc b3 8f 9b 83 f5 bb 19
       -8.017265e-08 1.1761291e-09 -2.3773597e-22 1.9434508e-23
000040 62 20 af be d2 d4 e2 3e e1 50 ce bd 76 3e fa 3e
       -0.34204394 0.44302994 -0.1007402 0.4887578
000050 54 fd 0c bd 4d b8 c9 3e fa 96 1d 3f d3 a8 0a be
       -0.03442128 0.39398423 0.61558497 -0.13540964
000060 0a d1 9b 3e e6 ac 43 3e 56 7b e3 3e 9c 8f 7c 3c
       0.30432922 0.19108924 0.44430035 0.0154150985
000070 d3 9a bf be 14 4c 4d bf c6 3d eb be de 83 62 bf
       -0.3742281 -0.8019421 -0.45945567 -0.88482463
000080 e6 c6 0c 3e eb 7e 09 3f 43 d7 60 be 38 53 e3 be
       0.13747749 0.53709286 -0.21957116 -0.44399428
000090 85 d5 44 bf 56 b8 67 bf 5f 05 3f bf b0 a8 3a 3e
       -0.76888305 -0.9051565 -0.7461757 0.18228412
0000a0 31 2c f2 be 56 ad ba 3e c5 be 24 bf ba c5 b4 bd
       -0.4729934 0.3646037 -0.6435359 -0.08826776
0000b0 2b 7f 80 be 50 0e 25 bf 1a bf 36 bf 30 db c3 bd
       -0.2509702 -0.64474964 -0.7138535 -0.09563291
0000c0 25 2e 1e 3f 75 70 aa 3e fb 3e 60 be f6 5c 4f 3d
       0.6178916 0.33288923 -0.21899025 0.050625764
0000d0 9c c2 1b 3f 86 82 a7 be ae b9 0e 3f 95 c5 b7 be
       0.60843825 -0.3271677 0.55752075 -0.3589293
0000e0 62 a1 08 20 fa 0b ab 96 1f 9d ce 22 84 89 a5 34
       1.1573045e-19 -2.7634098e-25 5.600277e-18 3.08337e-07
0000f0 93 38 02 3f 36 f1 e3 be 1f b3 be be 5a a9 03 3f
       0.50867575 -0.44519967 -0.37246034 0.51430285

bias f4 [16]
000000 48 3b be 3e 31 d4 b3 3c 5d cf 1c 3e 3b 6d 0e b9
       0.37154603 0.021951767 0.15313478 -0.00013582867
000010 1c b3 cb 3c 48 dd 74 be d6 58 3d 3d 60 46 54 3e
       0.02486568 -0.23912537 0.0462273 0.20729971
000020 a5 83 cf bc f8 dc 8e 3e 3d b1 ef 3e 43 ed e0 3e
       -0.025331328 0.2790296 0.4681491 0.43931016
000030 ed 23 d3 3e a1 66 30 3d 1e c0 fe bb 3b 2b 09 bd
       0.41238347 0.043066625 -0.007774367 -0.033488493

weight f4 [16, 16, 2, 2]
000000 3e 43 f3 1e 6e a0 0d 9b 70 1e 84 98 b0 69 38 96
       2.5756436e-20 -1.1715084e-22 -3.4151934e-24 -1.4896751e-25
000010 7b 76 bd 1d ae c8 29 21 32 6a 90 a2 1a 6e b0 9b
       5.015039e-21 5.7525025e-19 -3.9143717e-18 -2.918791e-22
000020 f9 15 82 18 56 1e 6a 20 1c 05 e6 97 b1 c8 a7 96
       3.36264e-24 1.9830608e-19 -1.4864691e-24 -2.710696e-25
000030 ed f7 bc 19 b6 a9 bf 9d 03 92 9d 9e 43 f2 fd 1e
       1.9538881e-23 -5.0732756e-21 -1.668341e-20 2.6887614e-20
000040 71 23 fc 9a 64 c1 40 18 26 a2 88 99 96 35 0c 18
       -1.04282016e-22 2.4913056e-24 -1.4127562e-23 1.812163e-24
000050 a2 7b 4f 21 eb e8 61 97 72 48 81 18 72 4b a8 9a
       7.0297955e-19 -7.2995405e-25 3.341887e-24 -6.960506e-23
000060 03 76 43 1a 89 dd 27 1e 2f 78 80 1d 0c bf ee 24
       4.0420384e-23 8.886719e-21 3.4005585e-21 1.0353969e-16
000070 a8 1a 1c 14 8f 1e 34 9a e9 2a d9 17 89 e2 f0 18
       7.881244e-27 -3.7247813e-23 1.4034128e-24 6.2267288e-24
000080 69 c3 5a 18 8d b9 da 97 a7 5a 71 9a 6f 37 05 1a
       2.8274497e-24 -1.4134759e-24 -4.991086e-23 2.7548534e-23
000090 57 d1 eb 1a aa bf 94 1d c8 77 96 18 41 9b 05 18
       9.753193e-23 3.937345e-21 3.889504e-24 1.726823e-24
0000a0 c0 06 29 9e 3d 4b cd 9a d8 c4 cc 95 63 11 41 99
       -8.948181e-21 -8.4907567e-23 -8.270551e-26 -9.981377e-24
0000b0 1c 9b 61 99 b2 3b 00 17 68 0e 1d 19 fd bc 92 18
       -1.16635515e-23 4.1434377e-25 8.119619e-24 3.7930945e-24
0000c0 56 a0 18 a2 5c 97 d0 20 22 e8 16 a2 ba 38 a2 a2
       -2.0684722e-18 3.5336732e-19 -2.045168e-18 -4.397025e-18
0000d0 bc be ab 99 5c 2f 54 9a 5b 12 65 9a d6 5c fd 18
       -1.7758023e-23 -4.387883e-23 -4.7370917e-23 6.5492708e-24
0000e0 df e1 b6 9d af 5c eb 98 ca d6 78 9a cc 7f 81 96
       -4.8408544e-21 -6.0839663e-24 -5.1458703e-23 -2.0921725e-25
0000f0 0a 87 b6 98 64 c5 a0 17 27 7a 8e 20 98 b4 e0 18
       -4.718225e-24 1.0389586e-24 2.413657e-19 5.8084996e-24
000100 d0 07 e7 bd cf 91 98 3d 83 8f 2f be 0d 95 c1 3d
       -0.11280787 0.07449686 -0.17144589 0.09452257
000110 6f d7 03 3e 25 71 68 3e 58 d9 81 3d b5 30 55 3d
       0.1287515 0.22699411 0.06340283 0.052048404
000120 c2 ec 86 bd 42 c1 d4 3d d6 4a dc 3d 7e 77 8c 3d
       -0.06588127 0.103884235 0.10756461 0.06858729
000130 be 8f 00 9d 76 f1 56 96 28 d4 53 17 e8 e2 05 16
       -1.7014972e-21 -1.7362974e-25 6.8445556e-25 1.0815253e-25
000140 3d 2b 77 3e 5d be e2 3d 4d 09 56 3e 0b 5a b6 3d
       0.24137588 0.11071465 0.20901985 0.08903893
000150 9c 89 fd bd 67 4d cc bd 68 cd ba 3c 20 34 70 bd
       -0.123797625 -0.09975701 0.022803023 -0.05864346
000160 54 71 b1 3d ac 65 58 3e c6 fb f4 3d a2 b9 3e 3e
       0.08664194 0.21132535 0.119620845 0.18625501
000170 81 9a 62 be 5c 43 dd 3c 1d 31 82 be 2e f2 24 be
       -0.22129251 0.027009659 -0.25428095 -0.16108009
000180 31 6b bb bd 57 17 c4 bd 16 82 61 be 2f 71 8b be
       -0.091513045 -0.09574764 -0.2202228 -0.2723479
000190 88 cf 4d be 47 f3 4b be 47 8e 4a be 06 67 58 bd
       -0.20098698 -0.19917022 -0.19780837 -0.052832626
0001a0 4c c2 b1 3d 77 b8 62 3e 6d bb b4 3d 8f 69 5b bc
       0.08679637 0.2214068 0.08824811 -0.013391866
0001b0 98 84 0b be 6c 3b a9 3d d1 8b bd 3c a7 3c 53 3d
       -0.13624799 0.08263287 0.023137959 0.051571514
0001c0 e7 e2 85 bc 34 39 2b 3d 96 ae 63 3d c2 10 29 3d
       -0.016343547 0.0418026 0.05558642 0.041275747
0001d0 4a 9e 2f 3e 9d e5 4f 3e d6 6e 5a 3e 23 2d b6 3d
       0.17150226 0.20302434 0.21331343 0.08895328
0001e0 17 5c 9f 17 be 1d 70 19 83 9d 04 99 60 02 c8 1a
       1.0298381e-24 1.24137156e-23 -6.856049e-24 8.27219e-23
0001f0 81 1a c6 bc b2 92 20 be 66 2d bf bd 5a c8 7b bc
       -0.02418256 -0.1568096 -0.09334831 -0.015367592
000200 81 0d dc bd d3 94 07 be 1e c6 20 3e d2 2d 00 be
       -0.10744763 -0.13240366 0.15700576 -0.12517479
000210 a5 f7 d7 bc e9 6f 8e bc 50 66 59 bd 5c 69 e6 3d
       -0.026363203 -0.017387347 -0.05307609 0.112505645
000220 10 81 b0 bc 6a b6 18 be 5c 67 8b 3e 3b 00 1d bd
       -0.021545917 -0.14913335 0.27227294 -0.038330298
000230 3e f8 ec 16 a3 50 8e 1f 79 9b 5d 19 62 f1 a2 a1
       3.828452e-25 6.027274e-20 1.145683e-23 -1.104144e-18
000240 07 3f 0c 3e f0 c3 b4 bd 55 d9 52 3e 43 d5 10 3a
       0.13695918 -0.088264346 0.20590718 0.00055249425
000250 c1 a2 61 bc be 0c 18 be 35 5c 5d be 60 c9 c8 bd
       -0.013771714 -0.14848611 -0.21617205 -0.09804034
000260 84 a3 28 bb 78 54 c6 3d dd a2 46 bd 5b 99 19 bd
       -0.0025732229 0.0968408 -0.048495162 -0.037499767
000270 cb 49 26 be 59 d3 ec bd 28 19 36 be 79 6e 1d 3c
       -0.16239087 -0.11563749 -0.17783034 0.009608858
000280 45 42 49 bd fd 65 62 be 27 b1 09 be e7 df 15 be
       -0.049135465 -0.22109218 -0.13446485 -0.14636193
000290 b4 dc 00 bd e0 86 76 be e2 61 a9 bd b6 ad f9 bd
       -0.03146048 -0.24074888 -0.08270623 -0.12191336
0002a0 ad 57 44 3e ec d8 16 bc 44 bc 79 3e a4 c3 29 bd
       0.1917407 -0.009206992 0.24388224 -0.041446343
0002b0 bb 11 32 bd 11 cf fa 3d b5 f4 34 3b fa 99 25 3d
       -0.04347394 0.12246526 0.0027611677 0.040430047
0002c0 a7 d3 84 3d 83 47 41 bd 14 13 06 3e 14 09 37 3d
       0.06485682 -0.04718734 0.13093215 0.044686392
0002d0 c3 e0 89 3d cd 7a 69 3e 6d f0 72 3e 88 a6 61 3e
       0.06732323 0.22800751 0.23724528 0.22036183
0002e0 56 f8 59 97 b6 b5 36 94 e8 63 c5 16 2a 5f 68 1d
       -7.0429926e-25 -9.224488e-27 3.1890116e-25 3.0754143e-21
0002f0 6b 24 c9 bd a0 15 08 be 6b 3e 5d be 10 d4 60 be
       -0.09821399 -0.132895 -0.21605842 -0.21955895
000300 49 95 33 be 0b 0d a1 3d 2e 94 c4 bd 8d 61 91 3d
       -0.17537417 0.07863816 -0.095985755 0.070986845
000310 a9 ed 0d 3e cb 45 5c bd 7d f2 52 3d fd 6c 18 3e
       0.13860191 -0.053777497 0.051500786 0.14885326
000320 16 97 bd bd f0 62 2a 3e 8e 88 99 bd 91 f9 e5 3d
       -0.09257333 0.16639304 -0.07496749 0.11229242
000330 eb fb 87 98 90 c9 b2 14 f6 48 f2 9e 7a 56 0c 17
       -3.5151054e-24 1.805291e-26 -2.5652923e-20 4.534559e-25
000340 e5 1f 27 3e 1d f6 a7 bd e8 a4 2e 3d 6e 2f 40 3d
       0.1632076 -0.08201239 0.042637736 0.046920232
000350 76 83 37 be fd e3 0c be 16 b1 b0 bd 1c 7a bd bc
       -0.17921242 -0.13758846 -0.086275265 -0.023129515
000360 34 6a 61 3c 50 7d 37 3e 5f 49 b0 3c 77 71 b0 bb
       0.013758231 0.17918897 0.021519361 -0.00538462
000370 20 83 97 be f8 46 77 be d9 76 10 be be e1 8e bd
       -0.29592228 -0.24148166 -0.14107837 -0.06976651
000380 e9 e7 d5 bd 49 5f 3d be 5b 32 87 be e7 47 9d be
       -0.10444624 -0.1849338 -0.26405606 -0.3071892
000390 fe ef 8a be f0 cc 2d be cd f7 84 be 09 31 14 be
       -0.27136225 -0.16972709 -0.25970307 -0.1447183
0003a0 18 61 23 3c f1 92 74 3e 4f 0b 0c 3e e7 2d c1 3c
       0.009971879 0.23884179 0.13676189 0.023581458
0003b0 72 a2 ea 3d 3e e6 c3 bb bb 58 92 3d ae 3b 30 3d
       0.11456765 -0.0059783747 0.0714583 0.043025665
0003c0 fc 5b b6 3d f9 0c 37 3e bb 19 8c 3d 9c 87 ac 3d
       0.089042634 0.17876042 0.06840845 0.08424303
0003d0 cd 87 63 3e 9f 06 29 3e 52 d1 08 3e 26 d9 9e bb
       0.22219773 0.16506432 0.133611 -0.0048476635
0003e0 03 f4 80 96 d0 de bc 14 14 5c c5 96 d3 4c b1 97
       -2.0833508e-25 1.9071033e-26 -3.1885176e-25 -1.145775e-24
0003f0 87 9b 0c 3b 5e a9 6c be 50 cc a3 3c 7a dd 2a be
       0.0021455006 -0.23111483 0.019994885 -0.16686049

bias f4 [16]
000000 79 4b af ab 4c 38 49 3d 98 20 3f 3e 92 94 39 3e
       -1.2455446e-12 0.049125955 0.18664777 0.18123081
000010 75 d2 80 bc 7b 65 94 3d 6b 13 25 3d ca 61 9f bd
       -0.015725354 0.07245918 0.04030172 -0.07782324
000020 99 07 98 3c 87 cb 03 3e e8 b7 85 bd ed 4c fe 3d
       0.01855831 0.12870608 -0.06529218 0.12417016
000030 0e 96 9a bc 8f 8e 5b 3e f5 0e c2 3d b3 c0 05 b3
       -0.01887038 0.214411 0.09475509 -3.1141735e-08

weight f4 [16, 16, 2, 2]
000000 6b ec 5d 1a 76 e0 e2 97 36 8a ac 1d c4 57 75 18
       4.5892706e-23 -1.466157e-24 4.5670928e-21 3.1709818e-24
000010 93 ac 54 3d fd 29 7e bd 99 ee 61 bb 2a dc 61 bc
       0.051922392 -0.062051762 -0.003447449 -0.013785401
000020 5c 80 b3 3d 4b ff d7 3d 4a a1 bb 3d 0e 1c 65 3d
       0.08764717 0.1054674 0.09161623 0.05593496
000030 1a b6 37 3e 8f 7c 2c 3e 2a 95 83 3c 66 06 23 3e
       0.1794056 0.1684439 0.016062338 0.1592041
000040 52 36 01 bc bd 86 d4 bb 68 8c 44 bc 51 1f 28 bc
       -0.007886486 -0.0064857886 -0.011996366 -0.010261373
000050 f0 48 14 3e ad 3f a3 3c 9d 04 26 bd 1e b4 74 3c
       0.14480948 0.019927824 -0.040531743 0.014935521
000060 e6 2f d7 bd 4e d9 6f 3c 5c b0 0d be 51 bd fc bb
       -0.10507183 0.014639212 -0.13836807 -0.007712998
000070 24 4d 87 bd 4a 80 83 bd 62 19 29 3e d5 d2 7b bd
       -0.0660651 -0.064209536 0.16513589 -0.061480362
000080 58 a1 2d be cd 4e aa 3c 08 a6 0e bd 43 99 c9 3d
       -0.16956079 0.020789528 -0.03482631 0.098436855
000090 ec 9d f8 bd cb ea d8 bd 2d a4 b9 bc 5e 94 c2 3c
       -0.12139496 -0.10591658 -0.022661293 0.023752388
0000a0 4e e9 68 bd 02 c6 d9 3d c3 1e 1e be 69 e6 84 3d
       -0.05686312 0.1063347 -0.15441422 0.0648926
0000b0 a3 74 fb 3c 9e 6a 40 bd c0 00 82 3d 3e ab 01 be
       0.030695265 -0.046976678 0.06347799 -0.1266298
0000c0 ef 44 0e 3c f9 dd 10 3c 21 bf 0e 3c 64 1a 0d 3c
       0.008683427 0.008841985 0.008712561 0.008612249
0000d0 b3 12 4d 3d 9a 2a e6 bc 79 80 3c bd 23 2c 06 3e
       0.05006666 -0.028096486 -0.04602096 0.13102774
0000e0 90 20 43 be d2 c3 90 bd 85 d6 1d be 7d 58 3f bd
       -0.1905539 -0.070686 -0.15413864 -0.04671525
0000f0 9c 7f 3f a9 22 15 91 aa 23 4d e2 aa 99 53 4f 2a
       -4.2521203e-14 -2.5771838e-13 -4.019919e-13 1.8414297e-13
000100 d7 0a ea 16 fa 42 d4 96 3a 38 d5 17 f4 f3 f8 95
       3.781158e-25 -3.4292715e-25 1.3778996e-24 -1.0055129e-25
000110 56 1f 42 3e 17 7e 2d be 27 d1 62 3e 04 69 13 be
       0.18957266 -0.1694263 0.22150098 -0.14395529
000120 61 ba 09 3e 74 e4 dc bd 74 c9 3e 3e ce f3 d9 bd
       0.13450004 -0.107857615 0.18631536 -0.10642205
000130 40 4a 14 3e 2f 38 23 be 3c 83 17 3e 6d cc 15 be
       0.14481449 -0.15939401 0.14796156 -0.14628763
000140 87 9c 0e 3c 85 f6 f1 3b 87 6a 80 3b 5d 23 92 3b
       0.008704311 0.0073841237 0.003918949 0.004459782
000150 8a 9b 27 3e 77 15 6b be 2c f7 57 3e 71 54 23 be
       0.16367927 -0.22957407 0.21090382 -0.1595018
000160 d0 28 0a bb 0e 43 9d 3d ce 66 c0 3b df 46 cb 3d
       -0.0021081455 0.07678805 0.0058716303 0.09925627
000170 71 1c 81 3e 48 d3 10 be a9 b1 95 3e e8 e5 9c bd
       0.25217012 -0.14143097 0.29237106 -0.07661039
000180 df f9 88 3d dc da bf 3d 27 60 0a 3d e2 d3 a5 3d
       0.06688284 0.09367916 0.033783104 0.08097054
000190 f0 06 1c 3e fa 25 0f be 9d 2e 3f 3e e3 4b 12 be
       0.15237021 -0.1397933 0.18670125 -0.14286761
0001a0 fc eb de bd ba eb 6a 3e 27 2f dc bd 81 da 08 3e
       -0.10884854 0.22941485 -0.10751181 0.13364603
0001b0 94 33 32 bd 89 60 fd 3d a0 57 a4 bd 9c 05 a2 3d
       -0.04350622 0.12371928 -0.08024526 0.07911226
0001c0 5f b8 6d 3c 61 4a 58 3c fd 4f 6b 3c be 6a 53 3c
       0.0145092895 0.013201327 0.014362332 0.012903867
0001d0 3b b1 2f 3d 62 c8 ee bd 09 78 d9 3d 4c 24 c1 bd
       0.04289363 -0.11659314 0.10618598 -0.09430751
0001e0 93 ed ba bd 53 36 35 3d dc 29 af bd 43 49 83 3d
       -0.09127345 0.04424126 -0.08552906 0.06410458
0001f0 3a 76 0e ab 31 48 61 aa 37 94 f3 aa 1b da fb 2a
       -5.0612607e-13 -2.0009061e-13 -4.3268316e-13 4.4737898e-13
000200 fa 42 81 96 a1 ba 32 21 02 0c bd 16 c0 10 27 99
       -2.0883342e-25 6.0555747e-19 3.0542175e-25 -8.63708e-24
000210 be 00 70 3e 7c b9 99 3b 84 94 95 3e bb c7 ac bc
       0.23437783 0.004691301 0.2921487 -0.021091333
000220 84 1f 42 3e 9c 13 31 ba a4 05 37 3e c2 dc 84 3c
       0.18957335 -0.0006754936 0.17873245 0.016218547
000230 05 d9 b4 3d fd 4c 24 3d ac b9 51 3d 31 99 7b 3d
       0.08830456 0.040112484 0.05120246 0.06142539
000240 e3 79 a1 3b 70 14 8c 3b 9a 24 c3 3b 34 d2 ad 3b
       0.00492786 0.0042748973 0.005955291 0.005304599
000250 ef 4e 15 3e e1 96 ec 3c 78 7f f5 3d d2 a3 aa bc
       0.14580892 0.028880538 0.11987203 -0.020830069
000260 67 eb 8b 3d 6e 0d 95 3b be ff 01 3e 3b f4 16 3d
       0.06832009 0.00454872 0.12695214 0.03685401
000270 0f 39 54 3e 70 f1 a7 3d 32 67 69 3e ae fb f6 3d
       0.20724891 0.082003474 0.22793272 0.12059723
000280 f0 9b ab 3d 22 cf 13 3d 32 a0 8c 3c ad 63 94 bc
       0.08379352 0.03608621 0.01716623 -0.018113935
000290 d3 f2 9d 3d 2f 8e 0a bd 56 ba c1 3c 98 68 fd 3c
       0.07712331 -0.033827003 0.023648422 0.030933663
0002a0 c0 f0 de 3d c8 74 f4 3c 7d c5 a1 3e b8 fd a9 3c
       0.10885763 0.029840842 0.31595984 0.020750865
0002b0 ef be 49 bd 57 76 81 3d 48 a3 00 3e e6 40 d2 bc
       -0.049254354 0.063214 0.12562287 -0.025665712
0002c0 ab 5f 55 3c d9 ea 64 3c 02 28 5e 3c ca 30 60 3c
       0.013023297 0.013972008 0.013559343 0.013683507
0002d0 6a 42 b2 bd 27 d9 ca 3b ca 39 bd 3d 02 20 0c bd
       -0.08704074 0.0061904374 0.09239538 -0.034210213
0002e0 00 ca 00 be d1 b7 9d bd 6b e0 35 bd 94 23 86 3b
       -0.12577057 -0.07701076 -0.044403475 0.0040935967
0002f0 8a a7 22 a9 88 3b 08 a8 9d 84 57 27 7a c2 e6 27
       -3.6116543e-14 -7.562425e-15 2.9909134e-15 6.4048676e-15
000300 76 64 d8 96 b8 d3 2f 97 4a 07 d7 17 35 4f a2 1b
       -3.4960082e-25 -5.6812776e-25 1.3895889e-24 2.6851838e-22
000310 7f 82 d1 bd 88 da 5d bc 45 e2 11 3e 88 7b e1 3d
       -0.10229968 -0.013540871 0.14246471 0.1100989
000320 e8 e6 7c be 25 72 6e bd cc 7d 0a bc 83 79 f5 bd
       -0.24697459 -0.058214325 -0.008452844 -0.11986067
000330 84 68 7f bc 09 5c 13 be af 8c ee 3d 88 9c 3d 3e
       -0.015588883 -0.14390577 0.11647927 0.18516743
000340 bc eb 9c bb 6a ce fc bb 78 c6 4b bb 6a b9 9c bb
       -0.004788844 -0.007715036 -0.0031093638 -0.0047828453
000350 da 70 09 be 4c 94 25 be 8f cd fc 3d 1f 97 11 3e
       -0.13421956 -0.16169852 0.12343895 0.14217804
000360 bf 27 18 3e 59 52 b1 3d 5f 90 c6 3d 98 fb 43 3d
       0.14858912 0.08658285 0.09695505 0.04784736
000370 05 d3 21 be e7 cc d3 bc de 52 51 bd a4 00 f5 bc
       -0.15803154 -0.025854541 -0.05110442 -0.029907532
000380 70 67 8b 3d 36 2c c8 3d 83 3f 41 3d a4 0d a5 bc
       0.068068385 0.097740576 0.04717971 -0.020148106
000390 1b a5 8a bd a1 11 6e 3d de 13 39 3e c0 d2 2f 3e
       -0.067697726 0.05812228 0.18073985 0.17170238
0003a0 90 96 09 3d b1 f6 43 3e 25 5d de 3c c2 82 b3 bd
       0.033590853 0.19137074 0.027144024 -0.087651744
0003b0 27 70 e3 3d 9a ac 19 3e d6 93 83 3d cb 4b 76 bd
       0.11105376 0.15007249 0.06424682 -0.060130876
0003c0 3e a1 5b bc 6a 00 62 bc eb 46 5f bc 78 18 66 bc
       -0.013405142 -0.013794044 -0.013627748 -0.01404392
0003d0 d8 c9 c0 3d ce e4 e4 3d 20 6d 81 3e 3a a7 06 3d
       0.09413499 0.111764535 0.25278568 0.032874323
0003e0 5e 2e 70 3e 79 9d 72 3e 2f 81 14 3e 26 ed 3f bd
       0.23455188 0.23692884 0.14502405 -0.04685702
0003f0 5c ee 4c 29 28 79 dd aa ac 99 d7 aa 5f bb 3d ab
       4.5503843e-14 -3.9341555e-13 -3.8298303e-13 -6.740632e-13

bias f4 [16]
000000 5e 7f 44 3e a2 bb d3 bd cb 10 7d bd 4f b6 24 3e
       0.19189212 -0.103385225 -0.061783593 0.1608517
000010 c9 1e 3c 3e 26 12 5f 3c d6 0e d8 3c cf de 59 bd
       0.18371119 0.013615167 0.026374262 -0.053191002
000020 41 ad 49 3d cf e3 ea bc fa e9 4f 3e 0d cf 34 3e
       0.049237493 -0.02867308 0.20304099 0.17657109
000030 0d fa d5 3c dd cc d0 bc 64 95 35 3d 54 8c 1b 3e
       0.02612021 -0.025488311 0.044331923 0.1519025

weight f4 [128, 16]
000000 3b ad 3c be 99 6c 1d be 57 b7 d8 ba 77 f5 a9 3d
       -0.18425457 -0.15373458 -0.0016534132 0.08298772
000010 66 8d 74 bd 55 20 3a be 8d c6 3a 3e 3c d3 8c 3e
       -0.05970516 -0.18176396 0.18239804 0.2750491
000020 2b 30 e1 3e bc 04 39 3c 51 6b 9d 3d a8 b8 32 bb
       0.43982062 0.011292633 0.076864846 -0.0027270708
000030 ac d0 85 9b 13 ee 12 27 9b ac 9f 3e 8c 70 69 be
       -2.2137855e-22 2.039063e-15 0.31186375 -0.2279684
000040 2e a8 d0 93 05 21 a6 33 4e c6 16 1b a3 f8 73 98
       -5.267242e-27 7.7359836e-08 1.2471785e-22 -3.1532543e-24
000050 1f c2 30 b1 70 df c0 26 01 bd 1d 17 44 95 53 b5
       -2.5721716e-09 1.3383239e-15 5.0967992e-25 -7.8820835e-07
000060 a6 8f c1 16 0e d2 43 1e d9 5b 8e 98 f2 4d 04 19
       3.1271487e-25 1.0366652e-20 -3.6798882e-24 6.839981e-24
000070 0b da 2e a8 80 bf 8e 17 79 b3 c3 a9 f6 fc 41 a1
       -9.706221e-15 9.224876e-25 -8.690873e-14 -6.5725735e-19
000080 23 ab c5 bb 6f b9 47 bc fd 88 9b bc 20 ec d8 bb
       -0.006032364 -0.012190207 -0.01898622 -0.006619945
000090 94 2c 86 bc 11 0b 5b bc e1 bb 86 bc 8d 94 3b bc
       -0.016378678 -0.013369338 -0.01644701 -0.0114489915
0000a0 a4 14 5e 3c f6 9f 2f af 8b c4 8f bc 64 91 a5 bc
       0.013554726 -1.5972987e-10 -0.017549774 -0.02021093
0000b0 f0 12 fa 9c 67 7b c5 29 9e 7a 64 bc 46 b3 6a bc
       -1.6548507e-21 8.769964e-14 -0.01394525 -0.014324969
0000c0 ab bb e5 bd a0 e2 3c 3e bd 40 31 3d 31 ea 6b bd
       -0.112174354 0.18445826 0.04327463 -0.05759639
0000d0 fa 3d cd 3d 26 2b 87 3d a1 3a 27 be cb 3d f4 bc
       0.10021587 0.06600027 -0.16330959 -0.029814621
0000e0 3c 16 9b 3e e7 50 00 bd 76 0f 0e 3e e8 27 b8 3d
       0.302904 -0.031327154 0.13873085 0.089919865
0000f0 ed 38 83 a0 26 df ce b5 f3 12 fc be c6 4c 11 3d
       -2.2229934e-19 -1.5413141e-06 -0.49233207 0.035473607
000100 f3 ec 8b bc d9 d0 bb be 4f 56 1e be 9e f1 97 3e
       -0.01708076 -0.36682776 -0.15462612 0.29676527
000110 48 24 a8 3e 2c 62 d3 3d a3 d2 b5 be 0e 09 a8 3e
       0.3284018 0.10321459 -0.35512266 0.32819408
000120 b6 fe 39 3f c0 45 d8 3c d5 aa d6 3d dd 3f 39 be
       0.72654283 0.026400447 0.104818024 -0.18090768
000130 dc 73 18 15 9b 11 5a a6 b4 1a 55 3c 0e db 47 3e
       3.0787552e-26 -7.5657803e-16 0.013006855 0.19517156
000140 b7 9a 29 bc ba fe b9 17 4b 49 b8 3d 57 4b 74 be
       -0.010351828 1.2019647e-24 0.089983545 -0.23856865
000150 72 f3 e9 bd 3c e1 4e bc 5c ef 69 3d 42 73 95 bd
       -0.11423387 -0.012626942 0.057113037 -0.07297374
000160 0d c7 19 3e 7a e8 15 30 5b 4d 09 3e 76 f7 d7 bd
       0.15017338 5.4536253e-10 0.13408415 -0.10545246
000170 38 a2 e6 a9 e6 29 96 31 da 7b 80 be 72 f3 a4 bd
       -1.0242192e-13 4.370338e-09 -0.2509449 -0.08054246
000180 9f cf 8a 3e e7 10 8b 3e bc 3d 51 3e d6 bb 81 bd
       0.27111527 0.27161333 0.20433706 -0.06334655
000190 a0 bf 04 3b 51 87 5b 3c e9 a5 0c 3e d0 4d ba bd
       0.002025582 0.013398961 0.13735165 -0.09096873
0001a0 76 92 8b be 9d 99 f7 bc 8f 6f 84 3e 3c 7e 3b 3d
       -0.27260178 -0.030224616 0.25866362 0.045774683
0001b0 d6 71 12 a6 7a 1f 28 27 f6 b6 9e be 7f da 97 3d
       -5.08082e-16 2.3331747e-15 -0.30998963 0.07414722
0001c0 7d 55 77 be a1 75 20 3e 30 61 81 3d ab 81 66 3d
       -0.24153705 0.15669872 0.06317365 0.056276005
0001d0 b7 99 14 bb 8e 79 61 be 3a 92 ba 3e 96 fa a8 3d
       -0.002267463 -0.22019026 0.36439687 0.082509205
0001e0 9c 74 a6 be a3 90 bd bb 9f 40 04 bd 5b 61 e7 3c
       -0.3251084 -0.0057850643 -0.03228819 0.028244665
0001f0 d3 dc a1 a4 8c c1 50 b5 a4 75 9e 3e f6 92 60 3d
       -7.019671e-17 -7.7767686e-07 0.30949128 0.054827653
000200 16 93 64 9f b3 17 ef 32 33 33 3e b6 02 23 8c 2d
       -4.8402545e-20 2.7834039e-08 -2.8342008e-06 1.5931704e-11
000210 3d 98 b9 28 fe 56 3e 1a 0a 5c 85 9c 3c 92 92 29
       2.0605149e-14 3.936135e-23 -8.824993e-22 6.50907e-14
000220 dd 83 17 a6 e0 a8 81 ae 7a f6 a7 16 a9 73 2a 9a
       -5.2567357e-16 -5.896239e-11 2.7135854e-25 -3.5248606e-23
000230 0c a1 e7 17 12 c9 ca 96 ab 72 86 97 01 a4 c5 20
       1.4968679e-24 -3.2761753e-25 -8.688493e-25 3.3481627e-19
000240 fb 33 05 98 c6 03 e0 98 56 2f c5 17 c1 7e 93 1d
       -1.721609e-24 -5.7906453e-24 1.2742776e-24 3.9041636e-21
000250 9a 2a c8 35 1a 78 ba b5 6a 12 4b b6 7d a7 10 27
       1.491356e-06 -1.3893034e-06 -3.0260076e-06 2.007481e-15
000260 9d 3e 1e b5 54 60 e1 31 2f 64 87 9d 4e 98 68 20
       -5.89507e-07 6.559313e-09 -3.583779e-21 1.9701558e-19
000270 52 6d 28 1f 0d e6 bf 16 c5 61 32 98 0d 92 02 ae
       3.566581e-20 3.1002897e-25 -2.3055322e-24 -2.9688297e-11
000280 b3 59 46 3e b6 fd 49 bd aa a4 c0 3d a3 df 72 be
       0.19370155 -0.049314223 0.09406407 -0.23718123
000290 11 c3 95 3e c6 f5 86 bd ba b4 37 3e 28 9c e5 3a
       0.29250386 -0.06589846 0.17940035 0.0017517852
0002a0 59 f1 88 3c 79 b5 f0 3c 13 25 a1 3e 6c b0 4b 3e
       0.016716646 0.029383408 0.31473598 0.19891518
0002b0 a6 1d 6b 37 55 a9 1e 24 79 91 31 3e 02 c9 e8 bd
       1.4013995e-05 3.440422e-17 0.1734065 -0.11366464
0002c0 7e b3 e3 bd d7 8f ea 33 98 4c f4 3c 03 01 72 bd
       -0.1111822 1.09226384e-07 0.029821679 -0.059082996
0002d0 08 e4 51 3e b2 0f 1a 3e 08 16 8c 3c 75 c5 4e be
       0.20497143 0.1504505 0.017100349 -0.20192511
0002e0 f0 78 03 3d 16 5a 06 23 48 e8 ba bd 16 ed 33 be
       0.032097757 7.283231e-18 -0.091263354 -0.1757091
0002f0 d0 36 78 18 1e af 76 a2 cc b4 fe 3d a0 24 4f be
       3.2080922e-24 -3.3431923e-18 0.12436828 -0.20228815
000300 3f 93 c2 bd 9f e6 fa 3d ab cd 27 3e d8 c4 08 3e
       -0.09500741 0.12251019 0.1638705 0.1335634
000310 9d 6c 14 be 65 d5 0c be 50 c8 87 3e 9a 9b 6d 3d
       -0.14494558 -0.13753279 0.26520014 0.05800972
000320 40 0e 87 be 73 04 1b bb f4 aa 2d 3c 12 8c 2e 3d
       -0.2637806 -0.0023653775 0.01059984 0.04261405
000330 3b de 7d 99 61 ec 55 a6 09 26 9a 3e 4a 2e 82 bd
       -1.31246725e-23 -7.4219573e-16 0.30107144 -0.06356485
000340 4d 74 73 bc 0d a5 92 bc 14 73 ae bc 2f 2c ac bc
       -0.014859271 -0.017900968 -0.021295108 -0.021017162
000350 26 95 95 bc 98 da 8f bc 60 26 ad bc f4 a6 9f bc
       -0.018259596 -0.017560288 -0.021136463 -0.01948879
000360 c5 76 87 bc 2a 39 e0 2a 08 37 98 bc 7d 88 aa bc
       -0.016536126 3.983006e-13 -0.018580928 -0.020817036
000370 85 cc d8 35 4b 33 da 29 d4 89 90 bc 49 02 90 bc
       1.6152777e-06 9.690043e-14 -0.017643847 -0.017579215
000380 b8 40 da bb f0 16 a1 9d cc 95 71 bc 20 f6 5f bc
       -0.006660547 -4.264006e-21 -0.014745187 -0.013669521
000390 dd e2 19 bc 78 40 00 bc 1b 9b b2 bb 11 2f 1a bc
       -0.009392467 -0.007827871 -0.005450619 -0.009410636
0003a0 94 a2 ca bb 96 ab cc 33 70 f9 24 bc 6b dc 33 3d
       -0.0061839316 9.5307016e-08 -0.010069236 0.04391138
0003b0 24 38 21 92 b4 a2 4a 35 59 b6 ff ba 8f fb bb bc
       -5.087184e-28 7.548763e-07 -0.00195093 -0.0229471
0003c0 fa d0 07 b4 c6 db c0 b1 14 ce 0f 35 49 4f 13 b4
       -1.264888e-07 -5.612921e-09 5.3571534e-07 -1.3719286e-07
0003d0 3f 9a fb b3 d3 ac e5 33 3a 11 24 b4 fa 62 bd b4
       -1.17161555e-07 1.069508e-07 -1.5279957e-07 -3.5276008e-07
0003e0 7c bf 81 32 67 26 ad b4 2f 3a 64 b4 4f 62 93 33
       1.5104654e-08 -3.2251702e-07 -2.1255322e-07 6.863103e-08
0003f0 aa 05 04 96 90 95 cc 97 8e ec 76 b5 11 a9 07 b4
       -1.0664662e-25 -1.3220946e-24 -9.1986374e-07 -1.2634361e-07

bias f4 [128]
000000 29 21 c9 bc 17 14 14 9d ad e5 31 bc 5f 49 83 be
       -0.024551945 -1.9598023e-21 -0.010857982 -0.25641915
000010 e5 76 ba 3c b1 16 65 3e ef 40 4e 3c 37 b8 1f 3a
       0.022761771 0.22371937 0.012588724 0.0006092819
000020 99 54 0d b2 23 b6 a2 b3 a2 22 73 3d cc 23 b2 3d
       -8.2265155e-09 -7.576843e-08 0.0593592 0.08698234
000030 37 ef a6 bd 8d 21 92 bc 9c ac 57 bd 3d 68 08 b4
       -0.08151095 -0.017838264 -0.052654848 -1.2703909e-07
000040 97 dd 7f 3d 7e 1c 82 3e 6f ff 43 3c 63 3c 90 bc
       0.062467184 0.25412363 0.011962756 -0.01760692
000050 1e cc 31 3e 02 27 75 3d 3d cf 71 3e 0e f4 97 13
       0.17363021 0.059851654 0.23614211 3.8358415e-27
000060 cc 7f b7 3d 79 46 16 3e bb 5a 5a 3e b3 4c 46 3e
       0.08959922 0.1467532 0.21323673 0.19365196
000070 a2 8e 03 b5 9a bf 7d 3e f9 18 14 ba b7 ba 6c 3d
       -4.900886e-07 0.24780121 -0.0005649473 0.057795253
000080 fd e2 17 bc 38 7e 6b 21 ae d6 6b 3d 58 ad d4 bd
       -0.009270427 7.9788146e-19 0.05757778 -0.10384625
000090 0f 0b 33 bd 69 90 99 bd 7d 8c d3 bd d5 e0 14 3e
       -0.04371172 -0.07498247 -0.103295304 0.14538892
0000a0 3a 83 89 3e 8a 60 18 3d bc d2 4c 3e b6 7f c6 bd
       0.2685793 0.03720144 0.20002264 -0.09692328
0000b0 f2 49 0b 95 cf e0 39 3e 7e e8 46 ba 15 7e a0 3e
       -2.812916e-26 0.18152164 -0.00075877446 0.31346193
0000c0 23 5d 99 3d a7 da 99 bd 99 a7 38 bd 36 3e e4 b6
       0.074884675 -0.07512408 -0.04508171 -6.802172e-06
0000d0 82 28 8c b4 c3 9f 01 be bf 32 9c 3d 4f 94 89 3d
       -2.6106505e-07 -0.126586 0.076268665 0.06717741
0000e0 89 d1 74 19 d7 c7 47 3d 9d a9 19 3e f4 a3 a2 19
       1.265682e-23 0.048774567 0.15006109 1.6816628e-23
0000f0 92 f8 f8 3c c4 5e 2c bc 25 9f 11 be 01 9d c5 bd
       0.030391965 -0.010520641 -0.14220865 -0.09649087
000100 37 09 98 b7 43 13 43 a3 cf b0 cc b8 90 8d 74 3c
       -1.8124103e-05 -1.057505e-17 -9.760411e-05 0.014926329
000110 74 c2 10 bd 15 bf 48 3e 6b 15 15 be d2 df f7 a5
       -0.035341695 0.19604142 -0.14558952 -4.2999336e-16
000120 e5 68 9f bc e7 ef 99 3e df ca ba bd d8 d9 09 29
       -0.019459197 0.30065843 -0.09120726 3.060906e-14
000130 5d a9 14 a3 84 cf 05 3e da 6f 32 3c 80 1c 9d bc
       -8.05896e-18 0.13067442 0.010890925 -0.019178629
000140 03 43 74 3e 33 9a 0f 3e 39 ac 9d b4 3b fb 3a bc
       0.23853688 0.14023666 -2.9368837e-07 -0.011412437
000150 b1 f9 6d bd 16 7c b9 3d c1 dd 54 b5 53 b3 6a 3e
       -0.058099452 0.09056871 -7.929885e-07 0.2291997
000160 39 0c 29 be 93 44 be bd 3b fb c6 3d d7 b6 b8 b4
       -0.16508569 -0.09290423 0.09715887 -3.4405704e-07
000170 ce 94 f1 bd d3 72 20 3d e0 fe f9 3d 2f 12 e2 bb
       -0.1179596 0.039172005 0.12206817 -0.0068991403
000180 f5 4f 3f 3e d6 15 20 3e a3 a3 99 3e 78 dd 16 3d
       0.18682845 0.1563333 0.30007657 0.036832303
000190 11 28 3f bc 9b 1e d3 3d ed 05 2a 3e a3 4d b3 bc
       -0.011667267 0.10308572 0.16603823 -0.021887606
0001a0 f4 7a 52 3e 15 0d cb b5 0c d7 ac bb b3 8c 52 3c
       0.20554715 -1.5128486e-06 -0.005274659 0.012850928
0001b0 e8 30 7d 96 f2 89 fc bc 1b 1b 38 3e 17 6d 46 be
       -2.0452609e-25 -0.030827496 0.1797909 -0.19377552
0001c0 ee ec 46 3d a4 d8 36 3e 54 ea 86 bc ad 4b e8 bc
       0.048565798 0.1785608 -0.016469158 -0.028356398
0001d0 58 a0 f4 bd 7c f1 ac 3d b8 1c 70 3c 9f 77 a5 3e
       -0.11944646 0.08444497 0.014655285 0.32317826
0001e0 c0 16 1b be 0c 19 dd 15 b8 dd a9 bd 5c 08 fd b1
       -0.15145397 8.9300706e-26 -0.082942426 -7.3642195e-09
0001f0 a2 50 86 3d c7 f5 6a 3e 19 61 b8 bd b2 66 01 3e
       0.06558348 0.22945319 -0.09002895 0.12636831

weight f4 [64, 128]
000000 07 cc 96 bc 55 ee eb 17 bf 64 2b bc 87 64 bb be
       -0.018407835 1.5246683e-24 -0.010461031 -0.36600134
000010 c0 e3 80 3d de d9 ba 38 46 77 ef 39 36 c7 77 3c
       0.0629344 8.909752e-05 0.00045674498 0.015123179
000020 43 6c 20 15 ca 11 66 17 95 57 0c 3e c9 b2 95 b8
       3.2397146e-26 7.433946e-25 0.13705285 -7.138175e-05
000030 c8 76 e3 bc 92 82 6c 3c cb f3 a0 32 ff d5 07 b2
       -0.0277666 0.014435427 1.8737316e-08 -7.906691e-09
000040 9d 36 61 bc fd b1 f0 3d a5 45 17 bb 52 be 73 37
       -0.013745931 0.117526986 -0.0023082283 1.4528241e-05
000050 0f 4c 45 bc f3 10 7d 3d 3a 74 a6 bd 4f c9 7f 18
       -0.01204206 0.061783742 -0.08127637 3.3059612e-24
000060 fa 9f 18 3d 22 25 db 3d 0b 5d 1d 3b 72 7c c8 3c
       0.03726194 0.10700442 0.0024011757 0.024473403
000070 99 47 1d 99 5a eb fe bc bc 6d 19 1e 2b cc 21 3c
       -8.131169e-24 -0.031118084 8.122445e-21 0.009875338
000080 40 94 b2 31 44 19 df 99 69 ad b6 16 30 8b 6b 3d
       5.197336e-09 -2.3067864e-23 2.9513123e-25 0.057505786
000090 ca de ba 3c 16 78 86 3d 18 3b f4 3c f0 32 74 be
       0.022811312 0.06565873 0.029813334 -0.23847556
0000a0 08 08 b4 3d ba 9d 9e 3d fe 84 61 bd 54 a2 0e 3e
       0.08790594 0.07744928 -0.05505847 0.13929111
0000b0 50 2a f8 14 ae f5 0f bd ac 58 29 3d 18 1f f3 3d
       2.505829e-26 -0.035146408 0.04134433 0.11871165
0000c0 d1 3a 9b 3b 25 cf ee 3c 5b 95 7f 3c ac e4 5e ad
       0.004737236 0.029151509 0.015599574 -1.2670014e-11
0000d0 4f 80 e7 15 44 40 3e bd 9a 82 86 bc 2f f9 85 bd
       9.350259e-26 -0.046448007 -0.016419698 -0.065416686
0000e0 2a 73 13 13 df 3a 6b bd bf 96 8d 3d dd f7 4f 9a
       1.8610789e-27 -0.05742919 0.06913518 -4.300682e-23
0000f0 51 45 a0 3d b0 81 fb 3c b6 8b 48 bc a4 62 96 3d
       0.07825721 0.030701488 -0.012240341 0.07343033
000100 3f 94 cd 9d cb ab d1 16 56 7c 84 a7 94 c1 af 3d
       -5.441633e-21 3.3874188e-25 -3.6772165e-15 0.08581844
000110 7e 5f cb bc 84 9d 6f 3b 78 47 95 3d f8 eb 7e 96
       -0.024825808 0.0036562392 0.07289022 -2.0592415e-25
000120 c6 6b 73 3e 69 66 d2 3d 25 77 fc 3d 78 73 f1 19
       0.23771581 0.102734394 0.123274125 2.4965453e-23
000130 9b c0 f8 17 d2 ed b3 bc 69 dd c9 3c 0a bb 88 3c
       1.6075245e-24 -0.021963987 0.02464171 0.01669075
000140 d4 d5 ad 3d ec 94 21 bd 29 42 35 16 2e 16 61 a0
       0.0848805 -0.039448664 1.464194e-25 -1.906558e-19
000150 e9 7c f0 35 60 c9 9a bc e4 8c 2f 97 f7 d7 77 3d
       1.7917747e-06 -0.018894851 -5.672338e-25 0.060508694
000160 ee 52 02 3e 86 61 e2 3d 0a 7c 03 bd 01 5a 09 1b
       0.12726948 0.11053757 -0.032100715 1.1361456e-22
000170 e6 e5 45 3c 37 81 34 3d 43 03 34 3d 2c f5 e8 bc
       0.012078738 0.04406854 0.043948423 -0.02843722
000180 73 19 2e 3d 54 f0 e4 3d 51 9d 2f 3d 6a fc f9 bc
       0.04250474 0.111786515 0.042874638 -0.030515868
000190 ae ba 38 3d 54 0f 75 3d 08 9c ab 3c d8 8d fc 3d
       0.045099907 0.05982907 0.020948425 0.12331742
0001a0 62 e4 4d 3e 90 f3 54 9a b9 3b fa 3d 3d 6d 59 3e
       0.20106652 -4.403732e-23 0.122184224 0.21233077
0001b0 01 90 69 17 ae 33 ba bb 7f 5f 4c be 6f 8e 6a bc
       7.546812e-25 -0.00568243 -0.19958304 -0.014316185
0001c0 2e 10 41 3a ac 02 92 3d a9 08 e9 3d 6c fd 74 3c
       0.00073647767 0.07129416 0.11378605 0.014952999
0001d0 eb d0 38 bd 75 0b 9d 3d c0 08 00 bd a5 82 8d 3d
       -0.045121115 0.07668201 -0.031258345 0.06909684
0001e0 54 13 62 3d 0a 0e 57 96 24 30 e2 bc 37 51 ac 17
       0.055194214 -1.7371992e-25 -0.027610846 1.1135741e-24
0001f0 41 88 c7 98 e8 90 01 3e 79 fe 86 3d c6 3a 88 3d
       -5.1577876e-24 0.12652934 0.065915056 0.06651835
000200 64 35 94 bd 02 60 95 99 08 ad b0 3b 5e 56 3c 3e
       -0.07236746 -1.5445016e-23 0.0053917207 0.18392321
000210 9c 47 89 3d 24 69 23 bd 9d ce f7 3d e1 b4 b5 bc
       0.067031115 -0.03989519 0.12099955 -0.022180976
000220 86 f4 23 17 89 92 bb 97 db 2e 0e 3c 65 33 96 bb
       5.2976773e-25 -1.2121582e-24 0.008678163 -0.0045837634
000230 2e 70 b9 bc 60 f9 84 bc 16 bb ec b9 c0 74 fe b1
       -0.0226365 -0.016232193 -0.00045152818 -7.405646e-09
000240 c1 eb fe bd de 04 9c 3d 3a e5 dd bd 98 16 d1 38
       -0.1244731 0.07618116 -0.10834737 9.970105e-05
000250 cf 59 3e be fd 83 46 be 08 a8 e8 3d d8 19 d6 92
       -0.18588947 -0.19386287 0.113601744 -1.351167e-27
000260 7b 64 80 3d 2e 1d 19 3e 11 cf d2 bb ff 64 2b be
       0.06269165 0.14952537 -0.0064333756 -0.16737746
000270 ce cb b4 19 16 c9 4d be 06 64 c1 a1 18 34 fd bb
       1.869388e-23 -0.2009624 -1.3104665e-18 -0.0077271573
000280 af f1 0e bb da 34 aa 15 c3 2f 23 3d c5 06 51 bd
       -0.0021811535 6.874584e-26 0.03984047 -0.051031847
000290 94 e6 64 bd e7 c5 b4 bd 4c ed 9d 3d 93 f3 3c 3e
       -0.05588396 -0.088268094 0.077112764 0.18452291
0002a0 ec c2 fe 3c ee 41 46 be 36 f5 50 bd 22 44 89 3d
       0.031098805 -0.19361088 -0.0510151 0.067024484
0002b0 4c f8 f4 94 98 c4 5e be a7 dd 33 3d 4a ac 04 3e
       -2.473564e-26 -0.21754682 0.043912556 0.12956348
0002c0 0e b9 4e bd 6c ea c0 bd a7 6f f8 bd d7 62 9a 2b
       -0.05046945 -0.094197124 -0.12130671 1.0969792e-12
0002d0 d8 21 a8 96 57 0c b4 3d 4c ce 2e be c5 3e 06 be
       -2.7163222e-25 0.08791416 -0.17070884 -0.13109882
0002e0 dd 4f 0f 97 e8 78 ac bd c9 a2 cc 3b 24 d0 40 95
       -4.6306594e-25 -0.084214985 0.0062449914 -3.8938285e-26
0002f0 01 64 04 3e 14 2a d6 bb 5a 5c b0 bd f1 4e 7e 3d
       0.12928773 -0.006535778 -0.08611365 0.062087003
000300 a8 91 c9 1f 09 bc 24 97 82 8d 21 a7 4a 26 08 3d
       8.536778e-20 -5.322859e-25 -2.241995e-15 0.03323964
000310 cf 42 e7 bb e2 b7 c8 bc ca 54 8e bd 70 1c d9 95
       -0.0070575248 -0.024501745 -0.06949766 -8.769047e-26
000320 8d 57 7e 3d 6d 0b 39 bc ab b9 b0 3d e7 1c 6a 19
       0.062095214 -0.011294228 0.08629163 1.2103353e-23
000330 1d 9a 98 18 e7 21 f1 bd ba 3d aa 3d 14 e5 5e 3c
       3.9446694e-24 -0.117740445 0.08312555 0.013604421
000340 43 c3 c8 3d 75 eb 75 3c 23 8a 1c 97 b0 df 86 bb
       0.09802868 0.015009751 -5.058067e-25 -0.004116021
000350 d8 38 c2 b9 2b 77 f3 bd 58 36 d5 9a 2e 83 95 3c
       -0.00037044915 -0.11887964 -8.818253e-23 0.018251028
000360 a4 6d 6a 3d de 42 aa 3d 3c 56 0a be 9c 51 2d 13
       0.057233468 0.08313535 -0.13509458 2.1875906e-27
000370 97 3d 0f be e1 97 9b 3d dd 89 09 bd c3 5e 86 bc
       -0.13988338 0.07597328 -0.033578742 -0.016402608
000380 48 c7 96 bc 6c 73 4a bd 5c 64 24 3d b0 4f 52 be
       -0.018405572 -0.04942648 0.040134773 -0.20538211
000390 57 67 d4 3d 19 46 e9 3d b9 eb 15 bc 30 26 2a 3e
       0.10371273 0.11390323 -0.009150439 0.1661613
0003a0 1a 80 a3 3c f8 79 12 96 a8 16 de 3c 9f fc c8 3c
       0.019958545 -1.1832273e-25 0.027110413 0.024534522
0003b0 ce fc b6 95 40 82 53 3a 74 64 c1 3d 03 f5 b0 3c
       -7.390807e-26 0.000806842 0.09442988 0.021601206
0003c0 e8 b8 a4 3d a1 d0 47 3d c3 be c5 bc b3 e7 07 be
       0.080430806 0.04878295 -0.024138814 -0.1327198
0003d0 bc 82 bf bd e5 98 ba bc 33 2c 07 be a2 e8 60 3d
       -0.093511075 -0.022777984 -0.13200454 0.054909356
0003e0 24 78 be 3d 2c 3b 37 95 62 3d 90 bc 58 58 92 18
       0.09300259 -3.7003234e-26 -0.017607395 3.782932e-24
0003f0 83 de db bc 3c 37 c7 3b 6c 60 c3 3d 5d 2d d7 3d
       -0.0268395 0.0060795825 0.095398754 0.10506699

bias f4 [64]
000000 78 4d fc 3c 1c 28 03 3d 53 89 bf 3d 55 24 e0 3d
       0.030798659 0.032020673 0.093523644 0.1094443
000010 ae 0f 02 bd 93 f9 43 3d 70 57 c2 ba c3 08 02 3e
       -0.031753235 0.047845434 -0.0014827084 0.12698655
000020 d8 c2 b6 3d ac 3e f0 bb 35 70 91 bc f0 e8 3e 3d
       0.08923882 -0.00733169 -0.0177537 0.046608865
000030 b3 e0 71 bb 6b 17 da 3d db cb 29 bc 2e e0 96 3d
       -0.0036907613 0.10648998 -0.010363544 0.07366978
000040 88 40 23 bc e8 d5 31 bb 71 8c 09 3e 07 64 db 3d
       -0.009964116 -0.0027135555 0.1343248 0.10712438
000050 99 76 20 bc c6 60 c7 bb e7 de 0a bc 86 ae c3 3d
       -0.009793901 -0.0060845343 -0.008475996 0.09554772
000060 25 76 3b bc 19 b5 1c bc dc 62 38 bc 0f 4e 01 3e
       -0.011441742 -0.009564661 -0.011254039 0.12627433
000070 b3 95 21 bb 8c b6 9b 3c f3 46 9e ba 51 50 3c bc
       -0.0024655878 0.019007944 -0.0012075588 -0.011493758
000080 56 9d 63 3d e4 95 41 b5 2e c6 3c ba 18 27 c9 3d
       0.05556997 -7.211622e-07 -0.0007201162 0.0982191
000090 fb 9f af bb d1 1d 93 bc 56 f1 2f bc b8 15 11 3e
       -0.0053596473 -0.017958554 -0.010738691 0.14168441
0000a0 c7 35 ca 3d e3 5d db 3c 31 63 b0 bb ef 4f eb 3c
       0.098735385 0.026778167 -0.0053829183 0.028724639
0000b0 bd fa 8d 3c 3f 40 38 bc b6 21 30 bc 98 3e 1c bc
       0.017331475 -0.011245786 -0.010750225 -0.009536408
0000c0 be 22 03 aa 60 b1 4c b5 a8 50 fe 3d 01 57 c9 bb
       -1.1647191e-13 -7.6254037e-07 0.12417728 -0.006144405
0000d0 2d c7 99 3d a0 b2 8a 3d ae 4a 1a 3d a8 fa 45 bc
       0.07508693 0.06772351 0.037668876 -0.012083687
0000e0 ce 95 55 bb a3 33 a3 3d 73 f1 a2 3d 65 c7 6a bc
       -0.0032590511 0.07968833 0.07956209 -0.014329766
0000f0 71 4d 78 bc da 30 ea bb 4c d0 e7 bd 4e 00 4f bd
       -0.015155182 -0.007146937 -0.11319026 -0.0505374

weight f4 [10, 64]
000000 c6 5e e8 3c 54 a4 80 bc 39 20 29 3d 2b b7 0c 3d
       0.028365504 -0.015703358 0.041290496 0.03435437
000010 2b ac b5 3d 45 f6 cb 3c 2d 88 df bb 8a 89 18 3e
       0.08870729 0.024897704 -0.0068216533 0.14896217
000020 7e aa 89 bd 2b 88 df bb eb 14 be 3c 9c c9 f5 bb
       -0.06721972 -0.0068216524 0.023203334 -0.0075008404
000030 1c bc 7d bd 7f 96 a9 bd 59 30 b9 3b 41 23 0e be
       -0.061946973 -0.08280658 0.0056515154 -0.13880636
000040 02 89 7b 9b 57 1b 07 9b c2 21 c1 3d e2 94 a7 3d
       -2.0806503e-22 -1.1175772e-22 0.09430267 0.08182694
000050 8a 20 e3 b0 40 b1 58 19 07 b9 8f 20 08 79 34 3d
       -1.6525672e-09 1.1202734e-23 2.4347583e-19 0.044060737
000060 b1 b4 61 bc 60 8f 55 a0 91 d7 8e 3c 00 75 a0 3d
       -0.01377599 -1.808924e-19 0.017436774 0.07834816
000070 f7 9c 86 a2 0a 66 99 b9 dc 12 12 9a c1 10 99 bd
       -3.6486966e-18 -0.0002925846 -3.0207327e-23 -0.07473899
000080 e2 e6 93 be 4b f1 6e 18 d5 cd 0b 98 5d dd 0c 3e
       -0.28887087 3.08826e-24 -1.8069248e-24 0.13756318
000090 e6 b6 0d 17 fe 09 26 3c 29 20 b9 bd 6e 9b ed 3d
       4.5790407e-25 0.010134218 -0.09039337 0.116019115
0000a0 9d c0 e3 3d 00 ca 6f bd de ba 80 9a 47 82 74 3d
       0.111207224 -0.05854225 -5.324146e-23 0.059694555
0000b0 80 e6 9f be 7f ff 97 be 0e e4 19 3b 1b 76 29 bc
       -0.31230545 -0.29687116 0.0023481878 -0.0103431
0000c0 ed bb 43 1b 35 da 5b 98 e3 a6 bf bd fa 50 b4 21
       1.6190744e-22 -2.8415253e-24 -0.09358003 1.2218709e-18
0000d0 5f 3f b3 39 40 64 25 3e 8b 47 8d 3d e5 ec d6 3c
       0.00034188756 0.16151524 0.06898411 0.026236007
0000e0 db 43 29 3c a6 7f 2d bd 9c 12 de bd db e4 ff ba
       0.010331119 -0.042358063 -0.10843393 -0.001952316
0000f0 27 09 96 1e 3e be af ad 06 fc 41 bc c9 52 dc ad
       1.5885653e-20 -1.9979681e-11 -0.011839872 -2.5047868e-11
000100 10 82 69 bd e6 48 2a bd 2f f7 05 3c c3 db d8 be
       -0.057008803 -0.041573428 0.008176609 -0.42355165
000110 4b 17 82 bc 6f 0e 63 3e 33 d9 0e be 59 e0 de 3d
       -0.015880248 0.22173475 -0.13950042 0.10882635
000120 0f c2 ef bc 01 35 d7 b0 09 e5 ef bc bb 83 78 bd
       -0.029267339 -1.5658373e-09 -0.029284017 -0.060672503
000130 8c 92 a3 3d a6 b1 c6 be 6a 96 9f 3a 16 26 d8 bd
       0.07986936 -0.3880741 0.0012175564 -0.10554139
000140 85 4d 37 1a 7b c8 36 98 34 25 f9 3d ab 87 4e 3e
       3.7906133e-23 -2.3624165e-24 0.12165299 0.2016894
000150 33 ce 98 1a a0 f0 14 23 cd cd 7a b9 47 27 8a be
       6.319886e-23 8.07405e-18 -0.00023918525 -0.2698309
000160 4e 34 bb 3c 19 14 b8 1a 1f b6 8f bc 0f 07 6c 3c
       0.02285209 7.6133086e-23 -0.017542897 0.01440598
000170 ad a4 da 1f 81 17 14 3c 78 21 34 19 c3 c3 2d 3e
       9.2599024e-20 0.009038807 9.312541e-24 0.16969208
000180 57 b7 45 3d 06 7b 5d 32 09 5c 8f 9f 56 a7 9f be
       0.04827055 1.2891865e-08 -6.0715115e-20 -0.31182355
000190 14 52 cc 96 e1 9c 24 bd ec 8d d7 bd 15 dd 0e be
       -3.3009776e-25 -0.040188674 -0.10525116 -0.13951524
0001a0 d1 67 42 be 99 1f 80 3e 07 2a dc 9e 6d ea be 3d
       -0.18984915 0.25024107 -2.3310788e-20 0.09322057
0001b0 95 73 a1 3e 63 83 31 be 21 21 93 bb 08 12 20 3c
       0.31533495 -0.17335276 -0.0044900333 0.009769924
0001c0 17 cc 96 1c b1 00 09 1a 39 18 02 bf 34 00 53 98
       9.978923e-22 2.8331494e-23 -0.5081821 -2.7271213e-24
0001d0 ae a7 f8 bc 43 de 94 be 61 17 67 3e 11 76 f7 3b
       -0.030353393 -0.29075822 0.22567512 0.0075519164
0001e0 cd 7e 38 3c 90 09 df be d3 c9 90 bc ef e9 52 3c
       0.0112607 -0.43561983 -0.017674362 0.012873157
0001f0 93 f2 42 18 6f ab 2b bc 37 74 d9 3d 23 af 2f b8
       2.5196381e-24 -0.010477885 0.10617869 -4.188636e-05
000200 cc 20 65 3c 97 f1 ef 3d 83 55 a4 3c d1 b8 5a 3d
       0.01398487 0.117160015 0.020060306 0.05339891
000210 b8 ab 70 3d 48 ef 95 3d 7b 2a ae bc 3c 20 01 3d
       0.058757514 0.0732103 -0.02126049 0.03152488
000220 a7 51 b2 be 73 1e 20 3c ea 41 4f 3c f2 32 24 3e
       -0.3482792 0.009772885 0.0126499925 0.16035059
000230 4f d9 aa bd 90 14 9e be 2d a9 ea bb 8d 53 88 be
       -0.083422296 -0.30875063 -0.0071612806 -0.26626244
000240 ae b6 9a 21 0c fa 86 24 43 3b 43 be ee 77 26 be
       1.0483801e-18 5.853683e-17 -0.19065575 -0.16256687
000250 04 fd c1 9c ef 22 8b 9a 39 09 61 a3 36 87 43 3c
       -1.2837072e-21 -5.754549e-23 -1.21992274e-17 0.011934092
000260 fd a0 83 3c 7b d3 06 1d ec 4b ab 3c fa 0e 37 3e
       0.016067976 1.7844085e-21 0.020910226 0.17876807
000270 2e 0f 80 1b b7 9c ee b7 46 3b 7d 9f 5f f9 12 3e
       2.1185633e-22 -2.8444787e-05 -5.3623864e-20 0.1435294
000280 80 5a 4c 3e d7 1d 8c 1f 15 d6 eb 18 42 7c 84 3d
       0.19956398 5.934167e-20 6.0962244e-24 0.06469013
000290 34 1d 2c 97 74 17 cb bb 4f 68 9d be 47 e2 64 be
       -5.5613057e-25 -0.006197864 -0.30743644 -0.22351943
0002a0 4d 2d e1 3d f4 85 36 bc e3 2a 94 98 5d 2f 81 bd
       0.109949686 -0.011140335 -3.8300408e-24 -0.06307862
0002b0 d3 e9 48 3e 2f a4 5b 3d 04 45 0e bb df 30 08 3c
       0.19620447 0.053623375 -0.0021708617 0.008312433
0002c0 7a 0e 6e 19 ef c9 5c 1b e6 a0 db 3d 3e 34 87 20
       1.2307235e-23 1.8263222e-22 0.10724048 2.290446e-19
0002d0 d6 61 31 bd 9d 8d 03 3e b1 79 f9 3d 64 c4 a1 bb
       -0.043306194 0.1284699 0.12181414 -0.0049367417
0002e0 e5 5c a0 bb 3b 47 9b 3d 99 c1 28 3e e6 d0 8e bc
       -0.0048938864 0.075819455 0.16480102 -0.017433595
0002f0 a3 24 c1 9a 97 ec 2b 3c bc b0 c2 3d f0 ea 2b bc
       -7.988212e-23 0.010493419 0.09506366 -0.010493025
000300 76 11 65 3d 0a 24 cc bd c7 5d 22 bc c1 58 f5 bc
       0.055924855 -0.099678114 -0.009910054 -0.029949548
000310 5c a9 8b 3d bf be 05 3e 9d 37 b0 bd cb c3 35 bd
       0.06819412 0.13061045 -0.086043574 -0.044376176
000320 5a 61 54 be 2c ea 7d bc 47 35 fc ba cc 96 f7 3d
       -0.20740262 -0.015497725 -0.0019241952 0.12089309
000330 13 9d 34 3e 00 37 9f bd 93 31 39 bc 65 8a 0c bd
       0.17638044 -0.07774162 -0.011303323 -0.03431167
000340 d6 9e 11 1a 88 36 d5 98 9f 5e ea 3c 5e d0 13 3e
       3.0113604e-23 -5.5114272e-24 0.028609572 0.14434955
000350 e1 1f 49 19 5a 5b ca 9c 97 ca 90 99 24 90 bd bd
       1.0397894e-23 -1.3390853e-21 -1.4971076e-23 -0.09256008
000360 63 fe f2 bc 0c d4 43 9b 29 10 f0 39 e4 9a b7 ba
       -0.029662317 -1.6198538e-22 0.00045788407 -0.0014007953
000370 93 43 a0 a1 a7 2b c2 1e 12 75 65 9a 9a a1 bb 3d
       -1.0859908e-18 2.0558603e-20 -4.745066e-23 0.091616824
000380 db f2 65 3d 2a 19 28 20 de 04 a0 18 83 79 8d bc
       0.05613981 1.423848e-19 4.1363945e-24 -0.017269855
000390 bf f1 c3 17 37 a9 16 3c a3 f4 c5 3d 0a 35 1e be
       1.2662605e-24 0.009195617 0.096658014 -0.1544992
0003a0 6d 9a b9 bd 4c f3 57 3e 79 c0 46 2f 4e bb 18 3e
       -0.090626575 0.21088904 1.8076375e-10 0.14915201
0003b0 c9 5c f3 3c 4b a1 fb 3d 7f 3f a8 bc 5a 5e 35 bc
       0.02970733 0.122866236 -0.02053809 -0.011069858
0003c0 ab d9 03 9a ca af b8 9e 27 af 79 be f6 8d aa 9d
       -2.7265996e-23 -1.9554462e-20 -0.24383222 -4.514541e-21
0003d0 0d fd 9d 3d 2b 36 a2 bd 00 04 00 3d 73 8f 98 bb
       0.07714281 -0.07920488 0.031253815 -0.0046557724
0003e0 48 cf 6b bc e1 ab ab bd cf 0a b6 bd 15 47 f5 bc
       -0.014392681 -0.08382393 -0.0888878 -0.029941121
0003f0 7e db 99 98 b2 9c c3 bb 64 b3 7c 3d f3 2e 64 bc
       -3.9771204e-24 -0.0059696073 0.061694518 -0.013927209

bias f4 [10]
000000 f2 32 47 3e b7 68 84 3d af d7 37 bd 14 97 df 3c
       0.19453028 0.06465285 -0.044883426 0.02729372
000010 14 97 9a bc 9c 9c 78 bd 11 e1 f1 3d 5a ab 0d 3e
       -0.018870868 -0.06069623 0.11810506 0.13834897
000020 79 86 8e 3d 5d 14 41 3b
       0.069592424 0.00294616
