2-hypertuning-mlflow/mlruns/2/aa07e23bf000405bbe3da14b7f28f9dd/artifacts/pytorch_models/20250921-1132model.pt (torch, 52229 bytes, 12 tensors)

weight f4 [8, 1, 2, 2]
000000 e0 b3 09 17 09 be 58 9a e7 2c 6a 18 3f 2f 22 ba
       4.449412e-25 -4.4821262e-23 3.0266461e-24 -0.000618685
000010 9e f5 55 bf 62 75 03 bf e4 1d de be c5 c9 b7 bd
       -0.8357791 -0.51350987 -0.4338218 -0.08974031
000020 79 88 6f be 0f c3 45 bf 7f f7 7d be fe 51 ec be
       -0.23391904 -0.7725076 -0.24801444 -0.46156305
000030 7a 1d 65 3f e8 75 43 3f b4 36 49 3f 85 92 06 3f
       0.894981 0.76351786 0.78599095 0.5256732
000040 d6 82 5c ba 87 42 01 18 b6 e7 fd b4 b0 54 f1 21
       -0.000841183 1.6706447e-24 -4.7293514e-07 1.6353212e-18
000050 8f 12 70 3d e8 19 5e 3f d8 fd 10 3f 86 a4 03 3f
       0.05861145 0.8675828 0.56637335 0.5142292
000060 fd 52 59 bf f2 61 0d be c3 f3 55 bf 26 91 71 be
       -0.84892255 -0.13806894 -0.83575076 -0.23590526
000070 ee ed 28 ba bc 81 1a bc cd 14 92 ba a3 9d 60 1d
       -0.00064441457 -0.009430345 -0.0011145115 2.972765e-21

bias f4 [8]
000000 63 22 34 bb e3 7e 8c 3e ca 39 64 3e 6d ee 16 3e
       -0.0027486316 0.27440557 0.2228767 0.1473939
000010 1f 6d 14 b9 fc ef c1 3e 1e fc c4 3e c1 67 70 b7
       -0.0001415503 0.37878406 0.384736 -1.4329272e-05

weight f4 [8, 8, 2, 2]
000000 d0 c3 38 16 4f 78 ca 24 70 8d 1b 14 3f 44 39 98
       1.4925189e-25 8.7807346e-17 7.853394e-27 -2.3945145e-24
000010 2c d0 39 3e 1a ac 92 3e ae 51 20 be 86 c5 0a 3e
       0.18145818 0.28646928 -0.15656158 0.13551912
000020 ad be 12 bd 37 b3 48 3e 08 fd 30 be ad b6 96 bd
       -0.035826374 0.19599615 -0.17284024 -0.073590614
000030 7a 05 46 bd 3f 38 0b 3e e0 1f 9a 3e 3f 0b 13 3e
       -0.048345067 0.13595675 0.30102444 0.14359759
000040 c6 a3 12 96 b1 f5 a5 96 e7 01 fe 97 e6 5d 25 17
       -1.1845464e-25 -2.681224e-25 -1.64148455e-24 5.343289e-25
000050 c2 52 38 3e 40 8d 84 3c 24 83 ec 3d 09 a3 3c 3e
       0.1800032 0.016180634 0.115484506 0.18421568
000060 4f 55 6a bd b8 49 11 3e 33 20 fd 3c 28 50 87 3d
       -0.057210263 0.14188278 0.030899143 0.066070855
000070 82 ed dc 15 a8 cc 6d 1e 92 32 9b a8 14 b6 16 29
       8.9232014e-26 1.25889975e-20 -1.7230388e-14 3.346462e-14
000080 a4 8f 43 98 af ec 4a 9c 10 03 ca 95 04 65 ab 96
       -2.527568e-24 -6.71421e-22 -8.159198e-26 -2.769029e-25
000090 a9 e1 1d 3e c1 76 ad 3e f3 fc 3e bd 40 68 bc be
       0.15418114 0.33879665 -0.04662795 -0.36798286
0000a0 8f 98 27 3e 8c 4c 85 3e ec 3d 31 be 06 34 cc be
       0.1636679 0.26034963 -0.17308778 -0.3988344
0000b0 9a c7 15 3d 44 bb 1d bc d4 34 db 3d 53 84 81 3e
       0.036567308 -0.009627167 0.107034355 0.25296268
0000c0 cb 15 5b 96 2d ac 26 1a 86 54 31 2d ac 10 cd 9d
       -1.7697556e-25 3.4467078e-23 1.0080053e-11 -5.4280286e-21
0000d0 37 b8 dc 3d 46 82 a9 bd e9 f1 cf bd ef 1b 13 3e
       0.10777324 -0.08276801 -0.101535626 0.14366125
0000e0 7a 84 79 3e 98 28 3b 3d 2b 91 4e be 2c 83 60 be
       0.24366942 0.04569301 -0.20172565 -0.21925038
0000f0 a0 2f e1 13 5e 30 1d a3 60 87 0c 1d 90 ea bc 9c
       5.6844947e-27 -8.521229e-18 1.8598833e-21 -1.2501429e-21
000100 7c 93 49 ab 99 4a 9d 9f b9 be 55 15 0c e2 9e a8
       -7.161422e-13 -6.66155e-20 4.316546e-26 -1.7639556e-14
000110 f0 c9 9e be 71 e8 52 be 97 70 99 bb 94 48 dd bc
       -0.3101344 -0.20596482 -0.004682611 -0.027012147
000120 0a 4d 7c bb bd 44 f1 bd 85 d1 e2 bd c8 31 f9 3b
       -0.0038498067 -0.11780689 -0.11075119 0.0076048113
000130 23 40 ae 3e ce 94 a3 3e 9c e7 37 3e 03 31 94 3e
       0.34033307 0.31949466 0.17959446 0.28943643
000140 b9 f6 8e aa 64 f9 a1 18 27 c2 33 2c 48 9b a2 21
       -2.5395465e-13 4.1869345e-24 2.5545206e-12 1.101865e-18
000150 cf 28 55 3e 5c 58 19 3d 83 8c 75 3d dd 1c 08 3e
       0.20816348 0.03743778 0.059948456 0.1329226
000160 b6 17 ed bd bd ec 5e bd 31 6e 64 be 85 b0 07 bd
       -0.11576788 -0.05442499 -0.2230766 -0.033127327
000170 ca 80 32 25 46 8f c3 a4 dd 59 21 9f 4a 18 b3 16
       1.5482674e-16 -8.4810484e-17 -3.416741e-20 2.8934338e-25
000180 6e 0d 65 96 a2 3c 22 9b c7 47 b1 99 ab b7 e6 a4
       -1.850271e-25 -1.3419917e-22 -1.8330362e-23 -1.00057746e-16
000190 31 62 12 3e ba 7a 88 3e 84 92 b9 3d 9b 71 82 3c
       0.1429527 0.26656133 0.09061149 0.015923312
0001a0 e9 07 91 3e 87 c6 95 3e 3c 80 58 bd 7c b7 46 3c
       0.28326347 0.29253027 -0.05285667 0.012128707
0001b0 86 ba a5 be 42 0a 00 bc 69 1c 93 be 48 d5 5e be
       -0.3236887 -0.007814946 -0.28732613 -0.21761048
0001c0 59 e8 2c 18 a1 8f dd 29 da 25 7f 9a c8 01 ed 14
       2.2347785e-24 9.839287e-14 -5.276334e-23 2.3931587e-26
0001d0 fe 39 9d bd 3c 1f 0f 3e c5 fb 1c 3e bd a7 0d 3e
       -0.07677077 0.13976759 0.15330417 0.13833518
0001e0 1f 4c 9b bc 09 0b 61 3d 18 31 f9 3d c5 2c 2a 3c
       -0.018957196 0.054942165 0.12167567 0.01038665
0001f0 52 76 bc 18 0d 5f de 17 72 17 45 16 f7 c8 65 97
       4.8716334e-24 1.4370408e-24 1.5920931e-25 -7.4247544e-25
000200 8c 41 9d 9e eb bb e5 a9 08 45 7c 14 66 5d ee 27
       -1.6650131e-20 -1.02022415e-13 1.2736363e-26 6.6159533e-15
000210 39 b1 15 3e 8c 3d bb 3b 0a c1 35 3e cb 93 47 3e
       0.14618386 0.005714124 0.1774942 0.19489972
000220 07 b6 3f 3e 20 e5 e9 bc 8e e8 01 3d a5 2e 0f 3e
       0.18721782 -0.028551638 0.031715922 0.13982637
000230 52 43 24 be cb 05 e1 bd 75 4f e9 3c 9b 6e 42 3e
       -0.16041306 -0.10987433 0.02848027 0.18987505
000240 af a2 1a a7 c2 3d d7 25 af d0 36 a0 33 3e 1e 9e
       -2.1459984e-15 3.7338403e-16 -1.5485047e-19 -8.377313e-21
000250 b3 85 08 3e 8d e2 45 3c 31 95 0e 3e 76 1f ed 3d
       0.13332252 0.01207794 0.139241 0.11578266
000260 29 25 04 3e dd b4 e3 3d df 16 3a 3e ba d4 0d 3e
       0.129048 0.11118481 0.18172787 0.1385068
000270 eb b0 90 a9 dd a0 17 96 a5 a6 da 95 38 2c 93 a0
       -6.425575e-14 -1.2248442e-25 -8.831242e-26 -2.493203e-19
000280 ee 41 8c 1f e2 be 28 1a 00 14 5f 20 bd 05 93 2b
       5.940138e-20 3.489578e-23 1.8895452e-19 1.0446571e-12
000290 c0 93 45 be f2 0c da bd d8 d4 d7 bd b4 7e b0 bd
       -0.19294643 -0.10647 -0.105386436 -0.08617917
0002a0 fd 2d b2 bb 01 b4 b0 3d 29 2f af 3c 21 b4 ac 3d
       -0.005437611 0.08628083 0.021384792 0.08432794
0002b0 11 15 46 3e 92 1d 35 be dd 88 11 3e 33 14 04 be
       0.19343974 -0.17687061 0.14212365 -0.1289833
0002c0 80 78 36 2d 2a 8f 50 29 0e 19 1d 9c 8f 28 5d 1e
       1.0372259e-11 4.6309453e-14 -5.1979325e-22 1.170803e-20
0002d0 ec 80 50 3e 06 60 ba 3d 67 83 2a 3d 04 8d 37 be
       0.2036168 0.09100346 0.04162922 -0.17924887
0002e0 32 28 06 be ca 9e eb bd f0 42 bb 3d 42 aa b5 bd
       -0.13101271 -0.11504896 0.09143627 -0.08870365
0002f0 67 05 99 93 17 92 e6 a2 64 be f6 18 24 68 77 a2
       -3.8627957e-27 -6.2496304e-18 6.3781755e-24 -3.3529874e-18
000300 44 da 87 ab 37 12 d5 21 a0 ad 46 23 6d e6 c0 95
       -9.652908e-13 1.4438263e-18 1.0770368e-17 -7.791173e-26
000310 df d4 5b 3e 5a d8 b4 3d 4a 20 2c 3e 05 48 89 bc
       0.21467923 0.08830328 0.16809192 -0.016757974
000320 8d 62 30 3e 7e db 46 be ff 85 f8 3d a6 75 f1 bd
       0.17225094 -0.19419667 0.12134933 -0.11790018
000330 d3 33 a2 3c dc 17 9c 3e 8e 9b 53 be 24 97 c9 3d
       0.019800102 0.30486953 -0.20664808 0.09843281
000340 db 70 9b 9e 2c 3e e9 96 cd 7b 80 9f 5c 97 fe a6
       -1.645794e-20 -3.7682416e-25 -5.441492e-20 -1.7665817e-15
000350 08 6f 00 be a0 e3 a9 3d b5 cd ce 3d 09 e8 04 3e
       -0.12542355 0.08295369 0.10097829 0.1297914
000360 f9 5b 94 3d 5d cf b8 3c 55 e6 31 bc 67 3b 71 bd
       0.07244105 0.022559816 -0.010858138 -0.05889454
000370 bc 2f bf 99 33 d8 07 21 8a 5f ae 24 6a fc 8d 96
       -1.9768217e-23 4.6025916e-19 7.562232e-17 -2.2939074e-25
000380 ad 82 b3 26 08 f7 ee 96 f9 e5 97 24 16 3f 1b 1a
       1.245604e-15 -3.8606872e-25 6.58754e-17 3.210421e-23
000390 56 fc 6d 3d cd a7 2f 3e dd 08 90 3e e8 f7 5c 3e
       0.058101974 0.17153855 0.28131762 0.21578944
0003a0 db a0 76 3e 52 0c 95 3e fb 3c 99 3e eb 9a 2a 3e
       0.24084799 0.29110962 0.29929337 0.16660659
0003b0 d5 2b 2e 3c ee 37 09 be a2 f7 a4 be 03 bf 60 be
       0.010630568 -0.13400242 -0.3222018 -0.21947865
0003c0 c5 f5 94 19 5c cb fd a0 54 7b 39 9b 98 0a b5 16
       1.5402107e-23 -4.299444e-19 -1.5342691e-22 2.9248813e-25
0003d0 9f 17 cd bd e4 51 3e 3c 05 90 e4 bd 21 15 96 3c
       -0.10014271 0.011616204 -0.11160282 0.018320622
0003e0 47 70 de 3c 68 5b 6f 3e c6 60 04 3e 93 bf 68 3e
       0.027153147 0.23374712 0.12927541 0.2272933
0003f0 8b 0f 23 1a 10 45 be 95 39 11 24 19 4f ed cb 9b
       3.3720165e-23 -7.684935e-26 8.482079e-24 -3.373689e-22

bias f4 [8]
000000 54 51 98 3d 09 2e 88 bd d0 21 bc 3b 9d 86 a2 3d
       0.07437387 -0.066494055 0.0057413355 0.07935832
000010 67 9c 0d bd 18 7b 19 3e 6b ee 4a be 19 fd 83 3d
       -0.034572985 0.14988363 -0.19817512 0.06444759

weight f4 [8, 8, 2, 2]
000000 b3 51 40 3d 17 10 82 3d 2b 69 71 bc 29 c5 31 3e
       0.046952914 0.06350725 -0.014734547 0.17360367
000010 4a 3c 23 3e 5f 94 22 3e 2b 3e 45 3e e9 a4 c3 3e
       0.15940967 0.15876912 0.19261996 0.38211754
000020 ec 44 40 be f5 75 2c be 2f cf dd be 0d b0 34 3d
       -0.18776292 -0.16841872 -0.4332213 0.044113208
000030 eb c8 ad 3e 04 fc 0a 3e e2 96 65 3e fd 34 85 3e
       0.3394235 0.13572699 0.22420838 0.2601699
000040 52 96 9b bd d2 9a 50 3e 88 3e 3d 3e b7 ad e2 3d
       -0.07597031 0.2037156 0.18480885 0.1106829
000050 d4 c6 98 be 49 3b a4 be 58 d6 d2 bd c4 3b 82 be
       -0.29839194 -0.3207648 -0.10294789 -0.25436223
000060 38 f7 0d bc 4e 3b fb 3d 7b a1 5b be f4 5e 7e 3e
       -0.008664899 0.12267171 -0.21448319 0.24840909
000070 6f 42 ba 3e 44 ab 87 3e f9 f8 8b 3e 36 f9 bc 3d
       0.3637881 0.26497853 0.2733839 0.09227221
000080 46 d1 27 3e 39 bc 22 3e 36 2e 1c bd cf ec ad 3d
       0.16388425 0.15892114 -0.038130008 0.08492433
000090 31 ff 26 be 27 82 cb bd 95 4a 55 be 5b 94 3d be
       -0.16308285 -0.09936934 -0.20829232 -0.18513624
0000a0 a8 a5 22 3e b0 9e d2 bd 83 73 9a 3e ac 58 04 3e
       0.15883505 -0.102841735 0.30166253 0.1292445
0000b0 86 7c 3f be b0 db 25 3d 51 5b 6c be 38 24 86 3d
       -0.18699846 0.040492713 -0.2308171 0.06549877
0000c0 92 fb c4 3d fc d6 98 3c a7 f1 14 3c b8 b4 03 3e
       0.09618296 0.0186572 0.0090908175 0.12861907
0000d0 61 07 8d 3e b3 0c 04 3e 4c 11 ae bc 1a 69 05 3e
       0.27544692 0.1289547 -0.021248482 0.13028374
0000e0 dd d0 26 bd 3d ea 40 be ee e5 02 be 12 71 4f be
       -0.04072653 -0.18839355 -0.12783024 -0.20257977
0000f0 e6 ee cd bd fa 81 82 bd cf 0e 63 be a0 b3 32 3e
       -0.10055332 -0.06372447 -0.22173618 0.17451334
000100 f6 bb 00 be d6 eb 8c 3d dd bf 01 3e 3b a0 e4 bd
       -0.12571701 0.0688092 0.12670846 -0.11163374
000110 3a ef 83 be 49 0c 4b 3e a1 07 48 3e 23 ba dc 3e
       -0.25768453 0.19828905 0.1953416 0.4311076
000120 49 e1 b0 be 69 f6 37 be fe 2e 09 bf 57 2a 2d 3d
       -0.3454688 -0.17965092 -0.5358733 0.042276707
000130 f0 35 0e 3e d3 65 59 3e 12 e6 7f 3e 08 8e 07 bb
       0.13887763 0.21230249 0.24990109 -0.0020684022
000140 48 44 05 3e fe c4 55 3c f6 e9 e2 3d 9d e6 44 3e
       0.13014328 0.013047455 0.11079781 0.19228597
000150 a8 cd be bd 50 72 c7 be 90 c7 d4 be 91 f2 34 be
       -0.093165696 -0.389544 -0.41558504 -0.17670657
000160 17 90 2f 3d 08 5f 63 3e 6c b3 4d be 5e cc 49 3e
       0.042862024 0.2220422 -0.20087975 0.19706866
000170 72 fc b4 3e 61 77 8f 3e 2d 47 90 3e d3 52 49 3e
       0.3534885 0.28020766 0.28179303 0.19660501
000180 e3 55 2f ad 6e 05 aa a6 8f 3c 09 a4 a8 b5 db a2
       -9.966669e-12 -1.1797591e-15 -2.9758435e-17 -5.9552405e-18
000190 c9 94 59 a2 65 4d 84 a1 0e c2 e5 a2 1c 52 7f a2
       -2.948775e-18 -8.965154e-19 -6.2276038e-18 -3.4602413e-18
0001a0 50 5b bb 21 5a 0f b9 a2 9b 7f 2b a3 d2 5f 3c a4
       1.2695783e-18 -5.0160605e-18 -9.29695e-18 -4.0847165e-17
0001b0 bc 1d 01 28 01 6c 8d 28 69 16 03 ae 1f d3 cd 99
       7.167386e-15 1.5700984e-14 -2.9805856e-11 -2.1281774e-23
0001c0 cd 18 0d ad 5f 9a 18 a5 e6 fd c5 29 35 62 29 23
       -8.020429e-12 -1.3236201e-16 8.792602e-14 9.1823045e-18
0001d0 ab a2 3d 22 97 9f c1 a2 4b 35 18 a4 c2 c7 3c 26
       2.5700392e-18 -5.2481727e-18 -3.3004887e-17 6.5496325e-16
0001e0 66 c7 c8 22 23 37 00 22 5f 7f 5e 28 21 9d fa a0
       5.442123e-18 1.7376424e-18 1.2351095e-14 -4.2455627e-19
0001f0 12 58 73 a3 f2 53 c4 22 c4 86 54 16 99 18 c4 a3
       -1.3191706e-17 5.3214787e-18 1.7167748e-25 -2.126078e-17
000200 39 1c b6 bd 92 62 8a 3d 76 7d b5 bc f5 9d 77 3e
       -0.08892102 0.06757082 -0.022154551 0.2418135
000210 e2 81 a0 3e ad a8 6b 3e 0f 80 16 3f 5a fc 15 3f
       0.31349093 0.23013563 0.5878915 0.5858818
000220 a2 b4 cf be 57 40 d2 be ab 4b 90 3e 75 cf 24 3e
       -0.405675 -0.41064712 0.2818273 0.16094764
000230 31 b6 e7 3d a5 03 be 3e bc 21 a6 be f2 5d 40 be
       0.11314047 0.37112156 -0.32447612 -0.18785837
000240 cf 03 21 3e d7 5b 65 3e 32 43 30 3d 59 a9 11 3d
       0.15724109 0.22398315 0.043032832 0.035561893
000250 16 50 f7 be 5b 75 dc be b7 f2 98 bd bc 59 eb bc
       -0.48303288 -0.43058285 -0.07468169 -0.028729312
000260 5a be 13 be eb ce ee bd bc 6c 87 3d 40 00 d7 bd
       -0.14428082 -0.1166056 0.06612536 -0.104980946
000270 c2 ae 1b 3e 7a ba 0f 3e 9f 99 be be bc 3d a9 be
       0.15203384 0.14035979 -0.3722658 -0.33054912
000280 67 1d 3d 3e 65 81 03 3e 44 12 57 3e 4d 97 aa 3d
       0.18468247 0.12842329 0.21003062 0.083296396
000290 d6 4f 3d 3e 0a f4 bd 3e 03 c8 a6 3e 74 72 f3 3d
       0.18487486 0.3710025 0.32574472 0.118870646
0002a0 81 4d 13 bd 4a 39 a1 3c 36 75 19 be a8 87 32 be
       -0.035962585 0.019680638 -0.14986119 -0.17434561
0002b0 8f f5 15 3e e7 93 42 bd 79 5c b6 3d 67 c7 6e bd
       0.14644454 -0.047504332 0.089043565 -0.058295634
0002c0 96 ab 42 3e a6 22 08 3e 20 d2 49 3e 3b 84 15 3e
       0.19010767 0.13294467 0.19709063 0.14601223
0002d0 36 0b 1f be a5 4b 27 3e 7b fb a4 3b bb ce 5d 3c
       -0.1553162 0.1633745 0.0050348616 0.013538058
0002e0 97 69 ac 3e 5c dd c6 3e 83 45 e2 3d fa 02 a2 3e
       0.3367431 0.3884076 0.110484146 0.31642896
0002f0 07 d6 bd 3e 8f 61 5c 3e 38 12 66 3e 59 6b 85 3e
       0.37077352 0.2152159 0.22467887 0.26058462
000300 ea 6f 57 3d 3f 7a 8f 3b 68 02 27 3e 4b 39 1a 3e
       0.052596964 0.0043785865 0.16309512 0.15060918
000310 a1 73 63 be 8b d4 5d be f7 8a 66 be 0a 55 78 be
       -0.22212078 -0.2166311 -0.22513948 -0.2425119
000320 64 18 6e 3d 2e 73 84 bb 50 4b 9a 3e 12 8d 65 3e
       0.05812873 -0.004042051 0.30135584 0.22417095
000330 98 3a 77 be eb c5 75 3d a5 f2 86 be ba be 1b be
       -0.24143445 0.060003202 -0.26356998 -0.15209475
000340 88 ea 8b 3d 99 62 8c 3c 1f 12 30 bd 80 50 1a 3e
       0.06831843 0.017136859 -0.04298603 0.15069771
000350 85 a6 fd 3d 8a b7 06 bd 29 39 6b 3e 2c da 75 bd
       0.12385277 -0.03288988 0.22971024 -0.060022518
000360 59 fe 7d 3d 42 1d 5a be cf 53 09 be cf 8d 6e be
       0.062010143 -0.21300223 -0.13410877 -0.23296283
000370 ef 91 8f be 1e 21 ed bd aa 3d d8 bc f9 de df bd
       -0.28041026 -0.11578582 -0.026396591 -0.109312005
000380 b6 e3 17 bd 53 d0 2f 3d 89 71 37 bd 19 29 ca bd
       -0.037082396 0.042923283 -0.04478601 -0.0987112
000390 d6 21 17 b7 d5 97 71 b9 3a be 96 b6 f3 68 18 b1
       -9.008179e-06 -0.00023040113 -4.4924936e-06 -2.2178568e-09
0003a0 c1 05 89 bc 38 74 f6 bc 9d 12 ab ba 03 d9 0e 3d
       -0.016726376 -0.030084714 -0.0013051812 0.034874927
0003b0 ae 3f 8c b5 61 a2 88 37 8d de 84 bb 92 67 9d bb
       -1.0449346e-06 1.6288077e-05 -0.0040548504 -0.0048036063
0003c0 16 1b 04 be 4e 37 6c bd ac 8a f4 bc 88 dc ce bd
       -0.12900957 -0.05766993 -0.02985128 -0.10100657
0003d0 9f d5 b3 bc ef 25 74 3d 22 91 df bc 7d d7 d7 3d
       -0.021952448 0.05960649 -0.027290884 0.10539148
0003e0 02 45 9b b9 2a 7c d0 b8 26 66 a8 b8 db b4 7d 32
       -0.0002961532 -9.94134e-05 -8.029891e-05 1.476766e-08
0003f0 d3 33 1e 3d 10 79 7b 3c d3 2b 32 3d 9c 58 17 bd
       0.038623642 0.015348688 0.043498825 -0.03694974

bias f4 [8]
000000 ce 2a f3 3b 0e f2 6c bd ab 41 4b 3d e7 28 fe a3
       0.007420874 -0.05784803 0.049623173 -2.7556058e-17
000010 33 0f e5 3c 96 8c 13 3d 22 54 6a 3e 82 69 6a 3d
       0.02796135 0.036022745 0.22883657 0.057229526

weight f4 [128, 8]
000000 a3 e1 57 3e b7 2e 01 3e d0 cc ce 3e 5e 76 32 35
       0.21082167 0.12615477 0.40390635 6.6482414e-07
000010 e4 23 2a bf be ec c4 3e a4 f7 37 3e b9 74 13 bb
       -0.66461015 0.3846187 0.17965561 -0.0022499992
000020 00 43 a3 bd 35 b8 a1 3e 0d db d6 be 53 72 23 1b
       -0.079717636 0.3158585 -0.41963997 1.3519984e-22
000030 1a be f0 bd c6 f9 8a 3c 00 c8 84 3d fa 1f 71 bc
       -0.11755009 0.016964804 0.064834595 -0.014717096
000040 5d 26 58 3d 23 26 54 3e fb e6 ce 3d 72 52 b3 34
       0.05277096 0.20717673 0.1010265 3.3401335e-07
000050 3c 2d 20 bf be 62 e4 bd fe 87 b0 3c 5f a1 4a ba
       -0.6256902 -0.11151646 0.021549221 -0.00077297346
000060 01 b2 6e 3e 42 55 37 3d 39 e6 e9 3e 5c 45 ed 1a
       0.2331009 0.044759043 0.45683458 9.813296e-23
000070 12 e6 fb bd ff d4 5c 3e ad 38 95 be 58 be f7 bc
       -0.12299742 0.21565627 -0.29144803 -0.03024213
000080 65 d8 45 be c2 44 e3 3d 2f 0c d9 bd a7 dc a7 ae
       -0.19320829 0.11097099 -0.10598027 -7.6334765e-11
000090 5f 6e 6f bf 2c a6 ce 3e 47 dc 16 3c f1 08 45 bc
       -0.9352779 0.40361154 0.009207792 -0.012026058
0000a0 2a 38 ba 3e 71 e1 70 bd d9 a6 4c 3e 9c 22 e4 9a
       0.36370975 -0.058808748 0.19985522 -9.4354504e-23
0000b0 d4 41 b1 3e ef c6 7d bd 7d 18 47 3d 3f 08 ff 35
       0.34620535 -0.061957296 0.04860734 1.900138e-06
0000c0 cd 8f 9b 37 3e 48 4e 1e 1b ab 2f 9e 00 36 0a 23
       1.8544402e-05 1.09204885e-20 -9.299807e-21 7.49243e-18
0000d0 e8 ca 60 b9 76 d4 e4 b7 ca 88 2b 17 73 fc a3 97
       -0.00021437893 -2.7278653e-05 5.542573e-25 -1.0597355e-24
0000e0 cf c6 00 32 ce 84 ff 17 09 fb 65 b8 36 08 cf 1b
       7.495784e-09 1.6512513e-24 -5.483165e-05 3.4250584e-22
0000f0 de 59 24 b8 5a b3 24 17 23 00 75 b9 0e 3b 8c 37
       -3.9184342e-05 5.321763e-25 -0.00023365072 1.67168e-05
000100 e3 34 91 bd d6 4f 2d be ef c9 b4 3e eb e1 5d 9a
       -0.070901655 -0.16924986 0.35310313 -4.5884224e-23
000110 22 4e f3 be fc ee b8 3e 4e 60 fe 3d c4 1d 1a 30
       -0.47520548 0.3611983 0.124207124 5.6067173e-10
000120 fe ca 12 1a 72 c9 b3 b8 db 9a b7 b2 5f 72 94 b6
       3.0356068e-23 -8.572907e-05 -2.1374424e-08 -4.4240583e-06
000130 6c f0 1f ba e2 5f f5 95 6c b9 da 17 12 86 46 9f
       -0.00061011943 -9.910599e-26 1.4134727e-24 -4.203903e-20
000140 6d 26 91 be 3a bd f0 bd 2a 5c d3 3c 48 91 25 2d
       -0.2834963 -0.11754842 0.025800783 9.411423e-12
000150 c9 7c 13 be 01 dd 53 be d8 f1 97 3e b0 17 ef bb
       -0.1440307 -0.20689775 0.296767 -0.007296525
000160 ec 92 0f 15 d7 c4 0f 27 d5 cb db 30 fc 6c 90 98
       2.899452e-26 1.9951944e-15 1.599228e-09 -3.7333174e-24
000170 33 17 10 ba 85 3a e2 36 02 58 00 b9 02 16 28 39
       -0.0005496621 6.7421374e-06 -0.00012239817 0.00016029927
000180 1a a0 ab 94 f2 9a a1 b5 0c b5 2c 2e 37 52 b4 a9
       -1.7329736e-26 -1.204053e-06 3.9269074e-11 -8.007868e-14
000190 d7 c0 5b b8 85 a3 c7 19 0f 24 80 20 6c 10 4c 14
       -5.2393265e-05 2.0642163e-23 2.1707905e-19 1.0302607e-26
0001a0 4b 67 4a a0 50 15 3e 18 71 c8 e8 9f 79 af f1 16
       -1.7144242e-19 2.4567684e-24 -9.8587424e-20 3.9046389e-25
0001b0 23 6e db 9a cc 3f 25 97 9c f4 0b b8 63 7a 5f 9f
       -9.075421e-23 -5.33949e-25 -3.3367993e-05 -4.7323323e-20
0001c0 d7 20 ec 3e 51 67 c8 bd a1 8e 00 3e e7 f5 a3 19
       0.46118805 -0.09785331 0.12554409 1.6953124e-23
0001d0 ab 96 95 3e 68 eb 5b 3d da ca b2 3e 85 d0 de ba
       0.29216513 0.053691298 0.34920388 -0.00169994
0001e0 9e d7 9f 3e a6 18 45 3e 13 e9 1b 3e 5a a5 95 9b
       0.3121919 0.19247684 0.1522563 -2.4756838e-22
0001f0 49 90 52 bf d7 a1 0a 3d e6 a0 12 3e 55 2c d2 bb
       -0.8225141 0.03384575 0.1431919 -0.006413976
000200 6b fa 2d 3e 4c a1 92 3e 60 5d 49 3e 53 b0 97 39
       0.16990058 0.28638685 0.19664526 0.00028932336
000210 29 7e 36 bf be 51 d4 3e 05 d1 db 3e 55 9c 18 bb
       -0.71286255 0.41468614 0.42932907 -0.002328654
000220 80 b6 c5 b9 b6 56 89 af 72 f6 89 96 44 dc 86 98
       -0.0003771074 -2.4981767e-10 -2.2289073e-25 -3.48606e-24
000230 9f 36 74 b4 f1 76 d6 1e 26 63 c5 96 fd 47 df b4
       -2.2744142e-07 2.2707324e-20 -3.1889638e-25 -4.1589365e-07
000240 0f 0f 72 bd 53 30 4a 3e 46 5d 83 bd f6 2d 9d 36
       -0.059096392 0.19744997 -0.06414275 4.684315e-06
000250 3f ab 10 bf 7c bf e6 ba 27 96 e6 3e 79 b4 65 37
       -0.565113 -0.0017604674 0.45036432 1.3691483e-05
000260 4d df a9 3e e8 18 8d be 65 56 97 3e f4 34 30 36
       0.33178177 -0.27558064 0.295581 2.6256866e-06
000270 db f3 3d 3d de 51 b2 3d fd cf 00 be dc 2a 42 af
       0.046375137 0.08707021 -0.12579341 -1.7659424e-10
000280 de 64 4f bd e1 65 3c 3e ba 88 af 3d ca c9 e2 29
       -0.050633304 0.18398239 0.085710004 1.0071421e-13
000290 f6 ca 39 be 8a 0a f5 3c 13 59 9a 3e 2b b3 7d b9
       -0.1814383 0.029912252 0.30146083 -0.00024194705
0002a0 df f1 e9 3e e9 f7 99 be 3f 0c 11 3e 34 1d f0 9a
       0.45692345 -0.30071953 0.14164828 -9.9308854e-23
0002b0 0d 16 2c 3d 10 9c cf 3e 8e 97 9c be cb 8c 22 3c
       0.042013217 0.40548754 -0.30584377 0.009921263
0002c0 c4 07 93 be 61 a5 8c 3e 18 e7 8a be 54 18 0d ba
       -0.28716862 0.27469924 -0.27129436 -0.00053823483
0002d0 3b 56 c5 3e e1 9a 71 be ab e3 b8 3e 23 6d b6 b8
       0.3854235 -0.23594238 0.36111197 -8.6987646e-05
0002e0 f7 43 41 bd 3a fd f6 3e 7a ed 5f 3e 59 cd 06 b1
       -0.047183957 0.48240072 0.21867934 -1.9616293e-09
0002f0 7e d4 af bd f0 89 ac be 2d ed ca 3e aa ce ef 38
       -0.085854515 -0.33698988 0.39634076 0.00011434902
000300 b4 8b d3 bd b2 4c 91 3d 39 c9 fc bd b7 02 c7 19
       -0.10329381 0.070947066 -0.12343068 2.0577214e-23
000310 29 02 2f 3f b8 be 5f bd d6 4c f3 3d 84 d5 be b7
       0.6836267 -0.054625243 0.1187989 -2.2749191e-05
000320 11 9a 1e 3e 46 71 8b 3d d5 cb 80 be b4 6b 9a 2f
       0.15488459 0.068087146 -0.25155511 2.8088964e-10
000330 7b cf 42 3f a0 47 89 be 46 51 45 bc 7c 5f 23 bc
       0.7609784 -0.26812458 -0.012043303 -0.009971496
000340 6b d0 3e 1e 6e 8f 7b 98 d6 1f d2 96 98 76 74 9c
       1.0101616e-20 -3.2513403e-24 -3.394742e-25 -8.0886107e-22
000350 99 96 65 ad db 86 8d 1f ec b1 cf b9 df 56 11 b8
       -1.3050582e-11 5.993892e-20 -0.0003961468 -3.46516e-05
000360 6f 9f 3e 3e 3c 87 97 bd b0 bf 83 3e b7 39 59 1b
       0.18615507 -0.07398841 0.25732183 1.7968468e-22
000370 1e 3d 96 be 59 9a 22 3e 62 a3 7d be 08 5e fd 34
       -0.29343504 0.15879191 -0.24769357 4.719334e-07
000380 10 8b 7e b9 28 52 59 97 e0 cd 06 a2 2f b7 61 9a
       -0.00024275132 -7.0220177e-25 -1.8269376e-18 -4.6676884e-23
000390 28 10 20 b8 e2 41 38 18 b6 6e 99 b7 aa ae 86 b5
       -3.816202e-05 2.3814705e-24 -1.8290575e-05 -1.0034612e-06
0003a0 66 cb 89 3d d7 74 80 be f6 00 6f bd 58 f5 1e b2
       0.06728248 -0.25089142 -0.058350526 -9.252595e-09
0003b0 7d af 4e 3f d2 e7 6c bc dd a0 52 3e 1e 7c 5b b9
       0.80736524 -0.014459567 0.20569177 -0.00020931705
0003c0 be 10 5b 3e bd 5b a7 3d ae 6a ea 3e df 28 95 b7
       0.21393105 0.081717946 0.45784515 -1.7781216e-05
0003d0 3d 33 ab 3e 4c bf b5 3e 33 c4 c1 be 3c 38 f5 b7
       0.3343753 0.3549751 -0.37845 -2.9232462e-05
0003e0 49 35 f7 3d d6 99 e6 bd f3 79 e6 3e 11 ac c1 38
       0.1207071 -0.112598106 0.45014915 9.235007e-05
0003f0 a8 7b 67 3f d2 02 8f 3d d8 fe 07 bd b1 ad 5b bb
       0.9042306 0.0698296 -0.033202022 -0.0033520276

bias f4 [128]
000000 f4 d1 a1 3e 62 41 cd 3e 2b 67 cd 3e 1e 30 db 3d
       0.31605494 0.40088946 0.40117773 0.10702537
000010 2d 16 95 3e da 5c 26 3d 5f 1d 01 16 22 a4 0c 17
       0.2911848 0.040615894 1.0429805e-25 4.5443604e-25
000020 bb 2a 25 be 48 e8 7a 9e 53 43 b9 3e a6 04 58 b8
       -0.16129582 -1.32829244e-20 0.36184177 -5.1502742e-05
000030 07 2a 42 b8 40 e4 18 a7 ed 14 11 bd 3e b9 65 3e
       -4.6292345e-05 -2.1217972e-15 -0.035420347 0.22433946
000040 1d b1 3e 3e c0 c4 ff b6 6b c8 a5 3d 27 2e c8 3d
       0.18622251 -7.622497e-06 0.08094867 0.09774428
000050 48 7b 06 be b9 7e 8f 3e 3c ce 02 3e 93 27 78 3e
       -0.13132966 0.2802637 0.12773985 0.24233846
000060 ff 58 c0 3c 25 eb d5 3e f5 21 06 25 e3 ac d1 3d
       0.023479937 0.41780964 1.1634152e-16 0.10238054
000070 6e 44 21 a9 b2 ce 86 bc 36 e7 77 3d 67 0b 2c 3d
       -3.5808535e-14 -0.016455982 0.060523234 0.04200306
000080 f0 db bc bc ed 57 0f be e9 57 a4 3e 41 34 bd b9
       -0.023054093 -0.13998385 0.3209832 -0.0003608782
000090 45 66 13 3f 29 03 44 3d a3 ec 03 3e 86 c9 88 bb
       0.57577926 0.047854576 0.12883238 -0.004174414
0000a0 c7 eb 16 bd 0c 65 0d 3e bb b6 f6 3e c8 15 b1 bd
       -0.03684595 0.13808078 0.48186287 -0.086467326
0000b0 a9 ba fe 3d d5 01 af 3e 22 8c 65 37 19 64 b1 3e
       0.12437946 0.34181085 1.3682091e-05 0.3464668
0000c0 99 4c 80 3d e0 27 12 3d b9 ff 01 3e b3 4a b3 3d
       0.0626461 0.03568256 0.12695207 0.08754482
0000d0 5c c4 b4 3d 20 22 62 3e 6c c9 76 ae 4e da 56 be
       0.08826515 0.2208333 -5.6112823e-11 -0.20981714
0000e0 3f c2 e7 b7 c3 67 77 3c 48 e0 92 3e 34 81 3f be
       -2.7627799e-05 0.015100422 0.28686738 -0.18701631
0000f0 83 c5 9b 3e 66 ce ac bd b8 67 8f b9 d7 ad cb 3e
       0.30424127 -0.08437805 -0.00027352362 0.39781067
000100 03 c3 80 3b 96 e2 9f 3e df 65 86 3e b6 11 f2 3d
       0.003929497 0.3122756 0.26249596 0.11819784
000110 cb 12 b9 3e 5f d5 c9 3e 68 52 ba b4 05 d6 f0 b7
       0.3614715 0.39420602 -3.4705158e-07 -2.870989e-05
000120 f6 64 47 3e 8e 42 c7 3d f5 6e b7 3e fd 4e 73 3e
       0.19472107 0.09729491 0.3582684 0.237606
000130 cf e9 f6 bd 6c 00 b9 3d 47 a4 c2 b8 4d 6f e0 29
       -0.12056314 0.090332836 -9.28124e-05 9.966906e-14
000140 04 26 e8 9a a5 0e bf bd b4 8b 34 3d 88 4b d9 3d
       -9.601437e-23 -0.09328965 0.044078544 0.106101096
000150 3d e0 23 15 45 ad 68 b9 de 0a a2 b9 ef ec a3 bd
       3.309448e-26 -0.00022189792 -0.00030907145 -0.08004176
000160 bb 10 63 3e c1 09 b3 3e 13 1a 6c 3d 68 ee 19 3e
       0.22174351 0.3496838 0.057642054 0.15032351
000170 9a fa 26 b9 e6 b0 5d ba 3f 38 d0 3e 79 1c c9 bd
       -0.0001592435 -0.0008456841 0.40667912 -0.09819884
000180 50 4b 8c 3e f3 d6 24 b6 8e e2 d1 3e ba e6 14 ba
       0.2740121 -2.4563021e-06 0.4099316 -0.0005680133
000190 76 fd a0 3d c6 e1 12 be e2 17 52 bd cd eb b8 3e
       0.07860844 -0.14343938 -0.051292308 0.36117402
0001a0 db fc 39 3e 93 80 45 3e 0f cc 9f bc 5a e3 a4 3e
       0.18162863 0.19287328 -0.019506482 0.32204705
0001b0 2c 51 c4 3d a7 3b 35 3c 19 6f 94 b3 a4 fa ba 3d
       0.09585795 0.0110615855 -6.9119956e-08 0.09129837
0001c0 ad 44 e8 3d bd 9d 00 bd 83 5e 9c 3e bf a8 e2 b6
       0.11341224 -0.03140043 0.30540857 -6.7549695e-06
0001d0 53 60 f0 3e 4f d5 86 3b 22 ab d4 b7 65 8d ad bd
       0.4694849 0.004114784 -2.535206e-05 -0.084742345
0001e0 44 1d a4 3e bb 22 fc bd 2f 59 71 3e 7b 9a 2a be
       0.32053578 -0.12311312 0.23569177 -0.16660492
0001f0 72 b7 d1 3d 41 49 f3 3d 60 45 08 b5 65 c5 7a bd
       0.102400675 0.118792064 -5.07649e-07 -0.061223406

weight f4 [64, 128]
000000 8e 97 0a 3e a8 0a 29 3d 68 18 87 3e 80 1c a5 3c
       0.13534376 0.04126993 0.26385808 0.020155191
000010 37 f7 3e 3e 37 6c b9 bd 39 5c c6 1a 88 06 0d 14
       0.18648992 -0.090538435 8.2039874e-23 7.119969e-27
000020 33 5a 6a 3e 56 c0 88 99 90 bc a5 bc 12 0a 88 98
       0.22885971 -1.4139754e-23 -0.020231515 -3.5165344e-24
000030 e0 1c af 16 b1 55 19 98 63 12 87 3c 7a f9 00 3e
       2.8290998e-25 -1.981805e-24 0.01648826 0.12595168
000040 07 d4 bf 3d 0c 84 0b 98 e8 83 e3 3d da 63 10 3e
       0.09366613 -1.8031996e-24 0.111091435 0.1410059
000050 af 9c e5 3d 9f e3 a6 3d 12 cf b5 3b b0 22 57 3d
       0.11211526 0.08148884 0.0055483663 0.052523315
000060 00 cb b7 be 63 87 26 be 3b 3c b7 96 b1 85 ca 3e
       -0.35897064 -0.16262583 -2.9603255e-25 0.39555123
000070 46 3f 18 19 4d 8f 19 bf 14 d7 a9 3b 05 10 2c be
       7.870994e-24 -0.59984285 0.00518311 -0.16802986
000080 e5 e5 63 be 49 2b af bd 8a 16 01 3e 9c 6d dd 99
       -0.22255667 -0.08553178 0.12606254 -2.2895135e-23
000090 94 f9 88 3e 44 8f 0e bf 59 ef 0d 3d 04 6b 0f 16
       0.26752913 -0.55687356 0.034652088 1.1585216e-25
0000a0 e2 0c 11 be 28 cb 4c 3e bb 8d 99 bd 5d dd 21 3e
       -0.1416507 0.19999373 -0.07497736 0.158071
0000b0 18 0c 7b 3e 60 e3 37 3d 9a 72 01 35 76 51 30 3d
       0.24516332 0.044894576 4.822301e-07 0.043046437
0000c0 02 3e 9a be 4f 2c e5 3d 55 09 1e 3e 04 f8 31 3f
       -0.30125433 0.11190092 0.15433247 0.69519067
0000d0 22 50 fd 3d 0e 6e 92 3d 0f e8 cc 18 0b 58 8c 3e
       0.123688 0.071498975 5.2967083e-24 0.2741092
0000e0 b2 17 9f 95 1c 94 9e be 12 40 ee 3c 70 d8 7c bd
       -6.4256973e-26 -0.30972373 0.029083285 -0.06172985
0000f0 68 1f aa 3d a8 05 76 3e 6e 6c c4 19 98 c6 7f 3d
       0.083067715 0.24025595 2.030972e-23 0.062445253
000100 74 47 08 3f 86 5c 33 3d 66 cb 9e bc 1a 6f 81 3d
       0.5323403 0.04378941 -0.019384097 0.06320019
000110 9b 26 21 3e b3 b5 91 3c 71 dd 06 17 33 28 5c 18
       0.15737383 0.017786836 4.3577234e-25 2.8454629e-24
000120 55 a4 aa 3c 54 e6 e6 bd 41 f4 89 3d c6 42 f0 3d
       0.020830313 -0.112744 0.06736041 0.11731486
000130 be 97 55 bd 8d e9 d8 3d 5b ca a6 17 4a ec 69 17
       -0.052146666 0.10591421 1.077858e-24 7.55846e-25
000140 1a 0d d4 16 c1 71 07 be 7f ef 0b 3d 14 03 07 3e
       3.4258715e-25 -0.13226987 0.03416395 0.13184768
000150 18 ec 7e 19 bb 79 f2 17 02 20 45 19 d9 3a a8 bd
       1.3179171e-23 1.5669613e-24 1.0191125e-23 -0.08214349
000160 b2 f4 87 3e 85 b1 c5 bd 06 57 01 be 95 56 44 bd
       0.26553875 -0.09653 -0.12630853 -0.047934134
000170 f4 3f c7 14 f0 b6 50 ae 89 4e 47 bd 2e ff af 3e
       2.011909e-26 -4.7456206e-11 -0.04865888 0.34374374
000180 46 fd a1 3e 24 f4 37 17 49 f0 11 3e 9c 59 40 17
       0.31638545 5.943864e-25 0.14251818 6.215165e-25
000190 75 5c 55 3d 1b 4b ec bd a4 b0 9a 3b 53 36 89 3d
       0.052090127 -0.11537763 0.0047207642 0.06699815
0001a0 62 66 2e 3e 2e 97 72 3c 15 49 9e bc 91 3d 9b 3d
       0.17031243 0.014806552 -0.019321958 0.07580102
0001b0 df d8 86 be 33 19 82 bd fc ab cf 96 d3 7a da bd
       -0.26337335 -0.063524626 -3.355119e-25 -0.10667958
0001c0 ff e0 05 be ca aa 71 bc d0 0c a8 bc bc ff 97 15
       -0.1307411 -0.014750192 -0.020513922 6.139189e-26
0001d0 49 ee 8f 3e a0 67 b3 be ef 51 ce 97 74 c2 8c bd
       0.28111485 -0.35039997 -1.3333121e-24 -0.068730265
0001e0 b6 70 fa bd 4b e0 a0 3e 34 58 97 bc 63 bd 60 be
       -0.12228529 0.31421122 -0.018474676 -0.21947245
0001f0 1d 43 3d 3d 7f ed 07 bd 40 59 0c 17 3c e3 12 be
       0.046206582 -0.03318548 4.534909e-25 -0.14344496
000200 b1 28 ea 3d 65 05 14 3e 2c 4f 4e 3e 22 8b b9 bd
       0.114335425 0.14455183 0.20147389 -0.090597406
000210 78 3a 18 3e cf 71 33 bd 81 60 2c 95 ef d0 15 98
       0.14866054 -0.04380971 -3.481125e-26 -1.9363283e-24
000220 b1 37 20 3d f2 b1 db 96 2f 85 51 3e ee 1a 69 17
       0.03911561 -3.5493658e-25 0.20460962 7.532035e-25
000230 3f 2b 4b 99 7a fa 40 98 be 18 85 3d 65 73 ac 3d
       -1.05035875e-23 -2.4941877e-24 0.0649886 0.08420447
000240 a7 cd b4 3d eb 98 dc 13 40 51 6d 3e 69 41 f4 3d
       0.088282876 5.5686596e-27 0.23175526 0.119265385
000250 da be aa 3d 2e 35 1f 3a a7 0e 16 3e 44 17 11 3d
       0.08337183 0.0006073293 0.14654027 0.03542258
000260 e3 13 85 bd f6 19 eb 3c 6d a6 81 19 01 5f 9f 3d
       -0.06497934 0.028698903 1.3405506e-23 0.077817924
000270 85 b9 13 97 c4 18 16 be 9c f7 ed bd ea eb 91 3c
       -4.773242e-25 -0.14657885 -0.11619493 0.017812688
000280 7e 8e d8 bd d7 90 99 bd 86 8a cf 3d 0e c2 48 19
       -0.10574053 -0.07498329 0.10133843 1.0378947e-23
000290 fd 69 36 3e f9 63 9f bd f6 dc 61 bd 4f a9 07 99
       0.17813869 -0.0778274 -0.055142365 -7.013528e-24
0002a0 65 13 79 3d 35 6c 0f 3e 53 9f 20 3e e6 b2 a0 3d
       0.06080951 0.14006121 0.15685777 0.07846622
0002b0 bf 18 e2 3d ff 8f 21 3a 66 27 25 b6 d1 9c 58 3c
       0.11039876 0.00061631197 -2.460985e-06 0.013220982
0002c0 4a d0 1a be 4b 1d 06 3e 03 3f 46 3e 03 c8 88 3e
       -0.15118518 0.13097112 0.19359975 0.26715097
0002d0 2f a1 5e 3d 19 36 c9 3d 05 f4 44 16 42 63 ac 3d
       0.054352935 0.098247714 1.5909753e-25 0.084173694
0002e0 8c 76 5e 9b 7a 43 5d bc 99 6f aa 3d 27 8b 90 bd
       -1.8401714e-22 -0.013504857 0.08322067 -0.07057791
0002f0 5f 63 c0 3d c4 34 54 3d 62 d7 81 97 aa 9e ec 3d
       0.093939535 0.051808134 -8.3908e-25 0.115537
000300 6c 4b 30 3e d3 6f db 3d 2c b7 4d 3d 7d d1 f0 bc
       0.17216271 0.10714688 0.050223514 -0.029396767
000310 e0 27 ae 3d 16 bc bb 3d 38 67 0f 17 c5 6d a6 16
       0.08503699 0.09166734 4.633607e-25 2.688802e-25
000320 39 d9 d9 3d de 47 94 3d 89 70 bc 3d 8f 39 61 3e
       0.10637135 0.0724027 0.09201152 0.21994613
000330 a3 d1 0d bc 41 e6 ad bd af 37 dc 1a 9c 69 4c 16
       -0.008655938 -0.08491183 9.107983e-23 1.6512313e-25
000340 70 74 51 17 fa df aa bd 74 7b 87 bd 14 ec 2b 3e
       6.7678507e-25 -0.083435014 -0.06615344 0.16789275
000350 7c 6d 8c 17 48 b6 0f 96 09 e1 1b 98 e9 38 7c bd
       9.074926e-25 -1.1608966e-25 -2.0146894e-24 -0.06157771
000360 10 f5 46 3e 01 15 98 3d 4b 8d 57 bd ac d6 1b 3e
       0.19429421 0.07425881 -0.05262498 0.1521861
000370 a0 74 17 98 c7 d3 08 30 ec 24 b9 3d c8 b3 4c bd
       -1.9575173e-24 4.9777465e-10 0.090402454 -0.04997614
000380 e1 b4 f4 3d da 14 85 17 ea 73 95 3d 44 c6 be 96
       0.119485624 8.600187e-25 0.072974995 -3.0821279e-25
000390 ce 61 a4 bd 68 14 07 bd 32 3f 01 3c 91 92 ad 3d
       -0.08026467 -0.032978445 0.007888602 0.08475221
0003a0 81 62 13 3e 74 20 a7 3b 0d e6 bf 3c 24 df 56 3d
       0.14393045 0.0051003043 0.023425126 0.052458897
0003b0 98 86 cc bd 44 22 ce bd ea 0d e5 16 37 1d b6 bd
       -0.09986609 -0.100651294 3.7005726e-25 -0.08892291
0003c0 df be 7d 3d 6a d0 44 3b c4 75 1c 3e c1 02 5f 96
       0.061949607 0.003003145 0.15279299 -1.8014666e-25
0003d0 7b 00 85 3e 5e 6f ac bd ca 1b 87 14 d9 32 52 bd
       0.2597693 -0.08419679 1.3642477e-26 -0.051318023
0003e0 93 78 f4 3d 49 24 ac bc 87 ad 0b 3e 66 a1 e1 bd
       0.1193706 -0.021013396 0.13640414 -0.110171124
0003f0 35 1e 82 bd dd 2e 28 3d 52 f9 cd 98 8e 3d f2 bc
       -0.06353418 0.041060317 -5.3243007e-24 -0.029570367

bias f4 [64]
000000 4f 6e 8c 3d c4 a6 48 3d b6 c9 9c 3d 26 b3 f7 3c
       0.06856977 0.048987165 0.07655661 0.030236792
000010 4e 8f 87 3d 32 38 d1 bd 7e e8 25 3e 82 58 cf 3d
       0.0661913 -0.102157965 0.1620197 0.101243034
000020 78 b7 90 bc b8 6a 4a 3d 10 73 bb bd 1a 6e 78 bb
       -0.01766561 0.04941818 -0.09152806 -0.0037907423
000030 01 20 41 3c 98 09 bc 3c aa 64 f1 3a 38 b4 75 3d
       0.0117874155 0.022953793 0.0018416841 0.059986323
000040 54 57 d7 3d 99 eb a0 ba 87 92 ba bb f1 4f 42 3d
       0.105147034 -0.0012277245 -0.005693737 0.04743952
000050 d3 6b c8 bb 47 f1 3a 3d 07 c3 d3 3d 74 61 67 3d
       -0.0061163693 0.045640256 0.10339933 0.056489423
000060 7c c2 8b 3a 19 03 d8 b9 c3 62 05 3c 4d d9 ea bb
       0.0010662819 -0.00041201038 0.008141222 -0.0071670176
000070 47 5a ef 3d 06 78 01 b6 3b 34 69 bc 11 f1 ce 3d
       0.11687141 -1.929236e-06 -0.014233644 0.101045735
000080 73 88 35 3d 7d bc 41 bd d4 d7 1a bc 68 e7 22 3b
       0.04431958 -0.047298897 -0.0094508715 0.0024857167
000090 61 4c 87 bd 7d 50 ce 3d ed e0 39 3d e2 e7 a1 bc
       -0.06606365 0.10073946 0.04538052 -0.01976389
0000a0 77 fb a9 bc 05 e9 0a 3d 04 f7 a2 3d 2c c3 03 b6
       -0.02074979 0.03391363 0.07957271 -1.9634126e-06
0000b0 d5 63 59 bc a2 51 b7 b7 56 ed 0b 3d 53 19 22 bb
       -0.013268431 -2.1853313e-05 0.034161888 -0.0024734333
0000c0 ee 9a 8d b9 59 6e 90 3d 5c 04 4f 3e 8f a6 0e 3d
       -0.00027009047 0.07052297 0.20216507 0.03482681
0000d0 b6 ff 62 3c 42 19 cb 3d a0 9b 0c b3 7d 40 75 3d
       0.013854912 0.09916927 -3.273783e-08 0.059875954
0000e0 7a e3 9e bb 42 f1 91 bc b1 e0 04 ba cb 53 d8 3d
       -0.0048488947 -0.017815236 -0.0005068882 0.10562857
0000f0 ce 2c 0b 3e d9 b9 85 bb ed 7f 56 bc 65 98 2a 3b
       0.1359131 -0.0040809927 -0.013092023 0.0026030776

weight f4 [10, 64]
000000 67 12 3f bd cb b7 03 3e 80 87 82 be 1f 20 7d bd
       -0.04664841 0.1286308 -0.25494003 -0.06179821
000010 99 f7 44 3d 48 9e 7a 3d e1 24 8a bd e4 6b 2d 3c
       0.04808769 0.061186105 -0.06745315 0.010584805
000020 56 01 0e 3b 39 35 dd bd 4d 00 bb bd 3b b3 9d 1c
       0.0021668277 -0.10801167 -0.09130917 1.0435718e-21
000030 9a db 87 bb 8e 75 2d 3d 9e 6d bc bd c1 a3 0a 3e
       -0.0041460516 0.042348437 -0.09200595 0.1353903
000040 88 84 b3 3d 6d 84 ec 98 07 f8 96 bc 31 84 9e 3d
       0.08765513 -6.1138286e-24 -0.018428816 0.07740057
000050 29 4d 9a 99 7d fd 9e bc 13 ad 90 3d a0 7d e9 3d
       -1.5954392e-23 -0.019407982 0.07064261 0.11400914
000060 68 54 c0 bd a2 f7 29 9d 7c b0 bc bc 76 28 2d 3c
       -0.09391099 -2.2494987e-21 -0.023033373 0.010568729
000070 fa 05 39 3d fe bf 49 17 0c ba 0f 1d e8 1e 52 3c
       0.045171715 6.518893e-25 1.9022076e-21 0.012824751
000080 0c 40 96 bd 8b e3 3c 3a e4 fc 9d 97 3c 76 8e bc
       -0.07336435 0.00072055374 -1.0209726e-24 -0.017390363
000090 d7 b6 fe bd 36 a9 5d 3d a0 89 d2 3d 44 15 98 3c
       -0.12437218 0.05411645 0.10280156 0.018564828
0000a0 3c 1c 10 be 2d 97 d2 be 11 35 13 3c ba 7e 8e 99
       -0.1407327 -0.41130963 0.00898482 -1.473364e-23
0000b0 0c a3 f1 ba d8 0d ff 9a 1d bd e0 bd 6d 57 8f 3c
       -0.0018435433 -1.05487894e-22 -0.109735705 0.017497743
0000c0 63 f4 12 9c 37 ff 56 3d c2 e6 48 3e 7c ab b7 3d
       -4.862321e-22 0.052489486 0.19619277 0.08968255
0000d0 ed 39 b9 be 64 b6 05 3e 72 55 1a 1e c6 43 91 3e
       -0.36177006 0.13057858 8.170362e-21 0.2837202
0000e0 ab 5f 34 17 71 54 0c 3d c9 d7 bc 9c 0d cd 29 be
       5.8281887e-25 0.034260217 -1.2496576e-21 -0.16582127
0000f0 ce e2 eb 3c 72 03 6c 3c 74 a2 5b bd 7d 38 67 af
       0.028794672 0.014405118 -0.053621724 -2.1029396e-10
000100 e9 3d a9 3e fe 44 ad bd d1 e5 85 3e 4d 4b 94 3d
       0.33055046 -0.08460425 0.26151899 0.07240925
000110 0a 28 91 3d c1 03 68 3e 2b ea db be bd 58 ba bd
       0.07087715 0.22657682 -0.42952093 -0.09098957
000120 fa 02 77 bc e9 0b 73 3d 73 be 80 3d 4c 75 79 97
       -0.015076393 0.05933753 0.06286325 -8.060429e-25
000130 9a ca 31 3b 3e c7 9e bd c6 73 1c bd b8 29 7f 3e
       0.0027128817 -0.07752846 -0.038196348 0.24918258
000140 0a c4 cf bd 61 40 9e 20 62 98 93 3c 48 3f 98 3e
       -0.10144813 2.6808844e-19 0.018016998 0.2973578
000150 78 92 fa 99 65 ee d5 bd 0f da c4 be 98 eb bb 3d
       -2.5908552e-23 -0.10445861 -0.38447616 0.09175795
000160 4d 6e 90 bc 72 d1 3d 17 a6 1c 3c 3e f0 96 e0 3b
       -0.01763072 6.133355e-25 0.18370304 0.0068539307
000170 98 44 ec be 7e 6e 9b 98 53 31 1b 2c 65 f1 6b be
       -0.46146083 -4.017813e-24 2.2054205e-12 -0.23041303
000180 ad 76 b1 3c 72 b0 d6 be 0c c1 1d 17 c4 17 97 3a
       0.021663034 -0.41931492 5.0973095e-25 0.0011527468
000190 57 a9 d0 be 15 3f 9b be c8 4d 5e 3c c1 6a 8a bc
       -0.40754196 -0.30321565 0.013568349 -0.016896607
0001a0 7d c9 0b be 46 78 b7 be 09 c3 53 be 34 fd 8b 19
       -0.1365108 -0.3583395 -0.20679869 1.4474531e-23
0001b0 88 e9 e1 3c 76 ff 05 9b 76 6f 5d be fa d3 e4 ba
       0.027577177 -1.1084046e-22 -0.2162455 -0.0017458193
0001c0 58 0f 01 9c 6f f4 76 bd 90 55 f9 3d 9e ca ed 3c
       -4.270235e-22 -0.060291704 0.12174523 0.02902728
0001d0 57 9b be 3c 2f 5f 84 3b d2 c9 b5 1b d0 99 c6 3e
       0.023267431 0.004039667 3.0074361e-22 0.38789225
0001e0 df aa 8d 97 dc c0 12 3d c7 96 30 9f 91 ee f5 3c
       -9.155045e-25 0.035828456 -3.739417e-20 0.030020984
0001f0 0c c4 cf bc ce 50 09 bf 8e 95 22 be c0 8a d2 3a
       -0.025362037 -0.53638923 -0.15877363 0.0016063079
000200 6b e6 43 3e 30 71 46 3e 10 74 71 bd ed eb 9b bd
       0.19130866 0.19379115 -0.058948576 -0.07613359
000210 31 d5 c5 3c 4b 2c ae bc 0f 1c 31 3e 92 ff 8a be
       0.02414951 -0.021261355 0.1729586 -0.2714811
000220 23 98 f0 bb db 75 54 3d b9 b4 3b be 94 08 f6 9f
       -0.007342355 0.05187021 -0.18330659 -1.04199244e-19
000230 9e 4f 40 ba e1 9c 83 be 4c 68 49 3c 6f 1f 46 be
       -0.00073360826 -0.25705627 0.012292933 -0.19347928
000240 c7 ad 58 3e d5 4c 08 9f 70 ce bc bc 20 37 9e 3d
       0.21160041 -2.8862674e-20 -0.023047656 0.07725358
000250 68 65 4e 1b 40 d5 9e 3d 54 88 13 3e ff a4 84 be
       1.7072687e-22 0.07755518 0.14407474 -0.25907132
000260 b3 77 3c be ec 21 05 99 23 20 59 be 55 78 7d 3c
       -0.18405037 -6.882789e-24 -0.21203665 0.015470584
000270 9f c1 21 3d c7 e2 ea 1a 90 da 31 a3 ad 2d d1 3d
       0.039491292 9.714651e-23 -9.641472e-18 0.1021379
000280 4f 53 6f be e6 1f 58 3d 2f aa 2f 18 3e 86 1c 3d
       -0.23371623 0.052764796 2.270414e-24 0.03821396
000290 7a 86 2a bd 18 29 56 3e e2 41 78 3d a3 7c fc bc
       -0.041632153 0.20914114 0.060609706 -0.03082115
0002a0 d5 61 38 3b d7 48 80 bd dc 5f 10 3e c5 13 6d 1c
       0.0028134484 -0.06263893 0.14099067 7.8442274e-22
0002b0 4f 8b 75 bb 71 bd 6e 1a c6 ce b3 3d b9 34 03 3c
       -0.0037467068 4.9370276e-23 0.08779673 0.0080081755
0002c0 07 2c d9 9c a3 41 90 be 0e 7f 46 3e 6c 84 a5 bd
       -1.4371236e-21 -0.28175077 0.19384405 -0.08081898
0002d0 24 3f 26 be a9 27 e5 bc a4 32 93 20 22 2d 03 3e
       -0.16235024 -0.027973013 2.493628e-19 0.12810186
0002e0 99 7a a8 9c 61 2a 89 bd 79 e2 3f 9e 30 16 00 3c
       -1.1148998e-21 -0.06697536 -1.0158289e-20 0.00781779
0002f0 88 dc ff 3d 7d 0a bb bd 21 15 ac be 93 06 3b b7
       0.12493235 -0.0913286 -0.3360987 -1.1147599e-05
000300 67 17 bd 3d c3 f8 2a bb cb 0a e9 3d 9a a3 be bd
       0.09232979 -0.0026088215 0.11379012 -0.09308548
000310 ca ad eb bd 12 cf 00 3e 83 a1 2b be c8 30 95 3d
       -0.11507757 0.12578991 -0.1676083 0.07284695
000320 b5 97 01 3a d1 ed 82 bc ea 9d 71 3d 04 79 46 a1
       0.00049435656 -0.01598254 0.05898849 -6.724517e-19
000330 69 0d 82 bc 74 3c ad bd 5b e3 f9 bc d6 f9 4a 3e
       -0.015875535 -0.08458796 -0.03050392 0.19821867
000340 99 5b 4f 3d 70 87 04 18 60 2c 6c 3d d7 6b 91 3d
       0.050624464 1.7128979e-24 0.057659507 0.07100647
000350 11 be ea 19 b4 6e c5 bd 7e a1 bb bd 0e c8 c9 3d
       2.42718e-23 -0.096402556 -0.091616616 0.098526105
000360 3a d0 53 bc 57 b7 d0 97 47 3b bc 3d 0a 6e 16 3c
       -0.012928063 -1.3487966e-24 0.09190994 0.009181509
000370 a3 f0 10 bd 3b 4c df 1a 4a 6f 91 9e 04 85 98 bd
       -0.03538574 9.2353795e-23 -1.53985e-20 -0.07447246
000380 45 7c 25 3e 18 40 8b 3d b0 d6 90 20 82 e1 c1 3c
       0.16160686 0.06799334 2.4536617e-19 0.0236671
000390 70 8e 94 bc d8 27 06 be e4 69 24 bb ea a4 51 3c
       -0.018134326 -0.13101137 -0.002508753 0.012795666
0003a0 cf 6c 7e bd 68 dd 37 be 33 2c 36 bd cf 0d 51 1c
       -0.062115487 -0.17955554 -0.044475745 6.9170146e-22
0003b0 b7 fd 7f ba 59 7d d3 9c 57 b3 ba 3d b3 76 1c bc
       -0.00097652845 -1.399521e-21 0.091162376 -0.0095497845
0003c0 5a d4 07 9d 6b 98 93 3d de 26 ab 3c e7 d9 c2 bd
       -1.7976884e-21 0.07206806 0.020892557 -0.09514218
0003d0 6a 45 d4 39 94 16 44 3d f2 ac 0a 9b 50 42 86 3e
       0.00040487509 0.047873095 -1.1470974e-22 0.26222467
0003e0 39 5b 27 97 36 71 37 bd e6 c8 15 1d 6b 36 e4 bd
       -5.407575e-25 -0.0447857 1.9823848e-21 -0.11143192
0003f0 09 24 84 bd 1c f6 18 3c 8a 72 55 bb 25 72 67 ba
       -0.06452186 0.009336021 -0.0032569491 -0.00088289595

bias f4 [10]
000000 35 a1 b8 bd e2 be a2 bd 6e e8 b1 bd b1 89 f0 bd
       -0.09015123 -0.07946564 -0.086869106 -0.117450126
000010 ac 1f 4d 3c f3 d5 ca bc ad 16 00 3d dc c5 97 3d
       0.012519758 -0.024760222 0.031271625 0.074107856
000020 d4 dc d2 3d cc 4f 9b bd
       0.10296026 -0.075835794
