2-hypertuning-mlflow/mlruns/2/20f5ec77e0f049a197615730643f1392/artifacts/pytorch_models/20250921-1134model.pt (torch, 96069 bytes, 12 tensors)

weight f4 [32, 1, 2, 2]
0.45218194 -0.10817481 -0.5747662 -0.378052 0.03246467 -0.40232733 -0.7289211 -0.31141192
0.51392394 0.50466 0.5868256 0.13865997 -0.12470966 0.4551353 -0.3585493 0.60049736
-0.37135682 0.5610697 0.55484825 0.42428076 0.14894164 0.5250601 -0.097416185 0.29071137
0.005724401 0.35384655 -0.50992715 -0.5907017 -0.31598088 0.27758595 0.32193655 0.5911796
-0.60235214 -0.32235876 0.10224957 0.35312045 -0.5070106 -0.4771219 0.11201234 -0.443669
-0.39941692 0.15660012 -0.15651463 0.5792005 0.14918073 -0.7630769 0.36773747 -0.15070346
-0.49185944 -0.765616 -0.37829104 0.28691676 -0.4649478 0.32220587 0.3662725 0.326294
-0.43243438 -0.67924464 -0.186088 0.35257575 0.054095976 0.14013347 0.60003126 0.6484228
-2.6436313e-24 -4.782379e-10 -1.02863044e-13 7.2266335e-09 0.180546 0.060400244 0.30708465 0.29954877
-0.406872 0.49394953 -0.7023589 0.034664676 0.48086378 0.19857219 0.55051875 0.50810885
0.025315052 0.60005075 -0.14699134 -0.46873224 -0.64288104 -0.019648358 -0.4738178 -0.42587465
-0.001534418 -6.520485e-10 -0.0030988026 -6.017307e-07 0.4877079 -0.026831448 0.5967382 0.26310706
0.4064094 -0.002350052 0.049623247 0.2393774 -0.37474418 -0.07353418 -0.46904615 -0.6768494
-0.05614849 -0.4315074 0.5238324 0.59110963 -0.3403382 -0.3978668 -0.37087756 -0.6615426
-0.16082118 0.37392956 -0.2689549 0.066652894 -0.058831528 -0.26432914 -0.7530171 0.42732137
0.45304403 -0.23918112 0.2896969 0.48486984 -0.003436541 -0.0014511168 6.0760385e-08 -0.006480805
00000000: 6484 e73e c18a ddbd e123 13bf 0890 c1be
00000010: acf9 043d d9fd cdbe 939a 3abf 6271 9fbe
00000020: 8590 033f 6631 013f 343a 163f e1fc 0d3e
00000030: c767 ffbd 7e07 e93e c693 b7be 32ba 193f
00000040: 7b22 bebe 44a2 0f3f 890a 0e3f 543b d93e
00000050: 2884 183e 576a 063f 2382 c7bd 1fd8 943e
00000060: c293 bb3b 602b b53e 968a 02bf 3a38 17bf
00000070: 3fc8 a1be bf1f 8e3e ded4 a43e 8c57 173f
00000080: c033 1abf 350c a5be 3968 d13d 34cc b43e
00000090: 72cb 01bf 5249 f4be ba66 e53d 9528 e3be
000000a0: 6080 ccbe c85b 203e 5f45 20be 7c46 143f
000000b0: d5c2 183e 0259 43bf 1648 bc3e 0252 1abe
000000c0: 00d5 fbbe 69ff 43bf 5daf c1be c1e6 923e
000000d0: a30d eebe 2bf8 a43e 1288 bb3e 0210 a73e
000000e0: 0a68 ddbe fae2 2dbf da8d 3ebe cf84 b43e
000000f0: be93 5d3d 267f 0f3e a69b 193f 09ff 253f
00000100: 838a 4c98 0075 03b0 82a0 e7a9 244e f831
00000110: 0de1 383e 3f66 773d 333a 9d3e 755e 993e
00000120: 8751 d0be f4e6 fc3e cbcd 33bf 8cfc 0d3d
00000130: c733 f63e 8256 4b3e ccee 0c3f 6c13 023f
00000140: 8361 cf3c ed9c 193f e684 16be acfd efbe
00000150: da93 24bf 98f5 a0bc 3f98 f2be 3e0c dabe
00000160: 861e c9ba d63b 33b0 4815 4bbb 9e86 21b5
00000170: dab4 f93e a0cd dbbc d6c3 183f f8b5 863e
00000180: e514 d03e 5403 1abb bf41 4b3d 591f 753e
00000190: 78de bfbe 1799 96bd d126 f0be 0146 2dbf
000001a0: f6fb 65bd 8aee dcbe e119 063f f652 173f
000001b0: cf40 aebe 32b5 cbbe aae3 bdbe db5a 29bf
000001c0: 4fae 24be b273 bf3e 75b4 89be 5081 883d
000001d0: 54f9 70bd 2656 87be bbc5 40bf dec9 da3e
000001e0: 63f5 e73e e5eb 74be 2753 943e dc40 f83e
000001f0: 9737 61bb 6633 beba 607b 8233 ef5c d4bb

bias f4 [32]
0.07798973 0.2001218 0.13270395 0.15896395 0.057125777 -0.018833961 0.17128795 0.08638904
0.3466265 0.44134024 -0.10016688 0.12309033 0.15826704 0.15685932 0.113971055 0.019238627
-0.009714088 0.3706317 0.23413263 -0.21213816 -0.016144447 0.23918156 -0.0007143199 -0.00071343424
0.0276049 0.47512123 0.011037442 0.2735573 0.42624035 0.294001 0.46496543 -4.7325702e-06
00000000: 14b9 9f3d bbec 4c3e 8be3 073e 72c7 223e
00000010: b8fc 693d ae49 9abc 1c66 2f3e bdec b03d
00000020: 0779 b13e 59f7 e13e 4b24 cdbd c816 fc3d
00000030: c110 223e bb9f 203e a869 e93d 539a 9d3c
00000040: d727 1fbc 70c3 bd3e 77c0 6f3e bf3a 59be
00000050: 5c41 84bc 03ec 743e 3241 3bba c305 3bba
00000060: ac23 e23c 1743 f33e 63d6 343c b40f 8c3e
00000070: 2d3c da3e 4d87 963e f30f ee3e 78cc 9eb6

weight f4 [32, 32, 2, 2]
-0.05487675 0.02456348 0.11715363 0.08781546 -0.052964125 -0.013081377 -0.06018355 -0.04545714
-0.009197004 0.105114944 0.079112045 0.09546805 0.056071237 0.067255095 -0.08014904 0.09332352
0.064821824 0.10997827 0.037533797 0.1002961 0.03585383 0.19623204 0.022592785 0.18235855
-0.048861504 -0.01541478 -0.08449377 0.023941308 0.07987922 0.13420238 -0.00980632 0.17019254
0.026137905 -0.04362515 0.038013168 0.06585308 0.03659915 -0.070353724 -0.0700194 -0.05490756
-0.06187999 0.18966322 -0.029279882 0.08893331 -0.09363174 -0.16664869 -0.13439383 -0.19575039
0.028154239 0.04966558 0.016715946 0.06301922 0.1064715 0.07584908 0.08443459 0.053032976
0.097029604 0.0008710756 -0.06818819 -0.0649454 0.082339905 0.15938273 0.035066273 0.01834864
1.127044e-24 2.5057558e-26 2.0982324e-23 5.0209803e-25 0.09738667 0.014970335 0.064777695 0.031062843
0.041375916 -0.032521173 -0.064571455 -0.06791336 0.05997099 0.11724151 0.08982149 0.12879445
-0.12635998 0.008844843 -0.06164477 -0.0036648612 -0.058212146 -0.085697904 -0.08612512 -0.060281053
5.3826365e-23 1.5661575e-24 -3.1369227e-23 1.19872645e-26 0.0047522318 0.06103053 0.12516324 0.14240564
0.009650221 0.0033474732 0.060426474 0.014415783 0.03891041 0.030795302 -0.10816506 -0.04804178
-0.0011109044 0.020130511 0.1048802 0.13177107 0.038976047 -0.111445 -0.12530138 -0.065243706
-0.04982295 0.053785022 -0.089224994 -0.05818252 0.047755387 0.05776916 -0.054078978 -0.08011101
0.0069304835 0.0045872503 0.011673546 0.085632384 -3.9385054e-25 2.2772422e-25 -8.566168e-24 -4.583132e-25
-0.10824524 -0.095608704 -0.0050226143 -0.08016759 -0.03628425 -0.12427531 -0.03654423 -0.053193245
0.13487266 0.13325024 0.16633193 0.10267369 0.067568146 0.1126699 0.12412008 -0.044857726
0.07050158 0.03688414 0.041164536 0.019874213 -0.010936782 -0.022707814 0.06044788 -0.089339286
-0.12414728 -0.021412399 0.0311274 -0.020587498 0.11288983 0.016186986 0.053893585 0.055969343
0.040291183 0.06857452 -0.040199652 0.013127701 -0.043194 0.077396184 -0.08329984 0.069407806
0.031023461 -0.08402389 0.014343 -0.05502276 -0.13639571 -0.02817417 -0.11488858 -0.046673257
-0.17765652 -0.17887343 -0.15675098 -0.036423326 -0.033674095 0.020280218 0.09619711 0.030054217
-0.1279754 -0.1656534 -0.18594764 -0.09155707 -0.0013548288 0.059728853 0.11501698 0.06525101
6.685277e-23 1.0308642e-23 -7.405811e-26 -5.854038e-25 0.069811694 -0.018185768 0.0074274843 0.019825168
0.09479098 0.062945016 0.0064132763 -0.03694636 0.028718952 0.061044093 0.072594844 0.009520591
-0.021837352 -0.1462958 -0.082621716 -0.1280373 -0.015031509 -0.03518465 -0.0046818587 -0.024844816
8.536753e-23 -1.503034e-25 2.0323368e-26 -1.6950806e-23 0.15576296 -0.060431372 0.040873207 -0.020964129
0.01899197 0.124668114 0.1139723 0.00031687628 -0.02997809 -0.08245716 -0.100170985 0.00096130517
0.019514795 0.050660532 0.14447127 0.06251638 -0.0603682 -0.03746256 -0.040665425 -0.052070692
0.016968682 0.050988674 0.12238682 -0.0074140406 -0.013602203 0.030775474 -0.08187219 -0.04518401
0.004481427 0.06816839 0.024406247 0.11719587 6.5641796e-25 -3.5736208e-25 -3.4891865e-25 2.5755248e-24
00000000: 71c6 60bd 5a39 c93c 3eee ef3d 98d8 b33d
00000010: e9f0 58bd 4653 56bc 0783 76bd 4431 3abd
00000020: 08af 16bc 8146 d73d 7f05 a23d c184 c33d
00000030: f4aa 653d 0abd 893d 2e25 a4bd 6720 bf3d
00000040: 4ec1 843d 4a3c e13d 0abd 193d 0b68 cd3d
00000050: 77db 123d 0df1 483e 8114 b93c 33bc 3a3e
00000060: 0023 48bd 468e 7cbc 120b adbd 9020 c43c
00000070: b797 a33d 596c 093e b0aa 20bc f446 2e3e
00000080: 291f d63c 49b0 32bd b2b3 1b3d fbdd 863d
00000090: fee8 153d 9d15 90bd 5566 8fbd c0e6 60bd
000000a0: df75 7dbd 1337 423e 5ddc efbc ab22 b63d
000000b0: ffc1 bfbd f4a5 2abe 899e 09be ca72 48be
000000c0: b8a3 e63c 236e 4b3d e1ef 883c 3910 813d
000000d0: bb0d da3d c356 9b3d 0bec ac3d 1b39 593d
000000e0: 75b7 c63d e558 643a 40a6 8bbd 1802 85bd
000000f0: d3a1 a83d 3a35 233e a7a1 0f3d e34f 963c
00000100: d066 ae17 7528 f814 b8ed ca19 4e64 1b17
00000110: aa72 c73d 2346 753c 2baa 843d 8177 fe3c
00000120: cb79 293d ec34 05bd 0a3e 84bd 2916 8bbd
00000130: 24a4 753d 511c f03d 54f4 b73d b1e2 033e
00000140: 8364 01be f6e9 103c 3a7f 7cbd 2b2e 70bb
00000150: dc6f 6ebd 6282 afbd 5e62 b0bd 44e9 76bd
00000160: e824 821a e459 f217 39b1 179a a76e 6d14
00000170: 9cb8 9b3b 26fb 793d cb2a 003e c9d2 113e
00000180: f61b 1e3c 4861 5b3b c081 773d 2d30 6c3c
00000190: 8660 1f3d 6e46 fc3c a585 ddbd 75c7 44bd
000001a0: c49b 91ba bee8 a43c 6ecb d63d ffee 063e
000001b0: 59a5 1f3d 473d e4bd 014f 00be 7e9e 85bd
000001c0: 2613 4cbd af4d 5c3d 98bb b6bd cb50 6ebd
000001d0: 279b 433d 5b9f 6c3d eb81 5dbd 3e11 a4bd
000001e0: 1c19 e33b a550 963b 6742 3f3c 0860 af3d
000001f0: 1cc8 f396 58f4 8c16 9cb1 2599 50d7 0d97
00000200: aeaf ddbd 7fce c3bd be94 a4bb e82e a4bd
00000210: cb9e 14bd 0e84 febd 67af 15bd 29e1 59bd
00000220: 0f1c 0a3e c072 083e eb52 2a3e 9546 d23d
00000230: 2b61 8a3d 7abf e63d ab32 fe3d bcbc 37bd
00000240: 2263 903d d313 173d 259c 283d 3fcf a23c
00000250: 3030 33bc bd05 babc 3298 773d 84f7 b6bd
00000260: ee40 febd 0e69 afbc e4fe fe3c 1da7 a8bc
00000270: c832 e73d 929a 843c 85bf 5c3d 1c40 653d
00000280: 5e08 253d cc70 8c3d 64a8 24bd 9215 573c
00000290: 31ec 30bd e481 9e3d 1b99 aabd ae25 8e3d
000002a0: ea24 fe3c b814 acbd e7fe 6a3c 8c5f 61bd
000002b0: 51ab 0bbe 84cd e6bc b44a ebbd 752c 3fbd
000002c0: 97eb 35be 992a 37be 5483 20be a030 15bd
000002d0: d9ed 09bd b322 a63c fe02 c53d 4334 f63c
000002e0: fc0b 03be 0ba1 29be 0f69 3ebe 4682 bbbd
000002f0: 8394 b1ba 3ea6 743d 068e eb3d 52a2 853d
00000300: dca3 a11a ec65 4719 e75b b795 782c 3597
00000310: 6ff9 8e3d 52fa 94bc 4162 f33b 6468 a23c
00000320: c621 c23d 51e9 803d 7626 d23b 1155 17bd
00000330: 0244 eb3c 5f09 7a3d 9bac 943d 41fc 1b3c
00000340: 3fe4 b2bc 91ce 15be 9335 a9bd 361c 03be
00000350: b846 76bc c81d 10bd 476a 99bb 5b87 cbbc
00000360: f167 ce1a 0c11 3a96 dc45 c914 2af0 a399
00000370: 5380 1f3e e386 77bd aa6a 273d f7bc abbc
00000380: 0c95 9b3c ff51 ff3d 4f6a e93d 6a22 a639
00000390: 9d94 f5bc 4ddf a8bd 7226 cdbd 1900 7c3a
000003a0: 7edd 9f3c 6b81 4f3d 47f0 133e 9608 803d
000003b0: a544 77bd 5772 19bd ca90 26bd 1448 55bd
000003c0: e801 8b3c 80d9 503d f1a5 fa3d 7bf1 f2bb
000003d0: c6db 5ebc d91c fc3c 9bac a7bd de12 39bd
000003e0: efd8 923b de9b 8b3d 9cef c73c 6304 f03d
000003f0: ca26 4b17 4832 dd96 5ef8 d796 8645 4718

bias f4 [32]
0.07650758 -0.010765254 0.04476315 0.07635842 -0.00024136376 0.0010973884 -0.022806387 0.100317605
0.022173913 0.0376623 0.0614231 -0.09463206 0.016394792 0.060718384 -0.069568545 -0.049231365
0.049710475 -0.05319663 -0.043059748 -0.047510576 0.033913687 -0.059473135 0.019006964 0.09741758
0.026533773 0.0985243 -0.016821401 0.029852416 -0.10328613 0.12449226 0.1571343 -0.013261622
00000000: 02b0 9c3d bf60 30bc 9159 373d ce61 9c3d
00000010: 9716 7db9 3fd6 8f3a 76d4 babc 5173 cd3d
00000020: 11a6 b53c c943 1a3d ca96 7b3d 74ce c1bd
00000030: 5f4e 863c d7b3 783d f479 8ebd d4a6 49bd
00000040: 369d 4b3d b6e4 59bd 6b5f 30bd 739a 42bd
00000050: 14e9 0a3d 1a9a 73bd 7eb4 9b3c de82 c73d
00000060: 5b5d d93c 1cc7 c93d 09cd 89bc 0e8d f43c
00000070: ae87 d3bd ccf5 fe3d d0e7 203e 4647 59bc

weight f4 [32, 32, 2, 2]
-0.0049066762 0.15336141 -0.06830819 0.1581217 -0.2500661 -0.0047923243 -0.19149345 -0.011939648
0.052230485 0.078406274 -0.00791176 0.13506657 0.015101829 0.14259142 0.13006055 0.12541477
-0.06605046 0.048839767 -0.046081264 -0.0037163005 -0.10322572 -0.14145194 -0.23010202 -0.15285951
-0.21364531 -0.04548338 0.001553117 0.12378664 -0.054939926 -0.088135235 -0.21655482 -0.052798603
-0.18841888 0.040719643 -0.14340419 -0.013299803 -0.19241881 0.0664131 -0.2000812 0.09910106
-0.16802411 -0.14266655 -0.06594016 -0.017350532 0.06184981 0.048662696 0.0034549388 -0.01605667
-0.2280837 0.08425785 -0.12519892 0.0104339365 -0.08586224 -0.061756447 -0.19920792 -0.07599187
9.205931e-06 7.644808e-06 -0.0001461263 -0.0003002982 -0.19741079 -0.059717752 -0.12605453 -0.0814519
-0.0044222567 0.010346983 0.1174372 0.025946459 0.0049194964 0.00046641054 -0.0035984772 4.0970867e-06
0.030259749 -0.016513748 0.03778426 0.0930251 -0.25491875 0.1723151 -0.08327128 0.21227135
0.0043154336 -0.015942758 -0.03343357 -0.029508064 -0.10131884 0.121574685 -0.18787587 0.05023401
-0.16312614 0.018429086 -0.13926283 -0.0072970176 -0.17887774 -0.05667544 -0.034715228 0.1064159
0.024117608 0.0441265 0.016575636 0.09557316 -0.07732142 -0.08951446 -0.1379762 -0.23496935
0.02349965 0.031449117 0.022651898 0.031752113 0.08862529 -0.033647362 0.07701788 0.019860249
-0.027049975 0.02183998 -0.028668271 0.044205375 0.03919378 -0.003177167 0.04692816 -8.530069e-05
-0.21613258 -0.021580163 -0.12393164 0.13554348 -1.3896905e-23 2.4344202e-24 -3.9063534e-06 -4.270014e-09
-0.026540464 0.0500311 -0.023221044 -0.021342957 0.030674627 -0.04723318 0.036142897 0.048771426
0.046523053 0.06423438 0.047987398 0.0376477 -0.07216762 0.0147700915 -0.06501806 -0.046644043
-0.017924665 -0.11882698 -0.050711732 -0.07990427 0.08290896 0.028091576 0.08118919 0.032042675
0.077962376 0.046714365 -0.04071803 0.030829974 0.00961778 -0.04392538 0.12136487 0.072834626
0.09985531 0.06219437 0.061313864 -0.017045103 -0.005536582 -0.072862506 0.012376202 0.053779263
0.122914545 0.03545297 0.006917225 -0.010336142 -0.07153172 0.010346227 -0.052768234 -0.07779628
-0.03666229 0.06443572 0.07251283 0.06470802 0.011539611 0.07566286 0.072572954 -0.06589495
-0.0019902799 0.0027799031 0.0016178681 -0.00391949 0.0022974152 0.015073244 0.053235196 -0.0132993655
-0.033755377 -0.035892405 -0.04754059 0.022509748 -0.0007205809 -0.0022223985 0.0061135 -0.0056071915
0.0145643605 0.03458639 -0.052520853 -0.098501556 0.037255865 -0.0061353897 0.0055560153 -0.078438066
-0.05061343 0.06323964 0.015462455 -0.04144715 0.07556786 -0.04535071 0.002549668 0.001268965
0.06390472 -0.0678153 0.095423505 0.021083457 0.08236555 -0.029708091 -0.039901022 -0.0019126527
-0.04539152 -0.13347153 -0.029890867 -0.22476916 0.027707059 0.056964904 -0.031951603 -0.04815746
-0.018540572 -0.019147329 -0.018732697 -0.019395586 -0.07748949 0.11542338 0.08784573 0.07137693
-0.07538159 -0.08434544 -0.06368004 -0.19701372 0.024761366 0.11509667 0.03191825 0.10135531
0.10197852 0.04268722 -0.020546334 -0.047551543 6.9824346e-09 2.29315e-11 1.5361813e-23 7.627763e-26
00000000: 2fc8 a0bb c60a 1d3e 2ae5 8bbd a8ea 213e
00000010: aa08 80be ee08 9dbb dc16 44be 839e 43bc
00000020: a2ef 553d 7893 a03d 54a0 01bc e44e 0a3e
00000030: a96d 773c 7c03 123e 982e 053e bb6c 003e
00000040: 7745 87bd 350c 483d b5bf 3cbd 2d8d 73bb
00000050: 0268 d3bd c7d8 10be dd9f 6bbe 3487 1cbe
00000060: d6c5 5abe c84c 3abd f591 cb3a da83 fd3d
00000070: b008 61bd 3f80 b4bd 8cc0 5dbe 5943 58bd
00000080: e1f0 40be a4c9 263d 8cd8 12be 6be7 59bc
00000090: 7009 45be 9703 883d 16e2 4cbe 7ff5 ca3d
000000a0: 830e 2cbe 2e17 12be a20b 87bd b422 8ebc
000000b0: 3a56 7d3d 8952 473d 416c 623b 4789 83bc
000000c0: c68e 69be 618f ac3d 2534 00be 1af3 2a3c
000000d0: 8bd8 afbd 54f4 7cbd 29fd 4bbe a0a1 9bbd
000000e0: 2c73 1a37 3342 0037 7b39 19b9 5871 9db9
000000f0: 0e26 4abe 9a9a 74bd 7014 01be 41d0 a6bd
00000100: 94e8 90bb 6486 293c ea82 f03d ab8d d43c
00000110: ba33 a13b 9088 f439 6ed4 6bbb b579 8936
00000120: 4be3 f73c d747 87bc abc3 1a3d f283 be3d
00000130: b684 82be 5f73 303e 228a aabd a95d 593e
00000140: 7b68 8d3b 639a 82bc a4f1 08bd e5ba f1bc
00000150: 4180 cfbd 26fc f83d 8862 40be 2dc2 4d3d
00000160: 8a0a 27be 98f8 963c ea9a 0ebe d21b efbb
00000170: ba2b 37be 8224 68bd 8e31 0ebd 94f0 d93d
00000180: 4a92 c53c fdbd 343d a1c9 873c dcbb c33d
00000190: b15a 9ebd 5b53 b7bd a249 0dbe ce9b 70be
000001a0: 5782 c03c cad0 003d 7990 b93c 810e 023d
000001b0: 2d81 b53d d1d1 09bd 8dbb 9d3d f6b1 a23c
000001c0: e997 ddbc c2e9 b23c b9d9 eabc b210 353d
000001d0: a889 203d 0438 50bb be37 403d 76e3 b2b8
000001e0: dc51 5dbe e2c8 b0bc dfcf fdbd e9cb 0a3e
000001f0: 1267 8699 a95a 3c18 5213 83b6 71b7 92b1
00000200: 636b d9bc 69ed 4c3d 0f3a bebc 6dd7 aebc
00000210: 5b49 fb3c 9477 41bd 930a 143d 8cc4 473d
00000220: f58e 3e3d 518d 833d 6f8e 443d 7a34 1a3d
00000230: 9ecc 93bd 41fe 713c 3028 85bd d30d 3fbd
00000240: bfd6 92bc 8f5b f3bd 1bb7 4fbd daa4 a3bd
00000250: 2ccc a93d 4e20 e63c 8546 a63d 2e3f 033d
00000260: bdaa 9f3d 9057 3f3d f3c7 26bd 248f fc3c
00000270: e593 1d3c 19eb 33bd 258e f83d 522a 953d
00000280: f180 cc3d 86bf 7e3d 3f24 7b3d 2ca2 8bbc
00000290: 376c b5bb f038 95bd 8ec5 4a3c a547 5c3d
000002a0: 9fba fb3d 2237 113d e4a9 e23b ec58 29bc
000002b0: 397f 92bd 3983 293c 8123 58bd a853 9fbd
000002c0: 332b 16bd e0f6 833d 9b81 943d a385 843d
000002d0: a310 3d3c 21f5 9a3d 21a1 943d eef3 86bd
000002e0: 5b6f 02bb 092f 363b a50e d43a 116f 80bb
000002f0: 3b90 163b c5f5 763c 260d 5a3d 95e5 59bc
00000300: 1443 0abd ea03 13bd ecb9 42bd 5d66 b83c
00000310: 5ee5 3cba a9a5 11bb c153 c83b 88bc b7bb
00000320: 5b9f 6e3c 75aa 0d3d 1b20 57bd 2fbb c9bd
00000330: 9b99 183d 610b c9bb 3c0f b63b 23a4 a0bd
00000340: 0750 4fbd c983 813d 3d56 7d3c 7dc4 29bd
00000350: 52c3 9a3d abc1 39bd 5518 273b 6653 a63a
00000360: 7ae0 823d bfe2 8abd 666d c33d 37b7 ac3c
00000370: 45af a83d 625e f3bc 416f 23bd fab1 faba
00000380: 75ec 39bd c3ac 08be b1dd f4bc e329 66be
00000390: eaf9 e23c 0854 693d afdf 02bd c240 45bd
000003a0: 66e2 97bc dcda 9cbc 5075 99bc 7ee3 9ebc
000003b0: cfb2 9ebd 1863 ec3d 76e8 b33d 112e 923d
000003c0: aa61 9abd 4dbd acbd ae6a 82bd f7bd 49be
000003d0: 59d8 ca3c ceb7 eb3d b6bc 023d 5f93 cf3d
000003e0: 1dda d03d cbd8 2e3d c950 a8bc 68c5 42bd
000003f0: 25ea ef31 26b5 c92d 0292 9419 b1da bc15

bias f4 [32]
0.069413096 0.1268106 0.03679554 0.059649047 -0.014255514 0.06207125 -0.021153888 0.022041801
-0.09127948 -0.057688206 0.017737815 0.0326376 0.056443095 -0.046737667 -0.03619542 -0.09491009
0.022312758 0.020851871 -0.041703124 0.09168487 0.07633525 -0.022696987 0.11337492 0.020823607
-0.1228016 0.11199593 -0.019587113 0.07690456 0.11362519 -0.041459154 -0.018946722 -0.008563589
00000000: 7428 8e3d a3da 013e ecb6 163d 8f52 743d
00000010: f68f 69bc 6c3e 7e3d eb4a adbc 0291 b43c
00000020: bcf0 babd 784a 6cbd e54e 913c 01af 053d
00000030: e030 673d ff6f 3fbd a641 14bd 3960 c2bd
00000040: 3fc9 b63c 8bd1 aa3c e5d0 2abd 47c5 bb3d
00000050: a855 9c3d 08ef b9bc 1c31 e83d 4596 aa3c
00000060: 687f fbbd 1f5e e53d 2775 a0bc 2380 9d3d
00000070: 53b4 e83d 13d1 29bd 2836 9bbc 4c4e 0cbc

weight f4 [128, 32]
-0.20654318 -0.064392 -0.10529933 -0.100269854 -6.9792405e-14 -0.010227832 -0.005033324 -0.12863557
0.31220844 -0.27134326 -0.017046118 0.34343186 -0.22643715 0.19726482 0.012489988 -0.0070257136
0.1073409 0.15237501 0.045931358 0.06271674 0.19372545 -0.029340507 0.023481943 -0.17393222
-0.24592738 0.05416466 0.01179757 0.17021634 0.22837003 0.0010671784 1.838339e-07 -0.12841351
0.024793 0.021573748 -0.052059278 0.1819989 5.5034483e-16 0.06372137 -0.010375286 -0.10510093
0.043309975 0.058530666 -0.021686234 -0.002259576 0.057353977 -0.048129033 -0.0068247244 0.005349257
0.0889813 0.007955767 -0.032336105 -0.14760809 -0.060607534 0.049384687 -0.010090538 0.16668537
0.22633214 0.14336908 0.007149785 -0.038806345 0.08987112 -4.4358835e-16 -3.6408686e-19 -0.02468743
0.10990085 -0.09513961 0.06491999 0.23742212 -1.3082093e-13 0.08485013 0.007001435 0.049522784
-0.092891745 0.16633616 0.13416296 -0.070953 0.21263097 0.11216069 -0.058322825 0.006725966
0.0978482 0.20790572 0.02811415 -0.18939678 0.04674904 0.010655146 0.11056942 0.21042119
0.2770709 -0.039560053 -0.008712983 0.07557292 -0.15438308 5.112835e-11 -1.546365e-09 0.1425741
0.32272223 0.02673275 0.16323288 -0.03428624 9.529122e-15 -0.018816236 0.021511368 0.26925248
-0.23053542 0.080671355 -0.022058796 -0.19811141 0.025236692 -0.07665842 0.021426732 0.0037626391
0.19458221 -0.06384039 -0.102018185 -0.12588742 0.22804852 -0.01771291 0.055636898 0.1255263
0.007663771 0.016047692 -0.009542103 0.19520436 -0.28648266 -0.00012216247 5.489581e-10 -0.0030245278
-2.1740252e-23 2.4912925e-25 1.20079236e-26 1.5883624e-24 3.9394365e-24 8.8770795e-16 5.201576e-21 2.2214057e-19
-1.3415447e-25 2.222361e-24 2.1732724e-25 7.423331e-14 2.235077e-19 -6.0033764e-20 5.986718e-11 5.8125504e-11
-2.708003e-16 1.4752779e-18 5.740331e-23 -3.8710154e-24 2.5449956e-19 -2.367862e-14 -1.5327225e-22 -3.8638374e-13
-7.928245e-17 6.167447e-14 -8.075566e-22 1.1624996e-25 -1.2427151e-15 4.5319333e-24 8.2718716e-21 -2.3945868e-25
-0.29517782 0.09068388 -0.07931149 0.10998186 -1.467666e-14 0.14441347 -0.010123542 -0.2657263
-0.031740867 0.18942463 0.08958983 0.13994364 -0.10344981 0.110194094 -0.010206109 0.0015212208
0.0986531 -0.10666246 0.0029788245 -0.1260293 -0.13948813 0.049604956 -0.09186548 0.16060169
-0.19276908 -0.12047023 0.028030181 0.014006559 -0.11511846 0.007266682 -1.7554058e-06 -0.06254549
-0.23136242 -0.1673274 0.15085065 0.18064567 6.32881e-16 -0.11448668 -0.022509888 -0.21658322
0.22857204 0.033757742 -0.09478933 0.13071312 0.1379726 0.20546223 -0.015999248 -0.0006496944
0.061718144 0.015397283 -0.0035160943 0.030918147 -0.08141828 -0.012861201 -0.079172045 0.050829396
0.0330426 0.08151968 -7.724055e-05 -0.088999294 0.2371948 -7.230358e-15 -7.757989e-09 -0.04330053
-0.015884448 -0.0244252 -0.024458868 -0.023968963 1.32175426e-14 -0.024429183 4.326567e-25 -0.02300449
-0.024131754 -0.024145834 -0.024530975 -0.024057947 -0.023124473 -0.024392786 8.87204e-15 -2.616271e-19
-0.0245046 -0.024429845 -0.024420947 0.017715953 0.022906914 2.7692052e-12 -0.024486126 -0.024248527
-0.024212819 -0.024418384 1.3778804e-25 -0.02460789 -0.023506168 4.512189e-25 4.999038e-11 -0.018392444
00000000: 0e80 53be f4df 83bd 2da7 d7bd 485a cdbd
00000010: 9528 9da9 a392 27bc 95ee a4bb 0bb9 03be
00000020: c9d9 9f3e 81ed 8abe 4da4 8bbc 4dd6 af3e
00000030: 24df 67be caff 493e cea2 4c3c f537 e6bb
00000040: 8cd5 db3d 3208 1c3e 8522 3c3d a271 803d
00000050: f75f 463e 815b f0bc 345d c03c 4a1b 32be
00000060: 63d4 7bbe c3db 5d3d 984a 413c 314d 2e3e
00000070: d5d9 693e 91e0 8b3a e163 4534 d57e 03be
00000080: b11a cb3c 6ebb b03c 1c3c 55bd eb5d 3a3e
00000090: 48a0 1e26 5a80 823d 1bfd 29bc 283f d7bd
000000a0: cd65 313d dabd 6f3d 54a7 b1bc 6515 14bb
000000b0: 01ec 6a3d f322 45bd f0a1 dfbb d248 af3b
000000c0: d43b b63d e858 023c dd72 04bd 9326 17be
000000d0: 9b3f 78bd 9947 4a3d c952 25bc 92af 2a3e
000000e0: 9dc3 673e 58cf 123e be48 ea3b 67f3 1ebd
000000f0: 5a0e b83d 16b6 ffa5 40eb d6a0 4b3d cabc
00000100: b213 e13d 8ed8 c2bd c6f4 843d c91e 733e
00000110: 914a 13aa e8c5 ad3d 4b6c e53b 67d8 4a3d
00000120: 073e bebd 0754 2a3e 0462 093e ce4f 91bd
00000130: efbb 593e 81b4 e53d eae3 6ebd 7e65 dc3b
00000140: a364 c83d 3de5 543e a54f e63c 3bf1 41be
00000150: ec7b 3f3d ec92 2e3c 3872 e23d a778 573e
00000160: 3ddc 8d3e b909 22bd e6c0 0ebc fac5 9a3d
00000170: 9916 1ebe 68dd 602e e287 d4b0 f2fe 113e
00000180: d93b a53e a4fe da3c 8526 273e ba6f 0cbd
00000190: 52a9 2b28 8224 9abc 9c38 b03c 76db 893e
000001a0: 7a11 6cbe 0637 a53d a6b4 b4bc b8dd 4abe
000001b0: 2ebd ce3c 17ff 9cbd 1d87 af3c 9c96 763b
000001c0: 8f40 473e c0be 82bd e9ee d0bd a2e8 00be
000001d0: 8d85 693e aa1a 91bc 84e3 633d f789 003e
000001e0: 5f20 fb3b 7376 833c 7b56 1cbc a7e3 473e
000001f0: dbad 92be bd18 00b9 7ee5 1630 2837 46bb
00000200: 4242 d299 1b34 9a16 68d7 6d14 84c9 f517
00000210: 4a66 9818 49dd 7f26 8e82 c41d ef20 8320
00000220: 4013 2696 65f2 2b18 e084 8616 9728 a729
00000230: 87ef 8320 2fc0 8d9f 3aa6 832e 80a3 7f2e
00000240: 121b 9ca5 6cb6 d921 eeca 8a1a aec0 9598
00000250: e33a 9620 2e47 d5a8 774b 399b c483 d9aa
00000260: 19d0 b6a4 e9e0 8a29 aa11 749c 15e9 0f16
00000270: 1818 b3a6 1852 af18 5140 1c1e be37 9496
00000280: 8c21 97be 78b8 b93d 106e a2bd 2b3e e13d
00000290: 1332 84a8 20e1 133e 36dd 25bc 470d 88be
000002a0: b602 02bd 88f8 413e df7a b73d 634d 0f3e
000002b0: 7edd d3bd 71ad e13d 8637 27bc b363 c73a
000002c0: a30a ca3d d971 dabd 6238 433b d30d 01be
000002d0: fad5 0ebe 912e 4b3d f823 bcbd c574 243e
000002e0: 4265 45be 19b9 f6bd 8d9f e53c c47b 653c
000002f0: 3ac3 ebbd 591d ee3b 499b ebb5 da17 80bd
00000300: 45ea 6cbe e057 2bbe 9878 1a3e 2efb 383e
00000310: 606a 3626 fe77 eabd a866 b8bc fec7 5dbe
00000320: ca0e 6a3e 8f45 0a3d e920 c2bd a9d9 053e
00000330: b048 0d3e b164 523e db10 83bc 4150 2aba
00000340: 2acc 7c3d e344 7c3c 466e 66bb 0e48 fd3c
00000350: a1be a6bd c9b7 52bc f424 a2bd 7c32 503d
00000360: ad57 073d caf3 a63d 34fc a1b8 4345 b6bd
00000370: 32e3 723e 2440 02a8 ff47 05b2 e65b 31bd
00000380: 1a20 82bc 5b17 c8bc f75d c8bc 8f5a c4bc
00000390: 281b 6e28 b61f c8bc 98e6 0517 ea73 bcbc
000003a0: f5af c5bc 7ccd c5bc 2ff5 c8bc 2c15 c5bc
000003b0: 896f bdbc 61d3 c7bc 10d3 1f28 f86f 9aa0
000003c0: dfbd c8bc 1921 c8bc 700e c8bc 0c21 913c
000003d0: 48a7 bb3c 91dd 422c 2197 c8bc d9a4 c6bc
000003e0: f659 c6bc 1009 c8bc c692 2a16 7c96 c9bc
000003f0: 0290 c0bc 3fa5 0b17 2adc 5b2e c0ab 96bc

bias f4 [128]
0.107274055 -0.13123447 -0.10614551 0.062021684 -2.061359e-15 0.14564009 -0.018775018 -0.02294028
-0.05245481 0.144502 -0.09623784 -0.10520353 0.10341275 -6.708831e-08 0.057685003 -8.835106e-26
9.4875313e-17 0.15839358 -0.018864585 -0.09118806 -0.1036366 0.036247093 -0.06569857 -0.07872366
-0.013462079 0.048497792 -0.058048848 0.16344805 0.04974302 -0.022650462 -0.030081652 0.1507062
0.06614035 -0.021205459 0.050476525 -0.08750359 0.06786041 0.011288581 -1.7323962e-11 0.012256752
-0.0438728 -2.4241503e-05 -0.0037417256 0.09446715 0.14138782 0.08753597 -0.17241861 0.10913765
0.07099326 -0.12559336 0.15959944 -0.104228266 0.06858102 -0.027679294 0.15423043 0.03877653
-0.020396927 0.032270104 0.047107615 0.07745135 0.01230374 0.0877605 0.16532032 0.055135123
0.27699572 0.06962728 -0.22595222 0.17742603 0.11058808 0.09444959 0.05291295 0.22376198
-0.046728052 -0.00298102 -0.0024914115 -0.028205125 0.060910687 0.103695035 0.06198222 0.1904729
-0.06731218 0.16947103 0.18135282 0.010590479 0.07353563 -0.030929575 0.05895723 -5.9577603e-16
0.10880024 0.09182407 0.017991161 0.017713215 0.14466965 -0.039439734 9.072134e-17 0.0076984493
0.15755256 -0.050022215 0.10005054 0.14427604 0.00022931218 -0.082325034 0.09472835 0.03901251
-0.025630161 0.14460233 -0.045000296 0.09669867 -0.003986412 0.22720076 0.2573259 -0.060920827
0.027719159 -0.14929545 -0.051869765 0.16826092 -0.049980458 0.019942647 -0.037666418 0.19819596
0.066401675 0.20496668 -0.072980985 0.07136236 0.1696943 -0.014062495 -0.021492213 0.1687123
00000000: 80b2 db3d 5462 06be d162 d9bd 730a 7e3d
00000010: 5d89 14a7 ad22 153e 11ce 99bc 41ed bbbc
00000020: dbda 56bd 55f8 133e 5818 c5bd f374 d7bd
00000030: 10ca d33d 3012 90b3 1c47 6c3d 23bf da95
00000040: 80c4 da24 ed31 223e e789 9abc cec0 babd
00000050: 6d3f d4bd d577 143d f98c 86bd df39 a1bd
00000060: 0d90 5cbc 9fa5 463d a1c4 6dbd ed5e 273e
00000070: 56bf 4b3d 768d b9bc cc6d f6bc ba52 1a3e
00000080: 9874 873d 12b7 adbc 79c0 4e3d 1535 b3bd
00000090: 66fa 8a3d bef3 383c 1862 98ad 8bd0 483c
000000a0: f7b3 33bd 3b5a cbb7 bd37 75bb fe77 c13d
000000b0: f8c7 103e 0f46 b33d 818e 30be 8f83 df3d
000000c0: ea64 913d 8c9b 00be 096e 233e a175 d5bd
000000d0: 3574 8c3d b0bf e2bc 95ee 1d3e 24d4 1e3d
000000e0: 7517 a7bc a82d 043d eaf3 403d d09e 9e3d
000000f0: a095 493c c7bb b33d bb49 293e 5ed5 613d
00000100: 62d2 8d3e bf98 8e3d 0560 67be 2baf 353e
00000110: 017c e23d c96e c13d 40bb 583d dc21 653e
00000120: ea65 3fbd 375d 43bb f346 23bb 6f0e e7bc
00000130: 7c7d 793d 105e d43d 11e1 7d3d 540b 433e
00000140: f8da 89bd d089 2d3e 8eb4 393e b083 2d3c
00000150: d999 963d 0560 fdbc 237d 713d 83b8 2ba6
00000160: a9d2 de3d 420e bc3d 3362 933c 4e1b 913c
00000170: 4824 143e 8f8b 21bd 6d30 d124 4643 fc3b
00000180: 7555 213e 18e4 4cbd 4ce7 cc3d 19bd 133e
00000190: 8573 7039 079a a8bd f000 c23d 95cb 1f3d
000001a0: 58f6 d1bc a212 143e 3b52 38bd f409 c63d
000001b0: 73a0 82bb 51a7 683e 38c0 833e 1e88 79bd
000001c0: 4a13 e33c e8e0 18be 6475 54bd 974c 2c3e
000001d0: 4fb8 4cbd c35e a33c 1a48 1abd e2f3 4a3e
000001e0: 9afd 873d c9e2 513e 0e77 95bd 6e26 923d
000001f0: 58c4 2d3e 6166 66bc 7010 b0bc ebc2 2c3e

weight f4 [64, 128]
-0.026937025 1.5211405e-22 -0.003176255 -0.0025676524 -3.797197e-25 -0.00033992983 5.3374215e-23 -4.69255e-24
-9.345095e-24 -0.0021795821 0.0035901768 -8.355498e-26 -0.0060073733 1.001829e-23 0.011546269 5.7723587e-24
-1.6656246e-23 -0.008634845 0.013721935 3.441398e-26 1.9871298e-24 4.397271e-24 3.0166882e-25 -0.0070645656
-0.0043792333 -2.4419497e-26 2.0175492e-24 -0.0021792413 -7.572922e-05 -4.286192e-24 -7.808616e-26 3.6671358e-05
-1.4426044e-25 -3.9645813e-26 -0.020418681 1.9326806e-26 -0.0033943441 -1.1911581e-25 -1.1769726e-24 -0.03187512
5.116518e-26 7.714617e-24 1.05754785e-26 0.017835326 4.71384e-24 0.007866775 -7.776391e-25 -0.017487844
-2.2695561e-23 -2.3769511e-05 0.02077021 0.011539561 -0.0013054853 1.957908e-25 0.022725413 0.015168316
0.007913312 -9.467231e-25 1.2644674e-24 -0.0026764732 7.374263e-05 -0.03155177 0.014548459 -0.0006649727
0.00012599226 -4.4638452e-23 0.0003794921 0.012549462 -8.717205e-25 -0.00044075274 -0.0057405834 0.022846423
-5.7361404e-27 5.5435733e-26 -9.265361e-25 5.6715145e-25 9.3782484e-26 -0.0012203193 -6.832096e-25 -0.030239023
-0.009610043 6.895167e-26 -0.004955918 -2.3903593e-26 -3.0187543e-06 1.3322568e-25 -8.0775353e-25 3.3634995e-25
-5.7632543e-23 6.055709e-24 7.831506e-27 -2.3081434e-25 -0.005151293 1.0710942e-24 8.2530766e-25 -0.005499062
3.1363936e-05 -0.026576282 -1.6148879e-25 -0.005948215 -2.216677e-26 0.02519131 -0.005844655 9.915946e-23
-1.9261886e-05 -0.03416769 -0.001234092 -0.0050643254 7.3120625e-21 -0.009147508 -0.0031053405 -6.340274e-26
0.0006572455 4.2487974e-25 -4.8034717e-22 -0.0039340947 4.4106352e-23 -2.3451685e-24 -8.811698e-25 -0.0027487357
0.005896029 -9.7774225e-26 2.9419218e-26 1.0675788e-24 -0.0057017943 -5.4648275e-25 4.458112e-24 -8.846349e-05
-0.011720698 -0.010394314 -0.011618751 -0.03781703 4.0328058e-25 0.0035879426 4.8817615e-08 -7.652084e-25
0.0076504955 -0.028772574 -0.010886688 1.7935733e-24 -0.010307252 8.1932884e-24 -0.0018501631 5.2306734e-25
-1.9979976e-25 -0.016217032 -0.009788087 8.879825e-23 -0.035928477 -0.00753889 -0.006265702 -0.018052937
-0.007330724 0.012865287 0.0018469039 4.4633676e-25 -0.0076088794 1.3635257e-24 5.524842e-23 -0.009765668
-0.033884026 -0.010677497 -0.010128276 2.7356957e-24 -0.0020963768 -0.018493716 -1.2986217e-24 -0.03367865
-2.2084392e-24 -1.4852866e-24 1.22426036e-26 -0.010815722 -0.008562704 -0.010623144 -0.011315751 -0.016165623
-2.1049962e-06 -0.016729435 -0.008485608 -0.010111208 -0.011894487 -0.0094514005 -0.009732594 -0.032846604
-0.008647845 -5.911026e-25 1.20152e-24 -0.011907237 -0.008284946 -0.010658737 -0.008903643 -0.010432747
-0.008063081 -1.0700773e-23 0.008364097 -0.011279396 -0.0008487478 -0.01023818 -0.016198369 -0.013515528
0.00042166287 0.014593178 -7.009096e-25 -8.182239e-24 -0.01911813 -0.0007442985 -4.153293e-28 -0.020367531
-0.038512986 0.016313693 -0.010399436 -0.008851883 0.0110658435 -3.36781e-23 -0.026541142 -4.2327354e-23
-0.03396576 -7.027804e-24 -2.3606883e-23 -0.009605163 -0.008322231 -0.008835957 -9.191717e-26 -0.011164357
-0.009256296 -0.0153276995 -0.01629809 -0.001760275 0.012564911 0.020309063 -0.018865364 0.0021007801
-0.008808239 -0.010542485 -0.0036267107 -0.010529785 -2.0395414e-25 -0.019988911 -2.1323094e-24 -0.009612746
0.005744069 -0.01323032 -0.008728895 0.018037014 -0.010162686 -1.404665e-24 -2.3569983e-25 -0.011021033
0.013308128 -0.007810133 0.0046090716 -0.010183997 -0.014440427 -1.335694e-24 6.401001e-25 0.017060407
00000000: 09ab dcbc 05e5 371b b728 50bb 0f46 28bb
00000010: fd08 eb96 9c38 b2b9 0a0d 811a c488 b598
00000020: abc2 3499 52d7 0ebb 2c49 6b3b 43df ce95
00000030: 80d9 c4bb 2bc8 4119 902c 3d3c ac4e df18
00000040: de16 a199 2a79 0dbc f8d1 603c e768 2a15
00000050: 29bf 1918 761c aa18 55b9 ba16 df7d e7bb
00000060: ac7f 8fbb c8d6 f194 ae19 1c18 9ad1 0ebb
00000070: d1d0 9eb8 64d0 a598 fc54 c195 92cf 1938
00000080: f595 3296 0a51 4495 1445 a7bc 4667 bf14
00000090: a573 5ebb 4f75 1396 b020 b697 7c8f 02bd
000000a0: 925b 7d15 ef38 1519 0c78 5114 641b 923c
000000b0: 9c5b b618 a5e3 003c ebaa 7097 ab42 8fbc
000000c0: 7d7f db99 a364 c7b7 4a26 aa3c 6d10 3d3c
000000d0: d11c abba 9560 7216 a52a ba3c 8784 783c
000000e0: d6a6 013c 917f 9297 b7aa c317 c567 2fbb
000000f0: 46a6 9a38 6e3c 01bd a95c 6e3c 9051 2eba
00000100: ca1c 0439 badb 579a 91f6 c639 429c 4d3c
00000110: 68e4 8697 d514 e7b9 811b bcbb 6c28 bb3c
00000120: 603b e393 9240 8915 e05f 8f97 5e86 2f17
00000130: b631 e815 1ff3 9fba 7171 5397 d4b7 f7bc
00000140: 7173 1dbc 50b7 aa15 4165 a2bb cfba ec94
00000150: ce95 4ab6 e7ec 2416 d4fc 7997 c730 d016
00000160: d158 8b9a d644 ea18 741e 1b14 fedd 8e96
00000170: 2dcc a8bb 6abe a517 9c6b 7f17 7a31 b4bb
00000180: c58c 0338 81b6 d9bc d7e9 4796 3ee9 c2bb
00000190: 7087 db94 025e ce3c 8584 bfbb bcc0 ef1a
000001a0: 9694 a1b7 6bf3 0bbd 42c1 a1ba a4f2 a5bb
000001b0: f71e 0a1e 6edf 15bc f882 4bbb 43fa 9c95
000001c0: 004b 2c3a 717e 0317 102d 119c 94e9 80bb
000001d0: 0549 551a d972 3598 bb5a 8897 2224 34bb
000001e0: 7a33 c13b c713 f295 4aad 1115 2733 a517
000001f0: 1ed6 babb d320 2997 0177 ac18 7985 b9b8
00000200: 2c08 40bc ea4c 2abc 935c 3ebc 08e6 1abd
00000210: 5c9e f916 b023 6b3b 89ab 5133 0ed2 6c97
00000220: 02b1 fa3b 76b4 ebbc 145e 32bc 61c5 0a18
00000230: c0df 28bc 337b 1e19 2c81 f2ba aae1 2117
00000240: 1257 7796 95d9 84bc 365e 20bc 74b3 d61a
00000250: bd29 13bd cb08 f7bb 8550 cdbb c1e3 93bc
00000260: 9236 f0bb edc8 523c d013 f23a 7122 0a17
00000270: e853 f9bb d1fe d217 1e95 851a 2e00 20bc
00000280: fac9 0abd abf0 2ebc 12f1 25bc 09aa 5318
00000290: 5e63 09bb 2280 97bc b5f3 c897 a0f2 09bd
000002a0: a5de 2a98 44d6 e597 607d 7214 6d34 31bc
000002b0: 954a 0cbc b20c 2ebc b365 39bc c56d 84bc
000002c0: 8f43 0db6 2b0c 89bc 3807 0bbc 7ba9 25bc
000002d0: 18e1 42bc 0cda 1abc 7575 1fbc 298a 06bd
000002e0: b1af 0dbc f9ef 3697 1ced b917 9216 43bc
000002f0: 95bd 07bc fca1 2ebc 96e0 11bc 1dee 2abc
00000300: 031b 04bc a9fb 4e99 9109 093c 37cd 38bc
00000310: 807e 5eba 0abe 27bc 71b2 84bc 3c70 5dbc
00000320: a212 dd39 3a18 6f3c c8eb 5897 7c44 1e99
00000330: a09d 9cbc 071d 43ba 849f 0392 cfd9 a6bc
00000340: cbbf 1dbd 4ba4 853c 6562 2abc 7d07 11bc
00000350: 834d 353c 78db 229a cf6c d9bc baae 4c9a
00000360: ae1f 0bbd 00f0 0799 d04f e499 f95e 1dbc
00000370: f759 08bc b1c4 10bc 6e93 e395 b5ea 36bc
00000380: b8a7 17bc 0821 7bbc 9283 85bc 07b9 e6ba
00000390: 0edd 4d3c 315f a63c 898b 9abc 3ead 093b
000003a0: 6f50 10bc 63ba 2cbc 1cae 6dbb 1f85 2cbc
000003b0: a67b 7c96 c9bf a3bc bdfa 2498 c77e 1dbc
000003c0: be38 bc3b fcc3 58bc a403 0fbc 5cc2 933c
000003d0: 6581 26bc 835c d997 21e4 9196 9091 34bc
000003e0: 560a 5a3c 25ec ffbb b207 973b c8da 26bc
000003f0: 8a97 6cbc 4ab0 ce97 f419 4617 44c2 8b3c

bias f4 [64]
-0.03689889 -0.029436965 0.043069206 -0.02305685 1.6723855e-19 -0.010264229 0.06848156 -0.007415611
-0.0040585236 -0.00819164 0.030877493 -0.016148662 0.15002914 0.06110694 0.15005256 0.11660564
-0.008968652 0.08147806 -0.020372352 0.107908584 0.016970202 0.079932205 -0.00020576215 -0.00013196265
-5.552851e-11 -0.010018807 0.038771044 0.059830148 0.046085034 -0.0064471457 0.041214664 -0.011163918
-0.015084167 -6.851614e-11 -0.03112395 -0.0903827 -0.0012500215 0.08312345 0.005879973 -0.001031812
0.1394832 0.036396038 -0.020613246 7.1598435e-16 -0.0025594523 0.08025478 0.078555524 0.03852805
-0.024890441 0.054278534 0.11885381 -0.022694832 -0.032848068 -0.0289818 -0.006524049 -0.018095026
-0.020527301 -0.015415058 0.003117624 -2.1099212e-16 0.01124836 -0.0031589472 0.067046896 -0.0340316
00000000: 4a23 17bd ca25 f1bc 5669 303d b8e1 bcbc
00000010: c070 4520 4c2b 28bc 0f40 8c3d a7fe f2bb
00000020: 5dfd 84bb 3a36 06bc ccf2 fc3c 334a 84bc
00000030: 3da1 193e 454b 7a3d 61a7 193e f0ce ee3d
00000040: 41f1 12bc f8dd a63d ebe3 a6bc 2dff dc3d
00000050: 1805 8b3c 7fb3 a33d dbc1 57b9 745f 0ab9
00000060: 8b37 74ae ec25 24bc 63ce 1e3d 7510 753d
00000070: a9c3 3c3d 9442 d3bb b5d0 283d dee8 36bc
00000080: 9523 77bc 28ab 96ae a7f7 febc 911a b9bd
00000090: c3d7 a3ba a13c aa3d caac c03b de3d 87ba
000000a0: afd4 0e3e 0314 153d 1cdd a8bc 525e 4e26
000000b0: 7cbc 27bb 9e5c a43d b8e1 a03d 97cf 1d3d
000000c0: 0ae7 cbbc 2b53 5e3d a069 f33d 83ea b9bc
000000d0: b28b 06bd 3d6b edbc b1c7 d5bb 053c 94bc
000000e0: df28 a8bc 708f 7cbc 0d51 4c3b e241 73a5
000000f0: 0b4b 383c 5706 4fbb e24f 893d b864 0bbd

weight f4 [10, 64]
3.9157656e-14 -0.007702213 0.11046967 -2.8695626e-23 0.0022106513 -0.00011317198 -0.000491503 0.015147053
0.033725273 -0.30358505 -0.00056947675 0.0066224462 0.13255768 0.06127638 0.13656972 0.1615733
0.010468801 0.03556574 -0.00023776089 0.088438466 -0.03484457 0.066534236 -0.007834085 -3.8331262e-17
-1.1579184e-13 -0.019826364 -0.16288984 -0.13916865 -0.14684534 -0.008005671 0.101783894 -0.09026775
-0.0016147922 -6.467514e-11 0.005058045 -0.13214473 -0.24464613 -0.02374071 0.06728279 0.06787152
-0.018616216 0.090688996 0.04311442 8.26206e-18 0.009938604 0.071091704 -0.13567954 -0.20392306
-2.1705338e-05 -0.08053009 0.11916856 1.805798e-24 1.1868162e-07 -0.0030400099 0.0140885785 6.232369e-05
-0.027063007 -0.030903334 6.1804235e-18 -6.4712767e-22 -0.085277006 -2.5274486e-24 0.051415496 0.041632544
2.0919093e-14 0.013576821 -0.09570536 -8.910649e-18 0.0025646144 0.00026892038 -0.08282906 0.012808146
-0.009336094 -0.07709274 0.017313447 -0.027723514 0.079868935 0.15101016 -0.46993777 0.074191295
0.009233647 -0.056628987 -1.5433433e-23 0.041434966 -0.17408796 0.12428772 0.007739945 -1.617367e-18
-1.314477e-19 -0.13174973 -0.02629091 0.07008874 -0.5156336 0.010167411 -0.26320523 -0.05705553
-0.0094204 1.5129464e-11 -0.002397702 -0.0016545492 0.256852 0.053025555 -0.17325608 -0.124530986
0.13544013 0.10646177 -0.19481927 1.0663279e-16 0.015703825 -0.4322358 -0.009267899 -0.29714254
-0.020129077 0.12564036 0.117027536 1.5555139e-25 -5.3611194e-19 0.007746145 0.013387449 0.000538692
-0.00957839 -0.0064578615 6.336191e-22 -4.4409983e-20 0.23494232 -1.827562e-25 -0.006418277 -0.097494476
4.8232264e-16 0.041081514 0.018391924 -4.321592e-21 -0.008095149 -0.00050101435 -0.15790145 0.01886049
0.03831698 0.08898224 0.099741004 0.037650846 -0.05990472 -0.10626658 -0.14797816 0.0709419
-0.031161692 0.05351794 -2.9884784e-15 0.18233784 0.07233571 -0.16621469 -0.009227689 2.0575088e-21
-1.5898471e-14 0.12564065 -0.052599408 0.044704583 -0.15310691 -0.0013034235 -0.18349941 0.07213662
0.023903059 -8.3215886e-11 -0.0018142558 0.118300304 0.17200112 -0.07188188 0.11814239 0.05088701
0.09853506 0.1770649 0.08233114 -4.723354e-10 -0.030009981 -0.15169017 0.10939951 0.08918733
-0.0009361101 -0.11124628 0.09287024 1.8330936e-20 -0.0063995556 0.026213074 0.007234555 -0.06580241
0.016353535 0.00068630703 3.431488e-23 4.2308166e-23 -0.094301 -4.4320008e-20 -0.06987858 -0.09166024
-2.6255697e-12 -0.032308917 0.023138665 6.3306895e-21 -0.0048610675 0.0004266851 -0.10923424 0.018928535
0.009481948 -0.2199616 -0.04384431 -0.0019983014 -0.015384836 0.16866995 -0.0908904 -0.11254313
-0.004411977 0.048604146 3.8035623e-23 -0.051879138 -0.033743467 0.17774476 0.003197599 -5.476936e-18
-7.270703e-15 -0.09237334 -0.26130986 0.070663005 -0.1593193 -0.0007556996 -0.053216744 0.09822069
-0.009399705 -3.086017e-11 0.0022471542 -0.021030078 0.05267543 0.097200304 -0.0008060537 -0.017536778
0.083919235 0.02590351 0.13300262 8.7637904e-16 0.009721329 -0.0038512442 -0.07092771 -0.043647446
-0.00010375493 0.06891374 -0.07014029 -2.135642e-19 -6.2228665e-14 0.020842448 -0.006624015 -0.0026383437
-0.0056690755 0.053127047 -5.942122e-22 -4.856563e-21 0.12572737 -1.4028235e-20 0.040646996 -0.02421025
00000000: b459 3029 d862 fcbb ec3d e23d 77c3 0a9a
00000010: 93e0 103b be56 edb8 35d8 00ba 582b 783c
00000020: 8323 0a3d 806f 9bbe f048 15ba 1b01 d93b
00000030: 33bd 073e f1fc 7a3d efd8 0b3e 7973 253e
00000040: 5585 2b3c 62ad 113d 744f 79b9 3a1f b53d
00000050: 2eb9 0ebd 1a43 883d 895a 00bc 91c5 30a4
00000060: ba5e 02aa e66a a2bc 98cc 26be 3a82 0ebe
00000070: a05e 16be 382a 03bc 1374 d03d 4cde b8bd
00000080: 6fa7 d3ba de38 8eae f5bd a53b f350 07be
00000090: 8484 7abe e17b c2bc 8fcb 893d 3900 8b3d
000000a0: 0981 98bc 27bb b93d bf98 303d 7a68 1823
000000b0: 87d5 223c 8798 913d 94ef 0abe 35d1 50be
000000c0: dc13 b6b7 f6ec a4bd a50e f43d 84b7 0b18
000000d0: e9dd fe33 e73a 47bb c8d3 663c c7b3 8238
000000e0: 3db3 ddbc fd28 fdbc 7304 e422 1495 439c
000000f0: b6a5 aebd 478d 4398 0e99 523d e386 2a3d
00000100: 256c bc28 5171 5e3c 2c01 c4bd 5a5f 24a3
00000110: 1713 283b e2fd 8c39 48a2 a9bd 42d9 513c
00000120: 6bf6 18bc cce2 9dbd eed4 8d3c 6c1c e3bc
00000130: 5392 a33d 68a2 1a3e af9b f0be 9bf1 973d
00000140: b948 173c ccf3 67bd 5443 9599 b6b7 293d
00000150: 1d44 32be 8f8a fe3d 5d9f fd3b 66ae eea1
00000160: a12f 1ba0 67e9 06be 0960 d7bc af8a 8f3d
00000170: 9000 04bf 3695 263c d6c2 86be 0fb3 69bd
00000180: 0558 1abc 8614 852d c422 1dbb 75dd d8ba
00000190: 1b82 833e 5331 593d 0b6a 31be 1a0a ffbd
000001a0: d1b0 0a3e a108 da3d b47e 47be e4e0 f524
000001b0: 4fa5 803c 034e ddbe 63d8 17bc 1123 98be
000001c0: bce5 a4bc dea7 003e 22ac ef3d 3490 4016
000001d0: 793b 1ea1 60d3 fd3b 0857 5b3c 0237 0d3a
000001e0: aeee 1cbc 789c d3bb e77f 3f1c 60b8 519f
000001f0: b894 703e c03d 6296 6950 d2bb 2fab c7bd
00000200: 2105 0b26 1745 283d a9aa 963c e043 a39d
00000210: 84a1 04bc 8156 03ba ebb0 21be 5081 9a3c
00000220: 44f2 1c3d 523c b63d 0345 cc3d c637 1a3d
00000230: a75e 75bd 4ba2 d9bd 9687 17be fd49 913d
00000240: ce46 ffbc a135 5b3d b257 57a7 c5b6 3a3e
00000250: bf24 943d 2f34 2abe bc2f 17bc 0276 1b1d
00000260: 6133 8fa8 f1a7 003e 7a72 57bd 271c 373d
00000270: 0fc8 1cbe a3d7 aaba 45e7 3bbe 5dbc 933d
00000280: 59d0 c33c 61fe b6ae 53cc edba 6e47 f23d
00000290: 1021 303e cf36 93bd a3f4 f13d e66e 503d
000002a0: c0cc c93d 8050 353e 3b9d a83d a6d5 01b0
000002b0: 7ed7 f5bc ab54 1bbe da0c e03d d9a7 b63d
000002c0: 4965 75ba 17d5 e3bd c132 be3d 7c21 ad1e
000002d0: 5db3 d1bb cdbc d63c d90f ed3b 6ac3 86bd
000002e0: d9f7 853c 49e9 333a c4ef 251a f996 4c1a
000002f0: e220 c1bd 9a4b 519f 801c 8fbd 5db8 bbbd
00000300: 0fc2 38ac 5b56 04bd 4c8d bd3c ac2a ef1d
00000310: 9749 9fbb b4b4 df39 34b6 dfbd 0410 9b3c
00000320: 2c5a 1b3c 9d3d 61be 1796 33bd eff5 02bb
00000330: ae10 7cbc d1b7 2c3e bf24 babd 037d e6bd
00000340: 5892 90bb 2415 473d d2ed 371a 387f 54bd
00000350: 9736 0abd b902 363e cf8e 513b 3310 caa2
00000360: 33fa 02a8 3c2e bdbd 68ca 85be c4b7 903d
00000370: 9924 23be 241a 46ba cdf9 59bd ee27 c93d
00000380: 3801 1abc 76b9 07ae fe44 133b 4547 acbc
00000390: 31c2 573d f410 c73d 594d 53ba 4aa9 8fbc
000003a0: d9dd ab3d 9933 d43c d731 083e 5c99 7c26
000003b0: 3646 1f3c 2865 7cbb 8c42 91bd aac7 32bd
000003c0: 0197 d9b8 a622 8d3d b6a5 8fbd d221 7ca0
000003d0: 6220 8ca9 c8bd aa3c 440e d9bb 10e8 2cbb
000003e0: a7c3 b9bb bf9b 593d f196 339c cc79 b79d
000003f0: adbe 003e 317e 849e 777d 263d 9354 c6bc

bias f4 [10]
0.17866625 -0.046089664 -0.043034952 0.067663044 -0.19178478 -0.089498214 0.1791872 0.05520403
-0.039896775 -0.08779986
00000000: 49f4 363e 84c8 3cbd 6b45 30bd ec92 8a3d
00000010: 3b63 44be d74a b7bd d97c 373e 9f1d 623d
00000020: cd6a 23bd 6ad0 b3bd
