2-hypertuning-mlflow/mlruns/2/5f40aacff2e7484bb435f057df654299/artifacts/pytorch_models/20250921-1133model.pt (torch, 62853 bytes, 12 tensors)

weight f4 [16, 1, 2, 2]
0	0x3ec4b3a7	0.38418314
1	0x3e34952a	0.17635027
2	0x3dfe8263	0.12427213
3	0x3ebe7d3c	0.3720492
4	0x3ee6f86f	0.45111415
5	0xbdbc910a	-0.092073515
6	0xbe5252d2	-0.20539406
7	0xbf15f3eb	-0.58575314
8	0xbf50fe1e	-0.8163775
9	0xbf085e80	-0.53269196
10	0xbf481e70	-0.78171444
11	0xbf142d2b	-0.5788142
12	0xbe923260	-0.28554058
13	0xbf3ec2a4	-0.7451575
14	0xbd432e6d	-0.047651697
15	0xbea93b28	-0.33052945
16	0x3e8b223f	0.27174565
17	0x3ef4c4eb	0.47806486
18	0x3c707941	0.014677347
19	0x3d3c5cff	0.045987125
20	0xbe3689a3	-0.17825942
21	0xbded44a7	-0.1158536
22	0x3eff2f45	0.4984075
23	0xbec4103e	-0.38293642
24	0xbf666215	-0.8999341
25	0xbf5df3ef	-0.8670034
26	0xbf1abfd5	-0.6044896
27	0xbe2fa08a	-0.17151085
28	0x3e42ab68	0.19010699
29	0xbe6135a0	-0.21993113
30	0xbece01e8	-0.4023583
31	0x3dfe00ea	0.12402518
32	0xbd74a5cc	-0.05972843
33	0x3f1601e1	0.58596617
34	0xbf161581	-0.5862656
35	0x3e159601	0.14608003
36	0xbf468177	-0.775413
37	0x3ec64eb5	0.38731924
38	0xbf4b7319	-0.794725
39	0xbe5a4726	-0.21316203
40	0xbd0c1dd0	-0.03420812
41	0x3f23864e	0.6387681
42	0x3eef9269	0.4679139
43	0xbe210354	-0.15723926
44	0xbed95570	-0.42447996
45	0xbe4b0048	-0.19824326
46	0xbf68aa9d	-0.90885335
47	0xbed69674	-0.41911662
48	0xbf063609	-0.524262
49	0x3f0a4c37	0.54022545
50	0xbeb068e6	-0.3445503
51	0x3f22b57c	0.63558173
52	0xbed0cd28	-0.40781522
53	0xbe8a267c	-0.26982486
54	0x3e5d8e77	0.21636377
55	0x3e8b34c4	0.27188694
56	0x3f03436f	0.5127477
57	0x3eb42612	0.35185295
58	0x3d2d6293	0.042330336
59	0x3efb9d22	0.4914332
60	0xbda6748f	-0.081277005
61	0xbe030522	-0.12794927
62	0x3f1536bb	0.5828664
63	0x3f1b8977	0.6075663

bias f4 [16]
0	0x3e968080	0.29394913
1	0x3dc63714	0.09678474
2	0x3ea12bea	0.31478816
3	0x3e153f6b	0.14574973
4	0x3f06c42d	0.5264309
5	0x3e5a849a	0.21339646
6	0x3ec91579	0.39274195
7	0x3ec71f2f	0.3889098
8	0xbd843fdb	-0.06457492
9	0x3e3edb30	0.18638301
10	0x3bb51a2e	0.0055268025
11	0x3e971024	0.29504502
12	0x3ecd9240	0.40150642
13	0x3e0f7b4b	0.14011876
14	0x3e8c5b6f	0.27413508
15	0x3e9777f7	0.29583713

weight f4 [16, 16, 2, 2]
0	0x3e8d704e	0.27624744
1	0x3e94cbb3	0.2906166
2	0x3e846051	0.25854734
3	0x3e82c80f	0.25543258
4	0xbdd84591	-0.10560144
5	0xbe5214d6	-0.20515761
6	0xbe8e6a15	-0.2781531
7	0xbe5ea62a	-0.21743074
8	0xbe2aa85f	-0.16665791
9	0xbe738e76	-0.23784813
10	0xbe94227c	-0.2893256
11	0xbe5d8a33	-0.2163475
12	0xbe004383	-0.12525754
13	0xbe82340a	-0.25430328
14	0xbe71c603	-0.23610692
15	0xbebcbb13	-0.36861476
16	0x3e60a96d	0.21939631
17	0x3e829c8f	0.2551007
18	0x3e6918c3	0.22763352
19	0x3e49ed02	0.19719318
20	0xbd1bb209	-0.038011584
21	0xbe78ebf7	-0.24308763
22	0x3ce03bd4	0.027372278
23	0xbe20c60f	-0.15700553
24	0xbe8427f8	-0.25811744
25	0xbe341354	-0.17585498
26	0xbeb435ef	-0.35197398
27	0xbeb07f3e	-0.34472078
28	0xbab1fd86	-0.0013579584
29	0xbc5d20cb	-0.013496588
30	0xbe08257a	-0.13295546
31	0xbe3a23e8	-0.1817776
32	0xbdcac636	-0.09901087
33	0x3eaf314e	0.34217304
34	0xbd753c24	-0.059871808
35	0x3e4d4ced	0.20048876
36	0xbeadd5cc	-0.33952177
37	0xbdb17de5	-0.086665906
38	0xbeaf814c	-0.34278333
39	0xbebc6ebe	-0.3680324
40	0x3eb92fb4	0.36169207
41	0x3f05f43f	0.52325815
42	0x3ec62963	0.3870345
43	0x3ef50bcb	0.4786056
44	0xbe6b445b	-0.22975294
45	0xbe8300df	-0.25586602
46	0xbe9e7e65	-0.30955806
47	0xbe8fb77a	-0.2806967
48	0x3e55ef8f	0.20892166
49	0x3eadd9ca	0.33955222
50	0x3de98741	0.11402751
51	0x3e94e773	0.29082832
52	0xbdcf2327	-0.10114127
53	0xbe2335a4	-0.15938431
54	0xbda9024c	-0.08252391
55	0xbe31df49	-0.17370333
56	0x3e48d574	0.19612676
57	0x3eaeb23b	0.34120354
58	0x3e9e683c	0.309389
59	0x3e86b8ca	0.26312858
60	0x3e1dead1	0.15421607
61	0x3e5015ce	0.20320818
62	0x3ea72e47	0.32652494
63	0x3e829fc1	0.25512508
64	0x3c1268ab	0.008936088
65	0x3dc50bbf	0.09621381
66	0x3e309f97	0.17248379
67	0xbd8e5ab3	-0.06950893
68	0x3c2ca33b	0.010536964
69	0xbd14821b	-0.03625689
70	0x3cfaca3d	0.030614013
71	0xbd850285	-0.06494621
72	0xbe85d20a	-0.2613681
73	0xbda4e2be	-0.0805106
74	0xbea62900	-0.32453156
75	0xbd430971	-0.047616426
76	0xbe8b3f0f	-0.27196547
77	0xbe15a578	-0.14613903
78	0xbe206067	-0.15661775
79	0x3dea1e37	0.11431544
80	0x3e48db53	0.19614916
81	0x3dd0c794	0.101943165
82	0x3de74967	0.11293297
83	0x3cbd8539	0.023134815
84	0xb9d7cf68	-0.00041162525
85	0xbd7c99f6	-0.061670266
86	0x3e396801	0.1810608
87	0x3df5a4e3	0.1199434
88	0xbea5d896	-0.32391804
89	0x3d28cbe5	0.041210074
90	0xbe3cb8b0	-0.18429828
91	0x3d36fdb3	0.04467554
92	0x3e006d3e	0.12541673
93	0x3daeb412	0.085304394
94	0x3df181a5	0.11792306
95	0x3dfeae94	0.12435642
96	0x3bb793f8	0.005602356
97	0xbe9e70d2	-0.3094545
98	0xbdf8605a	-0.121277526
99	0xbea166f7	-0.31523868
100	0xbe8e25b1	-0.2776313
101	0xbe085699	-0.13314284
102	0xbdf77b3b	-0.12084051
103	0x3cf358e5	0.029705474
104	0x3dcc30d9	0.099702545
105	0x3c2b17db	0.010442699
106	0x3c31315f	0.010814994
107	0xbd22c13f	-0.039735075
108	0xbe93d38b	-0.28872332
109	0x3c439c77	0.01193916
110	0xbe0f363e	-0.13985536
111	0x3d628009	0.055297885
112	0x3d6b6643	0.05747057
113	0xbd32dc91	-0.04366738
114	0xbd20d337	-0.03926393
115	0x3d984a66	0.074360654
116	0xbd54b5c1	-0.051931147
117	0xbdd73aab	-0.10509237
118	0xbd952aed	-0.07283578
119	0x3de2c111	0.11071981
120	0x3d03aa94	0.032145098
121	0x3dab1e92	0.0835544
122	0x3da92673	0.08259287
123	0xbde2d66b	-0.11076053
124	0xbcd6465d	-0.026156599
125	0xbdbadcf9	-0.091241784
126	0x3df10163	0.117678426
127	0x3dcc4def	0.09975802
128	0x3e110738	0.1416291
129	0x3e483bf4	0.1955412
130	0x3e91d405	0.2848207
131	0x3e60695b	0.2191519
132	0xbe9cfcb5	-0.3066155
133	0xbe1266b6	-0.14296994
134	0xbe9378dc	-0.28803146
135	0xbe7f25eb	-0.24916808
136	0xbe2dcabb	-0.16971867
137	0xbe558c20	-0.20854235
138	0xbe3a42e0	-0.18189573
139	0xbe16a077	-0.1470965
140	0xbe906015	-0.28198305
141	0xbdc74990	-0.09730828
142	0xbe87b5a7	-0.26505777
143	0xbe68d7dc	-0.22738594
144	0x3db4c20c	0.08826074
145	0x3cfc94b4	0.030832626
146	0x3e34fe98	0.17675245
147	0x3e00f356	0.12592825
148	0xbdd79bcf	-0.10527765
149	0x3d909f14	0.07061592
150	0x3a8f9344	0.0010953923
151	0xbbf142a0	-0.0073626786
152	0xbdb6004a	-0.08886774
153	0xbd35caf7	-0.044383015
154	0xbe7b968d	-0.2456915
155	0xbe48f4ea	-0.19624677
156	0xbd22b8d9	-0.039727066
157	0xbdc03644	-0.0938535
158	0xbcec1dbf	-0.028822778
159	0xbd0aee4b	-0.03391866
160	0x3ea75eb5	0.32689443
161	0x3d99613d	0.0748925
162	0x3d8dd280	0.06924915
163	0xbd954dff	-0.07290267
164	0xbdf509c0	-0.1196475
165	0xbd0290b9	-0.0318763
166	0xbe8b32ce	-0.27187198
167	0xbcc10766	-0.023563098
168	0x3e789795	0.24276574
169	0x3dc4e314	0.09613624
170	0x3e727441	0.2367716
171	0x3e236b5b	0.15958922
172	0xbe2603ba	-0.16212359
173	0xbd3b3822	-0.04570783
174	0xbe0514fc	-0.12996286
175	0xbe0d33b9	-0.13789262
176	0x3e0ac479	0.13551511
177	0x3d864196	0.06555478
178	0x3dbb7830	0.09153783
179	0x3dbbd2e8	0.091710865
180	0xbd7298c0	-0.059227705
181	0xbe87b694	-0.26506484
182	0x3c51bc4c	0.012801241
183	0xbbc27ee2	-0.0059355358
184	0x3e03055a	0.1279501
185	0x3ca488e1	0.0200848
186	0x3e74b09a	0.23895493
187	0x3e43a038	0.19104087
188	0x3e4409ff	0.19144438
189	0x3e352893	0.17691259
190	0x3e4cf7f3	0.2001646
191	0x3e230838	0.15921104
192	0x3ba10aaa	0.0049146013
193	0x3dc3766d	0.09544072
194	0x3b55f918	0.0032649692
195	0x3d0d2bc9	0.034465585
196	0x3e03eb1a	0.12882653
197	0x3dbfa47b	0.09357544
198	0x3d305aa2	0.043055184
199	0x3d2f96a0	0.042868257
200	0x3df656c4	0.12028268
201	0x3e53abf1	0.20671059
202	0x3d6e22f6	0.05813881
203	0x3e16b623	0.14717917
204	0x3e68d2c4	0.2273665
205	0x3e3adfb2	0.18249395
206	0x3e468cce	0.1938965
207	0x3df8402d	0.121216156
208	0x3d9e03b3	0.07715549
209	0x3b280949	0.00256403
210	0xbdef20b6	-0.11676161
211	0x3c998af8	0.018743023
212	0x3e27afb6	0.16375622
213	0x3d646bb5	0.05576678
214	0x3e132b64	0.14372021
215	0x3db1a196	0.08673398
216	0x3e4da384	0.20081908
217	0x3de315d3	0.11088147
218	0x3e45030b	0.19239442
219	0x3e6a2aae	0.22867844
220	0xbd96ad6f	-0.073572986
221	0x3d604314	0.05475147
222	0x3d30e4f2	0.04318709
223	0xbdb219da	-0.08696337
224	0xbd1f8c91	-0.038952414
225	0x3eda0eb1	0.42589334
226	0xbe454904	-0.19266135
227	0x3eee4c39	0.46542528
228	0x3dce4355	0.10071436
229	0x3db62da7	0.08895426
230	0x3e0604dc	0.13087791
231	0x3e7896fd	0.24276347
232	0xbcd34212	-0.02578834
233	0xbdca66e0	-0.09882903
234	0xbe01f6dd	-0.12691827
235	0x3ce34404	0.027742393
236	0x3e270272	0.16309527
237	0x3e322b36	0.17399296
238	0x3ca45af6	0.020062905
239	0xbc4f5978	-0.012655608
240	0xbd146c09	-0.036235843
241	0x3db392b3	0.08768215
242	0x3d92c468	0.07166368
243	0x3e6de69b	0.232325
244	0xbd805ef7	-0.06268113
245	0xbd31eeec	-0.043440744
246	0xbd498d5f	-0.049207088
247	0x3d0c63f6	0.034275018
248	0xbdd8cf63	-0.10586431
249	0xbdafea37	-0.08589595
250	0xbd645b50	-0.055751145
251	0x3e17c7f0	0.14822364
252	0xbd462d6e	-0.04838317
253	0xbddf3e49	-0.10900552
254	0x3dd73e58	0.10509938
255	0xbd62c6f5	-0.05536552

bias f4 [16]
0	0xbd349980	-0.0440917
1	0x3d9d7276	0.07687847
2	0xbbfb0687	-0.00766069
3	0xbd0cc6f9	-0.034369443
4	0xbd8ec4d4	-0.06971136
5	0x3e2d11f2	0.16901377
6	0x3cf96e71	0.03044817
7	0x3dabc2dc	0.08386776
8	0x3de51068	0.1118477
9	0x3e3964de	0.18104884
10	0xbd287b16	-0.04113301
11	0x3e5e93a7	0.21736012
12	0xbc4fc76f	-0.012681826
13	0x3d76e3c0	0.060275793
14	0xbd220b02	-0.03956128
15	0x3d3dddb5	0.046354014

weight f4 [16, 16, 2, 2]
0	0xbe343f7e	-0.17602345
1	0xbd6b9bc3	-0.057521593
2	0x3c9128d2	0.01771966
3	0x3e8207b7	0.2539651
4	0x3c2d0724	0.0105607845
5	0xbe556ba5	-0.20841844
6	0x3de79eee	0.1130961
7	0x3e33a24b	0.17542379
8	0xbe4bd63f	-0.19905947
9	0xbdbee36c	-0.09320721
10	0x3e11dbc2	0.14243987
11	0x3d7b8a29	0.061411057
12	0x3d1954fb	0.03743456
13	0x3d968a8e	0.07350646
14	0xbc06bafb	-0.008223291
15	0xbdfb29aa	-0.12263806
16	0x3d313e21	0.04327214
17	0x3e24e260	0.1610198
18	0x3e0419e7	0.12900506
19	0xbda9b318	-0.082861125
20	0xbdcaeefa	-0.099088624
21	0xbe0a02e2	-0.13477662
22	0x3e03b35e	0.12861392
23	0x3d977293	0.073949
24	0x3e8eb447	0.27871916
25	0x3c02c653	0.0079818545
26	0x3e45f127	0.19330274
27	0xbd057115	-0.032578547
28	0xbd83ae80	-0.064297676
29	0x3be44c29	0.006967087
30	0xbc5a6538	-0.0133297965
31	0x3cad5a47	0.021161212
32	0xbd78a77c	-0.0607066
33	0xbe08154c	-0.13289374
34	0xbcea5170	-0.028603286
35	0x3e833b54	0.256312
36	0xbe57a6ad	-0.21059676
37	0xbe5013ca	-0.20320049
38	0xbc6fbee8	-0.014632918
39	0x3e4b400d	0.19848652
40	0x3d6e49b4	0.058175758
41	0x3df8e2b8	0.12152618
42	0x3d00b971	0.03142685
43	0xbd2a8d57	-0.0416387
44	0x3cd3e369	0.025865274
45	0xbe1447b7	-0.14480482
46	0x3de43ad8	0.11144036
47	0x3d84588e	0.06462203
48	0x3e221b57	0.15830742
49	0x3e14189c	0.14462513
50	0x3c8036a4	0.015651055
51	0x3cea0537	0.02856694
52	0xbde954bb	-0.11393114
53	0xbe152836	-0.1456612
54	0x3dd4a0f2	0.103822604
55	0x3e4ee573	0.20204715
56	0xbd89bd8b	-0.067256056
57	0x3a983769	0.0011613193
58	0x3cb52ee0	0.022117078
59	0x3de6395d	0.1124141
60	0xbe12f9e0	-0.14353132
61	0xbe738a6d	-0.23783274
62	0xbcc77c6c	-0.024351321
63	0xbd0050bc	-0.031326994
64	0x3e4498e4	0.19198948
65	0x3b86ddf6	0.0041158153
66	0x3e0a0072	0.13476732
67	0xbdc61acb	-0.09673079
68	0x3d3fd60e	0.046834998
69	0xbc7a72ad	-0.01528613
70	0x3ceb0de8	0.028693154
71	0x3e104daf	0.14092134
72	0x3e032556	0.12807211
73	0x3dde2fe1	0.10848976
74	0x3e13d5c3	0.14437012
75	0x3cd106d8	0.025515959
76	0x3e4a0420	0.19728136
77	0x3d8ad3c5	0.06778673
78	0x3e630e3f	0.22173403
79	0xbcbb6322	-0.022874419
80	0xbabfe726	-0.0014641031
81	0xbd707074	-0.058700994
82	0x3e233428	0.15937865
83	0x3e044a35	0.12918933
84	0x3c967b52	0.01836935
85	0x3d2a81d5	0.041627724
86	0x3e0a4059	0.13501109
87	0xbe031086	-0.12799272
88	0xbdb57408	-0.08860022
89	0x3d7b3da2	0.061338075
90	0x3d9d345d	0.07676003
91	0x3d652c60	0.055950522
92	0x3e247d88	0.16063511
93	0x3d572bd7	0.052532043
94	0x3c57d83a	0.013174111
95	0xbcab5159	-0.020912813
96	0x3c7afe30	0.015319392
97	0x3da4c328	0.080450356
98	0x3d9f4c58	0.07778233
99	0x3d91b2d5	0.07114188
100	0x3ca7d7f9	0.020488726
101	0x3de84bde	0.113425955
102	0x3cca7b9a	0.024717141
103	0x3e0fd8b1	0.14047505
104	0x3dc2a782	0.09504606
105	0x3e278260	0.16358328
106	0x3dab7d0d	0.08373461
107	0x3e2df1a4	0.1698671
108	0x3dca32d8	0.09872979
109	0xbc85187c	-0.016247027
110	0x3c4695b6	0.012120655
111	0xbd4d2634	-0.05008526
112	0x3e0a3f87	0.13500796
113	0xbd30d9a3	-0.043176305
114	0x3e5cbef6	0.21557221
115	0x3b48d388	0.003064366
116	0x3da587a6	0.080825135
117	0x3cacc5ae	0.021090355
118	0xbbc513f9	-0.006014344
119	0xbd8eba10	-0.06969082
120	0xbbeac3f4	-0.0071644727
121	0x3dc452f0	0.095861316
122	0x3d689775	0.056785066
123	0x3e040b41	0.12894918
124	0xbc9007cc	-0.017581843
125	0x3dece0e1	0.1156633
126	0x3cb735c5	0.022364506
127	0x3e26daa0	0.16294336
128	0x3d1f986b	0.038963716
129	0xbdfefc02	-0.124504104
130	0x3e065f08	0.13122189
131	0xbd287b65	-0.041133303
132	0x3ddc8b80	0.10768795
133	0x3d8dea55	0.06929461
134	0x3b901a05	0.004397633
135	0x3da9b367	0.082861714
136	0x3d926c22	0.07149531
137	0x3d3a451f	0.045476075
138	0x3d946f12	0.072477475
139	0xbc2132b7	-0.0098387515
140	0xbdbe4c64	-0.09291914
141	0x3cf43ca9	0.029814081
142	0xbe2c5495	-0.1682914
143	0xbe03f85a	-0.12887707
144	0xbd13e71d	-0.03610908
145	0xbe29b13c	-0.16571516
146	0x3bffc6a6	0.007805663
147	0xbe527bfd	-0.2055511
148	0xbc0a5860	-0.008443922
149	0xbb04aebe	-0.0020245756
150	0x3e3360a7	0.17517339
151	0x3d9e8da1	0.07741857
152	0xbdbbe1b6	-0.0917391
153	0xbe4932bf	-0.19648264
154	0xbe005c97	-0.1253532
155	0xbdbe0111	-0.09277547
156	0x3dd6d042	0.10488941
157	0x3dba1746	0.0908647
158	0x3ddebff0	0.10876453
159	0xbd2e547b	-0.042561036
160	0x3cb88cb1	0.022528024
161	0xbcbfdb6c	-0.023420058
162	0x3dccbc55	0.09996859
163	0x3c842465	0.016130636
164	0xbcff37d2	-0.031154547
165	0xbcdfc0af	-0.027313558
166	0x3df39c1b	0.11895009
167	0xbd861be8	-0.065482914
168	0xbd959511	-0.07303823
169	0xbcbd5dc0	-0.023115993
170	0xbd2b3fc4	-0.04180886
171	0xbe309be0	-0.17246962
172	0x3d29b743	0.041434538
173	0x3dd9a31b	0.10626813
174	0x3c9ed156	0.019386929
175	0x3da0d82b	0.07853731
176	0xbe447989	-0.19186987
177	0xbe3b4149	-0.18286623
178	0xbe2a9176	-0.16657051
179	0xbe56348e	-0.20918486
180	0xbcf5d8e6	-0.030010652
181	0x3dc0fdd6	0.09423415
182	0x3ce61f8e	0.028091218
183	0x3dc9f9db	0.09862109
184	0xbdd4826b	-0.10376438
185	0xbd85b75b	-0.06529113
186	0xbd95bb05	-0.07311062
187	0xbd7fc740	-0.06244588
188	0x3d6860d1	0.056732956
189	0x3d9ece4f	0.07754194
190	0x3e2e0bd1	0.16996695
191	0x3ceb3b2b	0.028714737
192	0xbe8583de	-0.2607717
193	0x3d68fb30	0.056880176
194	0x3e031ad7	0.12803207
195	0x3e50523e	0.20343873
196	0xbe211c48	-0.15733445
197	0xbe42da12	-0.190285
198	0x3d802157	0.06256359
199	0xbb72f3f1	-0.003707167
200	0xbcbba626	-0.022906374
201	0xbd2be7a7	-0.041968968
202	0x3e0afa3b	0.13572018
203	0x3e36e3e5	0.17860372
204	0x3e1cdf3f	0.15319537
205	0x3e1ae8b4	0.15127832
206	0xbdfcf391	-0.12351144
207	0xbe8a6444	-0.27029622
208	0x3de36ac9	0.11104352
209	0x3d92c5dd	0.07166646
210	0x3cc737c7	0.024318589
211	0xbe45737b	-0.19282334
212	0xbe09296f	-0.13394712
213	0xbe28d23c	-0.16486448
214	0xbd6a0839	-0.057136748
215	0x3e02df50	0.127805
216	0x3ecf6a68	0.4051087
217	0x3cd053a8	0.025430515
218	0x3e882e0f	0.2659764
219	0xbe8d8ab2	-0.2764488
220	0xbe88bc16	-0.26705998
221	0xbdfc7e26	-0.123287484
222	0x3e2ef37d	0.17085071
223	0xbddeab75	-0.108725466
224	0xbe69c7ee	-0.22830173
225	0xbd039c2b	-0.032131355
226	0xbc56008a	-0.013061652
227	0x3df9d132	0.12198104
228	0xbcbf5d40	-0.023359895
229	0x3c33f290	0.010983124
230	0x3cc5fe3e	0.024169084
231	0x3d05729d	0.032580007
232	0x3caea5ca	0.021319289
233	0x3d5e66f5	0.054297406
234	0xbc071764	-0.008245323
235	0xbda7813d	-0.08178947
236	0xbe605e05	-0.21910866
237	0xbdcaf0ca	-0.09909208
238	0x3e4312cd	0.1905014
239	0x3dc4562c	0.095867485
240	0x3d829d84	0.063777
241	0x3e1c12a8	0.15241492
242	0xbcbaf620	-0.02282244
243	0xbe68a5bf	-0.22719477
244	0xbe005a87	-0.12534533
245	0xbdebf692	-0.11521639
246	0x3e51f680	0.20504189
247	0x3e34ba6b	0.17649238
248	0x3d982c7a	0.07430358
249	0x3e1d9ab7	0.1539105
250	0x3d3644ae	0.04449909
251	0xbdbca3a9	-0.09210903
252	0xbe680da0	-0.22661448
253	0xbe9f02d9	-0.3105686
254	0x3cdb7846	0.02679075
255	0xbd4cff5b	-0.050048213

bias f4 [16]
0	0x3da63b82	0.08116819
1	0x3db5b91b	0.08873197
2	0x3d3be7a9	0.045875225
3	0xbdbf505f	-0.093415014
4	0xb1e5de8c	-6.690078e-09
5	0xbd49f2a2	-0.04930366
6	0x3d72b311	0.059252802
7	0x3e110217	0.14160953
8	0xbe0ad6e2	-0.13558534
9	0x3bde8377	0.006790574
10	0x3e0e78e6	0.13913307
11	0xbd401e06	-0.046903633
12	0xbd75731f	-0.05992424
13	0xbc33674f	-0.010949924
14	0x3e0e809d	0.1391625
15	0x3e155b1d	0.14585538

weight f4 [128, 16]
0	0xbe787da9	-0.24266686
1	0x3e4994fe	0.19685742
2	0x3e3253c3	0.17414765
3	0xbdd3c8eb	-0.103410564
4	0x3625b94e	2.4694777e-06
5	0x3dd82cba	0.10555406
6	0xbd9d9294	-0.07693973
7	0xbc9fe01c	-0.019516043
8	0x3e2afaac	0.16697186
9	0x3e7ee374	0.24891454
10	0xbde72ba2	-0.11287619
11	0x3e064b1a	0.13114586
12	0x3597654c	1.1279858e-06
13	0xbe12db6d	-0.14341517
14	0x3c664308	0.014054067
15	0x3e26275d	0.16225953
16	0x3df2f766	0.11863594
17	0xbc58f7c7	-0.0132426685
18	0xbd175b43	-0.03695227
19	0x3e32c80f	0.17459129
20	0x9dc9da10	-5.342973e-21
21	0x3d21326f	0.039354738
22	0x3d955dc4	0.07293275
23	0x3dc0b31e	0.09409164
24	0xbd57f17f	-0.052720543
25	0xbe09f1df	-0.13471173
26	0x3d33624d	0.04379492
27	0x3d78f89a	0.06078396
28	0x38162aed	3.5802765e-05
29	0xbca41008	-0.020027176
30	0x3c125c59	0.00893315
31	0x3dcbd172	0.09952058
32	0xbe09058c	-0.13381022
33	0x3ca9f2ab	0.020745596
34	0xbb9017c5	-0.004397365
35	0xbdaeed53	-0.0854136
36	0xb53781b3	-6.836155e-07
37	0x3e84dbd8	0.25948977
38	0x3e897adc	0.26851547
39	0xbe77e8bf	-0.2420988
40	0x3e52cb84	0.20585448
41	0x3ea00a50	0.31257868
42	0xbcef1bc0	-0.029188037
43	0xbdc2e3c6	-0.095161006
44	0xb1f0a050	-7.0031447e-09
45	0xbb29161c	-0.0025800532
46	0xbe8e5a1a	-0.27803117
47	0xbe17a445	-0.14808758
48	0x1732e9c6	5.7809966e-25
49	0x977ddf9a	-8.2030934e-25
50	0x29cdf979	9.1471054e-14
51	0x2344ee62	1.0675661e-17
52	0x16db025a	3.5382842e-25
53	0xa4649536	-4.9566006e-17
54	0xb4a9b1cf	-3.1608076e-07
55	0x976a0226	-7.561219e-25
56	0x94f8eecc	-2.513579e-26
57	0x9a298aa2	-3.5060368e-23
58	0xb532bdb4	-6.658622e-07
59	0x1bddb6bc	3.6679472e-22
60	0x19911457	1.5000864e-23
61	0x1f824b43	5.518165e-20
62	0x17658498	7.416125e-25
63	0x2dbf0520	2.1716462e-11
64	0xbd01efe5	-0.031722922
65	0x3e1b6cdd	0.15178247
66	0x3e105d32	0.14098051
67	0xbe49accb	-0.19694822
68	0x188b586d	3.6019945e-24
69	0x3db9b7a0	0.09068227
70	0x3ed02e4c	0.40660322
71	0x3de07a5b	0.109608375
72	0x3e88b7e0	0.26702785
73	0xbd26bba9	-0.04070631
74	0xbe3600de	-0.17773768
75	0xbd8422ab	-0.06451925
76	0xb151af30	-3.0513085e-09
77	0xbc63793c	-0.013883885
78	0xbe051211	-0.12995173
79	0xbe47ac60	-0.1949935
80	0x3d34ff1b	0.0441886
81	0xbd94745b	-0.072487555
82	0xbac62b97	-0.0015119192
83	0x3ef06f68	0.46959996
84	0x988a0a66	-3.5682664e-24
85	0x3ea45355	0.32094827
86	0x3ea7610a	0.32691222
87	0x3e956c01	0.29183963
88	0x3c2dc9c2	0.010607185
89	0xbea61f45	-0.32445732
90	0xbc07a38c	-0.008278739
91	0x3eb9d71a	0.36296922
92	0x37b30aa9	2.1343427e-05
93	0x3d9e37ea	0.077255085
94	0x3e386049	0.1800548
95	0xbdb31ea5	-0.08746079
96	0xaf12443f	-1.3302869e-10
97	0xa4d9d912	-9.447648e-17
98	0xad231c82	-9.271807e-12
99	0xa2969f72	-4.08264e-18
100	0x29cb521b	9.029254e-14
101	0x9dbaeb47	-4.947706e-21
102	0xb3aff953	-8.194424e-08
103	0x19ecb411	2.4474556e-23
104	0xa065ce8b	-1.9465394e-19
105	0x1a28f6a6	3.4940827e-23
106	0x18d8d93c	5.6054042e-24
107	0xa08b0493	-2.3550543e-19
108	0x9aecab82	-9.78844e-23
109	0x995c3d75	-1.13861446e-23
110	0x169a82c4	2.4962567e-25
111	0x9f0a58e9	-2.929618e-20
112	0x3ea47fff	0.32128903
113	0x3e55b2e3	0.20869021
114	0xbd0abbf7	-0.033870663
115	0x3e9ce1e3	0.30641088
116	0x2278246d	3.362955e-18
117	0x3dbc8631	0.092052825
118	0xbd886653	-0.06660142
119	0x3de336d6	0.110944435
120	0xbcce0917	-0.025150819
121	0x3db08e3f	0.08620881
122	0x3d1525f4	0.036413148
123	0x3e978e83	0.29600915
124	0x2f2ee0dd	1.5905095e-10
125	0x3d277f99	0.04089317
126	0x3d12bf84	0.035827175
127	0xbc04f254	-0.008114416
128	0xbdc3c36e	-0.0955876
129	0x3dbef998	0.0932495
130	0x3e227e81	0.1586857
131	0xbeb4ae63	-0.35289297
132	0xa001e505	-1.1002501e-19
133	0x3e1cd0fb	0.15314095
134	0x3e60f6bf	0.21969126
135	0x3cdde83b	0.027088275
136	0x3e7dbb4a	0.24778476
137	0x3e8c8121	0.27442268
138	0x3e2ba5d4	0.16762477
139	0x3de0b8ad	0.10972724
140	0x3137174b	2.6643245e-09
141	0x3e869839	0.26288012
142	0xbead1ab0	-0.33809423
143	0xbe597159	-0.21234645
144	0x16f9386e	4.0263732e-25
145	0xaf3421d8	-1.6382928e-10
146	0x9c4ec5f9	-6.8415556e-22
147	0xa3016b28	-7.015795e-18
148	0x9e4bca1f	-1.0788528e-20
149	0xb59108c5	-1.0805894e-06
150	0x215de20d	7.517689e-19
151	0x96f09c0c	-3.887257e-25
152	0x13871bdc	3.4106263e-27
153	0xa9be6c27	-8.4564564e-14
154	0x962e57c7	-1.4083306e-25
155	0x96cb8a46	-3.2883682e-25
156	0x14fa7b2f	2.5292136e-26
157	0x98d5892c	-5.5197718e-24
158	0x1a3e0b8d	3.930041e-23
159	0x24b13152	7.6845066e-17
160	0x3e7f8b7f	0.24955557
161	0xbdde1a8b	-0.108449064
162	0xbe1b3a62	-0.1515899
163	0x3ba4ad9d	0.005025579
164	0x1f08f618	2.9002684e-20
165	0x3e58e0b6	0.2117947
166	0x3e5b2aaa	0.21402994
167	0x3d422cd3	0.04740603
168	0x3e29b258	0.16571939
169	0x3e267af8	0.16257846
170	0xbe598652	-0.21242645
171	0xbea30c14	-0.31845152
172	0xb946ddab	-0.00018965329
173	0xbe1adce2	-0.15123323
174	0xbeaed501	-0.34146884
175	0xbdcc3be5	-0.099723615
176	0x3e280409	0.1640779
177	0x3e49ed56	0.19719443
178	0xbe12e587	-0.1434537
179	0xbe35e566	-0.1776329
180	0x2ea162e0	7.338996e-11
181	0xbe0ed37b	-0.13947861
182	0xbd32cac0	-0.04365039
183	0xbe987953	-0.29780063
184	0x3eb9547a	0.36197263
185	0x3eabd917	0.33564064
186	0xbe11fbb0	-0.14256167
187	0xbe36fa4a	-0.17868915
188	0xb9205a81	-0.00015292504
189	0xbd9cf072	-0.07663049
190	0xbd8b9592	-0.06815638
191	0x3dd7f36b	0.10544475
192	0x3e56e7cd	0.20986862
193	0x3d39663e	0.04526352
194	0xbe5c78b8	-0.21530426
195	0x3e0d63ef	0.13807653
196	0x9ca4f4e8	-1.0915916e-21
197	0x3ccb97be	0.02485263
198	0x3d912112	0.07086386
199	0xbe104fc1	-0.14092924
200	0x3ddec328	0.10877067
201	0x3ddcb6b2	0.10777034
202	0xbceffcd8	-0.02929537
203	0xbc8686c2	-0.01642168
204	0xb2de7e4f	-2.590164e-08
205	0x3e4853fc	0.19563287
206	0x3d6d5d87	0.057950523
207	0xbe7ef111	-0.24896647
208	0x3d671c34	0.05642338
209	0x3e4a9497	0.19783245
210	0x3d9c3e51	0.076290734
211	0x3d579ff1	0.052642766
212	0x296f1bb2	5.3092682e-14
213	0xbdd0d910	-0.101976514
214	0x3e87e8e4	0.2654487
215	0xbe79ab56	-0.24381766
216	0x3d542a02	0.051797874
217	0x3dc4c108	0.0960713
218	0xbe5a3aed	-0.21311541
219	0xbe754cb0	-0.23955035
220	0x321f36b6	9.267458e-09
221	0xbdc08438	-0.09400219
222	0x3db73dc7	0.0894733
223	0x3dd829d1	0.10554851
224	0x1f8ea08a	6.040493e-20
225	0x99517d9f	-1.0830416e-23
226	0xa1cd53ef	-1.3913557e-18
227	0xadd3ae10	-2.4065222e-11
228	0xafa104f4	-2.928925e-10
229	0x992e7ef9	-9.021231e-24
230	0xa5a8c7e6	-2.927881e-16
231	0xa0827a1e	-2.2103667e-19
232	0x27182bfb	2.111808e-15
233	0x1dd5a2b0	5.6548845e-21
234	0x1866da26	2.983694e-24
235	0xb514e82f	-5.547217e-07
236	0xb391c566	-6.787995e-08
237	0x9f8f7452	-6.075529e-20
238	0x16724d51	1.9573001e-25
239	0x99bef0c7	-1.9742789e-23
240	0x3eb24cb6	0.3482415
241	0x3dbc5f2b	0.09197839
242	0xbdea4290	-0.11438477
243	0x3e90c24d	0.2827324
244	0x197ef6b8	1.3181317e-23
245	0x3e68039b	0.22657625
246	0x3dd0d507	0.10196882
247	0xbdc75ebd	-0.09734867
248	0xbd116515	-0.03549679
249	0xbc9e9ae6	-0.01936097
250	0xbe3410de	-0.1758456
251	0x3dfb149a	0.12259789
252	0xb55296ef	-7.8450734e-07
253	0xbd6be9a5	-0.057595868
254	0x3e417fca	0.18896404
255	0xbe7f6253	-0.24939851

bias f4 [128]
0	0xbda8e6c5	-0.08247141
1	0xbd34d1f8	-0.044145554
2	0x3d4474e5	0.04796304
3	0xb410c9ac	-1.3484413e-07
4	0xbd87fcdc	-0.06640026
5	0x3e31cc78	0.17363155
6	0xac95c846	-4.2570695e-12
7	0x3e06a560	0.13149023
8	0xbaacfbc8	-0.0013197595
9	0x9f90c982	-6.131974e-20
10	0x3d9f412a	0.07776101
11	0x3cea934b	0.028634688
12	0xbb5fa0fe	-0.0034123058
13	0xbe3860e9	-0.18005718
14	0x21b0d5c2	1.1982805e-18
15	0xbc9e47f5	-0.019321421
16	0x3e8f3d87	0.2797663
17	0xb5a70d03	-1.2446257e-06
18	0xbd097668	-0.033560187
19	0x3e5b00e5	0.2138706
20	0xbc65ea11	-0.014032857
21	0x3e6b63d9	0.22987308
22	0x3e37c2c9	0.17945398
23	0x3dfdffb2	0.12402286
24	0x3d9dfbd4	0.07714048
25	0xbc98fe7d	-0.018676037
26	0x3e114933	0.1418808
27	0xbce54506	-0.027987015
28	0xbe1dc70d	-0.15407963
29	0x3b19aaf0	0.0023447834
30	0x3d1e105a	0.038589813
31	0xbde96ca8	-0.11397678
32	0x3da01d75	0.078181185
33	0x3dae9c2e	0.08525883
34	0xbdd9c92e	-0.10634075
35	0xbd56d5aa	-0.05244986
36	0xbe0e52cc	-0.13898772
37	0x3e8d8343	0.27639207
38	0x3d381d2c	0.044949695
39	0xbde98f65	-0.114043035
40	0x3e7ef709	0.24898924
41	0xbcdeb939	-0.02718793
42	0x3d60c767	0.054877665
43	0x3dda7cf6	0.10668366
44	0x3ce2d70a	0.02769043
45	0x3dd9c67b	0.1063356
46	0x3dba7064	0.09103468
47	0xbe146663	-0.14492182
48	0x3de7ba55	0.11314837
49	0x3e1f4ac4	0.15555865
50	0x3e8115a7	0.25211832
51	0xbdaea373	-0.08527269
52	0x3e3dbbd1	0.18528678
53	0x3de3f8f8	0.111314714
54	0xbe09b2f5	-0.13447173
55	0x3e4ef050	0.2020886
56	0xa011cb63	-1.2349273e-19
57	0xbdfd9c33	-0.12383308
58	0x3e4745ff	0.19460295
59	0x3ea24ef4	0.3170086
60	0xb5d8b425	-1.6145683e-06
61	0x3e4b2ffb	0.19842522
62	0x3dd0607e	0.101746544
63	0xbe315703	-0.17318349
64	0xbe5d373a	-0.21603099
65	0xbd688890	-0.05677086
66	0xbda05638	-0.07828945
67	0x29d813b3	9.595744e-14
68	0x3e406065	0.18786772
69	0xbcc53f17	-0.024077935
70	0x9df7f2f0	-6.5631547e-21
71	0x3cf6d106	0.030128967
72	0x3e068fa7	0.13140737
73	0x3de359fc	0.111011475
74	0x3e8b046c	0.2715181
75	0xbbeb6984	-0.0071842093
76	0x3c2976c9	0.010343262
77	0xbd1d3ba2	-0.03838695
78	0x3e20fc79	0.1572131
79	0xbe8081f8	-0.25099158
80	0x194db941	1.0635663e-23
81	0xbd34cfaf	-0.044143375
82	0x3d60073c	0.0546944
83	0x3b0cd495	0.0021489013
84	0x3d62c29b	0.05536137
85	0x3e32a4ce	0.1744568
86	0x3ce47877	0.027889473
87	0x1db1e8d4	4.709225e-21
88	0x3e059dac	0.13048428
89	0xbdde9844	-0.10868886
90	0x3e57b799	0.2106613
91	0x3d1a0c4b	0.03760938
92	0x3e256b21	0.16154148
93	0xbc8c610d	-0.017136121
94	0x3d4e820a	0.050416984
95	0xbe1d6dbd	-0.15373893
96	0x3e364fbc	0.17803854
97	0x3e94708b	0.28992113
98	0xbd01f684	-0.031729236
99	0x3eb2eb9b	0.34945378
100	0x3cf1dc9a	0.029524136
101	0x3d06b945	0.03289153
102	0xbd05e0bd	-0.03268503
103	0x3e993d75	0.299297
104	0xb420ab81	-1.4963554e-07
105	0x3e00b76c	0.1256997
106	0x3d9a72f6	0.07541458
107	0x304161ff	7.035225e-10
108	0x3e4c575b	0.19955198
109	0xbc4bea59	-0.01244601
110	0x3c3bce72	0.011462795
111	0x3e1ed876	0.15512261
112	0x3d0d850d	0.034550715
113	0xbd92c2b6	-0.071660444
114	0x3e93604a	0.287844
115	0x3e156971	0.14591004
116	0xbdeb5712	-0.11491217
117	0xbd9712dd	-0.07376645
118	0xa931d85e	-3.9489564e-14
119	0x3dd534d9	0.104104705
120	0xbe3268ee	-0.1742284
121	0x3e698563	0.22804789
122	0x3da10239	0.07861752
123	0x3e20e0ea	0.15710798
124	0x3c3e1768	0.01160226
125	0xbe379828	-0.17929137
126	0x3e5d4322	0.2160764
127	0x3d434f17	0.047682848

weight f4 [64, 128]
0	0xbab19184	-0.0013547395
1	0x3c81e148	0.015854493
2	0x3d3b001f	0.045654412
3	0x182ab6c8	2.2064266e-24
4	0x3e1ab448	0.15107834
5	0x3d875872	0.066086665
6	0x17c71b6d	1.2866997e-24
7	0x3d673fe2	0.056457408
8	0xbd9956b2	-0.07487239
9	0x94f894a3	-2.5100227e-26
10	0x3df3784b	0.118881784
11	0xbc746234	-0.014915992
12	0x3db6a192	0.08917536
13	0x3d6e8b44	0.058238283
14	0x948e04a4	-1.4340166e-26
15	0x3ce3ac8a	0.027792234
16	0xbd7680f8	-0.060181588
17	0x97f4c413	-1.5817627e-24
18	0x3d1a83b6	0.037723266
19	0x3d61379f	0.054984685
20	0xbd14d5cb	-0.0363367
21	0xbd3e5dc9	-0.04647616
22	0x3d61297d	0.054971207
23	0x3d345a37	0.044031348
24	0x3d68085a	0.05664859
25	0x3c04c04d	0.008102489
26	0x3dc78573	0.0974225
27	0xbd81653c	-0.06318137
28	0x3d10f04b	0.03538541
29	0x3dc51ab8	0.09624237
30	0x3e71f93b	0.2363023
31	0x3e04b6be	0.12960336
32	0xbd8feda4	-0.07027748
33	0xbd1e69ba	-0.038675047
34	0x3d52642c	0.051365063
35	0xbd59c3ae	-0.05316513
36	0xbd7b8932	-0.061410137
37	0x3c77b028	0.0151176825
38	0xbc39c0a6	-0.011337435
39	0xbd35414c	-0.044251725
40	0xbd27c7f4	-0.040962175
41	0xbd378257	-0.044802036
42	0x3d80bd9e	0.062861666
43	0xbe1dfeb8	-0.15429199
44	0xbe0052f0	-0.12531638
45	0xbd1929ca	-0.03739337
46	0x3e323404	0.17402655
47	0x3cdc3322	0.02687985
48	0xbd460034	-0.048340037
49	0x3cd5b059	0.026085066
50	0xbc152b8a	-0.009104619
51	0xbd0db198	-0.034593195
52	0x3b550215	0.0032502462
53	0x3e329372	0.17439058
54	0x3cc14a96	0.023595136
55	0x3c93acc0	0.01802671
56	0x988a00eb	-3.567309e-24
57	0xbeaaad34	-0.33335268
58	0x3d4ed0f2	0.050492235
59	0xbd05e644	-0.0326903
60	0x2820e569	8.93153e-15
61	0x3d35e722	0.04440988
62	0xbc72c5db	-0.01481768
63	0xbdf78d6a	-0.120875195
64	0x3db10296	0.08643071
65	0x3db0e0b3	0.08636608
66	0xbd57d4b9	-0.052693103
67	0x986bd8e7	-3.0482546e-24
68	0x3d474111	0.048646037
69	0x3cf424b0	0.02980265
70	0x96fff876	-4.1354273e-25
71	0x3db8731e	0.09006332
72	0x3de746fa	0.112928346
73	0xbe2f488e	-0.17117521
74	0x3a3b2e38	0.0007140371
75	0x3d5cbc41	0.05389047
76	0x3df27f9a	0.11840744
77	0xbe20c503	-0.15700154
78	0x3dd68ef7	0.10476487
79	0x3c211aaa	0.009833017
80	0x978bf47b	-9.04438e-25
81	0x3cd13988	0.025540128
82	0x3da54e08	0.08071524
83	0xbcb10e2a	-0.0216132
84	0x3c48d279	0.012257212
85	0x3d1e7478	0.038685292
86	0x3de6ac1c	0.11263296
87	0x96b7d09e	-2.96969e-25
88	0x3cce6091	0.02519253
89	0x3e084cf3	0.13310604
90	0xbd7cf059	-0.06175265
91	0x3e2a755c	0.16646332
92	0x3db493ba	0.08817239
93	0x3ca8467a	0.020541418
94	0x3e2a9f8d	0.16662426
95	0x3dfe44d2	0.1241547
96	0x3d97c32e	0.074102744
97	0x3d0a9b77	0.03383967
98	0xbd71c3fd	-0.0590248
99	0xbdec6c2f	-0.11544072
100	0xbddcdb20	-0.10783982
101	0xbd5d3bd7	-0.054012146
102	0x3df2563d	0.11832855
103	0xbe0d7645	-0.13814647
104	0x1a8ac9b5	5.740134e-23
105	0xbdd6da31	-0.104908355
106	0x3dfd13c9	0.12357289
107	0xb1b8d302	-5.3790936e-09
108	0xbcde448e	-0.027132299
109	0xbdb84c2f	-0.08998906
110	0x3de73467	0.11289292
111	0xbe03afbb	-0.12860005
112	0xbbe18a34	-0.00688293
113	0xbc73ef2a	-0.014888564
114	0xbd988566	-0.07447319
115	0x3de5ffb6	0.112304136
116	0x3dbf668b	0.093457304
117	0xbd426c97	-0.04746684
118	0x177908a0	8.0467126e-25
119	0xbdd9c4a8	-0.10633212
120	0x3d32959c	0.04359971
121	0x3da8461b	0.082164966
122	0x3b35a74d	0.0027718127
123	0x3d605840	0.05477166
124	0x3d4c7141	0.049912695
125	0x3ddbf67b	0.10740372
126	0x3d5c9b0c	0.0538588
127	0xbdcbaf48	-0.099455416
128	0xbdb3bd9a	-0.08776398
129	0x3d83284b	0.0640417
130	0x3d36ed99	0.044660185
131	0x16cf0704	3.344708e-25
132	0x3c8fcd12	0.01755384
133	0x3ce73dfa	0.028227795
134	0x9456b4bc	-1.08398825e-26
135	0x3de44802	0.11146547
136	0xbd6b9a58	-0.05752024
137	0x98537ec5	-2.7335113e-24
138	0x3cdcad9e	0.026938256
139	0xbd9ed49b	-0.07755395
140	0x3de6a456	0.11261813
141	0xbbe0b5f3	-0.0068576275
142	0x14d0abb4	2.1070358e-26
143	0x3e4be4a7	0.19911443
144	0x3dced592	0.10099329
145	0x96557be9	-1.7245102e-25
146	0x3df4f608	0.11960989
147	0x3baa6b7e	0.0052008023
148	0xbdd08553	-0.101816796
149	0xbe1b601f	-0.15173386
150	0x3d006f55	0.031356174
151	0x3d976385	0.07392029
152	0x3e8a4a9a	0.2701004
153	0x3c416469	0.011803725
154	0x3d85544e	0.065102205
155	0xbd577daa	-0.052610077
156	0xbd3bd4e7	-0.045857336
157	0x3dc5e06c	0.09661946
158	0x3e175806	0.14779672
159	0x3dceffe0	0.10107398
160	0xbdf7f49e	-0.12107204
161	0xbd072b88	-0.0330005
162	0x3dd85908	0.10563856
163	0xbddad197	-0.10684507
164	0xbdcd7118	-0.100313365
165	0x3d7a5306	0.061114334
166	0xbc5c0fdf	-0.013431518
167	0xbd354a98	-0.04426059
168	0xbd4d6d97	-0.05015334
169	0xbe49602a	-0.1966559
170	0x3e399c99	0.18126144
171	0xbe26e457	-0.16298042
172	0xbe395c64	-0.1810165
173	0xbdab2721	-0.083570726
174	0x3d6b7b31	0.05749053
175	0x3d8185b9	0.06324334
176	0xbdae2d30	-0.085047126
177	0x3d00d4ba	0.03145287
178	0xbe217a7b	-0.15769379
179	0xbe1aa22c	-0.15100926
180	0x3de0af29	0.10970909
181	0x3da1d487	0.079018645
182	0xbd6aa5d9	-0.05728707
183	0xbd0e6f34	-0.03477402
184	0x1a680154	4.7977548e-23
185	0xbecaba18	-0.39595103
186	0x3e06fef5	0.13183196
187	0xbe06e78c	-0.13174266
188	0x26364b4a	6.324597e-16
189	0x3d2bc692	0.04193742
190	0xbd3ce7f7	-0.046119656
191	0xbdcccc88	-0.09999949
192	0x3c51bfa6	0.01280204
193	0x3e27846e	0.16359112
194	0xbd091b9e	-0.033473603
195	0x175d2396	7.1453867e-25
196	0xbd137264	-0.035997763
197	0xbc82b924	-0.015957423
198	0x17559b37	6.901992e-25
199	0x3d61025d	0.054933894
200	0x3d31d580	0.0434165
201	0xbe1d75f8	-0.15377033
202	0x3d3ed258	0.04658732
203	0x3e061d29	0.13097061
204	0xbc50663c	-0.012719687
205	0xbe828dea	-0.25498897
206	0x3d078133	0.0330822
207	0xbd899031	-0.067169555
208	0x16b46e6d	2.9150257e-25
209	0xbd52bddc	-0.051450595
210	0x3e1b1ac7	0.15146933
211	0x3d5bcae6	0.053660296
212	0x3cd1a46b	0.025591096
213	0x3e853c4d	0.26022568
214	0x3dcbe675	0.099560656
215	0x196d892d	1.2280315e-23
216	0x3d250ab5	0.040293414
217	0x3da90a58	0.08253926
218	0x3c6ee11e	0.014580039
219	0x3dd75e90	0.10516083
220	0x3bd6e2ac	0.006557783
221	0x3c4a4429	0.012345352
222	0x3c92b999	0.017910765
223	0x3d370577	0.044682946
224	0x3e06528f	0.13117431
225	0xbd84d5b4	-0.06486073
226	0xbd4dbbcf	-0.050227936
227	0xbd9ed056	-0.07754581
228	0xbe6a0497	-0.22853313
229	0xbe4e0a5b	-0.20121138
230	0x3e334551	0.17506911
231	0x3ddc4e7b	0.107571565
232	0x18284448	2.1747964e-24
233	0xbe4e5cf3	-0.20152645
234	0x3cfb0ee6	0.030646753
235	0xaff3a7d0	-4.432068e-10
236	0xbe35b7f2	-0.17745951
237	0xbd95a041	-0.07305957
238	0x3d545ccc	0.05184631
239	0xbdb08a3a	-0.086201146
240	0x3c51bc9c	0.012801316
241	0xbe091b22	-0.13389257
242	0xbd39fbc6	-0.045406125
243	0x3d9b1071	0.07571495
244	0x3dc394e9	0.09549887
245	0xbda96da8	-0.082728684
246	0x174542f8	6.373866e-25
247	0xbd2e5643	-0.042562734
248	0xbc6d4e14	-0.014483947
249	0x3b62f78c	0.0034632413
250	0x3ba5dc30	0.005061649
251	0xbda04756	-0.07826106
252	0xbd029be6	-0.031886958
253	0x3c739988	0.014868148
254	0x3e281475	0.16414054
255	0xbe31286b	-0.17300574

bias f4 [64]
0	0xbdc4f2d6	-0.0961663
1	0x3db5ac80	0.088707924
2	0x3d3a0c8b	0.04542212
3	0xbdee7d05	-0.11644939
4	0xbc1bea95	-0.009516378
5	0x3d80695c	0.06270096
6	0xbd04d111	-0.032425944
7	0xbb5317ae	-0.003221016
8	0x3da36318	0.07977885
9	0x3d3e7447	0.04649761
10	0x3d6cca98	0.057810396
11	0x3da004fa	0.07813449
12	0x3b1eddc1	0.0024241062
13	0x3dc268b4	0.09492627
14	0xb84381e6	-4.66126e-05
15	0x3d85482c	0.06507906
16	0x3d87ecf2	0.066369906
17	0xbc5bd67a	-0.013417834
18	0xbbab4aa1	-0.0052274023
19	0x3d4945ab	0.049138706
20	0x3e0e0fa7	0.13873158
21	0x3b3e05c5	0.0028995138
22	0x3d8640c3	0.06555321
23	0x3d5d99dd	0.054101814
24	0x3c868bbc	0.016424052
25	0xba9294cc	-0.0011183261
26	0x3cfd2986	0.030903589
27	0x3d577b08	0.052607566
28	0x3e3d3a05	0.18479164
29	0x3dc2eacb	0.095174395
30	0xbd55712b	-0.05210988
31	0xbdaa7184	-0.08322433
32	0x3c9f1d78	0.019423231
33	0xbc5a0461	-0.013306708
34	0x3bdef74a	0.0068043815
35	0x3ce223a3	0.027604884
36	0x3d6e75ca	0.0582178
37	0x3a924c26	0.001116161
38	0xbcf35733	-0.029704666
39	0x3d9f72fc	0.077856034
40	0xbd09cabd	-0.033640612
41	0xbca48f32	-0.020087812
42	0xbc143035	-0.009044697
43	0xbdaeea87	-0.08540826
44	0x3d5b09ac	0.05347602
45	0xbb91f2a5	-0.0044539743
46	0x3e348a9c	0.17631
47	0xbc3abe9f	-0.011397987
48	0x3e0ec8ae	0.1394374
49	0x3de0663c	0.10957
50	0x3db1034a	0.086432055
51	0x3bbc3022	0.0057430426
52	0xbc150c34	-0.009097148
53	0x3c74eb10	0.014948621
54	0xbc4fd858	-0.012685858
55	0x3c8cbe92	0.017180715
56	0xbc7c00b3	-0.015381026
57	0x3d33d71e	0.043906324
58	0x3de12582	0.10993482
59	0xbb242d31	-0.002505135
60	0xbc9621fd	-0.018326754
61	0x3d814b7d	0.06313226
62	0x3e0faccc	0.1403076
63	0xbd266316	-0.04062184

weight f4 [10, 64]
0	0xbd9e8420	-0.077400446
1	0x3c94e2e7	0.018174602
2	0x3ce94f0b	0.028480073
3	0xbe120d51	-0.14262892
4	0x3a5f700d	0.0008523472
5	0xbda19ee4	-0.07891634
6	0x194d0eb2	1.0601219e-23
7	0x1d9da391	4.1726678e-21
8	0x3cbf1ade	0.023328241
9	0xbdc17a73	-0.094471835
10	0xbcf60f7b	-0.030036679
11	0xbe3a63b8	-0.18202102
12	0x9e0d2481	-7.472027e-21
13	0x3dab7804	0.083725005
14	0x99930e59	-1.5205239e-23
15	0x3d69ba91	0.05706269
16	0xbdf0f75c	-0.1176593
17	0x1990d1fd	1.4974065e-23
18	0xaf9abbd5	-2.81459e-10
19	0x3dc400aa	0.09570439
20	0x3c4ef0d0	0.012630656
21	0x3d4f27f1	0.0505752
22	0x3db7612b	0.0895408
23	0x3da312db	0.07962581
24	0xbc1cf801	-0.009580613
25	0xbd8ab7e2	-0.06773354
26	0x3d5e7c87	0.054317977
27	0x3df1af72	0.11801042
28	0x3dce5fb4	0.10076848
29	0xbb32ee41	-0.0027302655
30	0x1dbfdd91	5.0786373e-21
31	0xbe1a0cad	-0.15043898
32	0x3b6ec32b	0.0036432247
33	0xbd9b50bd	-0.07583759
34	0xa5e3a17a	-3.9487644e-16
35	0x3d3ee51a	0.046605207
36	0x3d63db1a	0.055628873
37	0x3cde4b6f	0.027135579
38	0xbbbe07bb	-0.0057992614
39	0x3d4ca52a	0.0499622
40	0x3dd2ec6c	0.10299
41	0x3d3269c6	0.043557905
42	0xbc7971af	-0.015224858
43	0xbda94459	-0.082649894
44	0xbdb0944e	-0.08622037
45	0x1924e400	8.5246455e-24
46	0x3d4c49b5	0.04987498
47	0xbd666e95	-0.056257803
48	0x3e2a8e6f	0.16655897
49	0x3e1f6dcb	0.15569226
50	0xbe9cd29e	-0.30629438
51	0x3dc2caeb	0.0951136
52	0xbd030027	-0.031982567
53	0xbd394ad0	-0.045237362
54	0xaa074960	-1.2015866e-13
55	0xbdb0b0bd	-0.0862746
56	0x3ab4d6ad	0.0013796889
57	0x3e3efe8b	0.18651788
58	0xbd02d79a	-0.031943895
59	0x979e5980	-1.0233104e-24
60	0x3c7d2a83	0.01545203
61	0xbe779436	-0.24177632
62	0x3de00f5a	0.10940428
63	0x2aabaa99	3.0494078e-13
64	0x3c7d101f	0.015445738
65	0xbe18cfca	-0.14923015
66	0xbdba7523	-0.09104373
67	0xbbf81f7a	-0.0075721117
68	0x3e3fb5da	0.18721715
69	0x3dddc03f	0.10827684
70	0x98ebf8a6	-6.0997147e-24
71	0xa3908842	-1.5670219e-17
72	0xbdb6edd4	-0.08932081
73	0x3e5dce76	0.2166079
74	0xbd06f304	-0.0329466
75	0x3e03c5bd	0.128684
76	0x2004bce1	1.124333e-19
77	0x3df91940	0.12163019
78	0x9a8263e5	-5.392813e-23
79	0xbd887ff5	-0.06665031
80	0x3c8829c9	0.016621487
81	0xb10c91c5	-2.0455542e-09
82	0x27886933	3.786164e-15
83	0xbe84ec7e	-0.2596168
84	0xbeb58d9f	-0.3545961
85	0x3d12bc98	0.03582439
86	0x3d08bce8	0.03338328
87	0xbd95d270	-0.073155284
88	0x3c2723f8	0.010201447
89	0xbd9de827	-0.07710295
90	0xbe3095d1	-0.1724465
91	0xbd051633	-0.032491874
92	0xbea5be02	-0.32371527
93	0xbeb31a59	-0.3498104
94	0x199f96fe	1.65012e-23
95	0xbe832ba2	-0.25619227
96	0x3cbb938e	0.022897508
97	0xbcf221c5	-0.029557118
98	0x2354d360	1.15373034e-17
99	0x3e596f38	0.21233833
100	0x3d97a1a0	0.074038744
101	0xbe124020	-0.14282274
102	0xbc800c7d	-0.015630955
103	0x3ea27084	0.31726468
104	0xbe5d0a5e	-0.21585986
105	0xbd235741	-0.039878134
106	0x3c4b0405	0.012391095
107	0xbd977df7	-0.07397073
108	0x3defba9f	0.11705517
109	0x987b950b	-3.2516237e-24
110	0x3e3f0816	0.18655428
111	0xbc13efd0	-0.009029344
112	0xbe8ce1ce	-0.27516025
113	0xbe33d22a	-0.1756064
114	0x3e017016	0.12640414
115	0xbdb68025	-0.089111604
116	0xbeb1214b	-0.34595713
117	0xbe88da49	-0.26729038
118	0xa588210c	-2.3614633e-16
119	0x3e1460ba	0.14490023
120	0xbb252054	-0.002519627
121	0xbe4768bf	-0.19473551
122	0xbefa2486	-0.4885599
123	0x9a29ca07	-3.5111577e-23
124	0xbc81f1d8	-0.01586239
125	0x3ccbc1dd	0.024872715
126	0x3e307aa6	0.17234287
127	0xa08629f4	-2.2728245e-19
128	0xbe4cbf7b	-0.19994919
129	0x3ce2e348	0.027696267
130	0xbe6b6d0d	-0.22990818
131	0xbe85d7f9	-0.26141337
132	0x3bef456b	0.0073019764
133	0x3d775dac	0.060392067
134	0x1ad14c20	8.656336e-23
135	0x1e0fd5df	7.6145845e-21
136	0x3d8710ea	0.06595023
137	0x3cbea342	0.023271207
138	0xbcbb6b25	-0.022878239
139	0x3e0e327a	0.13886443
140	0x18aae658	4.4176558e-24
141	0x3e22db22	0.15903905
142	0x9fe3a400	-9.6409555e-20
143	0xbd9d0ffb	-0.07669064
144	0xbd911de2	-0.07085778
145	0x98abb1da	-4.438205e-24
146	0x29402679	4.2665934e-14
147	0x3dccb678	0.09995741
148	0x3df56c14	0.11983505
149	0xbbd321ce	-0.006443239
150	0x3dea5575	0.11442081
151	0x3c6690fc	0.014072653
152	0x3c534d0f	0.01289679
153	0x3d1f6000	0.038909912
154	0xbe7ee47b	-0.24891846
155	0xbe7fd050	-0.24981809
156	0x3d34dad1	0.044153992
157	0x3e50f8da	0.2040743
158	0x1886ccae	3.484486e-24
159	0xbe0c9e19	-0.13732184
160	0x3cb2df89	0.021835105
161	0xbd7cd3b1	-0.061725322
162	0x9ffc6cfb	-1.06906444e-19
163	0x3d9d1fb3	0.07672062
164	0x3da23f55	0.07922236
165	0xbe703e0c	-0.23461169
166	0x3a328f3f	0.00068115065
167	0x3cbfe06c	0.023422442
168	0x3c96c8ed	0.018406356
169	0xbe470316	-0.19434771
170	0x3c1420ae	0.009040995
171	0xbe8a053c	-0.2695712
172	0x3de6031b	0.11231061
173	0xa186b9ec	-9.129406e-19
174	0x3dbccb4d	0.09218464
175	0xbda1a1b6	-0.07892172
176	0x3df3a3b0	0.11896455
177	0x3c441fe8	0.011970498
178	0x3e0eadf4	0.13933545
179	0xbdbc7edf	-0.09203886
180	0x3e0078b0	0.12546039
181	0x3ceb94c2	0.028757457
182	0x2b0038f5	4.555378e-13
183	0x3dbbcb6d	0.0916966
184	0xba90c370	-0.0011044573
185	0x3dd2c707	0.10291868
186	0x3e10f3bd	0.14155479
187	0x1e995594	1.62349e-20
188	0xbc8e70c9	-0.017387765
189	0xbe2bf81c	-0.16793865
190	0x3d97563c	0.07389495
191	0x26ad6033	1.2030361e-15
192	0xbd20b1cb	-0.039232057
193	0x3ce0f33a	0.02745973
194	0x3d735882	0.05941058
195	0xbd33e3e0	-0.04391849
196	0x3d8daee1	0.06918121
197	0xbdfcd4fd	-0.12345312
198	0x9919feaf	-7.9613475e-24
199	0xa291f634	-3.9563006e-18
200	0xbe0bc2e0	-0.13648558
201	0x3d894b2e	0.067037925
202	0xbc745be2	-0.014914485
203	0x3d05851b	0.032597642
204	0x9848b336	-2.5939873e-24
205	0x3e0ed44b	0.13948171
206	0x9f614a87	-4.770725e-20
207	0xbb48f4f4	-0.0030663582
208	0x3d9b9d63	0.075983785
209	0xa1998097	-1.0401721e-18
210	0x2e9f1d23	7.2356586e-11
211	0xbd904603	-0.07044604
212	0xbd2ba607	-0.041906383
213	0xbcb2f657	-0.02184598
214	0xbca6554d	-0.020304346
215	0xbd98eae6	-0.07466678
216	0xbbab138b	-0.0052208356
217	0x3e2031a0	0.1564393
218	0xbd063c79	-0.032772515
219	0xbd609c69	-0.054836664
220	0xbe0dc716	-0.13845477
221	0xbe2ef461	-0.1708541
222	0x1a644d78	4.7211874e-23
223	0x3d1940ae	0.0374152
224	0x3ce47417	0.027887387
225	0xbc7a33b4	-0.015271116
226	0x23dfc7e8	2.4262372e-17
227	0x3e36fbad	0.17869444
228	0xbce46034	-0.027877904
229	0x3c4085cf	0.011750652
230	0x3b8160a5	0.0039482885
231	0x3e1120b6	0.14172634
232	0xbd8c835a	-0.06860991
233	0x3d2e4172	0.042542882
234	0xbbc070d8	-0.005872827
235	0x3da5dbbe	0.08098553
236	0x3d50d96f	0.05098861
237	0x9d35482a	-2.3992458e-21
238	0xbd7bea0d	-0.061502505
239	0xbc4524c4	-0.012032691
240	0xbdbc2d07	-0.09188276
241	0x3d1cef28	0.038314015
242	0x3cdc41be	0.026886817
243	0x3c8a9600	0.016917229
244	0xbda81401	-0.082069404
245	0xbd806b39	-0.06270451
246	0xa17dceb0	-8.5993283e-19
247	0xbcfb1b96	-0.030652802
248	0xbc6c0243	-0.014404836
249	0xbe3b527c	-0.18293184
250	0xbdf6764f	-0.12034284
251	0x99c941eb	-2.0809537e-23
252	0x3c5ecb32	0.01359825
253	0xbcc089da	-0.023503233
254	0x3dc9130c	0.09818086
255	0x29a0b1a1	7.136241e-14

bias f4 [10]
0	0x3d1a326a	0.037645735
1	0x3d3e1dd0	0.04641515
2	0xbd69b5d4	-0.05705817
3	0x3dc07523	0.09397342
4	0x3aeb2c22	0.001794223
5	0xbdffcc3b	-0.12490126
6	0x3e08f650	0.13375211
7	0x3d64522a	0.05574242
8	0x3df3da2a	0.11906846
9	0xbd770f56	-0.06031736
