2-hypertuning-mlflow/mlruns/2/9f8d42a68c0340e4acbd1bdb25698d77/artifacts/pytorch_models/20250921-1134model.pt (torch, 96005 bytes, 12 tensors)

weight f4 [32, 1, 2, 2]
0	0xbd145c5c	-0.036220893
1	0x3e6cd8ed	0.23129626
2	0xbf46207f	-0.77393335
3	0xbed7009b	-0.4199265
4	0xbe72f89b	-0.23727648
5	0x3ee33bee	0.4438166
6	0x3f09d3b6	0.5383867
7	0xbeb68f62	-0.35656267
8	0x3e496ad2	0.19669655
9	0x3f039904	0.5140536
10	0x3f066fc8	0.52514315
11	0x3e03f3c7	0.12885962
12	0x3e3e4e16	0.18584475
13	0x3f0865e3	0.53280467
14	0x3e36d92c	0.17856282
15	0x3e8ef806	0.27923602
16	0xbf3aab79	-0.72917897
17	0xbeb66c1c	-0.35629356
18	0xbf4b8d9f	-0.7951297
19	0xbf45942f	-0.77179235
20	0xbf02d529	-0.51106507
21	0xbef110ef	-0.47083232
22	0xbd84618e	-0.064639196
23	0xbf2534be	-0.64533603
24	0xbe9680a6	-0.29395026
25	0xbe0256ea	-0.12728468
26	0x3e9a68a5	0.30157962
27	0x3eb998e1	0.3624945
28	0xbd022c9f	-0.031780835
29	0xbd5e03e4	-0.05420293
30	0xbec00a53	-0.37507877
31	0xbf4cb2ac	-0.7996013
32	0x3d4b6b5b	0.04966293
33	0x3e0df62c	0.13863438
34	0x3f0fe8c5	0.56214553
35	0x3eac5059	0.3365505
36	0xb96cc7eb	-0.00022581189
37	0xb7b46f26	-2.150943e-05
38	0xb74b7c9c	-1.2128756e-05
39	0xba35b798	-0.00069319597
40	0x3f0eb00e	0.5573739
41	0x3e90a10f	0.28247878
42	0xbcf9531c	-0.030435137
43	0x3e929bd4	0.28634512
44	0x3f121b5e	0.5707301
45	0x3ef0cbde	0.47030538
46	0x3c06e954	0.008234341
47	0x3f2e9e40	0.6821022
48	0xbeb153ce	-0.3463425
49	0x3f06b1fc	0.5261533
50	0x3c316a2a	0.010828534
51	0xbe1365b5	-0.14394267
52	0xbef2354b	-0.47306284
53	0xbf46437e	-0.77446735
54	0xbe6cca31	-0.23124005
55	0xbe90f845	-0.28314415
56	0x3ef1a76d	0.47198048
57	0x3eb010fb	0.34387955
58	0x3e024a2c	0.12723607
59	0x3a8694fd	0.0010267791
60	0x3a23c387	0.00062470924
61	0x9e40cddf	-1.02069685e-20
62	0xbb8891ce	-0.004167772
63	0xbad02dbf	-0.0015882774
64	0x3edc674f	0.43047568
65	0xbe567e80	-0.20946693
66	0xbd9249e0	-0.07142997
67	0xbd0d353d	-0.0344746
68	0x3d9982e8	0.074956715
69	0xbb3c0e6b	-0.0028695117
70	0xbe603518	-0.21895254
71	0x3d450ee5	0.048109908
72	0x3b87b026	0.0041408716
73	0xb8fc64b1	-0.000120350516
74	0xb813b19f	-3.5212954e-05
75	0xb764d6d9	-1.3639882e-05
76	0x3d98a8ff	0.074541084
77	0xbe585418	-0.21125829
78	0xbf3d482d	-0.73938257
79	0xbf0574ac	-0.5213115
80	0x3f0598a4	0.52186036
81	0x3ed00b40	0.40633583
82	0x3f0bf864	0.5467589
83	0x3e2a817e	0.1665096
84	0xbe32fd29	-0.17479385
85	0x3e3dd7ab	0.18539302
86	0x3ef908a0	0.48639393
87	0x3e857987	0.2606928
88	0x3ee38243	0.4443532
89	0xbea9aff5	-0.33142057
90	0x3d29b609	0.041433368
91	0x3e7b04c3	0.24513535
92	0x3e6d3bda	0.23167363
93	0x3ef6b8a7	0.48187754
94	0x3f117339	0.5681644
95	0xbc91e215	-0.017808
96	0xbf3fe5a2	-0.74959767
97	0xbf0d8fee	-0.55297744
98	0xbf3c6d5a	-0.7360436
99	0xbe70293b	-0.23453228
100	0x3eec125f	0.46107766
101	0x3dd88877	0.105729036
102	0xbe47c5d7	-0.19509064
103	0xbe8bd82e	-0.2731337
104	0xbf42dbad	-0.7611645
105	0xbf1de447	-0.6167645
106	0x3de5367e	0.11192034
107	0xbf2a3795	-0.6649106
108	0xbeb71be9	-0.3576348
109	0x3eedeba2	0.46468836
110	0x3ef7033a	0.4824465
111	0x3e9ae4f5	0.30252805
112	0xbb4b0e7e	-0.003098398
113	0xbaf4823c	-0.0018654536
114	0xaf461e1c	-1.8018692e-10
115	0x1b94e314	2.4631292e-22
116	0x3f110b34	0.5665772
117	0x3ee4de18	0.44700694
118	0x3dc7d3e1	0.097572096
119	0xbdac13e1	-0.08402229
120	0x29e14ded	1.0005525e-13
121	0x1927796a	8.658217e-24
122	0xb83942ca	-4.416964e-05
123	0x1c4eb219	6.838987e-22
124	0xbbacb3ae	-0.005270443
125	0xb7406e91	-1.1469835e-05
126	0xbc26b0e2	-0.010174008
127	0xb6f29479	-7.2294465e-06

bias f4 [32]
0	0x3e074b58	0.13212335
1	0xbe83412d	-0.25635663
2	0xbe528206	-0.20557413
3	0xbdd0bcba	-0.10192247
4	0x3efcdfda	0.49389535
5	0x3e2b84be	0.16749856
6	0x3ed94145	0.4243261
7	0x3e1e9a34	0.15488511
8	0xb9958872	-0.00028521154
9	0xbbaaccbc	-0.0052123945
10	0x3e5e3991	0.21701647
11	0xbd6cfa26	-0.057855748
12	0xbd28b3ac	-0.041186973
13	0x3e93af23	0.28844556
14	0xbe02b62f	-0.1276481
15	0xbab4bef4	-0.0013789819
16	0x3ec8f0c0	0.39246178
17	0x3eb74ae9	0.3579934
18	0xbb8aa914	-0.0042315815
19	0x3e9fc6c8	0.31206346
20	0x3ea36e11	0.31919912
21	0xbe84f93b	-0.25971398
22	0x3e47a170	0.19495177
23	0x3e096ccd	0.1342041
24	0x3eaf3166	0.34217376
25	0xbd8d57c3	-0.06901505
26	0x3e8989c5	0.26862922
27	0x3ef0d1a9	0.47034958
28	0xbb4b3da7	-0.003101209
29	0xbeac1426	-0.33609122
30	0xb44dea48	-1.9177344e-07
31	0xb10d64b7	-2.057545e-09

weight f4 [32, 32, 2, 2]
0	0xbe2924c6	-0.16517934
1	0xbda949c5	-0.082660235
2	0xbe6da4ad	-0.2320735
3	0xbd817415	-0.06320969
4	0xbda6e4b8	-0.081490934
5	0xbdbf969d	-0.09354899
6	0xbdb048ef	-0.08607661
7	0xbd735263	-0.059404742
8	0x3ddec35a	0.10877104
9	0x3d69b368	0.05705586
10	0x3e28c51f	0.16481446
11	0x3d042995	0.03226622
12	0x3e1492a6	0.14509067
13	0x3d01daa8	0.031702667
14	0x3da21fe5	0.0791624
15	0x3af39d7a	0.001858636
16	0xbdcdc121	-0.10046602
17	0xbd0aaab3	-0.033854198
18	0xbd52e0bd	-0.05148386
19	0xbd43ab0c	-0.047770545
20	0xbe39a3ab	-0.1812884
21	0xbcc5af83	-0.024131542
22	0xbe84b148	-0.25916505
23	0xbe221df4	-0.15831739
24	0x3b8f0059	0.004364055
25	0x3cc9d4f7	0.024637682
26	0x3c8eed78	0.017447218
27	0x3d91a0d5	0.071107544
28	0xbe4f86c9	-0.2026626
29	0xbccf6b99	-0.025319861
30	0xbe5b34a2	-0.21406797
31	0xbe4be6df	-0.19912289
32	0x3e03af52	0.12859848
33	0x3dd2caf1	0.10292614
34	0x3e414271	0.18873002
35	0x3d883f1d	0.06652663
36	0x39fdf165	0.00048435773
37	0x3a3e849d	0.0007267686
38	0x3960b710	0.00021430501
39	0x39d6afe5	0.00040948312
40	0x3e05ee39	0.13079156
41	0x3cebb889	0.028774517
42	0x3ddf9e3a	0.10918851
43	0x3df22c1c	0.118248194
44	0x3e047f34	0.12939149
45	0xbcc15fd1	-0.02360526
46	0x3e02b16c	0.12762994
47	0x3dec31a9	0.115329094
48	0xbd9ede4a	-0.07757242
49	0xbd5ecdff	-0.054395672
50	0xbdb9368f	-0.09043609
51	0xbdd0eb66	-0.10201149
52	0xbe472779	-0.19448651
53	0xbda871fe	-0.08224867
54	0xbe0fca4a	-0.14042011
55	0xbd1f9dbd	-0.03896879
56	0x3e2123c1	0.15736295
57	0x39d68880	0.0004091896
58	0x3d2c15a4	0.042012826
59	0x3db8c1fd	0.09021375
60	0x15bd7549	7.6521535e-26
61	0x16298932	1.3695002e-25
62	0x178eb256	9.221553e-25
63	0x99daa64b	-2.2607837e-23
64	0x3d00afef	0.031417783
65	0x3c4a5a75	0.012350668
66	0x3e077458	0.13227975
67	0x3dd3c2a0	0.10339856
68	0xbd1dd8ab	-0.03853671
69	0x3dd0e26e	0.10199438
70	0x3c04d3b1	0.008107112
71	0x3d6ea525	0.058262963
72	0x34109ae3	1.3467393e-07
73	0xb37c9883	-5.881203e-08
74	0xb43f22a5	-1.7800865e-07
75	0x344c7fd6	1.9045487e-07
76	0xbcc9da5d	-0.024640257
77	0xbcd72548	-0.026262894
78	0xbe381ac8	-0.17978966
79	0xbd1fd459	-0.03902087
80	0x3e3b93b0	0.18318057
81	0x3c89a4a9	0.016802149
82	0x3d89f1e9	0.06735594
83	0x3dff804d	0.12475643
84	0xbd1deba0	-0.038554788
85	0xbc2d245b	-0.01056775
86	0x3d687614	0.056753233
87	0xbe0a0c5f	-0.13481282
88	0x3d6166de	0.055029742
89	0x3bed1df1	0.0072362353
90	0x3dde5574	0.10856143
91	0x3dc5bc99	0.09655113
92	0x3e4a4618	0.19753301
93	0x3ce4f6b4	0.027949668
94	0x3e0e2eb2	0.13885
95	0x3d64b3b6	0.05583545
96	0xbe4f4c78	-0.20244014
97	0xbe241bfd	-0.16026302
98	0xbe3d8700	-0.1850853
99	0xbd315a84	-0.043299213
100	0xbe3a2b33	-0.18180542
101	0xbe64463f	-0.22292422
102	0xbe8c6b0e	-0.27425426
103	0xbea49234	-0.32142794
104	0xbdb49744	-0.08817914
105	0xbdee9988	-0.116503775
106	0xbe0a5658	-0.135095
107	0xbccbdd73	-0.024885869
108	0x3dadbbf1	0.084831126
109	0x3cc44c9e	0.023962315
110	0x3e1407de	0.14456126
111	0x3e064d4e	0.13115427
112	0x98f16f4f	-6.2409433e-24
113	0x160cf399	1.1385976e-25
114	0x971c12fb	-5.0430275e-25
115	0x1ab9e780	7.6888215e-23
116	0xbca5c479	-0.020235287
117	0x3d08f799	0.033439253
118	0x3d60208c	0.05471854
119	0xbd731e37	-0.059354987
120	0x1635d167	1.4687139e-25
121	0x16ffb5d7	4.131223e-25
122	0x98d2e3b0	-5.4513633e-24
123	0x97161fec	-4.8507905e-25
124	0x989d2b14	-4.0627047e-24
125	0x159f049c	6.422686e-26
126	0x980df7a3	-1.8348847e-24
127	0x1942ee1c	1.0077651e-23
128	0x3ce5300f	0.027977018
129	0x3e0f8b05	0.14017875
130	0x3e0a6513	0.13515119
131	0x3d22b508	0.039723426
132	0x3dd807ad	0.10548339
133	0x3e12d272	0.14338091
134	0x3e0c2a22	0.13687947
135	0x3e2084b3	0.1567562
136	0x3b74d0fe	0.0037356014
137	0xbccac660	-0.024752796
138	0x3d1bff04	0.038085
139	0x3d2342a4	0.039858475
140	0xbd66a606	-0.056310676
141	0xbc80e1ae	-0.015732612
142	0x3d89f12f	0.06735455
143	0x3e1a4479	0.15065183
144	0x3dcef329	0.10104973
145	0x3dbf6fd6	0.09347503
146	0x3e1197b5	0.14218028
147	0xbcb5582c	-0.02213677
148	0x3e2923a5	0.16517504
149	0x3d2da6b2	0.0423953
150	0x3dd20335	0.10254518
151	0xbc024b09	-0.00795246
152	0xb9cc02cd	-0.00038912
153	0x3d8c62f5	0.06854812
154	0x3d5a9192	0.053361483
155	0xbd860148	-0.06543213
156	0x3df1be47	0.11803871
157	0x3df053d1	0.11734737
158	0x3e2dee9e	0.16985556
159	0x3dcb49fa	0.09926219
160	0xbc09bf92	-0.00840749
161	0x3dac2c34	0.084068686
162	0x3d00ee31	0.031477157
163	0x3ccfb945	0.025356898
164	0xbb68d4b6	-0.0035527176
165	0xbb55ddaf	-0.0032633354
166	0xbb65ac4a	-0.003504532
167	0xbb4afffd	-0.0030975335
168	0x3c50db1f	0.012747555
169	0xbda77b1d	-0.08177779
170	0x3c7be846	0.0153752025
171	0xbc271b5d	-0.010199395
172	0x3c39d7ca	0.011342952
173	0x3c7f3326	0.01557616
174	0xbd9a7395	-0.07541577
175	0x3c1f3544	0.009717289
176	0x3dc20298	0.09473151
177	0x3e0322f1	0.12806298
178	0x3dd6854c	0.10474643
179	0x3e2c5981	0.16831018
180	0x3de20b8a	0.11037357
181	0x3d02d7a3	0.03194393
182	0x3d4b65ab	0.049657505
183	0xbcf0156b	-0.029307088
184	0x3dcc17cf	0.09965479
185	0x3de189fd	0.11012647
186	0x3d8edbcf	0.06975519
187	0x3d4a2eac	0.049360916
188	0x98b8f810	-4.7813364e-24
189	0x17073883	4.369218e-25
190	0x9849e900	-2.6096276e-24
191	0x17b0579a	1.1395847e-24
192	0xbdb97cc7	-0.090570025
193	0xbd0e5ea8	-0.03475824
194	0x3d9073d7	0.07053345
195	0xbd70af68	-0.05876103
196	0x3d6ae444	0.057346597
197	0xbd25ba61	-0.040460948
198	0x3d9d843d	0.07691238
199	0xbc7eeb8a	-0.015559087
200	0xb41162f2	-1.3540173e-07
201	0xb3026ea4	-3.036861e-08
202	0xb46a0cc0	-2.1797587e-07
203	0xb43e0363	-1.7696361e-07
204	0xbd45e9eb	-0.048318785
205	0xbc87a5a4	-0.016558476
206	0x3baa0763	0.005188869
207	0x3cad1c63	0.0211317
208	0xbd6d65e5	-0.057958502
209	0xbcd530e0	-0.026024282
210	0xbdcfb6f0	-0.101423144
211	0xbda134c0	-0.078713894
212	0x3d622126	0.055207394
213	0x3daa796f	0.08323943
214	0x3d086a35	0.033304412
215	0x3e015be8	0.12632716
216	0xbd581d18	-0.05276212
217	0xbd5cb3db	-0.05388246
218	0xbc5af9f6	-0.013365259
219	0xbd1dc746	-0.03852012
220	0x3d0f45a8	0.03497854
221	0xbd406565	-0.046971697
222	0xbce27665	-0.027644346
223	0x3d46e2f6	0.04855629
224	0x3e2d8529	0.16945328
225	0x3d99cdbd	0.075099446
226	0x3e1a6d2b	0.15080707
227	0x3ddb1be8	0.10698682
228	0x3e2fc133	0.17163543
229	0x3e268b65	0.16264112
230	0x3e554a9f	0.20829247
231	0x3e73e07d	0.23816104
232	0x3bd72a2c	0.0065663066
233	0x3c0d67d3	0.008630711
234	0xbc26b35b	-0.010174598
235	0xbc9a736d	-0.018853867
236	0x3c902482	0.017595533
237	0x3d27a6f4	0.040930703
238	0x3afd37ff	0.0019319056
239	0x3d0fff55	0.035155613
240	0x972e6cc0	-5.6359694e-25
241	0x183ca434	2.4381332e-24
242	0x96e4f4ac	-3.6989796e-25
243	0x97112dc0	-4.690977e-25
244	0x3de98d57	0.114039116
245	0x3e322b5f	0.17399357
246	0x3e220926	0.15823802
247	0x3db2a4a4	0.08722809
248	0x17bbb6d0	1.213074e-24
249	0x97aa94b3	-1.1023529e-24
250	0x986ca010	-3.0583096e-24
251	0x1909ed6e	7.1306825e-24
252	0x192a1c20	8.794474e-24
253	0x1a298994	3.5059516e-23
254	0x95c520f4	-7.961966e-26
255	0x95d582c4	-8.6236327e-26

bias f4 [32]
0	0x3dfc2962	0.12312581
1	0x3d3e10a9	0.046402607
2	0x3c4aa8b2	0.012369322
3	0x3dadb03d	0.084808804
4	0x3ccbb9b7	0.02486883
5	0x3d4be42c	0.04977815
6	0xbcda9ca4	-0.02668602
7	0x3d517d30	0.05114478
8	0x3dfaeee3	0.12252595
9	0x3da9347d	0.082619645
10	0x3e0cfd07	0.13768397
11	0x3d536821	0.051612977
12	0x3d7da25a	0.06192241
13	0xbd4b3a52	-0.049616165
14	0x3dbd9900	0.09257698
15	0xbc676dad	-0.01412527
16	0x3d85a4b1	0.06525553
17	0xbd0c7178	-0.0342879
18	0x3df6c67b	0.12049576
19	0x3d947963	0.07249715
20	0x3d4d7176	0.050157033
21	0xbd835e43	-0.06414463
22	0x3c785859	0.0151577825
23	0x3dce7c06	0.10082249
24	0x3c50f6d1	0.012754158
25	0x3db00e25	0.08596448
26	0xbc8b9a4b	-0.017041346
27	0x3df2284e	0.11824094
28	0xbd3be66e	-0.04587405
29	0xbd37d662	-0.044882186
30	0xbc783ed8	-0.015151702
31	0xba8b05df	-0.0010606608

weight f4 [32, 32, 2, 2]
0	0x3de53e0e	0.111934766
1	0xbd9a3498	-0.07529563
2	0x3dd94011	0.10607923
3	0x3bcf7c1b	0.006331933
4	0x3d77e4ef	0.060521062
5	0x3d92d247	0.071690135
6	0x3cc49edf	0.024001537
7	0x3d0a45c6	0.033757947
8	0x3d6e269e	0.058142297
9	0xbd914b51	-0.070944436
10	0x3d02dd9e	0.031949632
11	0xbdc0f693	-0.0942203
12	0x3c8e26a3	0.017352408
13	0x3e0f0145	0.13965328
14	0x3d619838	0.055076808
15	0x3d46ce97	0.048536863
16	0x3dec2513	0.11530509
17	0xbd0b199a	-0.033959962
18	0x3d3f5aaf	0.046717342
19	0x3d610ad7	0.05494198
20	0xbbcea3ed	-0.0063061626
21	0xbd9fc300	-0.07800865
22	0xbbcae884	-0.006192269
23	0xbd870617	-0.065929584
24	0x38cfb14f	9.9035555e-05
25	0x379c1c0a	1.8609706e-05
26	0x3876b243	5.881699e-05
27	0x38497de6	4.8039386e-05
28	0x3d8e992f	0.06962811
29	0xbd27ceca	-0.040968694
30	0xbc736c79	-0.014857405
31	0x3b7ced8f	0.0038593744
32	0x3de54b5f	0.111960165
33	0x3d813a72	0.06309976
34	0x3de1c37b	0.11023613
35	0x3d665dc2	0.05624176
36	0x3d0bdc16	0.034145437
37	0x3aff9061	0.0019497984
38	0xbd1e0c8d	-0.038586188
39	0x3bcbc44c	0.006218469
40	0x3cb5d1bc	0.022194736
41	0x3e49ce95	0.19707711
42	0x3db5cf71	0.08877457
43	0x3e5964f2	0.21229914
44	0xbd90950c	-0.070596784
45	0xbb207c46	-0.0024488135
46	0x3d5a2e70	0.053266943
47	0x3cc069d3	0.02348796
48	0xbcb370b7	-0.021904333
49	0x3dfa6790	0.12226784
50	0xbca33ba2	-0.019925896
51	0x3e1a92a5	0.15095003
52	0xbd972d1a	-0.07381649
53	0xbd6557c5	-0.055991907
54	0x3be02715	0.0068405964
55	0xbd6e6bf2	-0.058208413
56	0x3ce23dc1	0.027617337
57	0x3bf3ce02	0.0074403295
58	0x3de2071f	0.110365145
59	0xbd9782bc	-0.073979825
60	0x3c00a19a	0.007851029
61	0x3bda86a8	0.0066688843
62	0x3bf3010f	0.0074158977
63	0x3bcf8d2e	0.0063339686
64	0x3d9e8358	0.077398956
65	0x3e208a8e	0.15677854
66	0xbce8cd49	-0.0284182
67	0x3e384aae	0.17997238
68	0x3d820719	0.0634901
69	0xbc4c0971	-0.012453423
70	0x3cfaf30e	0.030633476
71	0x3d1ef3ac	0.038806602
72	0xbd582750	-0.052771866
73	0xbd83dddf	-0.06438803
74	0xbcf14abd	-0.029454583
75	0xbd79cda4	-0.06098713
76	0x3e8d8fb9	0.27648714
77	0x3e85f43b	0.26162896
78	0x3e7313dd	0.23738046
79	0x3e8aa1ff	0.27076718
80	0x3d546148	0.051850587
81	0x3deb108b	0.11477765
82	0xbd2e1135	-0.04249688
83	0x3e5bd74f	0.21468852
84	0xbd9cbef1	-0.07653607
85	0x3d9bfee8	0.07616979
86	0x3d94cc5d	0.07265542
87	0x3e223db6	0.15843853
88	0x3daad651	0.08341659
89	0x3da03b14	0.07823768
90	0xbd32e210	-0.04367262
91	0x3e53de3a	0.20690241
92	0x3c29c9a1	0.0103630135
93	0x3df5665d	0.11982415
94	0x3daf9da6	0.08574991
95	0x3db76a2c	0.089557976
96	0x3d889f14	0.06670967
97	0x3d4637ad	0.04839294
98	0xbca14dd8	-0.01969044
99	0xbd8f2129	-0.06988747
100	0x3d024023	0.031799447
101	0xbdd062da	-0.101751044
102	0x3d7d2d7a	0.061810948
103	0xbca9d615	-0.020731965
104	0xbbb1fdc1	-0.005431861
105	0xbbc1f1e2	-0.0059187273
106	0xbbbcf8d0	-0.0057669654
107	0xbbcd5e8f	-0.006267376
108	0x3e343ab0	0.17600513
109	0x3e100daf	0.1406772
110	0x3e1d98df	0.15390347
111	0x3de5ede5	0.112270154
112	0x3af4913d	0.0018659007
113	0x3db80434	0.08985177
114	0x3d8bf2ab	0.068333946
115	0x3e463afa	0.19358435
116	0x9beacb86	-3.8843577e-22
117	0x95caa0df	-8.184096e-26
118	0x9736f898	-5.912114e-25
119	0x977d0524	-8.1755197e-25
120	0x3dfc7bdc	0.12328312
121	0xbd4db42a	-0.050220646
122	0x3dceebdd	0.10103581
123	0xbdb6ea5d	-0.0893142
124	0x16de75f8	3.5940483e-25
125	0x99c5b6ab	-2.0443102e-23
126	0x99c4aa8a	-2.0334805e-23
127	0x16c28d47	3.143155e-25
128	0x3db1fdee	0.08691011
129	0xbd18c4ca	-0.037297048
130	0x3db3d32b	0.087805115
131	0xbcb68c6d	-0.022283757
132	0x3d64c8bf	0.05585551
133	0xbcdcf498	-0.0269721
134	0xbd957340	-0.07297373
135	0x3ded47a8	0.11585933
136	0x3d3d3ac3	0.046198618
137	0xbd8e9868	-0.06962663
138	0x3c34f066	0.011043644
139	0x3d20aad2	0.039225407
140	0xbcc4834e	-0.023988392
141	0x3e0e388c	0.13888758
142	0xbd2b2982	-0.04178763
143	0x3cb9546c	0.022623263
144	0xbbecda5d	-0.0072281794
145	0xbc4c1df1	-0.01245831
146	0x3d427125	0.047471184
147	0x3d0fc805	0.035102863
148	0xbd64d844	-0.05587031
149	0x3d4d822c	0.05017297
150	0xbd16523b	-0.036699515
151	0x3c9ad028	0.018898085
152	0x389fcd9c	7.6200085e-05
153	0x38800ab0	6.105506e-05
154	0x37aba3cd	2.0461064e-05
155	0x37552884	1.2705223e-05
156	0x3d0b4e34	0.034010127
157	0xbd9ca148	-0.076479495
158	0x3dd528a7	0.104081444
159	0x3d358ac8	0.044321805
160	0x3da7e3da	0.08197756
161	0x3da70cec	0.081567615
162	0x3c946d9a	0.018118668
163	0x3bb725cc	0.0055892225
164	0x3dddcdcd	0.10830269
165	0xbc4c219c	-0.012459185
166	0x3d1eac39	0.038738463
167	0x3d235315	0.039874155
168	0x3cfbe6c8	0.030749694
169	0x3e0f762b	0.14009921
170	0xbab265f2	-0.0013610704
171	0x3e2fdfea	0.1717526
172	0xb99e3aaa	-0.00030179817
173	0xbcf4aa27	-0.029866291
174	0xbd5e984e	-0.054344468
175	0xbd1673ce	-0.036731534
176	0xbd38bcd8	-0.04510197
177	0x3c88444a	0.016634125
178	0x3d127dfd	0.035764683
179	0x3d2e729d	0.042589772
180	0xbd0699da	-0.032861568
181	0xbd2d0cc3	-0.0422485
182	0x3c3391fb	0.010960097
183	0xbd440533	-0.04785652
184	0x3daabefb	0.08337208
185	0x3da6eba1	0.081504114
186	0xbc715b56	-0.014731249
187	0x3d415125	0.047196526
188	0x3bf93f3b	0.0076064146
189	0x3be605c5	0.0070197308
190	0x3bf076ec	0.0073383953
191	0x3be10239	0.00686672
192	0xbcf966f5	-0.030444602
193	0x3e1f285c	0.1554274
194	0xbd821023	-0.06350734
195	0x3dfe4fa0	0.12417531
196	0x3cc9e7a8	0.024646595
197	0xbc730826	-0.014833486
198	0xbcb41948	-0.021984711
199	0xbc13e741	-0.009027303
200	0xbd8523e9	-0.0650099
201	0xbcf59086	-0.02997614
202	0x3da74214	0.081669
203	0xbd2b3af4	-0.04180427
204	0x3e54611a	0.20740166
205	0x3e32bcaa	0.17454782
206	0x3e1d75e4	0.15377003
207	0x3e8579ba	0.26069432
208	0xbddf62db	-0.10907527
209	0x3ce7decd	0.028304482
210	0xbda714bc	-0.08158252
211	0x3de1da46	0.110279605
212	0xbdb3b456	-0.08774631
213	0x3dac7962	0.084215894
214	0xbd0b555a	-0.034016944
215	0xbb35a870	-0.0027718805
216	0xbc012faa	-0.007884899
217	0xbd11e468	-0.035618216
218	0xbba9a498	-0.005177092
219	0x3d0736a0	0.03301108
220	0xbc12081c	-0.008913066
221	0x3dd9ac39	0.10628552
222	0x3be57da0	0.007003501
223	0x3e08ef03	0.13372426
224	0xbc314c10	-0.010821357
225	0x3dac12ad	0.084019996
226	0x3df66c53	0.1203238
227	0xbd2a2f97	-0.04154929
228	0x3d83c246	0.06433539
229	0x3db0de6f	0.08636176
230	0x3d27981a	0.04091654
231	0xbbd2b0cd	-0.0064297677
232	0xbc225916	-0.009908935
233	0xbc22abab	-0.009928624
234	0xbc218eab	-0.009860675
235	0xbc215e0a	-0.009849081
236	0x3caaaa08	0.02083303
237	0x3d0a1389	0.033710036
238	0x3a29c0a1	0.00064755423
239	0x3ccf4bd2	0.025304709
240	0xbdc8405d	-0.09777901
241	0x3dc7f3a2	0.09763266
242	0xbd6c0a6a	-0.05762712
243	0xbc46556c	-0.012105327
244	0x1da6b0d2	4.4122662e-21
245	0x974bb25c	-6.581796e-25
246	0x20b87640	3.1249064e-19
247	0x188f36e6	3.7020067e-24
248	0x3c63e749	0.013910123
249	0x3c903a53	0.017605936
250	0x3d812f59	0.06307859
251	0x3d85500c	0.06509408
252	0x92562bc0	-6.758042e-28
253	0x96985356	-2.4609517e-25
254	0x19c230a1	2.0078771e-23
255	0x17843716	8.544206e-25

bias f4 [32]
0	0x3d9354d9	0.07193918
1	0x3c364bbd	0.011126456
2	0xbd03181a	-0.032005407
3	0x3d92e11b	0.07171842
4	0x3d98f5f5	0.074687876
5	0x3a263cd9	0.00063414645
6	0x314fb73a	3.0226617e-09
7	0xbced2388	-0.028947607
8	0x3d4c918d	0.049943496
9	0x3dab7057	0.083710365
10	0xbd8b4108	-0.06799513
11	0xbc9dce73	-0.019263482
12	0xbd32d28d	-0.043657828
13	0x3ba3138b	0.004976695
14	0x3c7957ca	0.015218684
15	0xbd5062f4	-0.05087562
16	0xbc6cf339	-0.014462286
17	0xbb492859	-0.0030694215
18	0xbc40fcd6	-0.011779031
19	0x3ca16833	0.019703006
20	0xbc48a27a	-0.012245769
21	0xbd429838	-0.04750845
22	0xbcbd7087	-0.023124946
23	0x3dbe7a4a	0.093006685
24	0xba949d4e	-0.0011338384
25	0xbbd18ae9	-0.006394733
26	0xba5b10bc	-0.00083566806
27	0x3dabb2e0	0.08383727
28	0xbbde1f97	-0.006778668
29	0x3d541ab5	0.051783282
30	0x3d55e5ae	0.052220993
31	0x3d6a4288	0.057192355

weight f4 [128, 32]
0	0xb5fcac71	-1.882565e-06
1	0x3259a745	1.2669095e-08
2	0xb866a245	-5.49874e-05
3	0xb9e9b87a	-0.0004457867
4	0x3ae548b7	0.0017492984
5	0xb2018ca5	-7.540767e-09
6	0x25050a9a	1.1539503e-16
7	0xae600086	-5.0932168e-11
8	0x3b3814a2	0.002808847
9	0xb6ea1f4b	-6.9773864e-06
10	0xb857ff27	-5.1497624e-05
11	0xb97dedb7	-0.00024216516
12	0x2e27f0ca	3.8185267e-11
13	0xb84f6880	-4.944997e-05
14	0xb946641c	-0.00018920045
15	0xb307b124	-3.1593245e-08
16	0xb65c3290	-3.2811986e-06
17	0x3304b797	3.090062e-08
18	0xb1842cfe	-3.8468206e-09
19	0xba83adf3	-0.0010046348
20	0x19537403	1.0931873e-23
21	0xba9661e6	-0.0011473268
22	0x2915aa12	3.323216e-14
23	0xb9ada7c4	-0.00033122126
24	0xb230880c	-1.0275482e-08
25	0x3319fe4a	3.5854363e-08
26	0xb7872d58	-1.6114369e-05
27	0xbb85fbda	-0.004088861
28	0xb1932cce	-4.283357e-09
29	0xb9cd7830	-0.00039190194
30	0x2c368be8	2.594142e-12
31	0xb8c9359f	-9.5944146e-05
32	0x3da2a380	0.079413414
33	0x3ceffdc1	0.029295804
34	0xbdb162eb	-0.08661445
35	0xbce02bb0	-0.027364582
36	0xbd67f8fe	-0.05663394
37	0xbd99457a	-0.07483955
38	0x9dbafe85	-4.9496957e-21
39	0xbde81587	-0.11332231
40	0xbdd20d5d	-0.10256455
41	0xbdab3b33	-0.08360901
42	0x3de43e52	0.11144699
43	0x3e22d0b5	0.15899928
44	0x3ca43271	0.020043584
45	0x3d85fdb8	0.06542534
46	0x3db554b2	0.08854045
47	0xbd07ff84	-0.033202663
48	0x3dc3630a	0.095403746
49	0x3dbe8279	0.093022294
50	0xbe24e389	-0.16102423
51	0x3da8c536	0.0824074
52	0x3c0c26d6	0.008554181
53	0xbe3d626f	-0.1849458
54	0x3c35778f	0.011075868
55	0x3e110ad6	0.1416429
56	0xbe01e1f8	-0.12683856
57	0x3e960292	0.29298836
58	0xbaef3ab2	-0.0018251745
59	0x3e01ec70	0.1268785
60	0xbe172fd8	-0.14764345
61	0x3e2a5235	0.16632922
62	0xb9ba1b78	-0.0003549715
63	0xbd88727b	-0.066624604
64	0x2606779a	4.665268e-16
65	0xb4d542a8	-3.972284e-07
66	0xb9592ffb	-0.00020712607
67	0xaf864e48	-2.443008e-10
68	0x17422fad	6.2744956e-25
69	0x962d0db9	-1.3979159e-25
70	0x15eec088	9.6431195e-26
71	0x2708b4f7	1.8971893e-15
72	0x1f8e4076	6.024598e-20
73	0x26647471	7.92612e-16
74	0x195cc1ea	1.1412894e-23
75	0xb75de1b0	-1.32251735e-05
76	0x152efa84	3.5336642e-26
77	0xad900ebb	-1.6377446e-11
78	0xb72dd56a	-1.0361293e-05
79	0x2481683a	5.61214e-17
80	0xb4359f08	-1.6914794e-07
81	0x23335538	9.721655e-18
82	0x34b4af14	3.3655e-07
83	0xb8d0c5bf	-9.955046e-05
84	0x173ad5b5	6.036958e-25
85	0x20910968	2.457018e-19
86	0xa702c1d8	-1.8146207e-15
87	0x359a7525	1.1507988e-06
88	0x3563f9e8	8.492775e-07
89	0x99d1f698	-2.1709692e-23
90	0xb670c3cd	-3.5876758e-06
91	0xa3454aae	-1.06952054e-17
92	0x9ea59f30	-1.7535893e-20
93	0xb524298b	-6.1155214e-07
94	0x9e59bb3c	-1.15266035e-20
95	0xb8163876	-3.581537e-05
96	0x398c9f06	0.00026821363
97	0xbd74f0d4	-0.059799984
98	0xbc3a43a5	-0.011368667
99	0xbd9a949b	-0.075478755
100	0x3d484fa4	0.048904076
101	0x3e54c028	0.20776427
102	0x97a3b2fe	-1.0578812e-24
103	0xbe2d6ef8	-0.16936862
104	0x3e056086	0.13025102
105	0x3d228fb8	0.039687842
106	0xbcd852cc	-0.026406668
107	0xbd5da5d1	-0.054113213
108	0xbcb28b4d	-0.02179494
109	0x3ccbee39	0.024893867
110	0xbe2f0603	-0.17092137
111	0x3db69a3f	0.08916139
112	0x3d095f23	0.033537995
113	0x3e2e2838	0.1700753
114	0x3df15432	0.11783637
115	0x3da07c45	0.078362025
116	0xbba04173	-0.0048906147
117	0x3ca1840d	0.019716287
118	0xbc5b2d45	-0.013377492
119	0xbe0c98da	-0.13730183
120	0xbd826e9a	-0.06368752
121	0x3e3a3b1a	0.18186608
122	0x3d6d140f	0.057880457
123	0x3e43eb70	0.19132781
124	0xbe800182	-0.2500115
125	0x3e04bf1f	0.12963532
126	0x37c0e12f	2.2993043e-05
127	0x3db87f13	0.090086125
128	0x3e50481a	0.20340005
129	0x3c27190c	0.010198843
130	0x3d9af2f8	0.07565874
131	0xbe39747a	-0.18110839
132	0xbc9ad290	-0.018899232
133	0xbb6e3059	-0.0036344735
134	0x9e9a036f	-1.6306804e-20
135	0xbee56a4e	-0.44807667
136	0xbddd2b33	-0.10799255
137	0x3dfe74d2	0.124246255
138	0x3e321fa9	0.1739489
139	0x3df84bf7	0.12123864
140	0xbc8da8e6	-0.017292451
141	0xbd8bb684	-0.068219215
142	0x3df405e4	0.11915186
143	0x3ca66552	0.020311985
144	0x3dc950ac	0.0982984
145	0x3df1405d	0.117798544
146	0xbe389811	-0.18026759
147	0xbdbc4f95	-0.091948666
148	0x3c4016fd	0.011724231
149	0x3ddceb08	0.10787016
150	0xbca2e9d8	-0.019886896
151	0xbc1b2512	-0.0094692875
152	0x3d7e2f87	0.062057044
153	0x3e7f1756	0.24911246
154	0x3c9abd93	0.018889224
155	0xbcc141aa	-0.023590881
156	0xbeee0739	-0.46489885
157	0x3e26a189	0.16272558
158	0x1700fd3e	4.1678667e-25
159	0xbe048b6b	-0.12943809
160	0x3e200bc3	0.15629487
161	0x3e0a999c	0.1353516
162	0x3cee75ed	0.029108966
163	0xbe1eb99d	-0.15500493
164	0x3cdf601a	0.027267504
165	0xbe04266d	-0.12905283
166	0x99896c2e	-1.4209161e-23
167	0xbe77fb1e	-0.24216887
168	0xbd7e9189	-0.062150512
169	0x3ccd408a	0.025055189
170	0xbad9cdc7	-0.0016617113
171	0x3e1f71a9	0.15570702
172	0x3c5c92f6	0.013462773
173	0xbd5d57e7	-0.05403891
174	0xbd7198c4	-0.05898358
175	0x3dfa9073	0.12234583
176	0xbd6385bb	-0.055547457
177	0xbe1c7aee	-0.15281269
178	0x3de176e3	0.11009004
179	0x3e0d8deb	0.13823669
180	0x3bfa4d6f	0.0076386253
181	0xbdbdc720	-0.09266496
182	0xbbe33ecf	-0.0069349776
183	0x3e011e94	0.12609321
184	0x3e01d3f0	0.12678504
185	0x3eb1c6d9	0.3472202
186	0xbd1e83c4	-0.03869988
187	0xbba73a85	-0.0051034116
188	0xbe95b52a	-0.2923978
189	0x3e396d7d	0.18108173
190	0x39109942	0.00013790003
191	0xbc378b60	-0.011202663
192	0x3e2f1790	0.17098832
193	0xbd9856a0	-0.074383974
194	0x3daf1ea2	0.085507646
195	0xbe2ef1fa	-0.17084494
196	0x3e00f156	0.12592062
197	0x3c2e1fd3	0.010627705
198	0x9f8ce68f	-5.9673734e-20
199	0xbec55787	-0.3854334
200	0xbd2225dc	-0.039586887
201	0xbd829398	-0.063758075
202	0x3da3791d	0.07982085
203	0xbccfc843	-0.025364047
204	0xbc8ffd44	-0.017576821
205	0x3cac0ee7	0.0210032
206	0x3cc342f4	0.023835637
207	0x3dcbbc8a	0.0994807
208	0x3da4f72b	0.08054956
209	0x3cf4ca93	0.029881751
210	0xbd2e9822	-0.042625554
211	0x3dd94647	0.106091075
212	0x3cd48a43	0.025944835
213	0x3e70b2cf	0.2350571
214	0xbc50b061	-0.0127373645
215	0xbaa740b2	-0.001276037
216	0xbd0026f4	-0.03128715
217	0x3efe6f13	0.49694118
218	0x3dbebd8b	0.09313496
219	0xbd8a7608	-0.06760794
220	0xbf088646	-0.53329885
221	0xbdab1a60	-0.0835464
222	0xb9ecef7e	-0.00045191863
223	0xbd34c269	-0.044130716
224	0x3cb5dc33	0.022199726
225	0xbc12eb57	-0.008967242
226	0x3e325ba5	0.17417772
227	0x3cbb303f	0.022850154
228	0xbd5e013a	-0.05420039
229	0xbcf33893	-0.029690063
230	0x974cf0f1	-6.6220066e-25
231	0xbe9a4304	-0.30129254
232	0xbdec3a08	-0.11534506
233	0xbbde1166	-0.0067769764
234	0x3e1d10f2	0.15338495
235	0x3be55f56	0.0069998903
236	0x3c7dc541	0.0154889235
237	0xbd12e756	-0.03586515
238	0xbdce4d25	-0.10073308
239	0x3dca7bab	0.09886869
240	0x3e15b3eb	0.14619415
241	0xbe3578e5	-0.17721899
242	0x3e2fa2b7	0.17151915
243	0x3d04d8fb	0.03243349
244	0xb9c83998	-0.00038189883
245	0xbe21b4d7	-0.15791641
246	0x3d5cd4b3	0.053913783
247	0x3e2abcf6	0.16673645
248	0x3dc6bafb	0.097036324
249	0x3e1a0b38	0.15043342
250	0xbd2273da	-0.039661266
251	0x3e05dbaa	0.13072076
252	0x3d821dbd	0.063533284
253	0x3daa8aef	0.08327281
254	0x3ad7b847	0.0016458117
255	0x3e2993af	0.16560243

bias f4 [128]
0	0x3b529e69	0.0032137877
1	0x3cf6bffc	0.030120842
2	0x295c159d	4.886856e-14
3	0x3e41400b	0.18872087
4	0xbd865255	-0.06558672
5	0x3d0a2b19	0.033732507
6	0x3e375c7f	0.17906378
7	0x3e08bf03	0.13354115
8	0x3e0c86a7	0.13723241
9	0x3d3ef78b	0.046622794
10	0xbdc2f691	-0.09519685
11	0x3e21613e	0.15759751
12	0x3d9d7e47	0.07690101
13	0xbd8b1cbd	-0.06792591
14	0xbd537065	-0.05162086
15	0x3e124f12	0.14287975
16	0xbd6ef00c	-0.058334395
17	0x3dfd6359	0.12372465
18	0x3db15338	0.08658451
19	0x3cc81529	0.024424152
20	0x3d8e585c	0.06950447
21	0x3c7eafce	0.015544845
22	0x3e4f13c2	0.20222381
23	0xbc4287bd	-0.011873183
24	0xbc043941	-0.008070291
25	0x3dad9fb7	0.08477729
26	0x3e5cd897	0.21566997
27	0xbd1d4e42	-0.03840471
28	0x3d3d8dde	0.046277873
29	0xbca39753	-0.019969618
30	0xbd4ecd87	-0.050488975
31	0xb98c6795	-0.00026780055
32	0x3d6e70bd	0.058212984
33	0xbe0e79f0	-0.13913703
34	0x3cb2a7c3	0.02180851
35	0x3d821e85	0.063534774
36	0xaeed6202	-1.0794922e-10
37	0xbdc794f7	-0.0974521
38	0xbba15a96	-0.0049241288
39	0x3d442cf2	0.047894426
40	0x3c8c7390	0.017144948
41	0x3d52f6a1	0.051504735
42	0x3db53eb7	0.088498525
43	0xbc07d0be	-0.008289514
44	0xbd06b6a5	-0.032889027
45	0xbd16ccf0	-0.036816537
46	0x1750d5a2	6.7478067e-25
47	0x3db94f59	0.090483375
48	0x3e174006	0.14770517
49	0x3ddb2340	0.10700083
50	0x3e0b77ea	0.13619962
51	0x3da402ec	0.0800837
52	0xaa10d042	-1.2862023e-13
53	0x3e433807	0.19064341
54	0x3e662591	0.22475268
55	0x3e405f89	0.18786444
56	0x3e1d9fdc	0.15393013
57	0x3d0954f1	0.033528272
58	0x3d1566c9	0.036474977
59	0x3d161699	0.036642645
60	0x3d4b8d47	0.04969528
61	0x3dc3b458	0.09555882
62	0xbe0cd4db	-0.13753073
63	0xbd92acf4	-0.071618944
64	0x3d07a14a	0.0331128
65	0xbca3f648	-0.020014897
66	0xbc82faed	-0.015988791
67	0x3c2ab46a	0.010418991
68	0xbd649a26	-0.05581107
69	0xbe1d5b5f	-0.15366887
70	0x3db6b0ca	0.089204386
71	0xbcb6cefc	-0.022315495
72	0x3d873df7	0.06603616
73	0xbdef8961	-0.11696125
74	0x3e49f425	0.1972204
75	0xbdaf27f3	-0.085525416
76	0x3bace354	0.005276123
77	0x3d48e6b7	0.04904815
78	0xbd4ac604	-0.04950525
79	0xbcc963fa	-0.024583805
80	0xbc387c3d	-0.011260089
81	0x3e506fbc	0.20355123
82	0xbd64baa6	-0.055842064
83	0x3e0c51c1	0.13703062
84	0xbe0c4335	-0.13697512
85	0x3e1921ee	0.1495435
86	0x3d761b55	0.06008466
87	0x3d8ca3be	0.06867169
88	0x3e166988	0.14688694
89	0xbd9628f2	-0.073320284
90	0x3de20e0c	0.110378355
91	0xbba79919	-0.005114686
92	0x3dfb30dd	0.12265179
93	0x3d722b7e	0.05912351
94	0x3dd88bc7	0.105735354
95	0xbca8639e	-0.020555314
96	0x1c64c335	7.569117e-22
97	0xbdf7dcc9	-0.12102658
98	0x3e0876fb	0.13326637
99	0xbde495a0	-0.11161351
100	0x22197c35	2.0801121e-18
101	0x3e2209a4	0.1582399
102	0x3d1dfe50	0.03857261
103	0xac1135a5	-2.0635518e-12
104	0x3c4cdca9	0.012503781
105	0xbc669600	-0.014073849
106	0x3da92632	0.08259238
107	0x3e864c5b	0.2623013
108	0xbbee2440	-0.007267505
109	0x3ddab86b	0.10679706
110	0xb95fecd0	-0.00021355157
111	0x3e23737b	0.15962021
112	0xa40fe65a	-3.1203297e-17
113	0xbbe9feb6	-0.0071409596
114	0x3dd17a88	0.10228449
115	0x21d14152	1.4179681e-18
116	0xbcdffac6	-0.027341258
117	0xbd3a99c3	-0.045556795
118	0x3e19f660	0.15035391
119	0x3e49723d	0.19672485
120	0xbd673d65	-0.056455035
121	0x3e2ade85	0.16686447
122	0x3e1a989d	0.1509728
123	0xbd91fb26	-0.07127981
124	0xbd8e7045	-0.069550075
125	0x3d56823e	0.052370302
126	0x3e1d29dc	0.15348
127	0xbcba7dbd	-0.022765035

weight f4 [64, 128]
0	0x15ce0f0a	8.3226465e-26
1	0xbda60f32	-0.08108367
2	0x96740e35	-1.9714646e-25
3	0x3be671ef	0.007032625
4	0x3a976c47	0.0011552655
5	0x3d0a5b5a	0.033778526
6	0xbbdfcb37	-0.006829645
7	0xbd8d8087	-0.0690928
8	0xbd99039f	-0.07471394
9	0x3d4e1c1b	0.050319772
10	0xbc490ec9	-0.012271591
11	0x3bf17f01	0.0073698764
12	0xbd20acb2	-0.039227195
13	0xbc944fa7	-0.018104387
14	0x39e1af6a	0.00043046038
15	0x3c921aba	0.01783501
16	0x1822e440	2.1053246e-24
17	0x3d545cfe	0.051846497
18	0xbcafb9d7	-0.02145092
19	0xbdb37fb0	-0.08764589
20	0xbcde32a2	-0.027123753
21	0xbcf4ba01	-0.02987385
22	0x3c9efa87	0.01940657
23	0xbc489f12	-0.012244957
24	0xbc184130	-0.009292886
25	0x3bef28a5	0.0072985464
26	0x3c38118e	0.011234654
27	0x3ab7e9c1	0.0014031456
28	0x3cb0e30e	0.021592643
29	0x169dffce	2.5526153e-25
30	0xbc078b24	-0.00827292
31	0x175d0506	7.141529e-25
32	0xbd63b226	-0.055589817
33	0xbc3c9cfd	-0.011512038
34	0xbcd567b8	-0.026050434
35	0x3be7da45	0.0070755803
36	0x17088159	4.410723e-25
37	0xbc572cc4	-0.013133232
38	0xbc05d99f	-0.008169561
39	0xbba137db	-0.0049199886
40	0xbb6bf252	-0.0036002588
41	0x3b0d03f3	0.0021517246
42	0x3a06bfae	0.0005140257
43	0x3d349b9d	0.044093717
44	0xbdc96a61	-0.09834743
45	0x961b1789	-1.2528227e-25
46	0x963330e0	-1.4474927e-25
47	0xbd793345	-0.06083991
48	0x3d14b28c	0.036303088
49	0xbc51c9fd	-0.012804505
50	0xbc19c551	-0.009385423
51	0x3cc3684e	0.023853447
52	0x9538ed59	-3.7345738e-26
53	0x3c2c9fd7	0.010536156
54	0x3c933696	0.017970365
55	0xbb0531e6	-0.0020323931
56	0x3d07ed2d	0.033185173
57	0xbcce7cd3	-0.025206005
58	0xbd8735f2	-0.06602086
59	0x3b13f0a1	0.0022573846
60	0x3a100839	0.00054943893
61	0x98423971	-2.5102913e-24
62	0xbd7f2396	-0.062289797
63	0xbc788918	-0.015169404
64	0x3ab13be2	0.0013521875
65	0xbd476733	-0.048682403
66	0x975ed811	-7.2004783e-25
67	0xbcf43d35	-0.029814342
68	0xba5ca4f7	-0.00084169157
69	0xbc70132d	-0.014653009
70	0xbc843793	-0.016139781
71	0xbcef8bbb	-0.029241433
72	0xbd29b6e0	-0.04143417
73	0x233f04e3	1.03551656e-17
74	0xbd3c2d15	-0.04594143
75	0x3b8f1af5	0.004367227
76	0xbd480094	-0.048828676
77	0xbccc0af5	-0.024907568
78	0xbca7b8af	-0.020473806
79	0xbd0c431b	-0.034243684
80	0xbb67e3a1	-0.003538348
81	0xbdbd9652	-0.09257187
82	0xbb38ce18	-0.0028199013
83	0xbcac7b1f	-0.021054802
84	0xbcacbb86	-0.021085512
85	0x3d0246c0	0.031805754
86	0x3cf6daf3	0.0301337
87	0xbbb97e8b	-0.005660837
88	0x3d16b4a2	0.03679336
89	0xbbcc27d1	-0.0062303324
90	0x3cb6a616	0.022295993
91	0x3a1d8c76	0.0006010005
92	0x3ce3460c	0.027743362
93	0x3d12425e	0.035707824
94	0xbd8f5526	-0.06998663
95	0xbc89548f	-0.016763953
96	0x95467100	-4.0074923e-26
97	0xbd0f42bf	-0.034975763
98	0xbd8ab5b1	-0.06772936
99	0xbc1c99bb	-0.009558137
100	0x185019ea	2.6896453e-24
101	0xbd0e6ea1	-0.034773473
102	0xbc9ae6c8	-0.018908873
103	0x969fa425	-2.5791425e-25
104	0xbd67d29e	-0.056597345
105	0x9825fdcd	-2.1453887e-24
106	0xbc9b4733	-0.018954849
107	0xbd0c7cd9	-0.03429875
108	0xbd8799fd	-0.06621168
109	0x3d00bd8e	0.031430773
110	0xbd3bb12d	-0.045823265
111	0x3bb85311	0.0056251367
112	0x97ee051e	-1.5381681e-24
113	0x3b723e7f	0.003696352
114	0xbd318afd	-0.04334544
115	0x18ae71fc	4.509304e-24
116	0xbcb3a93f	-0.021931289
117	0x9b5c6ac7	-1.8232475e-22
118	0x39742e42	0.00023286886
119	0xbdb9a214	-0.09064117
120	0x3ce8c814	0.028415717
121	0x3cfca734	0.030841447
122	0x3cdf016b	0.027222356
123	0x3ce79897	0.028271003
124	0xb95a2d2b	-0.00020806926
125	0x3b8e9e24	0.004352348
126	0x3c91ce0f	0.017798452
127	0x969912b0	-2.4730277e-25
128	0x96105868	-1.1660123e-25
129	0xbd2236f5	-0.039603192
130	0x966d7492	-1.9181491e-25
131	0xbc99ba12	-0.018765483
132	0xbd0bc872	-0.034126706
133	0xbd2c1677	-0.04201361
134	0xbd076d26	-0.033063076
135	0xbd23a41a	-0.03995142
136	0xbc83390f	-0.016018419
137	0xbd2a2af8	-0.041544884
138	0xbbf3948b	-0.007433479
139	0xbc3f1a6d	-0.011664015
140	0xbc49bac4	-0.012312595
141	0xbcca6e60	-0.024710834
142	0xbbd3a3f1	-0.0064587523
143	0xbc603add	-0.013685909
144	0x151a65f8	3.118049e-26
145	0xbccb0392	-0.024781976
146	0xbb95f3d4	-0.0045761857
147	0xbd1ac55b	-0.03778587
148	0xbcf18c2a	-0.02948578
149	0xbd1d37ae	-0.03838318
150	0xbd0c8047	-0.034302022
151	0xbca810e3	-0.020515865
152	0xbc479320	-0.012181073
153	0xbc1ca698	-0.009561203
154	0xbd0d8656	-0.03455194
155	0xbbefdc68	-0.0073199756
156	0xbd2967f0	-0.04135889
157	0x1712129a	4.7198623e-25
158	0xbd01f542	-0.031728037
159	0x9ad65b4c	-8.8655824e-23
160	0xbc6d0dee	-0.014468653
161	0xbcaa3b6e	-0.020780291
162	0xbcfa67df	-0.030567108
163	0xbd1d19c4	-0.03835465
164	0x93df5260	-5.6374342e-27
165	0xbcb6ebca	-0.02232923
166	0xbbf80462	-0.007568882
167	0x98ad6e58	-4.483087e-24
168	0xbc4e1248	-0.012577601
169	0xbc2c460b	-0.010514746
170	0xbd24b7a3	-0.040214192
171	0xbd1cdc4d	-0.038296033
172	0xbd23ac14	-0.03995903
173	0x96e717c0	-3.733505e-25
174	0x14277b14	8.455618e-27
175	0x17071450	4.364649e-25
176	0xbc88b2fa	-0.016686905
177	0x95840f7d	-5.333881e-26
178	0xbc44717b	-0.0119899465
179	0xbc9fb50c	-0.01949551
180	0x94df5c68	-2.2553694e-26
181	0xbc2bdd3d	-0.010489759
182	0xbd105fe9	-0.035247717
183	0xbd251a15	-0.040308077
184	0xbc28a2d2	-0.010292726
185	0xbc4ab3b4	-0.012371946
186	0xbd07d003	-0.03315736
187	0xbc660219	-0.014038586
188	0xbbb61e79	-0.005557832
189	0x3b6e9ff0	0.0036411248
190	0xbd059175	-0.03260942
191	0xbd02e57a	-0.031957127
192	0xbc167f21	-0.009185583
193	0xbd2dcd1d	-0.04243194
194	0x9629bee8	-1.3711951e-25
195	0xbcddd855	-0.027080694
196	0xbc25e2d2	-0.010124879
197	0xbd021395	-0.031756956
198	0xbc5e64ec	-0.013573866
199	0xbd1d0fc5	-0.038345117
200	0xbd0eeb9c	-0.034892663
201	0xbc106b9e	-0.00881472
202	0xbceeb3a1	-0.029138388
203	0xbd296a72	-0.04136128
204	0xbca5295d	-0.020161325
205	0xbc805cd1	-0.015669258
206	0xbd22ddb7	-0.039762225
207	0xbc8cce51	-0.017188223
208	0xbc44193a	-0.011968905
209	0xbd22eb8b	-0.039775413
210	0xbc3b0dac	-0.011416834
211	0x9a0fa47d	-2.970458e-23
212	0xbd1f362d	-0.038870025
213	0xbc9a8411	-0.018861802
214	0x14c183cb	1.9540003e-26
215	0xbd099b04	-0.0335951
216	0xbc67ac15	-0.014140149
217	0xbd0516e7	-0.032492545
218	0xbcc6e6c0	-0.024279952
219	0xbb11863a	-0.002220525
220	0xbd22b0a0	-0.039719224
221	0xbc2b09c4	-0.01043934
222	0xbcf7a52d	-0.03023013
223	0xbd015866	-0.031578444
224	0x984fdf19	-2.6866758e-24
225	0xbd0b075b	-0.03394256
226	0xbc3b15e7	-0.011418796
227	0xbc4ea009	-0.012611398
228	0x1577bdac	5.0030877e-26
229	0xbc39c6b7	-0.011338881
230	0xbd20a02d	-0.039215256
231	0x160ff720	1.1629427e-25
232	0xbc819ac6	-0.015820872
233	0x96ba5124	-3.0101128e-25
234	0xbc17b0ae	-0.009258432
235	0xba2cd2fd	-0.0006592719
236	0xbcd38e8a	-0.025824804
237	0xbcecc7d0	-0.028903872
238	0xbd205909	-0.03914741
239	0xbc321159	-0.010868394
240	0x9622001e	-1.3086293e-25
241	0xbd05c794	-0.032661036
242	0xbd1f36da	-0.03887067
243	0x98bc6906	-4.8702908e-24
244	0xbca3f1ac	-0.020012699
245	0x16d3eca2	3.4238225e-25
246	0x1a204493	3.3142618e-23
247	0xbccc70fe	-0.024956223
248	0xbd1a444f	-0.0376628
249	0xbca505e6	-0.020144414
250	0xbc49f0e3	-0.012325498
251	0xbd2a273c	-0.041541323
252	0xbc505fe5	-0.012718176
253	0x3b133d54	0.0022466974
254	0xbd18af67	-0.03727665
255	0x98232286	-2.1084686e-24

bias f4 [64]
0	0xbd19d8c6	-0.037560247
1	0xbcdc66a8	-0.026904419
2	0xbc835c27	-0.016035153
3	0x3db2eac6	0.08736186
4	0xbc1b59e7	-0.009481884
5	0x3d2d8592	0.04236371
6	0xba64a21f	-0.00087216677
7	0x3dc452fc	0.095861405
8	0xbc182c38	-0.009287886
9	0xbb67fcfe	-0.0035398598
10	0xbbaa20fd	-0.005191921
11	0x3dcceb64	0.10005835
12	0xbbcadf28	-0.006191153
13	0x3d7dd8e6	0.06197443
14	0x3db69ea2	0.089169756
15	0xbd1f321b	-0.038866144
16	0x3d8c1f40	0.06841898
17	0x3d6ec491	0.05829293
18	0x3d868b18	0.06569499
19	0xbd02c122	-0.031922467
20	0x3d117008	0.035507232
21	0xbbbd68d8	-0.0057803206
22	0xbcb94bfc	-0.02261924
23	0x3b6dd23b	0.0036288637
24	0xba10eaa5	-0.0005528129
25	0xbce0d544	-0.027445443
26	0xbc1316d4	-0.008977611
27	0x3b5b3df4	0.0033453675
28	0xbbd419b3	-0.00647279
29	0xbcecf738	-0.028926477
30	0x3db18b40	0.08669138
31	0xbc85843d	-0.016298408
32	0x3dee2645	0.11628393
33	0x3cf9bdd2	0.030486021
34	0xbc7b9688	-0.015355714
35	0xbcae836b	-0.0213029
36	0x3db9419e	0.090457186
37	0xbbe524cd	-0.0069929124
38	0xbbba931e	-0.0056938073
39	0xbb6743bb	-0.0035288173
40	0x3cb46882	0.02202249
41	0x3d908740	0.07057047
42	0x3c77dbff	0.015128135
43	0xbc6a2f34	-0.014293481
44	0xb5056748	-4.9696655e-07
45	0x3d93641b	0.07196828
46	0x3cce1f4d	0.02516141
47	0x3dc611ed	0.09671388
48	0xbb5ed80b	-0.0034003283
49	0xbc593235	-0.013256599
50	0xbd52b582	-0.05144263
51	0x3dde9e24	0.10870007
52	0x3d3412d1	0.043963257
53	0xba2e0f07	-0.00066398125
54	0x3d827a75	0.06371013
55	0xba8bf4fd	-0.0010677871
56	0x3c1eb187	0.0096858805
57	0x3d9222ca	0.07135542
58	0xbc882f23	-0.016624039
59	0xa9b26699	-7.922586e-14
60	0x3de3b52c	0.1111854
61	0x3e0a062b	0.13478915
62	0x3cfd5d51	0.030928286
63	0xbc978eb1	-0.018500658

weight f4 [10, 64]
0	0x3c4af153	0.012386638
1	0x3be0a68d	0.006855792
2	0xbbad7559	-0.00529353
3	0xbe3904cc	-0.18068236
4	0x3c80c709	0.015719907
5	0x3d099e86	0.033598445
6	0x980d6eb8	-1.8279722e-24
7	0xbdae032a	-0.08496697
8	0xbd0d2673	-0.034460496
9	0x18a0f4cf	4.1606224e-24
10	0x2b486ef4	7.120825e-13
11	0xbd8ff9e5	-0.070300855
12	0x3d868fb2	0.065703765
13	0x3e2b8bed	0.16752596
14	0x3e25b6dc	0.16183037
15	0x17a4ccb2	1.0649924e-24
16	0xbdfd8cbd	-0.12380359
17	0x3d4f2fdf	0.050582763
18	0x3cb02698	0.021502778
19	0x3d3a1046	0.045425676
20	0x3d0e214f	0.034699734
21	0x3d10c550	0.035344422
22	0xb7137752	-8.789664e-06
23	0xbb869743	-0.0041073873
24	0x3c2a274b	0.010385345
25	0xbbe6f944	-0.0070487577
26	0xbd9737f6	-0.073837206
27	0xbd53a2a7	-0.05166879
28	0xbc811ae8	-0.0157599
29	0x3ab01d54	0.0013436475
30	0xbd52f4ad	-0.051502872
31	0xbbbda75b	-0.0057877726
32	0x3d443826	0.04790511
33	0xbd63412c	-0.055482075
34	0x97260569	-5.364432e-25
35	0xbdfcea93	-0.12349429
36	0xbe9d5cec	-0.30734956
37	0x295d3e36	4.9125817e-14
38	0xa2699b2c	-3.1659536e-18
39	0x3caeaf8f	0.021323947
40	0x3cacc7e2	0.021091405
41	0x3ddde18a	0.10834034
42	0xbcecba90	-0.028897554
43	0xbc00c7ab	-0.007860105
44	0x9e80e064	-1.3645333e-20
45	0xbd716ba8	-0.05894056
46	0x3b8d6511	0.0043150266
47	0x3e152840	0.14566135
48	0x997c9eba	-1.3060149e-23
49	0x9548bf80	-4.0540745e-26
50	0xb9c6ef57	-0.00037943825
51	0x3d529c5f	0.05141866
52	0xbdf7f13f	-0.12106561
53	0xb5a8740b	-1.2550748e-06
54	0xbdf6dc89	-0.120537825
55	0x1eab0f33	1.8111615e-20
56	0x3deb8d1e	0.11501525
57	0x3d68782e	0.056755237
58	0xbdd6f712	-0.10496344
59	0x2f427d5c	1.7688734e-10
60	0x3d5e449c	0.05426465
61	0x3d8c08f4	0.06837645
62	0xbb1b2a4a	-0.002367633
63	0xbd225296	-0.03962954
64	0x3c5365e7	0.012902713
65	0xbc372e95	-0.01118054
66	0xbc2efa7e	-0.010679839
67	0xbe11895c	-0.14212555
68	0xbaef5fb6	-0.0018262777
69	0x3ad7e8f5	0.0016472625
70	0x9a1ff772	-3.3080314e-23
71	0xbeb29ca0	-0.3488512
72	0x3c6fd679	0.014638537
73	0x9b10c0dc	-1.1973717e-22
74	0x322f373f	1.0198902e-08
75	0x3e62d313	0.22150831
76	0x3d61cc41	0.055126432
77	0x3e2bc3f6	0.16773972
78	0x3ea92666	0.33037108
79	0x1a09e7d6	2.851821e-23
80	0x39b1a240	0.00033880956
81	0xbe821996	-0.25410146
82	0x3caf83fa	0.021425236
83	0x3cd1f748	0.025630608
84	0x3e3d54c5	0.18489368
85	0xbdc866f5	-0.097852625
86	0x2b875fe5	9.618943e-13
87	0xbe0bb288	-0.13642323
88	0xbc527b17	-0.01284673
89	0xbe6b5bd1	-0.22984244
90	0xbac28aac	-0.0014842353
91	0x3dc6ae09	0.09701163
92	0x3bc6703c	0.00605586
93	0xbcb29c31	-0.021802993
94	0x3e278fa2	0.16363385
95	0x3a96e0af	0.0011511053
96	0xbed2bd24	-0.41159928
97	0x3c067a04	0.008207802
98	0x97876a13	-8.750947e-25
99	0xbe2ef403	-0.1708527
100	0x3e435938	0.19077003
101	0xa45d8000	-4.8030156e-17
102	0xb0f4d1d2	-1.7812971e-09
103	0xbbc8ef3b	-0.006132034
104	0xbd9557d3	-0.07292142
105	0xbe3a69af	-0.18204378
106	0xbeff0870	-0.49811125
107	0xbc7b5330	-0.015339658
108	0x9a657f05	-4.7458696e-23
109	0xbd47b660	-0.04875791
110	0x3d992b23	0.07478931
111	0x3e7539c9	0.23947825
112	0x15deba47	8.995898e-26
113	0xa1013fdb	-4.379141e-19
114	0xba1faae6	-0.00060908345
115	0xbed2f06a	-0.41199046
116	0xbdca0a0e	-0.09865199
117	0xb6c814f3	-5.9629033e-06
118	0xbea810bd	-0.3282527
119	0x1e5ed605	1.179684e-20
120	0x3d54451b	0.051823717
121	0xbd8106f4	-0.06300154
122	0xbb002fff	-0.0019559858
123	0x235ff69d	1.2141077e-17
124	0x3dddafbe	0.10824536
125	0xbe5385e9	-0.20656551
126	0xbcc0d3e5	-0.02353854
127	0x3c7f49f5	0.015581598
128	0x3dbf1b6f	0.093314044
129	0xbc34d2d8	-0.011036597
130	0xba03e11b	-0.0005030797
131	0xbe0b38f2	-0.13595942
132	0xbc1ad5ce	-0.009450389
133	0x3c913390	0.017724782
134	0x1d70ecd5	3.1886175e-21
135	0xbb1a2b8a	-0.0023524486
136	0x3c6234c5	0.013806527
137	0x1dc0135e	5.0842002e-21
138	0xaf5b9572	-1.9971028e-10
139	0x3d8faf4c	0.07015857
140	0xbe09c5dc	-0.13454384
141	0x3d8d382a	0.06895478
142	0xbc07828a	-0.008270869
143	0x17d59bcc	1.3804131e-24
144	0xbcbd8408	-0.023134246
145	0x3d915543	0.070963405
146	0xbc851c91	-0.016248973
147	0x3c22d6ea	0.009938935
148	0xbe413088	-0.1886617
149	0xbcb997db	-0.022655418
150	0xb74b0ba9	-1.2102458e-05
151	0x3df60d77	0.12014287
152	0x3baa2572	0.005192452
153	0xbb64217d	-0.003481
154	0xbc126db0	-0.008937284
155	0x3d7f248a	0.062290706
156	0x3c5f4b09	0.01362873
157	0xba79b30a	-0.0009525275
158	0xbe42bd8d	-0.1901762
159	0x3a622b37	0.00086276553
160	0xbd16a2e6	-0.036776446
161	0x3d49284e	0.049110703
162	0x9790d370	-9.359156e-25
163	0xbca6a80a	-0.0203438
164	0xbdb34b01	-0.0875454
165	0xb71f1caf	-9.483817e-06
166	0x20d63285	3.628644e-19
167	0xbaaabd84	-0.0013026451
168	0x3d48fe4c	0.04907064
169	0x3cbbb44a	0.022913117
170	0xbd90d605	-0.07072071
171	0xbb5dc406	-0.0033838763
172	0x9a7e6a60	-5.2611898e-23
173	0xbd3bd3f0	-0.045856416
174	0xbe521683	-0.205164
175	0x3e071d82	0.1319485
176	0x9a7cedad	-5.230437e-23
177	0x2ca890d6	4.790927e-12
178	0xbc4310c4	-0.011905853
179	0x3beae8b2	0.0071688527
180	0xbe538ae7	-0.20658456
181	0x9f5dc0ce	-4.6958055e-20
182	0xbdcea11c	-0.10089323
183	0xb50988a6	-5.1235327e-07
184	0xbde9eb59	-0.11421842
185	0xbd867f1d	-0.06567214
186	0xbcb70f77	-0.022346241
187	0x3abd9186	0.0014462925
188	0x3e06bb2b	0.13157336
189	0xbd8e1862	-0.069382444
190	0x3dc38473	0.09546747
191	0xbe23fd77	-0.16014658
192	0x3bcb6adb	0.0062078065
193	0x3bb3ab13	0.00548304
194	0x3c51d262	0.012806507
195	0x3dfad7dc	0.12248203
196	0xbb5de4ea	-0.0033858367
197	0x3cff4908	0.031162754
198	0x1a0438a8	2.7342727e-23
199	0xbdcc9567	-0.09989434
200	0x3bb2d23e	0.0054571917
201	0x9882d256	-3.3816597e-24
202	0x30b0cd75	1.286408e-09
203	0xbe04db7d	-0.12974353
204	0x3d0800f6	0.03320404
205	0x3db6a217	0.08917635
206	0x3e35dcaf	0.17759965
207	0x1a469d62	4.1072573e-23
208	0xbce6c6a8	-0.028170899
209	0xbe0539df	-0.13010357
210	0xbce3590b	-0.02775242
211	0xbd8dd8c6	-0.06926112
212	0x3ddbf066	0.10739212
213	0xbe59192a	-0.21201006
214	0xaed76bf9	-9.796248e-11
215	0xbe162c45	-0.14665325
216	0x3ba09e78	0.0049017034
217	0xbdbdc897	-0.09266775
218	0x3da7d2a6	0.08194475
219	0xbd7dedf9	-0.061994527
220	0xbc6d5178	-0.014484756
221	0x3c1bcb28	0.009508885
222	0x3d787aa3	0.06066383
223	0xbab02dfc	-0.0013441439
224	0xbcf1fc06	-0.02953912
225	0x3d9d11a0	0.07669377
226	0x9827afc9	-2.1672993e-24
227	0x3d16b21a	0.036790945
228	0x3d55ecff	0.05222797
229	0xb3da7e4d	-1.017439e-07
230	0xad26e8a9	-9.4876685e-12
231	0xbd29ac25	-0.041423935
232	0xbbb202b2	-0.00543245
233	0x3c6acf9b	0.014331724
234	0xbdbca2cb	-0.09210738
235	0x3ba9067d	0.005158244
236	0x1749674d	6.5076987e-25
237	0x3d2c89bc	0.04212354
238	0xbdadc063	-0.084839605
239	0x3dedf0a4	0.11618164
240	0x1b4aa9e8	1.6763948e-22
241	0x982e1d2c	-2.25037e-24
242	0x3a806e04	0.0009798412
243	0xbcf7f9a4	-0.030270405
244	0x3b0718a1	0.0020614045
245	0x3a4ef4a9	0.00078947336
246	0xbe29088d	-0.16507168
247	0x2305588b	7.228694e-18
248	0x3de6ed32	0.1127571
249	0x3cc51ffc	0.024063103
250	0x3d836801	0.064163215
251	0xa59ad62f	-2.6859878e-16
252	0x3d53c0f8	0.0516977
253	0xbe0a378e	-0.13497755
254	0x3c3ea8e9	0.011636951
255	0x3d2d996d	0.042382646

bias f4 [10]
0	0x3ddc8318	0.10767192
1	0xbcf39d8e	-0.029738214
2	0xbd02a2db	-0.031893592
3	0xbd18f6db	-0.037344795
4	0xbd89cdb5	-0.06728689
5	0x3cc3a2aa	0.023881275
6	0x3e4127df	0.18862866
7	0x3de2b4a6	0.11069612
8	0x3ca7f7d4	0.020503916
9	0xbd38f729	-0.045157585
