2-hypertuning-mlflow/mlruns/2/825241ede33d4d21a5a0b35b3a4c9a72/artifacts/pytorch_models/20250921-1130model.pt (torch, 211653 bytes, 12 tensors)

weight f4 [64, 1, 2, 2]
0.5285252 -0.12272881 -0.015287615 -0.016106533 -0.027672097 -0.36537707 0.49175128 -0.4486874
0.22659492 -0.17589259 -0.11258979 0.36468714 -0.117064565 -0.4337947 -0.11779248 0.3631337
0.5051914 0.3020695 -0.28460407 -0.35100782 -0.59307873 -0.7384353 -0.77810025 -0.4027458
0.3717782 -0.2790849 0.42711696 -0.198829 -0.20373489 0.29889217 -0.36025068 0.0010538498
-0.5116362 0.23804058 0.025450995 -0.21421863 -0.13987742 0.13815169 0.27502486 -0.07571688
-0.26996905 0.4242381 -0.36117494 0.4887793 -0.55443484 -0.83694094 0.054616485 -0.37282643
-0.29617268 0.4559543 0.525066 0.48105627 -0.06714548 0.4427931 -0.05386717 0.4210174
0.57910347 0.5283018 0.61790544 -0.013399316 0.19953799 0.5258388 0.12766448 0.37732017
0.5428971 0.22611625 0.3605372 0.52921534 0.18975699 0.270238 0.553689 0.13166386
0.46233776 -0.17864835 -0.53087634 -0.24986033 0.40385506 0.47145683 -0.1259259 -0.28264037
0.30528325 0.5681698 -0.20982482 -0.37193644 0.27037197 -0.53222054 -0.4597313 0.10722017
-0.7661075 -0.24250944 -0.15562035 -0.35743356 -0.00028592677 -5.5879123e-06 -1.7445725e-19 9.9484794e-08
-0.1544996 0.3378697 0.42469835 0.07990575 0.21230887 -0.5202412 -0.28518423 -0.29879737
0.49090767 0.027614601 0.0032694614 -0.45904198 -0.3993697 0.3459556 -0.22504868 0.29506862
0.58193094 -0.041353237 0.078458056 -0.102929965 -0.3586481 -0.44864348 0.2492113 0.5667106
-0.00028207785 0.0007763124 3.8347034e-06 -7.7635023e-13 0.07456359 -0.098497406 -0.4936489 -0.049987428
0.36291555 -0.48333856 -0.0032965746 0.21230264 1.1020315e-09 -0.0016026357 2.2276835e-25 -5.733616e-23
-0.5166931 -0.46943298 0.13652846 0.06894611 -0.35210776 0.3810655 0.038132705 0.45332563
0.4978612 0.06692777 0.16243668 0.3968395 0.016023979 0.15562657 -0.018618707 0.51325893
-0.03328399 0.043533176 0.484107 -0.4443736 -0.086952396 0.3483732 0.004008989 0.27381158
0.33791944 0.2078614 0.6069151 0.31199935 4.8993883e-25 1.5245379e-23 -9.621145e-07 -0.00010183705
0.12895142 -0.35071135 0.13396831 0.54871285 0.51804715 -0.0048007662 -0.26128253 -0.18787606
-0.36645052 0.15556855 0.52047646 0.13414195 -0.08990643 0.5165823 -0.055552892 0.4211822
0.38965613 0.3174147 -0.07657573 0.098102525 0.3600607 0.090133145 -0.16063437 0.38369343
-0.047293257 -0.8056092 -0.37598568 -0.5529244 0.46623954 0.28247535 0.14874673 0.10152134
-2.3023002e-08 -8.329662e-09 -1.17698955e-05 -0.0024687545 -0.06266407 -0.33930108 -0.13893835 0.31232035
2.1218228e-25 0.00020133595 -5.12858e-25 -2.6955374e-07 0.3167959 -0.40570936 -0.06702791 0.17823519
-0.30536014 0.10720006 0.5553031 0.53178066 -0.50278324 -0.22367391 0.053787746 -0.24593268
0.52307 -0.12904283 0.21888913 -0.14537054 -0.24448214 -0.72615385 -0.33874458 0.20701288
0.40046123 -0.0015999454 0.12407649 0.5286834 0.46360394 0.1644343 0.3926225 0.07000685
0.27393562 0.02001646 0.24269003 -0.09212857 0.5387455 -0.25682914 0.24517167 0.5323235
-0.6993326 0.23675165 -0.8330483 -0.23731318 0.27986935 0.53299487 -0.32707822 0.45944405
00000000: 6d4d 073f 3e59 fbbd e878 7abc d9f1 83bc
00000010: 98b0 e2bc b412 bbbe d3c6 fb3e 5bba e5be
00000020: 8008 683e 301d 34be 7a95 e6bd 46b8 ba3e
00000030: 8cbf efbd 571a debe 2f3d f1bd a9ec b93e
00000040: 3954 013f daa8 9a3e a0b7 91be 4cb7 b3be
00000050: 02d4 17bf 190a 3dbf 9431 47bf b334 cebe
00000060: b659 be3e 37e4 8ebe 13af da3e d499 4bbe
00000070: e19f 50be 6508 993e c772 b8be 5521 8a3a
00000080: 97fa 02bf e9c0 733e 9b7e d03c 215c 5bbe
00000090: 073c 0fbe a377 0d3e 0fd0 8c3e 7411 9bbd
000000a0: 6239 8abe bc35 d93e eceb b8be 4841 fa3e
000000b0: 71ef 0dbf c341 56bf 89b5 5f3d 1be3 bebe
000000c0: f2a3 97be d872 e93e ba6a 063f 024d f63e
000000d0: 9283 89bd c7b5 e23e d2a3 5cbd 988f d73e
000000e0: 2040 143f c93e 073f 0d2f 1e3f ce88 5bbc
000000f0: b053 4c3e 5f9d 063f 7aba 023e 1c30 c13e
00000100: 4efb 0a3f 058b 673e 5598 b83e a87a 073f
00000110: a84f 423e a35c 8a3e 90be 0d3f e4d2 063e
00000120: 89b7 ec3e 98ef 36be 83e7 07bf 63db 7fbe
00000130: 17c6 ce3e ca62 f13e b8f2 00be 3db6 90be
00000140: 164e 9c3e 9373 113f 51dc 56be 746e bebe
00000150: 326e 8a3e 9b3f 08bf e761 ebbe 4096 db3d
00000160: 9f1f 44bf 6554 78be f15a 1fbe 8801 b7be
00000170: 71e8 95b9 cd7f bbb6 78f6 4da0 58a4 d533
00000180: 2535 1ebe 42fd ac3e 1072 d93e a0a5 a33d
00000190: 7f67 593e 872e 05bf ab03 92be f8fb 98be
000001a0: 4058 fb3e 0438 e23c 7644 563b 8d07 ebbe
000001b0: 2f7a ccbe 1821 b13e 2973 66be 3c13 973e
000001c0: 6df9 143f 0362 29bd 9eae a03d f2cc d2bd
000001d0: b9a0 b7be 99b4 e5be 3f31 7f3e f213 113f
000001e0: d9e3 93b9 7181 4b3a daab 8036 ee85 5aab
000001f0: ccb4 983d 02b9 c9bd 8cbf fcbe 9ebf 4cbd
00000200: 11d0 b93e 2778 f7be 580b 58bb dd65 593e
00000210: 4976 9730 880f d2ba 0ee3 8916 5da1 8a9a
00000220: 0046 04bf 8559 f0be 1ece 0b3e 9e33 8d3d
00000230: 7847 b4be 041b c33e 0a31 1c3d 4c1a e83e
00000240: aae7 fe3e 6d11 893d cd55 263e 8c2e cb3e
00000250: b844 833c 925c 1f3e 4286 98bc f064 033f
00000260: cb54 08bd d84f 323d dfdc f73e f084 e3be
00000270: 1914 b2bd f95d b23e d65d 833b 0831 8c3e
00000280: c703 ad3e 9ed9 543e ca5e 1b3f 61be 9f3e
00000290: f4a0 1717 bb71 9319 0122 81b5 5a91 d5b8
000002a0: d70b 043e 7090 b3be fd2e 093e 7278 0c3f
000002b0: bd9e 043f bf4f 9dbb d3c6 85be 9562 40be
000002c0: 679f bbbe 5d4d 1f3e f23d 053f 825c 093e
000002d0: dd20 b8bd bd3e 043f 6e8b 63bd 31a5 d73e
000002e0: 0281 c73e 2e84 a23e bdd3 9cbd fae9 c83d
000002f0: e059 b83e ba97 b83d 567d 24be 7773 c43e
00000300: 93b6 41bd 683c 4ebf 3281 c0be 748c 0dbf
00000310: f3b6 ee3e 9ca0 903e 1051 183e 6cea cf3d
00000320: 1ec4 c5b2 3e1a 0fb2 5177 45b7 d4ca 21bb
00000330: 0556 80bd dfb8 adbe db45 0ebe 74e8 9f3e
00000340: a055 8316 b51d 5339 ccb8 1e97 2fb7 90b4
00000350: 1233 a23e 23b9 cfbe ee45 89bd 4983 363e
00000360: 2a58 9cbe b48b db3d 5828 0e3f c722 083f
00000370: 67b6 00bf c60a 65be 8a50 5c3d c7d5 7bbe
00000380: eae7 053f ce23 04be 7924 603e 04dc 14be
00000390: 8759 7abe 38e5 39bf ee6f adbe 2ffb 533e
000003a0: 4109 cd3e 42b5 d1ba d11b fe3d cc57 073f
000003b0: 7f5d ed3e 7761 283e d105 c93e c05f 8f3d
000003c0: 4a41 8c3e 8ff9 a33c bc83 783e e7ad bcbd
000003d0: 3aeb 093f 1c7f 83be 480e 7b3e 5a46 083f
000003e0: 7607 33bf 066f 723e a742 55bf 3a02 73be
000003f0: 094b 8f3e 5a72 083f cc76 a7be 403c eb3e

bias f4 [64]
-0.14208022 0.3485014 -0.0726151 0.120886 -0.17894422 0.40593258 -0.15222622 -0.00501255
0.37143278 0.19965208 -0.27556643 0.21018223 -0.14969438 0.34393984 -0.22941291 0.25571117
0.32528585 0.39585873 0.35035685 0.10049537 -0.1709429 0.35336056 0.2626763 -0.00025399504
-0.20016138 0.4085951 0.24910834 -0.038593557 0.14626707 -0.00932882 -0.013406929 0.1744808
0.3655416 -1.2439842e-08 0.066244066 0.112061664 0.44996592 0.24690065 -0.04837021 0.038962245
-0.096823595 -0.004222018 -0.40508857 -0.09611545 -0.110636584 -0.0065678908 -0.34554335 0.17093396
0.39216036 -0.17750348 -0.003333369 0.017684845 -0.010737921 0.4823632 -0.12978016 0.070494846
-0.10342024 0.08712019 -0.31106517 0.09950113 0.007123253 -0.3150947 0.20192496 0.0861367
00000000: 7a7d 11be c76e b23e 3ab7 94bd 1493 f73d
00000010: 273d 37be 65d6 cf3e 31e1 1bbe 5140 a4bb
00000020: 702c be3e 9871 4c3e 0b17 8dbe 033a 573e
00000030: 7c49 19be e218 b03e 38eb 6abe 93ec 823e
00000040: de8b a63e ffad ca3e f961 b33e 84d0 cd3d
00000050: a80b 2fbe adeb b43e 827d 863e a32a 85b9
00000060: 1bf7 4cbe 6033 d13e 4216 7f3e 4714 1ebd
00000070: 09c7 153e e8d7 18bc bca8 5bbc 18ab 323e
00000080: 4528 bb3e 01b7 55b2 f8aa 873d 9680 e53d
00000090: ef61 e63e 86d3 7c3e d71f 46bd e096 1f3d
000000a0: 734b c6bd db58 8abb c567 cfbe 2dd8 c4bd
000000b0: 6f95 e2bd 7637 d7bb 0feb b0be 5009 2f3e
000000c0: 3ec9 c83e 79c3 35be a774 5abb cfdf 903c
000000d0: 1bee 2fbc 4ff8 f63e 17e5 04be 9a5f 903d
000000e0: fecd d3bd 126c b23d ef43 9fbe 40c7 cb3d
000000f0: 2d6a e93b 1854 a1be 6bc5 4e3e 7068 b03d

weight f4 [64, 64, 2, 2]
0.07005896 0.0004525445 0.056580283 0.00833515 0.011926635 -0.057166047 0.04196741 -0.04288303
0.023386685 0.038691975 0.029869664 0.041923855 -0.041633792 -0.05519709 0.0006711235 -0.049130864
-0.11819876 -0.17543364 -0.045851268 -0.06386812 0.026866041 0.05146399 -0.01829036 -0.01594505
0.14904325 -0.010264871 0.0953921 -0.0033011646 -0.15492861 0.2783184 -0.23109657 0.13953333
0.00855075 0.02410129 0.0013205418 0.011581376 -0.007488942 -0.01062773 0.004422159 0.0013447781
0.04972698 0.36267942 -0.0050136345 0.3413423 0.056915324 0.062591806 0.0006917933 0.049107466
-0.0030531844 0.041823786 0.026472569 0.043717157 -0.0010857912 -0.004503909 0.004132408 0.0028836362
0.08245703 0.031840585 0.035429627 0.04350612 -0.032920003 0.018036725 0.02005232 0.007534451
-0.008053457 -0.02631672 0.027067218 0.00865697 0.00987639 -0.017342562 0.024709009 0.015581663
0.036948886 -0.06086437 -0.0036534138 -0.03044733 0.037056923 -0.0012366734 0.022408662 0.0062923594
-0.14485118 -0.17543961 -0.054372624 -0.06550987 -0.04829326 -0.033015568 -0.041236527 -0.045615766
-0.020635003 0.031267658 -0.03821361 -0.03116517 -8.971269e-25 4.3986148e-26 1.1590404e-25 -9.645979e-26
0.044146556 0.044040613 0.032507677 0.05895924 -0.003656261 -0.11775509 -0.06018992 -0.09477713
0.04774682 -0.061726127 0.025156895 -0.017085642 0.037476942 0.3172228 0.006688823 0.28612626
0.028895918 -0.011563614 0.052446377 0.0038783676 0.016507093 0.023361582 0.09940861 0.10067591
-7.900208e-25 4.4569722e-24 2.5552933e-25 -1.0909392e-25 -0.060357183 -0.019883087 -0.04991353 -0.066269405
0.053652115 -0.059170213 0.00039367896 -0.035618026 2.6304594e-24 -2.6068098e-24 1.822503e-26 2.62182e-24
0.0074306387 -0.01150859 0.049955588 0.032347333 0.019097961 0.01355744 -0.019551817 0.010544893
0.062724635 0.007053956 0.024281802 0.010645222 0.0009299909 -0.03273245 0.018468099 0.006178555
0.2247847 0.019853672 0.16448519 0.04356175 0.0022418867 0.015359028 0.019392125 0.02818318
0.0152857 0.026981125 0.037939433 0.044012114 -3.2128153e-25 -2.4946594e-26 3.8434108e-24 -7.8391406e-25
-0.029998237 -0.03233795 0.009453418 -0.0034850163 -0.04954119 -0.215741 -0.02591722 -0.09852232
0.021463884 0.045915574 0.065197416 0.059218235 -0.0030312696 0.03644964 0.0051383823 0.05744168
-0.013233104 -0.008892851 -0.0052802777 -0.0038416707 -0.022530198 -0.027363265 0.0038192803 0.006240882
-0.0026426925 -0.006263269 -0.035660204 -0.046724383 0.04893362 0.040388532 0.04635259 0.04411041
7.8310896e-09 2.2030646e-09 1.247516e-08 5.6789355e-09 0.002891963 0.020247035 0.056079455 0.044891074
-2.7145542e-24 1.6673494e-26 9.90819e-25 -5.914132e-24 0.047962084 -0.047674958 -0.008526297 -0.012383323
0.02624576 0.039660994 0.03481987 0.040841173 0.09505232 0.107250534 0.016715081 0.07896605
0.102676496 0.018040987 0.06767799 0.025634704 0.049714405 0.11596684 0.07549594 0.06400967
0.034073103 0.03268111 0.046484604 0.044105798 0.05541863 0.0063499357 0.03943235 0.015460264
0.053994432 0.00758665 0.060890235 0.020760061 0.039761636 0.030910613 0.045011636 0.044792403
0.008819907 0.09272658 -0.034038644 0.052583184 -0.004277642 0.0045170397 -0.005454324 0.015821707
00000000: 127b 8f3d 7f43 ed39 bac0 673d 2790 083c
00000010: ef67 433c f226 6abd 05e6 2b3d 1ea6 2fbd
00000020: 6f95 bf3c 7a7b 1e3d 3ab1 f43c 59b8 2b3d
00000030: 3288 2abd 5816 62bd 56ee 2f3a 723d 49bd
00000040: 3112 f2bd e0a4 33be 8ace 3bbd 4acd 82bd
00000050: 2c16 dc3c e8cb 523d aad5 95bc 329f 82bc
00000060: cb9e 183e fd2d 28bc ef5c c33d 5a58 58bb
00000070: 9ba5 1ebe c07f 8e3e 94a4 6cbe d3e1 0e3e
00000080: 7218 0c3c 1270 c53c 0816 ad3a d0bf 3d3c
00000090: cc65 f5bb ee1f 2ebc c2e7 903b 4443 b03a
000000a0: 85ae 4b3d 1eb1 b93e 6a49 a4bb 6bc4 ae3e
000000b0: 0b20 693d 2230 803d 7659 353a e924 493d
000000c0: ef17 48bb 6b4f 2b3d 00dd d83c c310 333d
000000d0: 1b51 8eba 8795 93bb 2769 873b 63fb 3c3b
000000e0: 3bdf a83d 466b 023d a81e 113d 7933 323d
000000f0: 20d7 06bd c1c1 933c c344 a43c 8ee3 f63b
00000100: a6f2 03bc 2996 d7bc 12bc dd3c f7d5 0d3c
00000110: 95d0 213c fd11 8ebc 8c6a ca3c 3b4a 7f3c
00000120: b757 173d eb4c 79bd 1d6e 6fbb ae6c f9bc
00000130: 00c9 173d e017 a2ba 5f92 b73c 2330 ce3b
00000140: de53 14be 71a6 33be d4b5 5ebd 0a2a 86bd
00000150: 27cf 45bd 553b 07bd a2e7 28bd 99d7 3abd
00000160: bd0a a9bc 8412 003d e085 1cbd 194e ffbc
00000170: dcd2 8a97 11cf 5915 757b 0f16 a8d2 ee95
00000180: 05d3 343d ee63 343d c526 053d 3e7f 713d
00000190: e19d 6fbb 9529 f1bd b589 76bd 831a c2bd
000001a0: 2b92 433d 89d4 7cbd d515 ce3c 30f7 8bbc
000001b0: 6c81 193d 076b a23e ea2d db3b 247f 923e
000001c0: 22b7 ec3c 5075 3dbc 03d2 563d 362c 7e3b
000001d0: e239 873c ca60 bf3c be96 cb3d 2c2f ce3d
000001e0: e57f 7497 b76b ac18 3d2a 9e16 3e0d 0796
000001f0: 1839 77bd dbe1 a2bc 2172 4cbd 41b8 87bd
00000200: 52c2 5b3d 775c 72bd b266 ce39 35e4 11bd
00000210: 9e85 4b18 30b1 4998 f17d b414 7fda 4a18
00000220: b77c f33b 868e 3cbc 3b9e 4c3d a37e 043d
00000230: 5473 9c3c 0620 5e3c 222b a0bc 7dc4 2c3c
00000240: c675 803d df24 e73b a1ea c63c 4c69 2e3c
00000250: a2ca 733a 7612 06bd 694a 973c 7a75 ca3b
00000260: f62d 663e 2ba4 a23c ce6e 283e ce6d 323d
00000270: 9eec 123b 6fa4 7b3c 3cdc 9e3c 6ae0 e63c
00000280: df70 7a3c 8507 dd3c 6166 1b3d 0c46 343d
00000290: 17dd c696 210f f794 4caf 9418 129c 7297
000002a0: ddbe f5bc cc74 04bd 82e2 1a3c df64 64bb
000002b0: b4eb 4abd 35eb 5cbe 5a50 d4bc 12c6 c9bd
000002c0: 07d5 af3c f811 3c3d 3986 853d d28e 723d
000002d0: 44a8 46bb 384c 153d e05f a83b f847 6b3d
000002e0: a9cf 58bc 52b3 11bc 2e06 adbb 8ac4 7bbb
000002f0: 4091 b8bc ed28 e0bc e44c 7a3b 5080 cc3b
00000300: 0631 2dbb 1c3c cdbb 6f10 12bd 1162 3fbd
00000310: 9f6e 483d 726e 253d 37dc 3d3d 1ead 343d
00000320: 7f89 0632 b964 1731 5552 5632 7220 c331
00000330: 1787 3d3b 1cdd a53c 92b3 653d b4df 373d
00000340: 4907 5298 5420 a514 6252 9917 baca e498
00000350: e473 443d d146 43bd e2b1 0bbc 6ce3 4abc
00000360: 5901 d73c 9173 223d 489f 0e3d 1349 273d
00000370: caaa c23d 2ba6 db3d 11ee 883c f4b8 a13d
00000380: 0e48 d23d b1ca 933c c29a 8a3d dfff d13c
00000390: 55a1 4b3d 0680 ed3d 9e9d 9a3d 8017 833d
000003a0: 3d90 0b3d a1dc 053d a466 3e3d 48a8 343d
000003b0: a5fe 623d 1f13 d03b d183 213d 0c4d 7d3c
000003c0: 4429 5d3d 6f99 f83b 0a68 793d 0111 aa3c
000003d0: 19dd 223d 4138 fd3c 1f5e 383d 3d78 373d
000003e0: 5f81 103c 6fe7 bd3d 1b6c 0bbd 7761 573d
000003f0: 762b 8cbb ad03 943b 30ba b2bb 869c 813c

bias f4 [64]
-0.037041735 0.06651954 0.0020691846 -0.0068591363 0.07748477 0.05337044 -0.04940692 -0.023325214
0.077165395 0.01938466 0.06768517 -0.040914424 -0.03710849 -0.040278673 0.041133694 -0.020543667
-0.0007158045 -0.0010469866 -0.032056876 -0.00948347 -0.015182403 0.08339501 0.04776326 -0.022636106
-0.011108704 -0.0006380197 0.037312705 -0.046430457 0.06441119 0.041792713 0.062231634 -0.002273256
-0.01727908 -0.00047475417 -0.003476408 0.07251187 0.034828093 0.04781025 -0.017307196 -0.023451619
0.0417619 0.07266936 -0.02262661 0.0765674 0.044308417 -0.009324589 -0.010603234 -0.008758625
-0.019835802 0.069989994 -0.052009694 -0.0042696446 -0.034417238 0.01920894 -0.02866983 0.04915433
0.07471849 -0.007792539 -0.009074364 -0.022814002 -0.025292007 -0.041687395 0.020019839 0.016507069
00000000: 13b9 17bd 663b 883d 289b 073b 9bc2 e0bb
00000010: 56b0 9e3d f69a 5a3d e95e 4abd 8514 bfbc
00000020: e408 9e3d 94cc 9e3c 869e 8a3d e295 27bd
00000030: 12ff 17bd 40fb 24bd ce7b 283d 314b a8bc
00000040: d4a4 3bba 0a3b 89ba 124e 03bd 8e60 1bbc
00000050: 9dbf 78bc 01cb aa3d 68a3 433d 5b6f b9bc
00000060: 4801 36bc c740 27ba 35d5 183d dd2d 3ebd
00000070: 04ea 833d d62e 2b3d 99e6 7e3d e8fa 14bb
00000080: db8c 8dbc 6de8 f8b9 73d4 63bb 1a81 943d
00000090: e7a7 0e3d aed4 433d d2c7 8dbc 9c1d c0bc
000000a0: 870e 2b3d acd3 943d 715b b9bc 5ecf 9c3d
000000b0: be7c 353d 29c6 18bc 30b9 2dbc 5680 0fbc
000000c0: b17e a2bc ea56 8f3d 1e08 55bd 60e8 8bbb
000000d0: 17f9 0cbd 115c 9d3c fedc eabc 0d56 493d
000000e0: 0206 993d 8e58 ffbb a4ac 14bc 6ee4 babc
000000f0: 2f31 cfbc 67c0 2abd a500 a43c d539 873c

weight f4 [64, 64, 2, 2]
-0.027312933 -0.046187863 -0.07792756 0.061189674 0.006476445 -0.029532358 -0.09521288 -0.023847714
0.021292776 -0.025375063 -0.07853981 -0.018176446 -0.00097607146 -0.00022219736 -0.00017984021 -0.00039918645
0.044904854 0.004762993 -0.10405073 0.03879721 0.08514425 0.051337104 0.03072222 0.07960515
0.0006748205 -0.02825767 -0.028849643 0.11615797 0.07550796 -0.0386459 -0.064038806 -0.034980133
0.043797296 -0.058595885 -0.10967008 0.00075243454 0.101577915 0.005444793 0.024963327 0.08028197
0.054431956 -0.067813024 -0.0751127 0.061485704 0.04970765 -0.049410716 0.0462606 0.08336711
0.06327405 -0.0033683018 -0.062089868 0.0017476938 0.061547287 -0.0025746627 0.0896316 0.117625855
0.05195608 0.06963632 0.048309624 0.01784761 0.08172155 3.1946445e-05 -0.0073689027 0.028952347
-4.5988754e-26 -2.5659032e-24 6.824447e-25 8.6053e-25 0.05380189 0.028562838 0.04503056 0.09533235
0.06438765 -0.014138967 0.03037673 0.0966279 -0.032407347 0.049601484 -0.10853051 -0.06028407
-0.0006004902 -0.00052371743 -7.712113e-05 -0.0001701287 0.03624352 -0.0069155907 0.014267387 0.0014207658
0.059273444 0.015520257 0.0037983367 0.06260482 0.060291953 -0.06956106 0.0066465647 0.116310224
0.069187485 0.0046873037 -0.09391899 -0.024545752 3.795887e-25 -2.9582055e-25 -2.048819e-25 -4.6716545e-25
0.11395639 0.040626522 0.049362857 0.005550373 -1.035421e-25 2.0653378e-25 -1.1939754e-24 -6.247638e-25
0.11595394 0.004273579 0.06026005 0.005586092 -0.0034344506 0.00043396774 -0.12396404 0.00745884
0.04179282 0.042938184 -0.11474224 -0.049434572 0.09645632 0.035323225 0.04778946 0.035902057
0.0070191002 0.0059036524 0.004489927 0.005536083 -2.7576423e-25 -5.957393e-26 -4.782425e-25 1.042937e-25
0.0017700491 0.0045828875 0.00047280506 0.0023527711 0.042432915 0.016669411 -0.11730411 -0.04676728
0.063326515 0.060551863 -0.006360323 -0.102143876 0.058653075 0.045488678 -0.083228506 0.008484872
-0.0011458445 -0.00041692427 3.1112395e-21 7.2944506e-10 1.6786255e-25 3.7899954e-25 1.3275079e-24 -1.1125801e-25
0.043503474 -0.02035231 -0.12095014 -0.046494126 0.08642341 0.0034834624 -0.069395475 -0.019022964
-0.015944062 0.022622276 -0.059084944 -0.041354265 -0.00072971906 -0.033782713 -0.0026815818 -0.076977074
0.038494606 0.025846666 -0.093704455 0.012313084 -1.7086573e-24 4.2231915e-26 -3.1684912e-24 1.3303239e-25
0.041119352 0.040281363 0.019026296 -0.012254936 0.064462535 0.030780965 -0.06950129 -0.017721696
0.03871157 0.052853372 0.062482163 0.027023777 -0.0039872564 -0.015006641 -0.076319076 -0.052007653
-8.830016e-26 9.2095973e-26 1.5158118e-25 5.336796e-25 0.0021523738 0.0021668512 0.0012434766 0.0018889206
0.054211657 -0.011412582 -0.09566411 -0.027037889 0.027894666 0.015645336 -0.0897334 -0.030513559
0.067877896 -0.030467555 -0.051963143 -0.004110309 0.04429687 -0.0042988127 -0.12114931 -0.032379527
0.058485385 -0.038190454 -0.094750695 -0.012822372 -0.014000129 -0.014967961 -0.014195044 -0.014846923
0.041883335 0.012834279 0.08338382 0.06595173 -0.018818133 -0.020714134 -0.02140622 -0.021091908
0.033218123 0.008048579 0.046208523 0.061855298 0.029998206 -0.011635528 -0.011748837 0.06038714
0.07117182 -0.029053735 -0.11222475 -0.023852412 0.038395002 -0.009810569 -0.07150979 -0.016833834
00000000: 5fbf dfbc 7c2f 3dbd 7c98 9fbd 06a2 7a3d
00000010: 5c38 d43b d8ed f1bc f8fe c2bd 485c c3bc
00000020: 306e ae3c 5ddf cfbc 7bd9 a0bd c5e6 94bc
00000030: 0cdf 7fba a6fd 68b9 7d93 3cb9 e649 d1b9
00000040: 27ee 373d e212 9c3b 8d18 d5bd d3e9 1e3d
00000050: 1c60 ae3d db46 523d 2aad fb3c 0608 a33d
00000060: 70e6 303a a17c e7bc 1656 ecbc 3be4 ed3d
00000070: eba3 9a3d 2a4b 1ebd c726 83bd 5447 0fbd
00000080: cb64 333d 3d02 70bd b59a e0bd 073f 453a
00000090: 1508 d03d 3c6a b23b e47f cc3c e06a a43d
000000a0: 0bf4 5e3d 8ee1 8abd b0d4 99bd 6fd8 7b3d
000000b0: 409a 4b3d e462 4abd c17b 3d3d 60bc aa3d
000000c0: d395 813d babe 5cbb f251 7ebd df12 e53a
000000d0: 0219 7c3d acbb 28bb c690 b73d d3e5 f03d
000000e0: e6cf 543d 7d9d 8e3d 50e0 453d 2735 923c
000000f0: a15d a73d 3cfe 0538 d676 f1bb 792d ed3c
00000100: acb9 6395 f386 4698 d734 5317 1b29 8517
00000110: 5f5f 5c3d 9dfc e93c f771 383d 9b3d c33d
00000120: acdd 833d 20a7 67bc 9fd8 f83c d9e4 c53d
00000130: 91bd 04bd ed2a 4b3d 3e45 debd 6eec 76bd
00000140: 376a 1dba 154a 09ba 17bc a1b8 9364 32b9
00000150: 1674 143d 2e9c e2bb c2c1 693c fd38 ba3a
00000160: b6c8 723d ad48 7e3c 84ed 783b f536 803d
00000170: b2f4 763d 0776 8ebd 6dcb d93b 0e34 ee3d
00000180: 2bb2 8d3d f497 993b 9958 c0bd 2c14 c9bc
00000190: 3bf4 ea16 a31a b796 aaa1 7d96 a994 1097
000001a0: f861 e93d ff67 263d b530 4a3d e7df b53b
000001b0: cd2d 0096 2bad 7f16 3dc2 b897 e35a 4197
000001c0: 4279 ed3d 6109 8c3b 3ed3 763d 890b b73b
000001d0: 8514 61bb 2a86 e339 dce0 fdbd 4969 f43b
000001e0: f32e 2b3d f3df 2f3d fbfd eabd e87b 4abd
000001f0: e48a c53d 16af 103d e1be 433d 090e 133d
00000200: 7b00 e63b 6d73 c13b 3d20 933b 0868 b53b
00000210: 96b0 aa96 777f 9395 4602 1497 fe1b 0116
00000220: fe00 e83a 0c2c 963b d2e2 f739 f330 1a3b
00000230: 23ce 2d3d 4a8e 883c 233d f0bd 0c8f 3fbd
00000240: 55b1 813d 3b05 783d 426a d0bb cf30 d1bd
00000250: 353e 703d 5652 3a3d b573 aabd 2204 0b3c
00000260: 2930 96ba a196 dab9 2014 6b1d 2282 4830
00000270: c4cd 4f16 e096 ea16 016c cd17 12bb 0996
00000280: b330 323d e3b9 a6bc b5b4 f7bd a070 3ebd
00000290: c2fe b03d cd4a 643b 371f 8ebd 0cd6 9bbc
000002a0: 1f9d 82bc 5a52 b93c 0e03 72bd 1763 29bd
000002b0: 9e4a 3fba be5f 0abd 7abd 2fbb 28a6 9dbd
000002c0: 85ac 1d3d 63bc d33c 1fe8 bfbd d1bc 493c
000002d0: 7233 0498 501f 5115 6f26 7598 a6af 2416
000002e0: c46c 283d 12fe 243d 09dd 9b3c edc8 48bc
000002f0: ef04 843d 5d28 fc3c b156 8ebd 172d 91bc
00000300: 0690 1e3d c77c 583d 4ced 7f3d f860 dd3c
00000310: 88a7 82bb 6ade 75bc 2d4d 9cbd fa05 55bd
00000320: e09e da95 c204 e415 fea5 3b16 742a 2517
00000330: d70e 0d3b bb01 0e3b 27fc a23a a895 f73a
00000340: 0b0d 5e3d d7fb 3abc 8beb c3bd 907e ddbc
00000350: 5b83 e43c a62a 803c 25c6 b7bd 92f7 f9bc
00000360: 9103 8b3d 1897 f9bc 4ed7 54bd c5af 86bb
00000370: a270 353d 0edd 8cbb 211d f8bd 65a0 04bd
00000380: 5f8e 6f3d 986d 1cbd a70c c2bd ed14 52bc
00000390: cc60 65bc 2e3c 75bc 5492 68bc 8240 73bc
000003a0: dc8d 2b3d de46 523c 23c5 aa3d b311 873d
000003b0: 7c28 9abc b0b0 a9bc 195c afbc f0c8 acbc
000003c0: ba0f 083d 30de 033c 2645 3d3d fb5b 7d3d
000003d0: ccbe f53c f1a2 3ebc 327e 40bc 8158 773d
000003e0: 88c2 913d 1902 eebc 17d6 e5bd 2266 c3bc
000003f0: 1444 1d3d 82bc 20bc ba73 92bd 1ce7 89bc

bias f4 [64]
0.017449073 0.08205084 -0.013663643 -0.05737174 -0.045413934 0.0022601942 -0.012484666 -0.0029474918
0.023513678 0.02996843 0.039570883 0.010699036 -0.037161622 0.041867997 0.08713936 -0.060163397
0.004704558 0.051373765 0.013036317 -0.071307994 0.032280505 -0.04252599 -0.011304855 -0.0060071195
-0.029824495 0.08161045 0.024029808 -0.026875583 -0.003150513 0.01528407 -0.0006333934 0.021734603
-0.067330286 0.042628717 0.0358114 -0.035397444 -0.037003458 -0.01961801 0.079079576 -0.00048806827
0.040164873 -0.027468376 0.07198505 0.08519932 -0.0072980644 0.07104747 -0.0065708854 -0.024001049
-0.006827684 0.020827284 0.011341179 -0.032898884 0.04543179 -0.03982339 0.07879905 0.036704544
-7.652812e-07 0.013015314 0.060820248 0.039589424 -0.0058333557 0.012423574 0.025769591 -0.028439218
00000000: 5cf1 8e3c 450a a83d 79dd 5fbc a1fe 6abd
00000010: f603 3abd c41f 143b 7c8c 4cbc b52a 41bb
00000020: c29f c03c 5a80 f53c 1415 223d 024b 2f3c
00000030: c936 18bd c77d 2b3d 1f76 b23d e56d 76bd
00000040: b128 9a3b 4c6d 523d 4796 553c ed09 92bd
00000050: 9038 043d bc2f 2ebd 0038 39bc 5fd7 c4bb
00000060: 8052 f4bc 6123 a73d 29da c43c 2f2a dcbc
00000070: d678 4ebb 096a 7a3c 500a 26ba c40c b23c
00000080: 76e4 89bd 739b 2e3d f9ae 123d e9fc 10bd
00000090: f090 17bd f3b5 a0bc 79f4 a13d 6ae3 ffb9
000000a0: ec83 243d 5c05 e1bc e66c 933d fb7c ae3d
000000b0: 9a24 efbb 5681 913d 9550 d7bb d99d c4bc
000000c0: c4ba dfbb fb9d aa3c 5ad0 393c fbc0 06bd
000000d0: af16 3a3d da1d 23bd 6561 a13d 8157 163d
000000e0: b96d 4db5 2f3e 553c a71e 793d 8528 223d
000000f0: bc25 bfbb 3f8c 4b3c c01a d33c 5df9 e8bc

weight f4 [128, 64]
0.09221293 0.22625881 5.0688164e-25 0.05392303 -0.012029011 0.0123622855 3.4527409e-06 0.033334494
-0.061191656 -1.5078799e-05 -0.002246756 -0.045270775 -0.039651662 -6.5156297e-10 -0.07268348 0.0024825952
9.0623034e-05 0.06007358 0.15591848 0.08593817 -0.012163527 0.024871632 1.39617e-15 -7.771244e-22
-0.07914011 0.14825088 0.083631516 0.0006425756 0.03613072 0.019788915 0.000100407204 0.08504817
0.2565389 -0.02712985 -0.05466775 -0.09694847 0.011584222 0.05082065 -0.028236391 -6.652027e-07
-0.058545794 -0.0116006555 0.08343428 -0.008712078 -0.09337486 0.02496405 0.0056784316 -0.024846315
2.8325238e-05 -0.14505373 0.14168566 -0.007939037 -0.063252166 0.006221079 0.08795227 0.048847906
7.3179195e-24 0.076299764 -0.013303707 -0.04332326 -0.21062908 -0.030212684 -0.035199028 0.20596756
-3.1516278e-09 2.9267352e-11 1.5838771e-21 -1.6851073e-19 1.2125751e-20 -9.3716694e-23 -3.9364143e-24 -3.699468e-07
8.1269815e-24 -1.2768862e-20 4.2974813e-26 4.0050797e-21 5.0817065e-20 1.4915884e-24 2.8723646e-26 7.362883e-26
-1.640137e-20 4.248322e-24 -5.72398e-22 5.4812575e-25 1.3003292e-24 -4.4269927e-24 -3.5898476e-25 4.323777e-20
2.370501e-25 -4.41426e-06 -5.7274902e-21 2.93463e-25 -1.3180669e-12 2.3745367e-25 1.468388e-25 -3.342898e-22
3.3822388e-24 3.5297836e-07 -3.4749146e-27 -1.0076474e-06 -1.9276911e-23 1.8931177e-19 3.1714434e-25 1.3705018e-22
1.2467524e-24 5.963163e-20 2.2559223e-25 1.5937328e-23 1.834866e-26 -4.2041907e-20 9.892878e-23 3.5461123e-20
-2.6358622e-24 2.4112178e-19 -4.1767054e-20 -4.8851505e-24 9.650825e-25 -1.9474984e-21 -9.810507e-25 -1.1610187e-25
-4.875917e-20 5.6838514e-23 -1.8645536e-20 -8.8609274e-24 1.3651181e-24 -1.8788656e-08 -1.0664491e-05 1.3736305e-12
0.03836424 0.16814573 1.00736446e-19 0.019771773 0.010893739 0.010349602 5.756623e-07 0.19032593
-0.12452947 1.5202924e-07 -0.04095714 -0.015222575 -0.029200388 0.010857233 -0.15070698 0.008025052
-0.00010726815 0.11312645 -0.021693757 0.13687989 -0.09144826 -0.10405272 5.544549e-05 -6.269848e-22
0.016763035 -0.034345888 0.05403632 -0.0005138523 0.09752492 0.012583631 -0.00012504056 -0.09818425
0.18313959 0.14927498 0.08761907 0.13405283 0.0334286 -0.00022301592 -0.04876553 -0.02394721
-0.13529159 0.003504805 0.0049171103 0.034631643 -0.06209269 0.1600367 3.072471e-08 0.0063370178
0.00054290495 -0.016859557 0.03811696 -0.03903305 -0.087190874 0.0058395094 -0.0075073442 -0.035157423
-1.1096736e-22 0.14094807 -0.025079222 -0.044981025 -0.0085634105 0.005734666 0.098851204 0.14573406
0.055412814 0.1103669 1.3960868e-25 -0.1650844 0.002217681 -0.009529074 6.571403e-05 0.00600353
0.052671496 0.0030229327 -0.010922189 -0.04556804 -0.12606212 0.009972649 0.1046872 0.009482848
-0.00014171466 0.07197407 0.09920828 0.14279163 -0.034413997 0.01973945 0.00018880572 8.861589e-24
-0.1217493 -0.08796253 0.123373255 0.0006610465 0.14559962 -0.012538898 -2.1165104e-06 -0.014195553
0.3168965 0.13575216 0.16021743 0.06981227 -0.0039590914 -0.050358128 0.084979914 -0.009051203
-0.14034256 0.0031403136 0.08111068 0.108088225 0.15941507 -0.009514785 0.00090092444 0.037625097
0.0007205015 -0.027192727 0.053717993 0.0065783914 -0.06808187 -0.0005791686 0.10090994 -0.043253273
-4.5704444e-26 -0.13271028 -0.10644918 -0.0780747 -0.21033905 -0.07358439 0.044877633 0.18547976
00000000: 22da bc3d 64b0 673e 4ddf 1c17 65de 5c3d
00000010: 5415 45bc 2f8b 4a3c a3b5 6736 c089 083d
00000020: 1aa4 7abd f3fa 7cb7 503e 13bb d96d 39bd
00000030: c869 22bd ab19 33b0 14db 94bd 09b3 223b
00000040: df0c be38 b70f 763d 18a9 1f3e 5a00 b03d
00000050: 8849 47bc 98bf cb3c 9535 c926 17df 6a9c
00000060: 3614 a2bd 14cf 173e 0047 ab3d 8572 283a
00000070: cefd 133d 5d1c a23c b591 d238 bc2d ae3d
00000080: 1159 833e 6b3f debc 4aeb 5fbd eb8c c6bd
00000090: c0cb 3d3c 5029 503d 0150 e7bc 6290 32b5
000000a0: b7cd 6fbd ad10 3ebc 97df aa3d 1bbd 0ebc
000000b0: 523b bfbd 6881 cc3c 2312 ba3b 808a cbbc
000000c0: fc9b ed37 f788 14be 0c16 113e bc12 02bc
000000d0: 5a8a 81bd 31da cb3b 5220 b43d be14 483d
000000e0: 958c 0d19 0d43 9c3d cbf7 59bc bb73 31bd
000000f0: 26af 57be 9780 f7bc db2c 10bd 29e9 523e
00000100: 0694 58b1 1cb8 002e 4759 ef1c 3ef1 46a0
00000110: 890c 651e d397 e29a 5c48 9898 1a9d c6b4
00000120: dd32 1d19 6e32 719e 0ccd 5415 c14e 971d
00000130: 10fa 6f1f e7cf e617 8c3b 0e15 d14b b615
00000140: 14e8 9a9e 5859 a418 26ff 2c9c ffa2 2917
00000150: 5937 c917 d042 ab98 6833 de96 422f 4c1f
00000160: 16ba 9216 341e 94b6 e360 d89d 12a5 b516
00000170: 5d80 b9ab 09fa 9216 13c7 3516 d710 ca9b
00000180: 12d8 8218 fa80 bd34 d2a7 8993 803e 87b5
00000190: 526f ba99 f97f 5f20 874d c416 faae 251b
000001a0: f3ec c017 1ccd 8c1f 84a2 8b16 ea22 9a19
000001b0: 61b7 b514 8c89 469f f331 ef1a de75 271f
000001c0: a1f0 4b98 4b55 8e20 453d 459f 30fc bc98
000001d0: db56 9517 1926 139d 6ccf 9797 27ba 0f96
000001e0: 3842 669f 566d 891a 241a b09e 3065 2b99
000001f0: e63d d317 b164 a1b2 a4eb 32b7 4152 c12b
00000200: d223 1d3d 652e 2c3e 72db ed1f 6af8 a13c
00000210: a77b 323c 6191 293c 3687 1a35 cde4 423e
00000220: 4f09 ffbd 7b3d 2334 adc2 27bd 1b68 79bc
00000230: a735 efbc 89e2 313c ee52 1abe 827b 033c
00000240: 26f5 e0b8 d7ae e73d 1bb7 b1bc 3e2a 0c3e
00000250: 3a49 bbbd 9819 d5bd 248e 6838 997e 3d9c
00000260: a252 893c 46ae 0cbd 3055 5d3d 0bb4 06ba
00000270: 25bb c73d 932b 4e3c 521d 03b9 d314 c9bd
00000280: f288 3b3e 8adb 183e a171 b33d 2545 093e
00000290: 6dec 083d 61d9 69b9 5dbe 47bd f02c c4bc
000002a0: e189 0abe dfb0 653b b61f a13b e9d9 0d3d
000002b0: e854 7ebd a9e0 233e 2df6 0333 c2a6 cf3b
000002c0: bc51 0e3a 0e1d 8abc 8820 1c3d 1fe1 1fbd
000002d0: 2191 b2bd 5b59 bf3b 2b00 f6bb 3b01 10bd
000002e0: bc26 069b b154 103e f172 cdbc 063e 38bd
000002f0: 8c4d 0cbc dde9 bb3b 8072 ca3d 4f3b 153e
00000300: 8cf8 623d 0b08 e23d c2d3 2c16 e30b 29be
00000310: 8356 113b d51f 1cbc f4cf 8938 43b9 c43b
00000320: 11be 573d 651c 463b fbf2 32bc 8ea5 3abd
00000330: 6e16 01be 5264 233c 3e66 d63d f35d 1b3c
00000340: 3d99 14b9 2467 933d b62d cb3d f837 123e
00000350: b1f5 0cbd a1b4 a13c 26fa 4539 7768 2b19
00000360: b257 f9bd b325 b4bd 1eab fc3d 144a 2d3a
00000370: 1118 153e f36f 4dbc 5f09 0eb6 7794 68bc
00000380: 4240 a23e 9d02 0b3e 0a10 243e bcf9 8e3d
00000390: 44bb 81bb 5344 4ebd f309 ae3d 7f4b 14bc
000003a0: f6b5 0fbe b8cd 4d3b 5b1d a63d 5c5d dd3d
000003b0: b43d 233e e7e3 1bbc 042c 6c3a c61c 1a3d
000003c0: 0ae0 3c3a 48c3 debc 6607 5c3d 8c8f d73b
000003d0: 826e 8bbd 59d3 17ba dfa9 ce3d 582a 31bd
000003e0: 4451 6295 34e5 07be 0702 dabd a1e5 9fbd
000003f0: 1f63 57be 6ab3 96bd 9cd1 373d 68ee 3d3e

bias f4 [128]
0.11267997 -2.1649782e-06 -0.032911785 0.08073242 0.032064695 0.012900762 0.01577568 0.09408474
0.051235426 0.06900785 -0.0029743777 1.172162e-19 -0.05073336 -0.007120383 -8.0233417e-07 0.14615265
0.1264755 -0.029253377 0.002975135 -0.03622439 -0.026471298 0.032567956 0.07892236 -0.07519056
-0.0019648063 -0.0023035514 0.038115185 -0.012637585 0.0863089 0.056908 0.015918817 0.105533734
0.020166809 -0.01702554 0.0048387763 -0.030097257 0.16074377 0.022939725 -0.10281537 0.05774367
0.12422716 0.08073382 0.04367387 0.02719115 -4.285956e-06 0.11543425 0.13491979 -0.0981877
0.042196948 -0.0980571 0.12818193 0.014888776 -0.020732796 0.0076097357 -0.060478855 0.17678754
0.15067114 -0.04437403 1.890638e-10 3.533255e-16 -0.040794037 0.08679225 0.10628814 0.057001293
0.042216096 0.01729297 -0.047605872 0.019820746 0.115032814 0.054364655 0.022873271 -0.020922923
0.043002628 -0.019475875 0.051049013 -0.0013686182 -3.618206e-05 -0.0042845868 0.06517314 -0.067222774
0.017849013 -0.028224373 0.22144385 0.14451663 0.14151512 -0.0695033 -0.05632895 -0.041991875
-0.011296426 -0.028156528 -0.057213433 0.0638626 -0.087449886 0.025106242 0.0446407 -0.043113902
-4.448602e-05 -0.10324211 0.048124958 -0.038012467 -0.078488395 -1.9681993e-05 0.13724497 -0.027445456
0.14030755 -0.08851512 0.10597158 -0.116962016 0.0350526 0.099636406 -0.06208047 0.12483897
0.0647263 0.09497606 0.093913145 -0.14205144 -0.08876509 0.042696543 0.0049996385 -0.03920095
0.11815165 -0.015530934 -8.928789e-06 -0.009756865 0.023836425 0.038524017 -0.015758032 0.14354433
00000000: c2c4 e63d 0b4a 11b6 82ce 06bd 0a57 a53d
00000010: 4556 033d b85d 533c 003c 813c 80af c03d
00000020: 3ddc 513d fd53 8d3d c7ed 42bb 6c62 0a20
00000030: c9cd 4fbd 1a52 e9bb fc5f 57b5 0aa9 153e
00000040: cb82 013e c7a4 efbc 7cfa 423b 0760 14bd
00000050: 56da d8bc fa65 053d 0ca2 a13d 82fd 99bd
00000060: fbc3 00bb 2ef7 16bb ab1e 1c3d e00d 4fbc
00000070: b8c2 b03d 5d18 693d 2e68 823c 1222 d83d
00000080: dd34 a53c 2579 8bbc 998e 9e3b 868e f6bc
00000090: 049a 243e 17ec bb3c dd90 d2bd a084 6c3d
000000a0: cf6a fe3d c657 a53d 5fe3 323d f9bf de3c
000000b0: 15d0 8fb6 cb68 ec3d 6a28 0a3e a216 c9bd
000000c0: b5d6 2c3d 29d2 c8bd 2042 033e 0df0 733c
000000d0: d3d7 a9bc 175b f93b adb8 77bd cb07 353e
000000e0: 8949 1a3e 8bc1 35bd bbe0 4f2f a4ad cb25
000000f0: a617 27bd 23c0 b13d 99ad d93d 307a 693d
00000100: c9ea 2c3d fda9 8d3c 60fe 42bd 1e5f a23c
00000110: 5396 eb3d 79ad 5e3d ba60 bb3c 8d66 abbc
00000120: 8623 303d df8b 9fbc c518 513d 3563 b3ba
00000130: 31c2 17b8 b865 8cbb 7f79 853d 18ac 89bd
00000140: 1838 923c cd36 e7bc 2dc2 623e 2bfc 133e
00000150: 57e9 103e bf57 8ebd 2fb9 66bd acff 2bbd
00000160: a514 39bc 85a8 e6bc a258 6abd 65ca 823d
00000170: ed18 b3bd 9bab cd3c 2bd9 363d 3498 30bd
00000180: 8096 3ab8 9970 d3bd ad1e 453d f6b2 1bbd
00000190: 86be a0bd c21a a5b7 f289 0c3e 4bd5 e0bc
000001a0: c8ac 0f3e 6a47 b5bd a107 d93d c889 efbd
000001b0: 5193 0f3d 2c0e cc3d 1748 7ebd 93ab ff3d
000001c0: 398f 843d cf82 c23d 8955 c03d ef75 11be
000001d0: 79ca b5bd 92e2 2e3d 02d4 a33b 2d91 20bd
000001e0: 7ef9 f13d 7575 7ebc dbcc 15b7 42db 1fbc
000001f0: 9b44 c33c 5ccb 1d3d fd16 81bc 49fd 123e

weight f4 [64, 128]
0.092604205 2.0025604e-27 -0.05589685 0.121824466 0.061386805 -0.03782478 0.112281166 0.054027613
-0.05166522 0.05307466 0.0018017268 -1.1174042e-23 0.020472571 9.0051384e-05 0.002802734 -0.103108905
-0.11154779 0.012523091 -0.058858182 0.04065491 0.0134095345 0.05548101 -0.04656695 0.0715162
-0.0005761806 0.032676417 -0.05130942 -0.0031558874 -0.10686962 -0.025456198 -0.07316036 -0.0469158
-0.0029191163 0.009693747 2.4848292e-08 -0.0501499 -0.12106823 -0.018029138 0.05875471 -0.11099488
0.09093373 -0.08171967 -0.0011174069 0.002008302 3.4070713e-24 0.07349534 0.030946229 -0.024713686
-0.0057783807 -0.0013041486 0.0679057 -0.037857216 0.024496801 -0.04047253 -0.044008546 0.004221038
-0.049515493 0.07967521 0.009011275 6.0057984e-27 0.08398721 0.0067189555 0.054243866 -0.032397296
-0.08597336 0.057560593 0.048124656 -0.035867915 -0.08935869 -0.022842107 0.026123194 0.019215923
-0.009713853 0.01689282 -0.00016314653 -0.0019387028 4.071359e-06 -0.07152143 0.0129599385 0.08512056
0.110007145 -0.013323175 0.088043466 -0.19317761 -0.08352367 0.04162345 0.05838621 0.002187307
0.045550957 0.0064814216 0.061726846 -0.053257734 -0.0019211604 0.11499608 0.110672 0.007202291
1.7393831e-11 0.10659704 0.06681911 -0.0248879 0.076534934 6.0884e-14 0.11612132 0.061976306
-0.049854893 0.008575944 0.05213511 0.059538767 0.007017523 -0.014710753 0.03046312 -0.06705752
0.12047221 0.031068942 0.010750777 0.004866625 -0.02875101 0.0020860643 0.00014811616 0.0033197368
-0.008761608 -0.016808774 -7.675762e-05 0.003751572 -0.04487774 0.04195367 -0.018292887 0.09455478
-0.119399756 -1.0724368e-23 -0.0015737171 -0.045630272 -0.047429394 -0.012322981 -0.03985202 0.023008123
0.083308615 0.04389252 0.009731374 3.9333304e-22 0.0756826 2.6066705e-23 1.020783e-19 -0.014701069
0.08410269 -0.0055411216 -0.014465551 0.07599223 2.8351533e-05 -0.19528241 -0.01369711 0.01858793
-0.022004923 -0.090195395 0.017734421 0.11382319 0.00081426266 -0.0002166217 0.04926616 -0.004665906
0.010171713 -0.11971268 8.867376e-25 0.11509819 0.036240127 -0.027005557 -0.11038048 -0.06757622
0.044868764 0.10342736 -0.02535499 -0.09173052 1.5174278e-23 -0.16454208 -0.1681653 -3.5109088e-25
0.10278996 8.155417e-24 -0.010885672 1.3533306e-25 0.035559207 0.016608743 0.08701241 -0.0833625
0.07624594 -0.07982915 7.6514125e-06 -1.4228317e-23 0.06979933 0.112665504 -0.04918251 0.07698106
0.09056058 0.015539141 0.04784493 -0.007518846 0.09447363 0.11439678 -0.0708536 0.07029266
0.030942507 0.0032766305 0.09232064 -0.0217329 -3.5554046e-16 -0.015998794 -0.13099062 -0.1215672
-0.038407594 -0.038350504 -0.10114219 -0.0063360482 0.028045347 0.008691554 -0.10742581 0.019336678
-0.0022698531 1.6757525e-22 0.052082494 0.0010301473 -0.20656613 -0.03445954 0.041684516 -0.004652941
7.344503e-12 -0.1756135 -0.14495149 0.022338191 -0.1252529 3.9856335e-10 -0.09810846 -0.07514407
-0.08986064 0.037350766 -0.2385523 -0.119706534 -0.08490648 0.077134766 -0.06902622 0.0608727
-0.032789197 -0.06689985 0.040838175 0.11301397 -0.10040343 -0.008571397 1.1541015e-06 0.043282814
0.016108975 0.002158805 1.921642e-05 0.0076842 -0.0026704303 0.14591697 -0.013993197 -0.32180056
00000000: 46a7 bd3d c0a8 1e13 18f4 64bd 1b7f f93d
00000010: bb70 7b3d 28ee 1abd abf3 e53d 0f4c 5d3d
00000020: e99e 53bd d164 593d eb27 ec3a 2d23 5899
00000030: 18b6 a73c f8d9 bc38 13ae 373b c32a d3bd
00000040: 2b73 e4bd a72d 4d3c 4715 71bd c385 263d
00000050: aab3 5b3c 0e40 633d fcbc 3ebd 1677 923d
00000060: d30a 17ba b5d7 053d d429 52bd 01d3 4ebb
00000070: 76de dabd 8489 d0bc 19d5 95bd c82a 40bd
00000080: a54e 3fbb 86d2 1e3c f971 d532 fb69 4dbd
00000090: 9ff2 f7bd d8b1 93bc c7a8 703d 4951 e3bd
000000a0: 773b ba3d a45c a7bd f475 92ba b79d 033b
000000b0: 00ce 8318 ba84 963d f282 fd3c 5b74 cabc
000000c0: 9258 bdbb f7ef aaba 2512 8b3d 2b10 1bbd
000000d0: 84ad c83c 86c6 25bd 4e42 34bd a250 8a3b
000000e0: c2d0 4abd c22c a33d 07a4 133c 08ea ed13
000000f0: 7d01 ac3d af2a dc3b d12e 5e3d 07b3 04bd
00000100: cd12 b0bd a8c4 6b3d 5c1e 453d 3cea 12bd
00000110: b001 b7bd 5f1f bbbc 4f00 d63c b66a 9d3c
00000120: da26 1fbc d062 8a3c 5012 2bb9 121c feba
00000130: b59c 8836 d479 92bd ec55 543c b053 ae3d
00000140: 6d4b e13d 7249 5abc 2250 b43d 5ad0 45be
00000150: 750e abbd 5a7d 2a3d 6126 6f3d ec58 0f3b
00000160: a493 3a3d 1b62 d43b 4ad5 7c3d c824 5abd
00000170: 72cf fbba 1183 eb3d 00a8 e23d 3201 ec3b
00000180: 6dff 982d 8d4f da3d 75d8 883d b6e1 cbbc
00000190: 59be 9c3d 3d19 8929 04d1 ed3d deda 7d3d
000001a0: a534 4cbd 1e82 0c3c a08b 553d ecde 733d
000001b0: 40f3 e53b 5f05 71bc cb8d f93c 7455 89bd
000001c0: 22ba f63d 4b84 fe3c 0724 303c 3678 9f3b
000001d0: 3d87 ebbc 5ab6 083b a14f 1b39 f18f 593b
000001e0: d98c 0fbc 8eb2 89bc eff8 a0b8 efdc 753b
000001f0: b9d1 37bd 9dd7 2b3d f7da 95bc f0a5 c13d
00000200: dc87 f4bd 8070 4f99 2f45 ceba cfe6 3abd
00000210: 5345 42bd 54e6 49bc df3b 23bd 887b bc3c
00000220: b59d aa3d a5c8 333d 5770 1f3c 57c1 ed1b
00000230: 7bff 9a3d 091a fc19 8c06 f11f c1dc 70bc
00000240: 083e ac3d 4c92 b5bb eb00 6dbc d0a1 9b3d
00000250: 74d4 ed37 1df8 47be d869 60bc b745 983c
00000260: ab43 b4bc 5db8 b8bd c747 913c 221c e93d
00000270: 3e74 553a f224 63b9 50cb 493d 75e4 98bb
00000280: 42a7 263c ec2b f5bd 4c37 8917 9ab8 eb3d
00000290: 8770 143d c23a ddbc 290f e2bd 6765 8abd
000002a0: 4fc8 373d b9d1 d33d 45b5 cfbc 36dd bbbd
000002b0: b1c1 9219 b87d 28be 8633 2cbe 9250 d996
000002c0: 8b83 d23d abbf 1d19 d159 32bc c288 2716
000002d0: 88a6 113d 0f0f 883c 9033 b23d f5b9 aabd
000002e0: d526 9c3d 777d a3bd 915e 0037 9b9b 8999
000002f0: f3f2 8e3d 2cbd e63d 9973 49bd 3fa8 9d3d
00000300: d377 b93d e297 7e3c 0cf9 433d a760 f6bb
00000310: 647b c13d dc48 ea3d b11b 91bd 99f5 8f3d
00000320: 247b fd3c bdbc 563b 9b12 bd3d 3209 b2bc
00000330: 83f4 cca5 e70f 83bc 6822 06be 39f8 f8bd
00000340: 4851 1dbd 6b15 1dbd a323 cfbd a09e cfbb
00000350: 5bbf e53c 0567 0e3c 1002 dcbd f467 9e3c
00000360: d1c1 14bb 0796 4a1b 7454 553d 0206 873a
00000370: 1286 53be 7225 0dbd 62bd 2a3d b377 98bb
00000380: b334 012d 06d4 33be 2a6e 14be 95fe b63c
00000390: 4c42 00be ce1c db2f 17ed c8bd 22e5 99bd
000003a0: db08 b8bd 1efd 183d 0e47 74be b328 f5bd
000003b0: 73e3 adbd d5f8 9d3d 9e5d 8dbd a755 793d
000003c0: f74d 06bd ca02 89bd ee45 273d de73 e73d
000003d0: 50a0 cdbd 0b6f 0cbc a0e6 9a35 5249 313d
000003e0: f8f6 833c bd7a 0d3b f332 a137 becb fb3b
000003f0: 6302 2fbb 426b 153e b943 65bc 0bc3 a4be

bias f4 [64]
0.026152324 0.018322982 -1.6459781e-19 0.0523608 0.0414495 0.017571563 0.0816429 0.017916221
0.023556449 0.088182114 -0.02425374 -0.017916704 0.03795602 -0.01651324 0.030534644 0.00396424
0.058916315 0.039893206 -0.025908502 -0.038132675 -0.072365835 0.003380371 -0.03075148 -0.05595458
-0.07792077 0.108685106 -0.025598789 -0.07626952 0.063625224 -0.03012714 0.124474876 -0.08346198
-0.00014140089 0.111730404 0.03397951 -0.013020753 -0.07154332 0.12373719 0.019268919 0.02986087
0.08021883 -6.0999183e-10 0.061962843 0.016483018 -0.027569355 -0.0060873847 -0.0031050157 -0.070395276
0.01973263 -0.017888632 -0.024065549 0.120792195 0.044681333 -0.024348866 0.019986074 -0.06017883
-0.020148842 0.049677007 0.04842073 -0.0152229145 0.14813806 -0.009465451 0.035990153 0.0032572784
00000000: 663d d63c 141a 963c a352 42a0 4778 563d
00000010: f3c6 293d 3df2 8f3c 6534 a73d 0ac5 923c
00000020: 74f9 c03c d398 b43d c8af c6bc 0dc6 92bc
00000030: c677 1b3d c646 87bc ca23 fa3c 75e6 813b
00000040: 3c52 713d 0f67 233d 113e d4bc 0231 1cbd
00000050: 8a34 94bd 3789 5d3b 87ea fbbc a130 65bd
00000060: ed94 9fbd 4c96 de3d 8db4 d1bc 3233 9cbd
00000070: f14d 823d 31cd f6bc afec fe3d 1dee aabd
00000080: 0345 14b9 e9d2 e43d 192e 0b3d ff54 55bc
00000090: 4e85 92bd ed69 fd3d dad9 9d3c c99e f43c
000000a0: c549 a43d 5cac 27b0 c0cc 7d3d 6507 873c
000000b0: 21d9 e1bc af78 c7bb 857d 4bbb 662b 90bd
000000c0: 53a6 a13c 2e8b 92bc 1d25 c5bc e661 f73d
000000d0: c603 373d 4677 c7bc d6b9 a33c 147e 76bd
000000e0: 2f0f a5bc 1e7a 4b3d d154 463d 8869 79bc
000000f0: 81b1 173e fb14 1bbc 696a 133d 1078 553b

weight f4 [10, 64]
0.11931515 0.15322602 -5.6625376e-23 -0.0386594 0.104204565 -0.10963362 -0.07691085 0.003989527
0.11261939 0.16677684 0.0613536 -5.06969e-15 -0.0017002068 -0.0070139584 -0.11931847 -1.4416565e-12
0.0034343814 0.050489776 0.04532107 -0.0064738356 -0.008712395 0.050479718 -0.029560462 -0.025114687
-0.17746317 0.05050427 -0.008320916 -9.3471e-05 0.15594266 -0.0018055282 -0.09370217 -0.0748887
6.0072185e-22 -0.022389907 0.016316734 -3.0430446e-21 -0.060385026 0.012390055 0.1114529 -0.0069070496
-0.13330759 0.012409916 -0.046416216 0.12839963 0.010261717 2.0602438e-07 -1.6478763e-15 -0.15686151
0.0031682393 -0.092510946 0.012542705 0.099115364 -0.0716021 2.8156604e-23 0.05111112 0.023267064
-3.358036e-23 -0.12141645 -0.059782322 -6.2797164e-19 0.06982291 -0.063726425 -0.28233153 0.07290947
-0.13278015 0.00030464111 3.3697068e-22 0.03441647 -0.107171245 -0.069152765 0.0998997 -0.0031430724
0.14144377 3.0755007e-05 -0.15883751 6.44894e-09 0.005730345 0.006016005 0.023119094 -1.5826399e-25
-0.42129022 0.047805913 0.060710307 0.030527065 0.101449706 -0.22497495 0.036210105 -0.09590653
0.18993713 0.16567223 0.045630243 -3.8955662e-07 -0.15326872 -0.0073508737 -0.25117677 -0.043331772
4.5819858e-24 0.0011819218 0.015862271 9.105455e-18 0.032751657 -0.07868475 0.0731316 -0.1037731
0.1679759 0.013466653 -0.35240138 0.061918832 0.0027398486 -8.191063e-14 -2.0917067e-18 0.060537755
-0.028724644 0.060529836 0.003831177 -0.01162896 0.07134324 9.67896e-22 -0.23286203 -0.09223729
-1.4031784e-17 0.106450215 -0.05474175 9.7489515e-17 -0.3229454 -0.25703228 0.022574527 -0.045804087
0.041930377 0.10108927 2.079874e-24 -0.007345125 0.104566105 0.035782557 0.024121504 -0.07876213
-0.019179929 -0.0019892124 0.005822565 0.0001840624 0.08339632 -0.005693891 0.0858042 -0.001941739
-0.1118103 -0.041600954 -0.04598984 -0.0042276806 0.11367617 0.07176514 -0.0017591253 0.12978448
0.2132463 -0.015669044 -0.024453003 0.0014523674 -0.048652977 0.0027508505 0.01932683 0.13797878
7.068448e-24 -0.22403777 0.03434775 -6.285344e-22 -0.04639521 -0.1713516 0.011481596 -0.08698395
0.07062459 0.014286569 -0.032776207 -0.022016631 0.001127263 -1.9703346e-07 1.0524176e-10 0.099653885
-0.061394848 0.021845745 -0.010223157 0.03309468 0.14831614 1.2481603e-23 -0.04453151 -0.03952777
-1.3549296e-09 0.119383134 0.06488884 2.559988e-21 -0.1405771 -0.20119876 -0.15695684 -0.04923644
-0.061021216 0.07090506 -1.3999041e-21 0.0016718773 -0.08531566 0.11256313 -0.076290235 -0.056293663
0.07465787 0.051388983 -0.04187996 1.3150649e-10 0.031518172 -0.016201338 0.002650612 1.0072173e-24
-0.043690246 0.1273987 0.10180916 -0.022581443 0.15213647 -0.0866955 0.01364966 -0.063434005
-0.023716362 -0.020611148 -0.0013242866 -0.00012583373 0.15682459 0.014092407 -0.11122753 0.04846629
-2.7801417e-24 -0.034090046 -0.00069674355 1.1358495e-19 -0.07896885 -0.0254791 -0.12614392 0.07690298
0.13874131 -0.014652673 -0.06633685 0.09494503 -0.01155431 -4.229991e-14 -1.2680726e-16 -0.2211763
-0.023670431 -0.007938818 -0.0051362826 -0.060250856 0.027889522 2.0481365e-22 -0.09539789 0.07003352
1.3817636e-21 0.04317132 0.03236925 2.589824e-23 -0.10323678 0.009555704 0.006803554 0.012409297
00000000: 805b f43d 48e7 1c3e 69e9 889a 5259 1ebd
00000010: 3469 d53d 9787 e0bd 7083 9dbd 94ba 823b
00000020: ffa4 e63d 8cc7 2a3e ea4d 7b3d a3a7 b6a7
00000030: 79d9 deba 59d5 e5bb 3e5d f4bd 26e5 caab
00000040: 5c13 613b 5ece 4e3d 96a2 393d 7822 d4bb
00000050: 6fbe 0ebc d2c3 4e3d c828 f2bc 51bd cdbc
00000060: e8b8 35be 91dd 4e3d 7454 08bc dc05 c4b8
00000070: 6faf 1f3e 79a7 ecba ece6 bfbd 3f5f 99bd
00000080: 9a8e 351c 0a6b b7bc acaa 853c 0bed 659d
00000090: 4a56 77bd a8ff 4a3c 6b41 e43d 8854 e2bb
000000a0: c981 08be f652 4b3c ee1e 3ebd 317b 033e
000000b0: c320 283c 8d37 5d34 e87b eda6 4ea0 20be
000000c0: 3ca2 4f3b 6176 bdbd eb7f 4d3c fffc ca3d
000000d0: 1fa4 92bd 3028 081a e559 513d 929a be3c
000000e0: 7962 229a 30a9 f8bd 4fde 74bd 3258 39a1
000000f0: 50ff 8e3d 0083 82bd c28d 90be 8f51 953d
00000100: 85f7 07be 3db8 9f39 b0af cb1b 49f8 0c3d
00000110: 997c dbbd f79f 8dbd 3798 cc3d 01fc 4dbb
00000120: a3d6 103e f0fe 0038 4da6 22be 7a95 dd31
00000130: 9ec5 bb3b e821 c53b 4164 bd3c dceb 4396
00000140: 5ab3 d7be 22d0 433d 5fab 783d e513 fa3c
00000150: ddc4 cf3d d55f 66be 0c51 143d a56a c4bd
00000160: e17e 423e fba5 293e c7e6 3a3d 4124 d1b4
00000170: 7af2 1cbe 99df f0bb 3e9a 80be a87c 31bd
00000180: ca41 b118 b7ea 9a3a 98f1 813c 4cf7 2723
00000190: 9a26 063d 7825 a1bd 05c6 953d fe86 d4bd
000001a0: e001 2c3e 3da3 5c3c f46d b4be 9a9e 7d3d
000001b0: 088f 333b 4372 b8a9 3957 1aa2 70f6 773d
000001c0: f24f ebbc 22ee 773d 7c14 7b3b 6587 3ebc
000001d0: 681c 923d aa43 921c 6273 6ebe e8e6 bcbd
000001e0: 9d6b 81a3 9202 da3d e338 60bd a7cb e024
000001f0: 1959 a5be bc99 83be 37ee b83c 119d 3bbd
00000200: 30bf 2b3d e407 cf3d 26ec 2018 60af f0bb
00000210: c126 d63d bb90 123d 769a c53c 0a4e a1bd
00000220: 3a1f 9dbc 725d 02bb 37cb be3b e000 4139
00000230: b1cb aa3d d293 babb 1dba af3d f381 feba
00000240: ccfc e4bd c365 2abd d85f 3cbd 5b88 8abb
00000250: 0dcf e83d 9af9 923d 7392 e6ba 39e6 043e
00000260: 3d5d 5a3e 5e5c 80bc aa51 c8bc 5d5d be3a
00000270: 5848 47bd 9d47 343b 4d53 9e3c 4f4a 0d3e
00000280: 42b9 0819 286a 65be 3ab0 0c3d 7ef6 3d9c
00000290: e708 3ebd cb76 2fbe 4e1d 3c3c a424 b2bd
000002a0: a0a3 903d 3712 6a3c 5840 06bd 395c b4bc
000002b0: abc0 933a 2590 53b4 d86d e72e 5617 cc3d
000002c0: 2a79 7bbd d9f5 b23c 077f 27bc 4a8e 073d
000002d0: 30e0 173e e86d 7119 ac66 36bd dfe7 21bd
000002e0: 5938 bab0 257f f43d 71e4 843d 5f6d 411d
000002f0: 71f3 0fbe 0c07 4ebe 4bb9 20be 26ac 49bd
00000300: 62f1 79bd ac36 913d 2b8c d39c e522 db3a
00000310: fab9 aebd 8087 e63d 0e3e 9cbd 2f94 66bd
00000320: 3ae6 983d 417d 523d 528a 2bbd c997 102f
00000330: 3319 013d abb8 84bc e4b5 2d3b fddb 9b17
00000340: 8bf4 32bd ce74 023e 5281 d03d b8fc b8bc
00000350: aac9 1b3e 698d b1bd d3a2 5f3c b0e9 81bd
00000360: d148 c2bc b6d8 a8bc af93 adba 3cf2 03b9
00000370: a096 203e d7e3 663c 42cb e3bd 9784 463d
00000380: 611a 5798 01a2 0bbd aba5 36ba f218 0620
00000390: 6cba a1bd 8cb9 d0bc df2b 01be 4f7f 9d3d
000003a0: 3412 0e3e c411 70bc 9ddb 87bd 8a72 c23d
000003b0: 4a4e 3dbc 7a80 3ea9 e632 12a5 0a7c 62be
000003c0: 7ee8 c1bc d111 02bc 434e a8bb 9ac9 76bd
000003d0: 9178 e43c c19a 771b f85f c3bd bc6d 8f3d
000003e0: 64ce d01c 69d4 303d 9e95 043d f078 fa19
000003f0: ce6d d3bd 878f 1c3c 59f0 de3b 5d50 4b3c

bias f4 [10]
0.020516776 -0.09770313 -0.12530129 -0.03302069 -0.022867601 0.025226774 0.1256011 0.087628454
0.09393549 0.013456919
00000000: cc12 a83c 9418 c8bd fb4e 00be b440 07bd
00000010: d654 bbbc 61a8 ce3c 939d 003e 8c76 b33d
00000020: 4061 c03d 697a 5c3c
