2-hypertuning-mlflow/mlruns/2/dc5f726b06234d8293c670bee4e37f8b/artifacts/pytorch_models/20250921-1133model.pt (torch, 52293 bytes, 12 tensors)

weight f4 [8, 1, 2, 2]
0.47466865 0.81852067 0.280701 0.83102727 -0.03278423 0.6389414 0.8976115 0.7860356
0.6000978 0.73516655 0.010996204 0.6369019 5.129612e-21 5.325445e-25 -1.5340088e-23 -3.7819816e-06
0.19640471 -0.20942262 -0.11935284 0.3809828 0.7135901 0.20281753 0.008545308 0.20122936
-0.36732748 0.67401546 0.6260028 0.32349423 0.3774077 0.64515805 0.43907717 -0.08055809
00000000: c507 f33e 928a 513f 0bb8 8f3e 34be 543f
00000010: c248 06bd aa91 233f dec9 653f a139 493f
00000020: 02a0 193f e033 3c3f 6c29 343c 010c 233f
00000030: 90ca c11d 86d0 2417 385c 9499 f3cd 7db6
00000040: 511e 493e e272 56be 436f f4bd 2d10 c33e
00000050: d7ad 363f 66af 4f3e 9f01 0c3c 120f 4e3e
00000060: 5912 bcbe 478c 2c3f b841 203f 09a1 a53e
00000070: 953b c13e 1429 253f b9ce e03e a4fb a4bd

bias f4 [8]
0.5125614 -0.0062644673 0.05617787 -1.1408171e-06 0.42124987 -0.0044974484 -0.19974321 -0.006862905
00000000: 3937 033f 2946 cdbb c41a 663d 2d1e 99b5
00000010: 10ae d73e 555f 93bb 7c89 4cbe 38e2 e0bb

weight f4 [8, 8, 2, 2]
-0.14936009 0.025347961 -0.023767732 -0.044705253 0.10384922 0.06200509 -0.022780513 -0.03286079
-0.034869816 -0.09934354 -0.010318445 -0.015768357 5.869462e-25 -1.6575161e-20 -9.279239e-18 -6.682061e-25
-0.11436727 -0.12961648 -0.014447279 0.0019115148 -0.02506992 0.07546618 -0.028171109 0.015034639
-0.005469489 -0.018460233 -0.01171905 0.0013243936 -0.06862275 0.06790008 -0.011214926 -0.02316046
-0.23011935 0.052274086 0.17546971 -0.008919597 0.036909703 -0.28235206 -0.003639268 0.2513774
-0.11774955 -0.14816834 -0.1395831 0.17244641 1.1489098e-16 -1.7052068e-21 -8.775259e-24 -1.0601856e-22
0.031770777 0.078514226 -0.13666904 0.13591813 0.064332314 -0.121898636 0.15822557 -0.014853055
0.1375445 -0.03182063 0.22139584 0.08812917 -0.25933892 -0.11717429 -0.046002597 -0.038856134
0.07064267 0.20285322 0.19437909 0.06417321 -0.19690312 0.17815852 0.22718395 0.05401159
-0.22834645 0.13178007 -0.14457619 0.2023196 3.1345755e-24 7.41679e-24 1.1646376e-23 -3.4585725e-25
0.07217237 0.20515464 0.021379597 0.018452564 -0.13824432 -0.017198538 0.15574278 0.29934174
-0.07037196 0.3202657 0.07984889 0.34576118 -0.13636263 -0.0497412 0.21935824 0.18803138
-0.14620118 0.0620042 -0.06457744 -0.07927151 -0.38701153 -0.25740615 0.2779636 0.2904699
-0.09058647 -0.08094343 0.019751394 0.13141991 -8.489401e-23 3.0695406e-25 2.136626e-22 -2.3519584e-11
-0.1290746 0.15119697 0.16275679 0.06432357 -0.3306571 -0.2030497 0.046730768 0.14575274
-0.08977509 -0.037625294 0.37940586 0.18748164 -0.4765785 -0.26972038 0.0442955 0.112300664
0.12480699 0.27978027 0.31593016 0.4542702 0.2577452 0.46483746 0.59306085 0.6814578
0.060384776 0.5307607 0.3583238 0.56619066 -5.418816e-23 9.713905e-25 1.3070436e-15 -8.4591195e-14
0.024100633 0.05973235 0.028165137 0.150722 0.24821572 0.1688552 0.24202855 0.29981455
0.090047926 0.39583412 0.471223 0.3305481 0.30464298 0.2828789 0.2790931 0.45853892
0.19528393 -0.18470116 0.21333568 -0.1679658 0.043157052 -0.076865055 0.025617838 -0.20231484
0.19963366 -0.19866474 0.2258821 -0.021383628 -7.1938877e-23 -1.6704198e-14 -4.905431e-12 1.1840462e-21
-0.110551916 -0.10538601 -0.056792453 -0.20820461 0.12163919 0.090678364 -0.11448439 -0.035542488
0.11486413 -0.22393079 0.006885592 -0.37015477 0.0113577815 0.109423175 0.01749732 0.070422366
0.12778862 -0.09673389 0.2043489 -0.04553046 0.1430026 0.05093479 0.38008624 0.27140665
0.16151415 0.15682356 0.13183577 0.10157261 -7.9903895e-22 1.0642974e-12 -1.9118704e-23 -5.760384e-14
-0.11062675 -0.2306505 0.044276617 0.07397069 0.25834408 0.290789 0.27348673 0.29958758
0.08413464 0.21124665 0.35332853 0.010818763 0.17404653 0.3651355 0.40760034 0.19697231
0.17737715 -0.10671297 0.26095402 -0.15251675 0.317691 0.29019862 0.034417026 0.090368375
0.3765749 0.23208378 0.18328656 0.0089373505 -4.0258863e-25 -2.6658958e-19 -1.225733e-23 -6.249245e-26
0.09691019 0.04397566 -0.087557144 -0.040578514 0.3975413 0.12611504 0.28398716 0.3398217
0.03174653 -0.1141394 -0.13481678 -0.23515192 0.25515625 0.38785076 0.1526525 0.22294796
00000000: daf1 18be 87a6 cf3c 8cb4 c2bc db1c 37bd
00000010: e6ae d43d 0df9 7d3d 339e babc 0999 06bd
00000020: a7d3 0ebd a074 cbbd b20e 29bc a42c 81bc
00000030: aba6 3517 488c 9c9e f82b 2ba3 becc 4e97
00000040: 6339 eabd 2fba 04be 48b4 6cbc cb8b fa3a
00000050: 6f5f cdbc 038e 9a3d 19c7 e6bc d953 763c
00000060: 6639 b3bb ea39 97bc 4201 40bc 4697 ad3a
00000070: 168a 8cbd 320f 8b3d cfbe 37bc 01bb bdbc
00000080: 68a4 6bbe 5a1d 563d 55ae 333e 8023 12bc
00000090: a12e 173d 7390 90be c980 6ebb 8ab4 803e
000000a0: ad26 f1bd 71b9 17be dfee 0ebe cb95 303e
000000b0: d575 0425 7fd7 009d fabc 2999 282b 009b
000000c0: 1322 023d 11cc a03d f8f2 0bbe 1f2e 0b3e
000000d0: a9c0 833d fea5 f9bd e205 223e 3a5a 73bc
000000e0: 77d8 0c3e 5956 02bd 97b5 623e 117d b43d
000000f0: 12c8 84be 13f9 efbd 386d 3cbd 9c27 1fbd
00000100: 1bad 903d c1b8 4f3e 500b 473e 3e6d 833d
00000110: f9a0 49be 306f 363e e9a2 683e 423b 5d3d
00000120: a7d3 69be 5bf1 063e c80b 14be df2c 4f3e
00000130: aa86 7218 2a76 0f19 1046 6119 4513 d696
00000140: 1ccf 933d 0f14 523e 4424 af3c d529 973c
00000150: eb8f 0dbe f3e3 8cbc 097b 1f3e 5243 993e
00000160: 2d1f 90bd def9 a33e d187 a33d 9c07 b13e
00000170: a5a2 0bbe 6ebd 4bbd 729f 603e 4c8b 403e
00000180: c3b5 15be 1ef8 7d3d 2d41 84bd 1a59 a2bd
00000190: 6026 c6be bdca 83be 3f51 8e3e 79b8 943e
000001a0: 6685 b9bd abc5 a5bd adcd a13c f192 063e
000001b0: d942 cd9a d0fe bd16 b026 811b 65e1 cead
000001c0: 222c 04be 61d3 1a3e b7a9 263e 13bc 833d
000001d0: e34b a9be 43ec 4fbe c368 3f3d 3540 153e
000001e0: 01dc b7bd fb1c 1abd 7c41 c23e 30fb 3f3e
000001f0: 1902 f4be ca18 8abe 336f 353d e4fd e53d
00000200: cf9a ff3d 5c3f 8f3e 99c1 a13e 1b96 e83e
00000210: 2ef7 833e 2dff ed3e d6d2 173f 0574 2e3f
00000220: 0756 773d efdf 073f 3876 b73e dff1 103f
00000230: d904 839a be50 9617 665d bc26 817b bea9
00000240: b16e c53c e9a9 743d 93ba e63c de56 1a3e
00000250: 432c 7e3e 61e8 2c3e 55d6 773e 4b81 993e
00000260: 0c6b b83d c5aa ca3e 2444 f13e 9a3d a93e
00000270: 2afa 9b3e 81d5 903e 4ae5 8e3e 9dc5 ea3e
00000280: 83f8 473e 4d22 3dbe ab74 5a3e 3aff 2bbe
00000290: 73c5 303d 6d6b 9dbd 80dc d13c 9f2b 4fbe
000002a0: c46c 4c3e c56e 4bbe a34d 673e b82c afbc
000002b0: 02f0 ad9a 4275 96a8 3298 acac 92ed b21c
000002c0: 0b69 e2bd 9fd4 d7bd 349f 68bd 9733 55be
000002d0: f81d f93d 94b5 b93d cb76 eabd 0095 11bd
000002e0: e33d eb3d 1d4e 65be 88a0 e13b ed84 bdbe
000002f0: fd15 3a3c 4219 e03d 8a56 8f3c 9a39 903d
00000300: 05db 023e 6b1c c6bd d740 513e 267e 3abd
00000310: 466f 123e 00a1 503d aa9a c23e d0f5 8a3e
00000320: f763 253e 5b96 203e f5ff 063e 4d05 d03d
00000330: a57e 719c 5bc9 952b 9ee7 b899 5ab6 81a9
00000340: 4790 e2bd a52f 6cbe 665b 353d f27d 973d
00000350: ad45 843e 4ce2 943e 7406 8c3e 8b63 993e
00000360: c84e ac3d 0b51 583e 7ae7 b43e 2e41 313c
00000370: 4139 323e 0af3 ba3e feb0 d03e 1cb3 493e
00000380: 5ba2 353e 548c dabd c49b 853e 5a2d 1cbe
00000390: 65a8 a23e ea94 943e def8 0c3d 0e13 b93d
000003a0: 6dce c03e 5fa7 6d3e 79af 3b3e f76d 123c
000003b0: b730 f996 e15d 9da0 5c17 6d99 4cb9 9a95
000003c0: da78 c63d d21f 343d 2951 b3bd a835 26bd
000003d0: 898a cb3e 4d24 013e c466 913e 1cfd ad3e
000003e0: a608 023d ebc1 e9bd 690d 0abe aacb 70be
000003f0: d7a3 823e 6094 c63e f050 1c3e 784c 643e

bias f4 [8]
0.047770977 0.11919357 0.11379484 0.18047243 -0.18816467 0.23043615 -0.040368106 -0.13229015
00000000: 80ab 433d c21b f43d 450d e93d c4cd 383e
00000010: 3dae 40be 74f7 6b3e 0759 25bd 1277 07be

weight f4 [8, 8, 2, 2]
0.014690142 0.026175404 0.018286765 0.0083491905 0.23097196 0.28398627 0.31100723 0.14142032
0.020908901 0.07182609 0.01620661 0.050928608 0.422417 0.14297262 0.29195565 0.53460664
-0.050549008 0.22777736 -0.07542122 -0.1219751 0.057349384 0.35551107 0.14823128 0.09389566
0.12271536 0.21469525 -0.074260205 -0.08455068 0.045412544 0.29787487 0.00022027286 -0.09686611
2.1268958e-23 2.9027898e-23 -1.1699374e-26 8.438956e-12 0.0019319156 -0.005885229 -0.013760331 -0.008306232
-0.056273587 -0.0128550455 -0.017707368 -0.018439066 0.0003885185 1.0432871e-05 -0.007289899 -0.004591913
-0.028776197 0.014066154 -0.038209278 -0.08078545 -0.021607097 -0.05493599 0.0007428878 -0.0018735989
0.022424359 0.044576094 -0.0077114566 -0.0012933846 -0.022468373 -0.040945686 -0.0018753732 -0.0041230684
-0.009789659 -0.0065129125 -0.015238567 0.027705306 0.16639324 0.16390854 0.12912947 0.23257832
-0.11038353 0.21151538 0.1539131 0.28443092 0.255239 0.46441182 0.34933898 0.1898467
-0.34967205 0.24575505 0.029127277 0.0031636148 0.04342208 -0.2943854 0.113132924 -0.18018575
-0.21386884 0.0051151477 -0.1703824 -0.07142363 -0.20406127 -0.145548 -0.38213354 -0.087435655
-7.364206e-17 4.994088e-25 -2.6779675e-19 2.257302e-16 -0.0057873884 -0.0033040883 -0.007080695 -0.0116997985
-0.01799651 -0.026223477 -0.016596556 -0.010201647 -2.8856564e-06 -0.00068187295 -0.031462327 -0.0216132
-0.03644806 -0.012883044 0.018122945 -0.03343297 -0.002744884 -0.0084371045 -0.031375546 -0.010324083
-0.011150149 -0.013572925 -0.017321618 -0.0123761725 0.002052843 -0.011256291 0.0028139674 0.03094048
0.004450514 0.03258807 0.030399654 0.033682596 0.04528982 -0.06954968 -0.012228963 -0.0009252354
-0.013531569 -0.017309062 0.053478025 0.0019004354 -0.08699116 -0.16931674 -0.19294083 -0.3128998
0.0135518275 -0.02530984 0.057396106 0.020295776 0.04896238 0.021890031 0.047305714 0.036150817
0.10103395 -0.07047935 0.055612583 0.0024856324 0.10585104 -0.036167923 -0.0016054102 0.050779417
-0.009402397 -0.012501741 -0.019416155 0.0009804559 0.06882442 0.24796505 0.09135991 0.10823611
-0.06440941 0.0893694 -0.02048134 0.075059004 0.43552953 0.4637481 0.2535241 0.20856129
-0.17040862 -0.13651599 0.12228497 0.16283217 -0.35157174 -0.31088796 -0.07867891 -0.15620257
-0.12463636 -0.13143721 0.23493023 0.25241867 -0.12705651 -0.18478867 0.20341082 0.08431926
0.002792063 0.012787508 0.026472773 -0.011760078 -0.16889112 -0.22498846 -0.2672373 -0.20505218
0.00984545 0.13473904 -0.10691047 -0.19815147 -0.08974124 -0.4249849 -0.120914474 0.0125769535
0.10544704 0.13796668 -0.15484722 -0.25078934 0.088143565 0.0075085377 -0.29422632 -0.250906
0.146213 0.09454271 -0.21552412 -0.028625663 0.10745514 0.25868437 0.06287816 -0.13028775
0.021469422 0.014678503 0.058574796 0.0049493685 0.15190831 -0.06422729 -0.25109452 0.098434724
-0.125784 0.02501395 0.19963236 -0.007703002 -0.11563505 -0.2776332 -0.35042238 -0.51301694
0.20691219 -0.01547601 0.011122592 -0.0102082 0.08078763 -0.13348776 0.029337414 -0.09556875
0.07601658 0.11878989 0.18387063 0.12775236 0.0018868392 -0.10475959 0.17577678 0.19978501
00000000: ecae 703c cd6d d63c 20ce 953c 0bcb 083c
00000010: ea83 6c3e a666 913e 573c 9f3e 7dd0 103e
00000020: 2549 ab3c 8f19 933d b9c3 843c 849a 503d
00000030: 0b47 d83e 6a67 123e 367b 953e fbdb 083f
00000040: 7a0c 4fbd 783e 693e 7176 9abd 15ce f9bd
00000050: 30e7 6a3d 8c05 b63e f1c9 173e 5e4c c03d
00000060: 3152 fb3d 12d9 5b3e bc15 98bd e828 adbd
00000070: 8102 3a3d 0e83 983e 0cf9 6639 bd61 c6bd
00000080: 64b3 cd19 cc5e 0c1a e0ba 6794 ae75 142d
00000090: 5538 fd3a e1d8 c0bb 0373 61bc dd16 08bc
000000a0: 227f 66bd f89d 52bc 0b0f 91bc 860d 97bc
000000b0: 12b2 cb39 d708 2f37 1be0 eebb c277 96bb
000000c0: 0fbc ebbc ba75 663c 5581 1cbd d872 a5bd
000000d0: 5e01 b1bc 9004 61bd 5bbe 423a 8c93 f5ba
000000e0: 4ab3 b73c 6c95 363d 63b0 fcbb c986 a9ba
000000f0: 980f b8bc aab6 27bd 15cf f5ba ce1a 87bb
00000100: ce64 20bc 456a d5bb 2fab 79bc 3df6 e23c
00000110: fd62 2a3e a4d7 273e 843a 043e 0329 6e3e
00000120: c310 e2bd 7d97 583e 659b 1d3e eea0 913e
00000130: b0ae 823e 63c7 ed3e 8fdc b23e 2c67 423e
00000140: 3708 b3be 36a7 7b3e 549c ee3c a654 4f3b
00000150: 5adb 313d afb9 96be 3cb2 e73d 9d82 38be
00000160: 6f00 5bbe f89c a73b b978 2ebe 8d46 92bd
00000170: 70f5 50be 890a 15be 02a7 c3be 7711 b3bd
00000180: 99ce a9a4 3e8f 1a17 4d14 9ea0 e61f 8225
00000190: 22a4 bdbb 6789 58bb 2d05 e8bb 83b0 3fbc
000001a0: 6b6d 93bc 9ed2 d6bc 80f5 87bc cf24 27bc
000001b0: 33a7 41b6 b8bf 32ba a4de 00bd 2a0e b1bc
000001c0: 904a 15bd 6713 53bc 9276 943c 03f1 08bd
000001d0: 83e3 33bb c83b 0abc a583 00bd 5826 29bc
000001e0: 1daf 36bc f960 5ebc 11e6 8dbc 6ec5 4abc
000001f0: fe88 063b 4e6c 38bc 8a6a 383b e476 fd3c
00000200: 9ed5 913b 117b 053d b208 f93c c3f6 093d
00000210: d181 393d 1070 8ebd fd5b 48bc 7f8b 72ba
00000220: 84b3 5dbc bccb 8dbc c60b 5b3d 0818 f93a
00000230: 6c28 b2bd 5e61 2dbe 4892 45be 6734 a0be
00000240: 7c08 5e3c 9556 cfbc 2e18 6b3d 5443 a63c
00000250: c78c 483d b952 b33c a3c3 413d e112 143d
00000260: e3ea ce3d 7a57 90bd 05ca 633d fee5 223b
00000270: 6ec8 d83d d124 14bd a16c d2ba 14fe 4f3d
00000280: 830c 1abc 1ad4 4cbc a10e 9fbc a482 803a
00000290: d1f3 8c3d 8dea 7d3e e81a bb3d e5aa dd3d
000002a0: 15e9 83bd 4e07 b73d 7cc8 a7bc 89b8 993d
000002b0: bafd de3e 6470 ed3e e9cd 813e 1791 553e
000002c0: 997f 2ebe d9ca 0bbe 8b70 fa3d 7abd 263e
000002d0: 3601 b4be b52c 9fbe 6922 a1bd 91f3 1fbe
000002e0: 5941 ffbd 7a97 06be 8d91 703e 053d 813e
000002f0: 1a1b 02be 3e39 3dbe ed4a 503e 94af ac3d
00000300: 0bfb 363b b282 513c 6edd d83c 58ad 40bc
00000310: cbf1 2cbe 6063 66be 54d3 88be 33f9 51be
00000320: cf4e 213c 08f9 093e e0f3 dabd 38e8 4abe
00000330: 41ca b7bd 9f97 d9be 02a2 f7bd 910f 4e3c
00000340: 9ef4 d73d 2347 0d3e 4590 1ebe 7667 80be
00000350: 9d84 b43d 2e0a f63b d5a4 96be c076 80be
00000360: dcb8 153e 9c9f c13d 5bb2 5cbe 5e80 eabc
00000370: 7111 dc3d 4772 843e 44c6 803d 276a 05be
00000380: a4e0 af3c 1b7e 703c 20ec 6f3d 502e a23b
00000390: da8d 1b3e 9989 83bd 768f 80be 2598 c93d
000003a0: 85cd 00be 0eea cc3c 6d6c 4c3e 7769 fcbb
000003b0: 12d2 ecbd f025 8ebe 906a b3be 1455 03bf
000003c0: cae0 533e 178f 7dbc 883b 363c 4b40 27bc
000003d0: fc73 a53d 04b1 08be 0455 f03c 8cb9 c3bd
000003e0: 95ae 9b3d 1d48 f33d 9548 3c3e 84d1 023e
000003f0: d14f f73a 328c d6bd d4fe 333e 7194 4c3e

bias f4 [8]
0.14813684 -0.025532661 0.16205458 -0.044311352 0.06424823 -0.11745501 -0.002641386 0.12701946
00000000: 2fb1 173e df29 d1bc a3f1 253e d27f 35bd
00000010: 9394 833d 418c f0bd 1a1b 2dbb 6411 023e

weight f4 [128, 8]
0.25555053 0.015858224 0.49005926 4.464225e-05 0.009118047 -0.09289634 0.10590764 -0.086521566
-0.0009552897 -0.0058198143 -0.22500576 1.291054e-07 0.18463802 0.005896205 -0.29279986 0.46451554
0.16169007 0.016637966 0.3422219 5.804172e-21 0.08081232 -0.1129902 -0.16395184 -0.051195502
0.06750459 -0.032294303 -0.0018954516 -1.8617952e-08 0.11669892 -0.44607976 -0.037786745 0.28756192
-0.00044700206 0.00041818785 -5.243326e-12 -0.00035752167 -0.00016501358 1.5928974e-07 1.8580652e-15 1.9985156e-24
0.10249339 0.0036620912 0.6967214 -0.00039390236 -0.18258466 0.13180186 -0.006308637 0.008585743
-0.12930384 0.011971703 0.017102696 0.00057466317 -0.05115605 -0.40701413 0.05379065 0.35532427
-0.025876705 -0.012250973 -0.580923 -2.5712957e-10 0.03483177 0.31609073 0.58563334 0.28914976
-0.010176554 0.0039468557 0.5152154 1.3346497e-09 -0.12680854 0.3253462 0.31949905 -0.030403798
0.13027424 0.02492569 -0.53165877 1.4151317e-09 0.11237585 -0.36329114 -0.16049092 0.31442574
0.26215756 -0.0004945306 -0.13747959 3.4377574e-11 0.17102364 -0.4231472 -0.10605478 0.12953535
-2.2795136e-23 -5.0118717e-05 5.2723768e-23 -5.4221028e-09 -0.00021053306 -1.0174618e-23 9.349885e-24 -8.996237e-05
0.089299284 -0.006421477 -0.23096325 -3.8797663e-21 0.069339715 -0.0941018 -0.034410987 0.15119708
-0.107409105 -0.0024683808 0.08008826 -6.872662e-05 -0.075924546 0.29533082 0.07193568 0.10216152
0.33440146 0.0154108135 -0.079367034 1.6322749e-09 0.18692759 0.24959235 0.29042244 -0.30407703
-3.1990796e-05 -7.221271e-05 -8.142281e-05 1.7753914e-07 -1.8422288e-25 5.259952e-09 4.4704156e-24 1.3168224e-24
0.018227361 -0.006667832 -0.5495419 -1.188379e-15 0.23394085 0.11196227 0.28117993 0.05233697
-0.007175391 -0.0024385396 -0.071180135 1.4942882e-20 0.13807628 0.3519055 0.41478896 0.02681499
-0.2152345 -0.009253686 -0.5578112 5.8467987e-05 0.00643443 0.2604396 -0.13691087 0.44538108
0.16807966 0.0018776885 0.13374029 -0.00013729748 0.1011173 0.22905773 0.27618882 -0.06471087
0.076893516 0.017790893 0.55445045 -2.3748579e-25 0.06659961 -0.08497765 0.07708445 -0.03884007
-0.05138905 -0.0049958765 -0.36978653 0.0003665073 0.01287243 0.32863384 0.41122243 0.17740095
-2.9630191e-05 3.9579998e-05 -5.731477e-07 -3.8444308e-24 2.9200714e-06 -1.2537805e-25 -1.2769942e-09 1.5541305e-23
-2.485234e-19 -2.5853553e-05 2.6016623e-25 1.302858e-26 4.4699383e-25 -1.399582e-23 -3.826158e-05 2.935741e-22
-0.030472992 -0.013547294 -0.5013885 -1.0376589e-21 0.24383748 0.060326688 0.2635308 0.04072004
0.25658348 -0.0021364146 -0.46791902 -6.6617734e-10 0.15819964 -0.18212844 -0.29372874 0.1820178
0.2259773 -0.0011970234 -0.35347039 3.4252295e-22 0.1834761 0.13737182 0.35396105 -0.009344751
0.18043189 -0.00838417 -0.40258637 1.3380248e-06 0.035285 -0.14294444 0.28075588 -0.019642675
-0.0048896433 -0.0022077486 0.502955 1.1501885e-20 -0.054789826 0.08108062 0.11690772 0.1657897
-0.119390644 -0.00045574718 0.18518567 0.00045937748 -0.006463548 -0.19625983 -0.33723974 0.1813987
0.009431443 -2.3456276e-24 -0.010431603 -1.4559925e-20 -0.020683764 -0.011451846 -0.009016443 -0.04008965
0.010775222 -0.0073999586 -0.40567935 3.5684672e-10 -0.10618626 0.33952892 0.017595936 0.35157976
00000000: 85d7 823e 1be9 813c 0ce9 fa3e 403e 3b38
00000010: dc63 153c 7040 bebd 1be6 d83d 3832 b1bd
00000020: 686c 7aba 24b4 bebb e967 66be 39a0 0a34
00000030: c011 3d3e f434 c13b dde9 95be fbd4 ed3e
00000040: 1592 253e 584c 883c b537 af3e 8246 db1d
00000050: ee80 a53d 6867 e7bd fee2 27be 60b2 51bd
00000060: d93f 8a3d 0847 04bd cd70 f8ba 4fed 9fb2
00000070: d8ff ee3d 9164 e4be 46c6 1abd 513b 933e
00000080: 9a5b eab9 3940 db39 af7b b8ac bf71 bbb9
00000090: 7f07 2db9 3b09 2b34 41e3 0527 aea0 1a18
000000a0: 0ee8 d13d b2ff 6f3b 555c 323f ae84 ceb9
000000b0: 79f7 3abe 11f7 063e afb8 cebb 37ab 0c3c
000000c0: 3a68 04be f624 443c f41a 8c3c fea4 163a
000000d0: 0289 51bd 2864 d0be 9653 5c3d 10ed b53e
000000e0: 62fb d3bc 4eb8 48bc 5fb7 14bf c55b 8daf
000000f0: c2ab 0e3d a5d6 a13e 11ec 153f 700b 943e
00000100: 90bb 26bc a054 813b 28e5 033f d06e b730
00000110: 19da 01be c793 a63e 6195 a33e 6311 f9bc
00000120: 9c66 053e f630 cc3c ca1a 08bf 857e c230
00000130: 4f25 e63d 4c01 babe bb57 24be 69fc a03e
00000140: 8439 863e 63a3 01ba 73c7 0cbe b531 172e
00000150: d220 2f3e c0a6 d8be 4033 d9bd eaa4 043e
00000160: 0676 dc99 9036 52b8 ddf4 7e1a 524d bab1
00000170: 8ac2 5cb9 45ce 4499 63da 3419 2eaa bcb8
00000180: 8be2 b63d 416b d2bb a181 6cbe cc92 929d
00000190: fb01 8e3d 72b8 c0bd 89f2 0cbd 68d3 1a3e
000001a0: 4ef9 dbbd 8fc4 21bb 5005 a43d 5321 90b8
000001b0: 547e 9bbd 9a35 973e 0453 933d 0f3a d13d
000001c0: ab36 ab3e a37d 7c3c 2f8b a2bd 9156 e030
000001d0: f269 3f3e 2395 7f3e 40b2 943e fcaf 9bbe
000001e0: db2d 06b8 e770 97b8 8ac1 aab8 96a1 3e34
000001f0: 900e 6496 07bb b431 daf0 ac18 b6c4 cb17
00000200: 8c51 953c d47d dabb c7ae 0cbf 7243 aba6
00000210: 318e 6f3e 7a4c e53d d1f6 8f3e 4a5f 563d
00000220: 8b1f ebbb e8cf 1fbb e4c6 91bd ac21 8d1e
00000230: de63 0d3e f52c b43e 385f d43e 1cab db3c
00000240: 6f66 5cbe c69c 17bc b7cc 0ebf 863b 7538
00000250: e9d7 d23b 5758 853e 5d32 0cbe fd08 e43e
00000260: 131d 2c3e c51c f63a 37f3 083e 83f7 0fb9
00000270: 9616 cf3d 1c8e 6a3e 9f68 8d3e 2287 84bd
00000280: 597a 9d3d 35be 913c 77f0 0d3f 20ff 9296
00000290: 6065 883d c308 aebd 74de 9d3d c416 1fbd
000002a0: 537d 52bd 73b4 a3bb a954 bdbe c727 c039
000002b0: e2e6 523c b242 a83e bf8b d23e 98a8 353e
000002c0: 5a8e f8b7 b302 2638 69da 19b5 66b9 9498
000002d0: 72f6 4336 e435 1b96 3d82 afb0 684e 9619
000002e0: cbb3 92a0 15e0 d8b7 fc08 a116 6007 8114
000002f0: 8056 0a17 f95b 8799 0f7b 20b8 6474 b11b
00000300: 7fa2 f9bc 78f5 5dbc ff5a 00bf 7cce 9c9c
00000310: 88b0 793e 1e19 773d 82ed 863e 0fca 263d
00000320: e95e 833e 1703 0cbb 1593 efbe 101e 37b0
00000330: 16ff 213e e17f 3abe 9d63 96be e062 3a3e
00000340: 9866 673e 71e5 9cba 12fa b4be dc0a cf1b
00000350: 29e1 3b3e 33ab 0c3e 623a b53e ba1a 19bc
00000360: 23c3 383e c25d 09bc cd1f cebe 2f96 b335
00000370: 0187 103d 0760 12be 3cbf 8f3e ade9 a0bc
00000380: 4d39 a0bb e0af 10bb a9c1 003f b443 591e
00000390: 4c6b 60bd 990d a63d 516d ef3d c6c4 293e
000003a0: 1583 f4bd 5af1 eeb9 50a1 3d3e 9ad8 f039
000003b0: 2ccc d3bb 56f8 48be b0aa acbe 95c0 393e
000003c0: 5786 1a3c f17b 3598 50e9 2abc bd83 899e
000003d0: ff70 a9bc 86a0 3bbc b4b9 13bc 0b35 24bd
000003e0: 8f8a 303c 5a7b f2bb 34b5 cfbe b62d c42f
000003f0: 2f78 d9bd bcd6 ad3e 5a25 903c 4302 b43e

bias f4 [128]
-0.050951727 0.29834437 0.1030901 0.09494018 -9.4321564e-05 -0.027028082 0.18096018 -0.1174254
0.09977317 0.28431177 0.22811686 -1.9436434e-06 -0.08266736 -0.26231572 0.3403939 -4.6825846e-08
-0.097656 -0.11019708 0.23549812 -0.042340603 -0.0057187467 0.15415372 -0.00028235157 -8.5426624e-11
0.04475332 0.20144784 -0.1598978 -0.067207776 -0.23209718 0.11585448 -0.008329903 0.203976
2.8893303e-25 -0.1252209 0.0145433545 -0.00042200403 0.21928756 0.18392456 0.1124059 -0.1732851
-0.120195545 0.3317481 -0.00017991147 0.40216967 -0.00027727053 0.37907213 0.11003731 -4.6128696e-25
0.31809318 0.099583246 0.34213653 0.10278771 -0.2418408 -1.6493483e-05 -0.0046748756 0.30854508
-0.19111818 0.056642715 0.2856762 -0.00022720623 -0.0033250607 0.3848824 -1.5571777e-20 -1.3374193e-05
-0.21058226 0.40293956 -0.031939544 -0.15462697 0.35150793 2.5789586e-17 -0.24844775 0.19621556
0.110250354 -5.707993e-13 -1.029119e-17 0.11617997 -0.15339103 0.2599773 0.47188622 0.30931124
-0.3226886 0.0774962 0.026439771 -0.011369488 -0.1144485 0.10498082 0.39600337 0.34966063
0.078682736 0.04617028 0.10459486 0.16673079 0.121027954 0.2591415 -0.113429 0.4362872
-7.192914e-05 0.07041887 0.49500602 0.035325546 0.18474133 0.4637836 0.37399992 0.3162771
0.0834017 -5.9671653e-05 0.013003411 -0.00030064577 0.100381665 0.4387291 0.31386828 -0.060210064
0.17393056 0.22078152 -0.17568065 -2.1489067e-08 -0.24948192 -0.09342772 0.19803502 -0.2530124
-0.2575976 0.011629161 0.06442556 0.2687243 0.33411792 0.48703653 -0.16129504 0.32529444
00000000: c2b2 50bd 98c0 983e e720 d33d ff6f c23d
00000010: 81ce c5b8 ff69 ddbc a04d 393e ba7c f0bd
00000020: e055 cc3d 5091 913e 7797 693e 8a6f 02b6
00000030: 814d a9bd 3f4e 86be 1c48 ae3e 901d 49b3
00000040: deff c7bd 02af e1bd 6b26 713e 576d 2dbd
00000050: 5364 bbbb 79da 1d3e 9608 94b9 eada bbae
00000060: 424f 373d 5848 4e3e 40bc 23be 3ba4 89bd
00000070: e2aa 6dbe 1d45 ed3d 257a 08bc 16df 503e
00000080: 44d7 b216 e839 00be 4047 6e3c 6c40 ddb9
00000090: eb8c 603e b856 3c3e 1135 e63d a671 31be
000000a0: 1529 f6bd e3da a93e 9ea6 3cb9 2fe9 cd3e
000000b0: 9f5e 91b9 be15 c23e 3e5b e13d ebc2 0e97
000000c0: 1cdd a23e 4df2 cb3d 852c af3e 5d82 d23d
000000d0: 1da5 77be 7c5b 8ab7 b32f 99bb 9ff9 9d3e
000000e0: 7cb4 43be 3102 683d 2744 923e 353e 6eb9
000000f0: 43e9 59bb 4e0f c53e 3f12 939e b961 60b7
00000100: e0a2 57be 184e ce3e 0ad3 02bd 8856 1ebe
00000110: d9f8 b33e f0dd ed23 1669 7ebe bbec 483e
00000120: f0ca e13d 6daa 20ab c5d6 3da3 c4ef ed3d
00000130: 8a12 1dbe bf1b 853e 129b f13e 0b5e 9e3e
00000140: 7137 a5be 54b6 9e3d 3898 d83c 1747 3abc
00000150: fa63 eabd 2f00 d73d f4c0 ca3e b806 b33e
00000160: 6a24 a13d 0c1d 3d3d d435 d63d 7abb 2a3e
00000170: 81dd f73d 32ae 843e 774d e8bd 0961 df3e
00000180: aad8 96b8 c537 903d 6e71 fd3e 85b1 103d
00000190: d52c 3d3e 0b75 ed3e eb7c bf3e 12ef a13e
000001a0: 83ce aa3d f347 7ab8 420c 553c fe9f 9db9
000001b0: e794 cd3d 1aa1 e03e 58b3 a03e d49e 76bd
000001c0: da1a 323e 8d14 623e a1e5 33be f596 b8b2
000001d0: 3078 7fbe 0857 bfbd b1c9 4a3e d78a 81be
000001e0: d5e3 83be 3d88 3e3c 8cf1 833d 3b96 893e
000001f0: 8111 ab3e da5c f93e 872a 25be fe8c a63e

weight f4 [64, 128]
0.022039372 0.1461053 0.2825709 0.1893751 2.7503083e-25 0.1923583 0.20341706 -0.16882558
-0.07473056 0.124864824 0.12485345 1.4495572e-24 0.0010247951 -0.017684475 -0.18838713 1.5977518e-24
-0.22193298 -0.132262 0.11189387 -0.115664795 0.15068835 -0.092686385 2.8635365e-24 1.7774136e-22
-0.26565897 0.13232936 -0.13993204 -0.18995093 0.01705898 0.18951507 3.4284096e-24 0.08655992
1.2727106e-23 -0.13436067 0.09284202 0.0025011508 0.07371933 -0.059010603 0.017544378 0.030354355
-0.12178189 0.054372393 8.0265187e-25 0.38842988 -1.9046512e-23 0.07505008 -0.021735433 7.8471737e-23
0.10459187 -0.10486554 0.28531367 0.09790564 -0.10918914 1.2286705e-24 -0.0006154393 0.11235951
-0.13498037 -0.22380608 0.082322426 1.5877574e-25 -0.19283524 0.30227974 1.6813365e-22 -7.074431e-24
-0.05583894 0.26072177 -0.0011447747 -0.2546925 -0.20003001 1.7725285e-23 -0.09018323 0.17643788
0.20384623 -2.7181134e-25 1.5835084e-23 0.13695255 -0.046437427 0.11614533 0.24513157 0.23837757
-0.19007848 0.081098475 -0.27450043 -0.007891095 -0.10542146 0.16392674 0.16300654 0.04734619
-0.047211066 -0.17095242 0.14261213 0.20447598 -0.017530162 0.10097433 0.057344556 -0.0401481
2.288112e-26 0.100758046 0.2728512 -0.020536212 0.06390588 0.28081107 0.14649354 0.39242777
-0.0036555645 -5.2292717e-25 -0.23915131 1.5150255e-23 0.038402405 0.05097458 0.15976876 -0.06920777
-0.13523461 0.083369225 0.0041551446 9.443309e-24 0.060804196 -0.15384331 0.091203526 -0.08185676
-0.16837884 -0.029603722 -0.20637366 0.30899307 0.038126573 0.39389002 -0.11635913 0.14115152
0.36631453 0.04173614 0.08280558 -0.09863343 1.5438036e-24 0.17862952 0.022329465 -0.006366418
0.16732062 -0.16241951 0.038248055 -7.799207e-25 0.013845483 0.055667944 0.25686276 4.806083e-24
-0.016659295 0.13216232 -0.038929377 0.19375944 0.27837533 0.105917394 -9.183776e-25 -2.6575513e-24
-0.011652439 -0.10344176 0.08960325 0.07685194 0.13984117 -0.067834795 2.7938928e-13 -0.10231399
-1.1934184e-25 0.15366688 0.2573117 0.0018049914 0.51940346 0.10596025 -0.035923433 0.093180984
0.19657518 -0.07273973 1.1333238e-26 -0.17825891 2.1379671e-26 -0.17286725 0.2917182 2.1102902e-25
0.0075439927 0.15776597 -0.17187594 0.09233267 0.27175984 1.1332221e-25 -3.0994022e-05 -0.1591604
0.1661749 0.050937608 -0.24361655 1.0817633e-23 0.20465218 -0.18117172 6.5988617e-24 -6.6351594e-25
0.11915586 0.0028976258 -0.040573053 0.13733637 0.17792006 -3.2556049e-24 -0.040482953 0.063901365
0.073871866 -2.0108454e-25 6.3098173e-26 -0.107068345 0.1628569 -0.07145001 -0.058061067 -0.0030059833
0.10922554 0.07954281 0.017236626 -0.023697637 0.28053796 -0.22245201 -0.008748927 0.046720874
-0.04986955 0.11532462 0.020984847 -0.12419305 0.255464 0.08806208 -0.058653988 -0.0892986
1.5534176e-25 -0.15363245 -0.11438429 0.122228675 -0.28142628 -0.31955987 0.027653152 -0.09324748
0.24619782 -1.6084293e-24 0.109862365 3.630606e-24 -0.06723295 0.028441979 0.049664136 0.05069674
0.16056025 0.01963831 0.052987017 -1.0655387e-24 -0.14348659 0.16047007 0.14504005 0.15248205
-0.03670941 0.11478951 0.19578601 0.01671159 -0.020339672 -0.015026186 0.19896284 -0.049557816
00000000: ea8b b43c a19c 153e 22ad 903e 8ceb 413e
00000010: 603c aa16 93f9 443e 904c 503e 9de0 2cbe
00000020: 560c 99bd 21b9 ff3d 2ab3 ff3d e04e e017
00000030: 6b52 863a 08df 90bc 8ee8 40be 783d f717
00000040: 6642 63be b16f 07be 9d28 e53d aae1 ecbd
00000050: 0c4e 1a3e 5cd2 bdbd 2f8e 5d18 49e0 561b
00000060: 7404 88be 5981 073e 584a 0fbe 7f82 42be
00000070: 46bf 8b3c 3d10 423e 53a1 8418 5446 b13d
00000080: 942d 7619 d895 09be f523 be3d 59ea 233b
00000090: 29fa 963d 1ab5 71bd 3ab9 8f3c b2a9 f83c
000000a0: c968 f9bd 96b5 5e3d a268 7817 48e0 c63e
000000b0: e134 b899 dbb3 993d 820e b2bc a7bb bd1a
000000c0: 4334 d63d bfc3 d6bd a214 923e c182 c83d
000000d0: 8e9e dfbd a720 be17 6f55 21ba be1c e63d
000000e0: 4b38 0abe 6c2d 65be a998 a83d 0a8e 4416
000000f0: 9a76 45be 69c4 9a3e d842 4b1b e3d6 0899
00000100: 5fb7 64bd 537d 853e 440c 96ba 0e67 82be
00000110: abd4 4cbe ae6d ab19 fcb1 b8bd 22ac 343e
00000120: 11bd 503e 3a3e a896 c525 9919 4a3d 0c3e
00000130: 2c35 3ebd 9add ed3d c503 7b3e 4019 743e
00000140: efa3 42be f516 a63d 528b 8cbe a749 01bc
00000150: 35e7 d7bd 69dc 273e 30eb 263e 14ee 413d
00000160: 6460 41bd 270e 2fbe ea08 123e 2762 513e
00000170: 6a9b 8fbc a1cb ce3d 20e2 6a3d 5672 24bd
00000180: 889a e214 3c5a ce3d 27b3 8b3e 8f3b a8bc
00000190: 16e1 823d 78c6 8f3e 6702 163e 4bec c83e
000001a0: 3292 6fbb 8fd6 2197 15e4 74be 3786 9219
000001b0: d74b 1d3d b9ca 503d 6c9a 233e cebc 8dbd
000001c0: f17a 0abe 7cbd aa3d e127 883b 00a9 3619
000001d0: d20d 793d 1a89 1dbe eac8 ba3d 84a4 a7bd
000001e0: 816b 2cbe 8183 f2bc 9e53 53be 5734 9e3e
000001f0: 9c2a 1c3d f4ab c93e b24d eebd 068a 103e
00000200: 948d bb3e 84f3 2a3d f995 a93d 5300 cabd
00000210: 5ce4 ee17 a8ea 363e 48ec b63c 639d d0bb
00000220: 1956 2b3e 4d51 26be fea9 1c3d af5f 7197
00000230: 2ad8 623c 1204 643d 8483 833e 24ed b918
00000240: 1379 88bc 8f55 073e 6974 1fbd e068 463e
00000250: 3687 8e3e 38eb d83d af1c 8e97 3a9e 4d98
00000260: dfe9 3ebc 46d9 d3bd e981 b73d 8d64 9d3d
00000270: 8632 0f3e f8ec 8abd 3d48 9d2a ff89 d1bd
00000280: f0bc 1396 da5a 1d3e 5cbe 833e 7695 ec3a
00000290: a0f7 043f b001 d93d 7324 13bd acd5 be3d
000002a0: 014b 493e 91f8 94bd 587a 6014 8189 36be
000002b0: e8bb d314 1d04 31be 175c 953e e29e 8216
000002c0: 9933 f73b 678d 213e 3f00 30be e918 bd3d
000002d0: 1b24 8b3e 3e49 0c16 94ff 01b8 f2fa 22be
000002e0: c129 2a3e f4a3 503d 9e76 79be 533e 5119
000002f0: 5790 513e 1485 39be f647 ff18 2659 4d97
00000300: fd07 f43d 18e6 3d3b ee2f 26bd e8a1 0c3e
00000310: ad30 363e e6e3 7b98 74d1 25bd b8de 823d
00000320: 224a 973d 3cee 7896 3839 9c15 a646 dbbd
00000330: f6c3 263e 6254 92bd 71d1 6dbd 0800 45bb
00000340: a4b1 df3d 57e7 a23d d333 8d3c 8c21 c2bc
00000350: aca2 8f3e 76ca 63be a957 0fbc 635e 3f3d
00000360: 0344 4cbd 502f ec3d 6ae8 ab3c ed58 febd
00000370: 2dcc 823e e459 b43d 2a3f 70bd 2fe2 b6bd
00000380: c54d 4016 d351 1dbe 5042 eabd 0753 fa3d
00000390: 1b17 90be 5a9d a3be dd88 e23c 89f8 bebd
000003a0: 481b 7c3e 73e4 f897 85ff e03d c873 8c18
000003b0: 6eb1 89bd 27ff e83c 9f6c 4b3d 63a7 4f3d
000003c0: e869 243e 85e0 a03c ea08 593d 56e2 a497
000003d0: 26ee 12be 4452 243e 6185 143e 4124 1c3e
000003e0: 9b5c 16bd c316 eb3d 217c 483e bfe6 883c
000003f0: 629f a6bc 6430 76bc eabc 4b3e 23fd 4abd

bias f4 [64]
0.018963156 -0.054168645 -0.014348513 -0.0070037963 -0.012805361 -0.011721301 0.0495653 0.067823075
-0.048917443 -0.061579205 0.19995354 0.0058929985 -0.022672392 -0.011793503 0.085123256 -0.10694144
-0.020148138 0.17244722 -0.0219421 -0.006323519 -0.0102063995 0.04316806 0.13869958 0.001235221
-0.024596276 0.05343758 -0.029474923 0.040858798 -0.003849835 -0.0057481728 0.008562588 -0.026943319
0.051974814 -0.016461639 -1.0518341e-05 -0.045254793 0.112028114 0.027671095 -0.008259099 0.05399954
-0.017610816 0.021470346 -0.029496456 0.059455138 -2.1495425e-10 0.035903215 -0.009734772 -6.48708e-08
-0.009999463 -0.0053262804 0.041563507 -0.01112839 0.01584624 0.07688718 -0.0046081487 -0.00013451188
-0.024570026 -0.001872028 0.11720406 -0.0065455684 -0.008276957 -9.362368e-05 -0.0015523625 -0.018177649
00000000: 9f58 9b3c f1df 5dbd 0716 6bbc 1a80 e5bb
00000010: 94cd 51bc b30a 40bc fc04 4b3d d3e6 8a3d
00000020: a85d 48bd 7a3a 7cbd 9fc0 4c3e 0e1a c13b
00000030: 74bb b9bc 8939 41bc 1a55 ae3d 1d04 dbbd
00000040: b50d a5bc 0196 303e ebbf b3bc 8635 cfbb
00000050: be38 27bc fed0 303d 4307 0e3e 24e7 a13a
00000060: 217e c9bc 5de1 5a3d 6575 f1bc 8e5b 273d
00000070: 834d 7cbb 2b5b bcbb 194a 0c3c 3cb8 dcbc
00000080: 8be3 543d 8fda 86bc ee77 30b7 175d 39bd
00000090: ff6e e53d 7eae e23c 2c51 07bc 9f2e 5d3d
000000a0: 8f44 90bc 94e2 af3c 8da2 f1bc 3b87 733d
000000b0: 3e58 6caf 400f 133d 987e 1fbc 194f 8bb3
000000c0: cad4 23bc 1488 aebb 7f3e 2a3d da53 36bc
000000d0: f9cf 813c 0777 9d3d f4ff 96bb c20b 0db9
000000e0: 1447 c9bc d65e f5ba af08 f03d 357c d6bb
000000f0: 139c 07bc d557 c4b8 a478 cbba 4be9 94bc

weight f4 [10, 64]
0.1080064 0.05379028 0.028377956 -6.8985626e-24 -6.4563828e-24 -0.09088911 0.09489 -0.043125205
0.029484257 0.053354856 -0.0036103819 0.111773685 -1.5430382e-20 3.892934e-19 -0.32242864 0.010143732
0.007203102 -0.054813284 0.013280611 -6.497095e-05 2.4356456e-07 -0.17331436 0.013529143 -0.12602401
0.004707291 0.12881489 -0.0014130702 -0.102314025 -1.9977897e-25 0.014208674 -0.024904663 -0.007946126
0.049123578 -0.0039214427 -5.3737647e-21 -0.1246739 0.09147055 -0.00950637 -0.012746681 0.09529936
0.010353467 0.025341446 -0.002946593 -0.061505884 -1.3372153e-12 0.10583968 0.011595331 7.117407e-23
0.15867718 -1.0584224e-24 0.082090706 0.013229211 8.2025727e-25 0.0067439773 2.5890614e-19 -0.011309108
-0.027095022 2.4642796e-19 0.13180265 7.384218e-12 0.024480715 -5.4751895e-23 6.8055766e-13 -4.833247e-22
0.27078307 -0.38758707 0.0006098924 -7.52028e-25 5.8100165e-20 -0.48182762 0.055001345 0.042972457
0.0772575 -0.22443525 0.08486651 -0.057889875 6.395316e-25 -0.00022634621 0.43092132 -0.030404206
-0.0033878777 -0.06299595 0.00936098 -0.0042721555 -7.735666e-07 -0.09801813 0.21016999 -0.5266174
-0.0028200864 -0.1169076 -0.0033605127 -0.008931874 1.1696683e-24 -0.014633853 -0.015183298 -0.00016633618
-0.07071896 -0.0040769875 1.559837e-20 -0.07621607 0.0023882762 -0.4413114 0.01802237 0.2867969
-0.034592234 0.08865818 0.024413085 -0.4475979 -3.2902245e-13 0.2166099 0.013542985 -1.0632496e-21
-0.08115357 1.273456e-19 -0.07600437 -0.014154462 -1.7415587e-21 0.102096744 -9.305359e-25 0.014411057
0.014517259 -4.2685934e-24 0.1945358 0.0015775108 -0.009630873 1.07970375e-20 -5.7970637e-18 -2.7323987e-23
-0.06727751 -0.04815098 -0.009645021 1.0823122e-25 -5.799863e-23 -0.08796577 0.09229669 0.05051587
0.060245976 -0.22197773 0.19178374 0.10424431 -1.3270378e-25 -5.8094495e-18 -0.1495387 0.017996307
-0.0036326882 -0.0040832073 -0.013055778 -0.00042863263 3.5042842e-06 -0.0024553302 0.15425491 -0.19873898
-0.040545303 0.13232565 -0.0031652744 0.16325216 -6.7929187e-25 -0.014590281 0.013269019 -0.00079357513
-0.2874956 -0.013232388 1.7702822e-24 -0.11636267 0.19596995 0.12060877 -0.06740929 -0.075998664
-0.32409236 0.06690707 -0.016019246 -0.059335716 -9.4146926e-14 -0.19420883 0.01645222 -7.5645006e-22
0.15167493 1.545257e-24 -0.01004485 -0.0145685645 -4.9753884e-16 0.06275749 6.298829e-26 -0.014966312
0.0050285617 7.033794e-24 0.14163226 -0.003694723 -0.0075130914 2.9548855e-23 2.5564733e-17 2.0252328e-19
0.18053155 0.029950766 -4.8078294e-16 -4.095326e-25 5.7079965e-19 -0.10799394 -0.03999902 -0.06848936
-0.05107187 -0.0011840516 -0.0785977 0.08280318 -2.8707942e-23 -1.1611363e-05 0.11316472 -0.0035054372
-0.013018058 -0.097354196 0.006274326 0.024690552 -2.2023617e-06 -0.012079561 0.1711121 -0.23522022
0.0077524926 0.05514428 -0.00069233676 -0.106911786 1.4512916e-20 0.007751722 0.0074225916 0.00062673836
0.21197748 0.01921452 -1.0009915e-23 0.15409257 0.10567717 -0.2193995 0.039918177 0.089686595
0.10152463 -0.09156857 0.02208169 -0.10958558 3.3086901e-12 0.077827886 -0.0137522025 -2.638045e-19
-0.016179506 -3.2121864e-23 -0.08210896 0.014208016 8.6910754e-24 0.05324807 -5.0719994e-25 0.014784068
0.028818043 1.0358975e-23 -0.008931242 -0.0040905783 -0.0011461689 -4.8356217e-23 6.6751014e-09 -8.385307e-25
00000000: 7632 dd3d 3253 5c3d e378 e83c 0770 0599
00000010: ebc4 f998 1224 babd b055 c23d 0ea4 30bd
00000020: f888 f13c 9f8a 5a3d 289c 6cbb 9ae9 e43d
00000030: 60bc 919e 5bcc e520 5e15 a5be e531 263c
00000040: 0008 ec3b e583 60bd eb96 593c 0341 88b8
00000050: 42c3 8234 5279 31be 57a9 5d3c 700c 01be
00000060: 9e3f 9a3b 0de8 033e c536 b9ba 048a d1bd
00000070: 7c50 7796 80cb 683c dd04 ccbc 7830 02bc
00000080: ce35 493d 727f 80bb dd03 cb9d 0855 ffbd
00000090: e954 bb3d 9bc0 1bbc 75d7 50bc 502c c33d
000000a0: 97a1 293c dd98 cf3c a11b 41bb 98ed 7bbd
000000b0: 4232 bcab 79c2 d83d 58fa 3d3c 9e16 ac1a
000000c0: 457c 223e 6ec8 a397 2c1f a83d 55bf 583c
000000d0: 7adb 7d17 95fc dc3b cad4 9820 d649 39bc
000000e0: 61f6 ddbc 2477 9120 46f7 063e 90e7 012d
000000f0: c88b c83c c861 849a 598f 3f2b 7013 129c
00000100: 14a4 8a3e d071 c6be 30e1 1f3a ccbd 6897
00000110: 652f 891f 1cb2 f6be 1749 613d e303 303d
00000120: 2e39 9e3d 5bd2 65be 7ece ad3d ef1d 6dbd
00000130: eaec 4517 5957 6db9 b8a1 dc3e 3e12 f9bc
00000140: 2807 5ebb 0504 81bd cc5e 193c 70fd 8bbb
00000150: 18a7 4fb5 bbbd c8bd cd36 573e 66d0 06bf
00000160: 33d1 38bb 406d efbd 0c3c 5cbb ff56 12bc
00000170: 56ff b417 d4c2 6fbc 5ec3 78bc 876a 2eb9
00000180: 1ad5 90bd 4098 85bb 8b52 931e 2c17 9cbd
00000190: a084 1c3b 91f3 e1be a6a3 933c 0bd7 923e
000001a0: 96b0 0dbd 6b92 b53d f3fd c73c 8d2b e5be
000001b0: 2239 b9aa fcce 5d3e 65e3 5d3c 7aac a09c
000001c0: d833 a6bd d957 1620 2ea8 9bbd 1ee8 67bc
000001d0: a596 039d 1918 d13d 53fe 8f97 5b1c 6c3c
000001e0: ccd9 6d3c 1a22 a598 6534 473e 7bc4 ce3a
000001f0: cfca 1dbc 45f3 4b1e b8df d5a2 7521 049a
00000200: cbc8 89bd f639 45bd 2606 1ebc d8fb 0516
00000210: 6a3b 8c9a 6627 b4bd 0c06 bd3d bbe9 4e3d
00000220: 7cc4 763d 214e 63be f562 443e 0a7e d53d
00000230: 8247 2496 b354 d6a2 ac20 19be fe6c 933c
00000240: 6512 6ebb 6dcc 85bb e7e7 55bc 19ba e0b9
00000250: 252b 6b36 9be9 20bb 00f5 1d3e 3b82 4bbe
00000260: d512 26bd 6080 073e 7e70 4fbb 932b 273e
00000270: 0c3b 5297 130c 6fbc 4d66 593c ed07 50ba
00000280: a032 93be a8cc 58bc 0df8 0818 8d4f eebd
00000290: 59ac 483e bb01 f73d e20d 8abd 30a5 9bbd
000002a0: 6fef a5be 9306 893d cb3a 83bc 020a 73bd
000002b0: 0200 d4a9 aede 46be cec6 863c 7d9f 649c
000002c0: ac50 1b3e f01d ef17 2893 24bc fdb0 6ebc
000002d0: e367 0fa6 0087 803d 92f3 9b15 4335 75bc
000002e0: a2c6 a43b a90d 0819 0c08 113e 2a23 72bb
000002f0: 6130 f6bb b6e3 0e1a 05cb eb23 e818 6f20
00000300: 43dd 383e 4f5b f53c 8593 0aa6 087d fd96
00000310: 6778 2821 ed2b ddbd 03d6 23bd 2644 8cbd
00000320: bd30 51bd 2e32 9bba d5f7 a0bd b794 a93d
00000330: b6d2 0a9a 6dce 42b7 e8c2 e73d 7abb 65bb
00000340: b149 55bc a361 c7bd dc98 cd3b d743 ca3c
00000350: 49cc 13b6 5ae9 45bc 0338 2f3e 92dd 70be
00000360: 9f08 fe3b f8de 613d ef7d 35ba 91f4 dabd
00000370: 1412 891e 2802 fe3b 3639 f33b b34b 243a
00000380: a010 593e c567 9d3c b39e 4199 71ca 1d3e
00000390: 466d d83d 43aa 60be 3e81 233d 9bad b73d
000003a0: 25ec cf3d 4d88 bbbd a9e4 b43c 686e e0bd
000003b0: 10d4 682c 3a64 9f3d eb50 61bc 02b9 9ba0
000003c0: e28a 84bc f154 1b9a be28 a8bd bdc8 683c
000003d0: 1f1c 2819 a61a 5a3d 85f8 1c97 e038 723c
000003e0: d113 ec3c 295f 4819 5854 12bc 420a 86bb
000003f0: 0c3b 96ba 19d6 699a d05a e531 a0c1 8197

bias f4 [10]
-0.014260676 -0.00035860736 0.017321011 0.039920766 -0.1178566 0.08630223 -0.0032264208 0.046808958
0.099539675 -0.01718807
00000000: 9ca5 69bc 7703 bcb9 cbe4 8d3c f583 233d
00000010: cd5e f1bd 39bf b03d 5c72 53bb c0ba 3f3d
00000020: 75db cb3d ffcd 8cbc
