2-hypertuning-mlflow/mlruns/2/714eccc0f1f440b4b5be188ee6b57bbf/artifacts/pytorch_models/20250921-1131model.pt (torch, 211653 bytes, 12 tensors)

weight f4 [64, 1, 2, 2]
000000 80 1c f6 be f2 eb 8c 3e e1 f4 5d bf 94 94 0d 3e
       -0.4806862 0.27523762 -0.8670178 0.1382621
000010 61 ea 82 be 07 56 8d 3e 21 e0 ba 3e 6d dc 9a 3d
       -0.25569442 0.27604696 0.36499122 0.07561574
000020 47 9b 4f 3e 58 ea d8 3d fb 52 d0 3e a7 48 a3 3e
       0.20274077 0.105915725 0.4068831 0.31891367
000030 bf 7f 47 3e 02 2e 73 be 7d 80 2a 3f 0e 40 c9 be
       0.19482325 -0.2374802 0.6660231 -0.39306682
000040 be 47 90 bb f1 b2 e6 3e 1f 3e 89 bd 7d 36 f8 3e
       -0.0044030836 0.45058396 -0.06701302 0.4847907
000050 ed 07 b3 be b4 64 ff be 7e 6a ef 3e ee 9b ea 3e
       -0.34966984 -0.49881518 0.46760935 0.4582209
000060 46 fd d8 3e 68 8a 15 3e 10 da c1 3e 9c 0a 31 3e
       0.42380732 0.14603579 0.3786168 0.17289203
000070 da 25 e1 3c 58 f3 f1 be 25 c9 b2 3e bf dc 19 3e
       0.02748387 -0.4725597 0.34919086 0.15025614
000080 89 b5 4d 17 71 27 da 16 d9 00 bf 18 13 dc 87 19
       6.64682e-25 3.524469e-25 4.93732e-24 1.404756e-23
000090 2a 79 89 3e 89 5f 12 3e bc 43 d7 be 65 bd 25 bf
       0.26850253 0.14294256 -0.42043865 -0.6474212
0000a0 8c c8 ae 3e 86 23 c2 3e d2 bb 03 3f 9c 03 30 3e
       0.3413738 0.37917727 0.51458466 0.17188877
0000b0 8a 7e 5c bf 26 52 bb be 1e 1c 20 bf 5e fc 2a be
       -0.86130583 -0.36586112 -0.62542903 -0.16697833
0000c0 7c 4f 58 2b 0c 78 33 ba 11 99 b7 ac c0 c1 53 96
       7.684892e-13 -0.00068461965 -5.2181666e-12 -1.7105581e-25
0000d0 35 df 8c bd 98 e3 9c 3e 9d 4e 95 3d f9 fa 45 3e
       -0.06878511 0.3064239 0.07290385 0.1933402
0000e0 aa 71 63 be da 65 a4 be 0d c9 00 bf fa d0 85 3d
       -0.22211328 -0.32108957 -0.5030678 0.06534
0000f0 0b 38 3c 3e db 10 38 be 7e a9 8d be 01 30 95 3e
       0.18380754 -0.1797518 -0.27668375 0.29138187
000100 1e 98 53 bf 92 5d 24 bf 45 ab 21 3e d5 83 ad be
       -0.8265399 -0.64205277 0.1578799 -0.33889642
000110 6c 81 40 bf 3f 00 a3 be 12 79 de be f6 fd 5d bf
       -0.7519748 -0.31836125 -0.43451744 -0.8671564
000120 fa ff 85 be da a7 f1 3e d2 9b 19 3f ae f3 60 bc
       -0.26171857 0.47198373 0.6000339 -0.013729973
000130 bb 5f 82 3e 50 5f 49 3e 4c ee c5 3e b8 dd a3 be
       0.25463662 0.19665265 0.3865837 -0.32005095
000140 2d 26 d7 3e 7e ef 0c 3f f1 c3 7b 3e 78 12 84 3e
       0.42021313 0.55052936 0.24586464 0.2579534
000150 9e 36 c2 3e 8d c6 9b be 26 c3 0a 3f 2b cf e0 be
       0.37932295 -0.3042492 0.5420402 -0.43908057
000160 41 d3 f7 3e 28 07 a2 3e 35 87 f5 bd ee 0e 9e 3e
       0.4840336 0.31646085 -0.11988679 0.30870765
000170 80 94 27 bf 20 4a f2 be 38 07 1b bf 18 9a bc 3e
       -0.6546097 -0.47322178 -0.6055789 0.36836314
000180 f2 a1 2f 3e c5 83 3a 3e 14 5d 6c be 30 9b b2 3e
       0.17151621 0.18214329 -0.23082381 0.34884024
000190 62 85 aa be 92 bc 0c bf 38 53 46 be 35 37 a8 be
       -0.33304888 -0.54975235 -0.19367683 -0.3285462
0001a0 0d 37 67 3e a0 f2 d6 bd 61 81 b1 3e ea 32 dc 3e
       0.22579594 -0.10495496 0.3466902 0.43007594
0001b0 60 bc a2 9d 76 f1 90 ba ee c2 da 37 1d b6 e7 29
       -4.307582e-21 -0.0011058289 2.6078396e-05 1.02900524e-13
0001c0 e8 28 af bd db 53 2e 3e e5 ff 4e 3d ea 26 e9 3e
       -0.08552724 0.17024176 0.05053701 0.45537502
0001d0 0e a7 1d bc 69 60 6e 3e 6e d2 c0 bd 9b 7a 15 bf
       -0.0096223485 0.23278965 -0.09415136 -0.58390206
0001e0 c0 fe d8 be cc e5 66 3e b2 c7 15 3f 09 e4 6f 3e
       -0.4238186 0.22548598 0.58507836 0.23426832
0001f0 52 5f f2 be ff 42 4d 3c 72 34 5d be d5 65 1e bf
       -0.4733835 0.01252818 -0.21602038 -0.61874133
000200 54 b9 05 bc 8a 84 47 a0 61 d4 66 3a b8 37 c2 28
       -0.008161861 -1.6899809e-19 0.00088054506 2.156249e-14
000210 43 54 09 3f 4e 60 41 3e 0e 9a 81 3e 66 a0 db be
       0.536442 0.18884394 0.25312847 -0.42895812
000220 49 47 d0 ba 72 88 47 31 11 c2 39 99 c8 d6 2f 1b
       -0.0015890385 2.9035871e-09 -9.603467e-24 1.454506e-22
000230 fb 4f 1b 3f 49 ff 93 3d f5 ce d5 3e 14 b9 d0 be
       0.60668916 0.07226426 0.41759458 -0.40766203
000240 5d 0e ea 3e ee f4 ba 3e e8 a0 eb 3e 81 20 01 3e
       0.45714083 0.36514992 0.460212 0.12610056
000250 d1 69 ed 3e 82 82 95 3e 38 cf c2 3e 5b 1e d7 3e
       0.46369794 0.29201132 0.3804872 0.42015347
000260 1c 66 b6 be 8c af 0a 3f 9c 26 e6 3d 84 3c 60 be
       -0.35624778 0.54174113 0.11237833 -0.21898085
000270 8f 3c 41 ba 10 2d fa be 24 4d 10 bd e6 a4 f5 3e
       -0.00073713897 -0.48862505 -0.035229817 0.4797737
000280 48 d0 1c 3f 8c e6 2f 3e 44 8b b6 bd 52 7d da be
       0.6125531 0.1717779 -0.089132816 -0.42673737
000290 f7 8b 8b be e9 47 90 3e 13 10 5a bd 72 7e 3e 3d
       -0.27255222 0.28179863 -0.053237986 0.046507306
0002a0 3d 57 4c bc 9e 3c b1 3b 5a 43 a2 ba d5 8e 2b bc
       -0.012471971 0.0054088375 -0.0012379691 -0.0104710655
0002b0 f1 8e 0c bf f4 ca d9 3e 75 be 04 3d ff cd f6 3e
       -0.5490561 0.42537653 0.032408196 0.48204038
0002c0 a6 5c bf 3d 94 0d 13 3e 36 c6 db be 70 6a c1 3e
       0.09343843 0.14360648 -0.4292466 0.37776518
0002d0 08 c7 20 bf a4 2e 5d bf 7d 8f a6 3d e2 92 64 be
       -0.628037 -0.8639929 0.08132837 -0.22321656
0002e0 5a 76 07 3f fd a9 f0 3e c0 0b ab be ba 6c a1 be
       0.52914965 0.4700469 -0.33407402 -0.31528264
0002f0 d0 6c d9 3e 66 c9 12 3d a0 dc 4a 3d 3e 59 62 3e
       0.4246583 0.0358366 0.04952681 0.22104356
000300 48 5e f1 3e de 93 c1 bd 86 27 c4 3e 0f 2f 24 3e
       0.47142243 -0.094520316 0.38311404 0.16033576
000310 3f 36 43 bf f9 dd 49 bf ac 06 4a bf 23 b4 80 3d
       -0.7625465 -0.7885433 -0.7891643 0.06284358
000320 2f 4b 0e 3f d1 24 9a be 2f 0a 76 3e 9e 2b 4c 3d
       0.5558347 -0.30106214 0.24027322 0.049846284
000330 6c 24 01 3e 74 18 e4 3e f5 ac 97 be 22 1d 24 bf
       0.1261155 0.44549906 -0.29624143 -0.64106953
000340 31 3f 86 ba ab 32 b4 b1 fd d2 b4 39 30 05 8b b9
       -0.0010242221 -5.2444498e-09 0.00034489474 -0.0002651601
000350 91 d8 a3 3e c4 e2 9b be 98 f6 f1 be a1 53 16 bf
       0.32001165 -0.30446446 -0.4725845 -0.5872136
000360 2f e8 bd 3e 22 c9 b5 be a4 a8 10 3f 14 2f 85 3e
       0.37091205 -0.35505015 0.56507325 0.2601248
000370 4b 2f d2 21 38 87 05 94 65 cf 52 bb 4a 10 27 16
       1.4242672e-18 -6.741451e-27 -0.0032167074 1.3495292e-25
000380 dc 5e 10 3e b1 4f 10 3f 6a 13 0b 3f 95 8c 09 3f
       0.14098686 0.563716 0.543265 0.53730136
000390 ce c5 2b bf a7 a2 b7 3c d3 ca 25 bf c4 10 e7 be
       -0.670987 0.022416426 -0.6476261 -0.4512998
0003a0 8a 76 0f 3f 2f c6 06 be 05 aa de 3d ed fe f5 3e
       0.5604025 -0.13161539 0.108722724 0.48046055
0003b0 a3 f6 e6 3e 6c 33 96 be e7 38 90 3e f5 38 ca 3d
       0.45110044 -0.29336107 0.28168413 0.09874145
0003c0 fc 58 eb 3d 3c 56 dc be 48 3b 9b 3e 54 09 be 3e
       0.11491582 -0.43034542 0.30318666 0.37116492
0003d0 ef dc ee 3e 6b 19 46 be a4 6a 11 bc 51 08 b3 3e
       0.46652934 -0.19345634 -0.008875523 0.34967282
0003e0 d4 c4 4b 3e 08 1e f0 bc 74 53 83 be 11 4a 29 3e
       0.19899303 -0.029311195 -0.25649607 0.1653216
0003f0 ea af 58 3e 7a b3 cb 3e 67 85 95 be a6 56 f9 3e
       0.21160856 0.39785367 -0.2920334 0.4869892

bias f4 [64]
000000 64 e4 1b 3e c2 b0 93 3c 30 d9 39 be ed 16 59 be
       0.15223843 0.01802862 -0.18149257 -0.21200152
000010 8a 0d 0c bb 7a 94 36 3e b4 2b 38 3e 25 85 c7 3e
       -0.0021370375 0.17830077 0.17985421 0.3896877
000020 f7 19 98 ba 3b fe 70 3e 37 04 0c be 1f 46 c9 3e
       -0.0011604418 0.23534481 -0.13673483 0.3931131
000030 10 73 ec b8 47 6e 76 3e 51 c7 b4 3e 8a 3c ba bc
       -0.00011274789 0.24065505 0.35308316 -0.022733945
000040 cf c8 29 3e b4 4a a6 3e f4 47 3b be 89 f7 8f 3d
       0.16580509 0.3247887 -0.18289167 0.070296355
000050 c6 c4 06 3d 8d 0e 78 bb 87 75 ae 3b e0 7e 9d 3e
       0.0329025 -0.003785047 0.005324069 0.3076086
000060 6e ba f9 bd 3b cc e1 3e 92 92 18 bb 51 c5 df ba
       -0.12193762 0.44101128 -0.0023280722 -0.0017072355
000070 0e 45 20 bb 51 f1 14 3e e5 41 bf 3e 1b 6b 00 3f
       -0.0024455222 0.1454518 0.3735496 0.5016343
000080 92 16 a3 bb e9 49 c2 3e 98 3a 51 bb 81 1a 47 bb
       -0.004977056 0.37947014 -0.0031925794 -0.0030380788
000090 d9 61 b0 3e a4 4d b9 bb e2 9a 9a bd ae 52 c5 3c
       0.34449652 -0.0056550074 -0.07549073 0.024087276
0000a0 1b 02 19 be 36 ba c5 3e 05 07 ca bb 88 56 ea 3e
       -0.1494221 0.3861863 -0.0061653876 0.45769143
0000b0 11 a1 ca bd c3 c8 90 3e 4b 3b c0 3e 11 df 38 be
       -0.09894002 0.2827817 0.37545237 -0.18053843
0000c0 0c 9e 25 3e 04 c2 44 3e 78 1e 4f bb 57 e2 82 3e
       0.16173571 0.19214636 -0.0031603854 0.2556331
0000d0 1d 72 ef ba 4c 21 ad 3e b2 ce 01 bb 0d 25 89 b3
       -0.0018268261 0.33814466 -0.0019807038 -6.386299e-08
0000e0 ab 4f ce 3e dc a4 a9 3e f1 35 5e be c8 17 73 3e
       0.40295157 0.3313359 -0.21700265 0.2373954
0000f0 98 26 f9 3e 50 8d c3 3e 52 d8 fa 3e 70 73 ef 3e
       0.48662257 0.3819375 0.48993164 0.4676776

weight f4 [64, 64, 2, 2]
000000 96 01 9f bd cb 58 f2 bd 04 3a 5f bd 4f ec 48 bd
       -0.07763974 -0.11833342 -0.054498687 -0.049053486
000010 81 77 49 3d 0c 6e 88 3d ea 30 a4 3d 88 3c 1e 3d
       0.049186233 0.06661615 0.08017142 0.038631946
000020 6c d8 e1 bc 9e 85 86 bd 79 72 1b bc c4 c7 c9 bc
       -0.027569018 -0.06568454 -0.009487742 -0.024631388
000030 5d 49 9e 3a 2d 65 c2 be ec c5 bd bd d8 fb be be
       0.0012076307 -0.37967816 -0.09266266 -0.37301517
000040 3a 3a a5 3c e0 48 ad 3d 2b e9 d3 3b 03 9e a2 3c
       0.020169366 0.084611654 0.006467005 0.019850736
000050 5c d5 d2 3d 7d 31 2c 3d 18 e7 99 3d d9 0d 0f 3d
       0.10294601 0.042039383 0.07514781 0.034925316
000060 3f 38 a8 3d 34 29 da 3c fd dc b1 3d eb 59 22 bd
       0.08213853 0.026630975 0.08684728 -0.039636534
000070 3a 91 b6 3c d2 a2 6d 3c a6 9d 45 3b 9e dd 99 3c
       0.022286046 0.014504151 0.003015378 0.018782433
000080 70 62 f2 94 2a 98 dd 97 be e1 da 96 02 82 38 97
       -2.4474582e-26 -1.4320202e-24 -3.5362263e-25 -5.96177e-25
000090 58 8f 2f bd 55 00 2a 3c 8e 15 0c bd de 4e 66 3d
       -0.042861313 0.010376056 -0.034200244 0.056227557
0000a0 6b 10 7c 3c 4d f7 6d bd b6 8e 9a bc 88 19 37 bd
       0.015384774 -0.058097173 -0.018866878 -0.044702083
0000b0 23 15 f7 bc c1 5f b9 bd 6b ee 37 bd de 2d e6 bd
       -0.030161446 -0.09051467 -0.044905107 -0.11239217
0000c0 87 7f 0b 97 9c fa 05 94 f2 d0 1b 96 ea 9a 8f 17
       -4.5074284e-25 -6.764208e-27 -1.2586732e-25 9.280264e-25
0000d0 4a 14 9b 3d 74 43 82 3d c7 46 95 3d ab 26 dc bc
       0.07572229 0.06360522 0.0728889 -0.026873907
0000e0 eb 5e 07 bd 96 70 71 bd c4 18 85 3b 30 e9 29 3d
       -0.033049505 -0.05894526 0.00406179 0.04148215
0000f0 8b 88 9c 3d b2 78 6f bd e0 39 a3 bc 94 e1 e7 bd
       0.07643231 -0.058464713 -0.019925058 -0.113223225
000100 b5 40 0b bd 6d b2 0a be 5d a4 08 be e9 bf 23 be
       -0.033997256 -0.13544627 -0.1334395 -0.15991177
000110 bd 36 0a be 9f 47 4b bd a0 dc 8d bd 2b 81 de bd
       -0.13497443 -0.04962885 -0.069268465 -0.108644806
000120 2c c3 a1 bd 56 c2 6e bd c4 47 06 bd 78 b1 00 be
       -0.07898554 -0.058290802 -0.032783285 -0.12567699
000130 38 e7 51 3d 64 c0 42 3d d3 80 7c 3d af 23 69 3d
       0.051245898 0.04754676 0.061646294 0.056918796
000140 6a 79 f2 3d 99 94 a8 3c cc 1a d1 3d fd b5 38 3c
       0.11839564 0.02057867 0.10210189 0.011273858
000150 37 32 0a 3e 0e 84 96 3d 17 cd 01 3e fc 21 d3 bd
       0.13495718 0.07349406 0.12675892 -0.103092164
000160 7e 60 8a 3d 24 bc 09 3d da 58 58 bb d5 fa a2 bc
       0.06756686 0.03362669 -0.0033011944 -0.019894997
000170 ec 20 9e bd b1 88 97 bd 7f 85 ba bd ad c7 e1 bb
       -0.07721123 -0.07399119 -0.091074936 -0.0068902583
000180 fa fd 13 be e6 87 eb bd 6f ad 6e be a5 63 de bd
       -0.14452353 -0.1150053 -0.23308347 -0.108588494
000190 c4 00 70 bd 60 06 01 3d 61 13 f4 3c 23 59 0c 3d
       -0.05859448 0.03150022 0.029794397 0.034264695
0001a0 78 35 79 3d af b6 0a 3d 98 55 3a 3d 53 02 88 3c
       0.060842007 0.033865627 0.045491785 0.01660267
0001b0 02 bd c6 96 ee 61 58 95 8b bb 85 17 e0 09 e1 96
       -3.2107906e-25 -4.3698106e-26 8.642266e-25 -3.6356943e-25
0001c0 f4 f4 c1 3d 99 14 90 3d 10 07 48 3d 0e 84 7f bd
       0.09470549 0.07035179 0.04883486 -0.062381797
0001d0 f1 88 7a 3d 90 6b 34 bd 1f 65 43 3d c1 9c d7 3c
       0.061165754 -0.044047892 0.04770386 0.026319863
0001e0 99 2c ab 3d a0 16 cb 3a 9e e9 fa 3b 8c 29 97 3c
       0.08358116 0.0015494414 0.007657244 0.018452428
0001f0 d3 23 b7 3b 22 00 96 bd c3 f5 11 3d 3e 2d 0d bd
       0.0055889874 -0.07324244 0.035634767 -0.034466974
000200 c3 df 50 94 ac a9 90 95 cd c8 70 16 fa f0 b3 98
       -1.05454456e-26 -5.842883e-26 1.9450407e-25 -4.651374e-24
000210 61 b0 e8 3c 52 ed 89 3d 9d 16 ad 3c 02 f1 6e 3d
       0.028404417 0.067347184 0.021128947 0.05833531
000220 e6 5a 41 95 ac 9b 50 97 25 ed a9 17 35 00 2f 97
       -3.9047746e-26 -6.740491e-25 1.0981233e-24 -5.654581e-25
000230 a4 f1 2f 3e 7c 3d e5 3d 96 97 10 3d 20 d1 71 3d
       0.17182022 0.11193368 0.035300814 0.059037328
000240 5f c3 a2 3d 71 c9 c1 bc 11 13 41 3d 42 b6 02 3d
       0.0794742 -0.023655625 0.047137324 0.031912096
000250 cc 5e 00 3c c0 f9 e6 bc a2 e9 36 bc 9d e1 14 3d
       0.007835101 -0.028195262 -0.011164101 0.036347974
000260 af 40 90 3d 94 13 a7 bd 48 04 59 bd 9c dc 38 be
       0.070435874 -0.08158031 -0.0529826 -0.18052906
000270 d3 1d ae 3d f9 92 23 3b eb 03 e3 bb c2 5f 87 bd
       0.08501782 0.0024959429 -0.0069279573 -0.06610061
000280 21 df 11 3d 70 c9 33 be 97 4b 40 be 45 b9 83 be
       0.035613183 -0.17557311 -0.18778835 -0.25727287
000290 3a d7 a3 3d 89 84 fa 3c 78 32 27 bd 6b 4d a4 bc
       0.080000356 0.030580776 -0.040819615 -0.020056447
0002a0 80 d7 8f 12 d9 ff b1 98 dc 60 54 97 4c a1 2c 16
       9.077694e-28 -4.6011768e-24 -6.862315e-25 1.3944946e-25
0002b0 d9 0e 80 3d f6 80 0d bc 7e d2 d0 3b f5 42 6c 3d
       0.06252832 -0.008636704 0.006372749 0.057681043
0002c0 59 0a dd bd c5 d8 14 be 70 ec 8b be d9 f5 36 be
       -0.10792989 -0.14535816 -0.27328825 -0.17867221
0002d0 4f 36 82 bd 3b 69 e1 bd 81 5a e9 bd 08 02 d3 bc
       -0.06358015 -0.11006399 -0.113942154 -0.025757805
0002e0 74 1c ae bc 0c f3 90 3d 58 88 33 3d e7 b5 05 3d
       -0.021253802 0.070776075 0.0438312 0.03264418
0002f0 b9 d9 3f be 45 1c 1e be 00 5d 32 be 0c 84 21 be
       -0.18735398 -0.15440471 -0.17418289 -0.15773028
000300 95 9d cf 3d b2 15 3f 3d b2 c8 86 3d f7 3a 7b ba
       0.10137478 0.04665155 0.06581248 -0.00095836766
000310 a1 17 d2 bd 87 a8 9b bd 4b 9e 0f be 38 20 05 be
       -0.10258413 -0.076005034 -0.14025228 -0.13000572
000320 26 70 04 3e c1 d8 9f 3d 68 28 d6 3c 0f 75 bf bb
       0.12933406 0.078050144 0.026142314 -0.005842812
000330 71 52 61 3c 6a a9 d2 3c 04 5b 39 3c e1 a9 28 3d
       0.013752566 0.025715549 0.011313204 0.041177634
000340 e5 d6 88 15 ae cd b8 96 e9 12 93 15 63 ea 84 96
       5.5269006e-26 -2.9856605e-25 5.940266e-26 -2.147367e-25
000350 d1 36 69 bd 2e e1 76 bd 06 57 29 3c 62 68 51 bd
       -0.056937043 -0.06027334 0.010335689 -0.051124938
000360 2c 35 7a 3d ad 2a 41 3d a5 bd a3 3d 04 3f 0c 3d
       0.061085865 0.04715984 0.07995156 0.034239784
000370 04 be 35 17 a0 85 01 96 07 a1 4b 96 d9 54 e0 16
       5.872409e-25 -1.0462702e-25 -1.6449021e-25 3.6242698e-25
000380 1a 61 3c bb a2 ae 7f 3d 42 db e5 3c cb 38 63 bd
       -0.00287444 0.062422402 0.028058652 -0.055474084
000390 4d 53 dc bd f1 94 f8 bd 05 6b 7a bd 83 36 0f 3c
       -0.10758076 -0.12137783 -0.061137218 0.008741024
0003a0 b7 e3 ea bd 31 23 bc bd 20 ea e4 bd 16 b8 13 be
       -0.114692144 -0.091864 -0.11177468 -0.14425692
0003b0 83 91 86 3b 54 a4 7b 3d b1 82 97 3d c8 26 22 bb
       0.004106702 0.061436012 0.07397974 -0.0024742354
0003c0 db 3c 82 3d 2c 69 87 3c 6e cf 9b 3d 4c b8 b1 bc
       0.063592635 0.016529642 0.076079234 -0.021694325
0003d0 04 12 47 bb 0b f5 88 bc 93 9b e1 3c d7 06 84 3d
       -0.0030375728 -0.016718408 0.027540004 0.06446617
0003e0 48 71 86 3d 50 90 6f b7 b7 e7 34 bd 7f ea 7e 3d
       0.065645754 -1.42791105e-05 -0.044166293 0.06223535
0003f0 e5 ef a5 3d 32 21 6a 3d 15 c6 d4 3b d6 79 a3 bc
       0.08102397 0.057160564 0.00649334 -0.019955557

bias f4 [64]
000000 09 91 0f bd fc 68 ff 3c 30 41 87 3d 95 49 02 3d
       -0.035050426 0.03117799 0.066042304 0.031808455
000010 e9 48 fc 3c 16 f8 70 bc 17 a4 e6 bc 76 94 81 bc
       0.030796485 -0.014707586 -0.028154416 -0.015817862
000020 11 f9 cd 3c 6c 55 ac 3d 08 30 67 3d c8 0c b5 3d
       0.025143178 0.084147304 0.05644229 0.088403285
000030 cf 6a 50 3d 34 96 93 3c 4d 14 5a 3d fc a3 b4 bc
       0.05088311 0.018015958 0.053242017 -0.02205085
000040 16 f7 96 bb 84 73 92 37 e7 79 3a bd 5d d5 2b bc
       -0.0046070917 1.7458347e-05 -0.04552641 -0.0104878815
000050 81 25 ba 3c d3 64 92 bc 2b a6 98 bb 4b 2f eb b3
       0.022722961 -0.017870342 -0.0046584806 -1.0951643e-07
000060 13 bc d7 bc 2c ba 43 bc c5 0f c8 3b 53 21 5d bd
       -0.026334798 -0.011946242 0.0061053955 -0.05398686
000070 47 9a 48 b8 3f f0 22 3d 69 2c 51 3d 18 41 9a bc
       -4.7827398e-05 0.039779898 0.051067743 -0.018829867
000080 62 3b 84 bd b4 e7 44 3c 6a ff 10 bd 47 72 1d 3d
       -0.06456639 0.012018133 -0.03539983 0.03843906
000090 e2 3d 9c 3d ea d1 9d bc 17 cc 80 3d f6 ec 87 3d
       0.07628991 -0.019265134 0.06288927 0.066369936
0000a0 ae fb 4c 3d ba 9c 2e bc a9 2c 09 3d 81 de 68 bc
       0.050044708 -0.010657484 0.033489857 -0.014213205
0000b0 ce a6 d1 3c 0c 50 ac 3c 9d ee e3 3c 53 b9 88 3c
       0.025592234 0.021034263 0.02782374 0.016689932
0000c0 8c 0a c8 3b 6a f7 1d bd 5b c9 19 3d c9 ab 92 3d
       0.006104773 -0.03856603 0.037545543 0.07161672
0000d0 7a f1 ae 3c 0d 86 63 3c 9b 72 24 3d f4 dd c9 bc
       0.02135538 0.013886941 0.04014836 -0.024641968
0000e0 51 08 14 bd e6 7c 49 3d fb 4b d0 bb 44 85 de bc
       -0.036140744 0.049191378 -0.006356714 -0.027163155
0000f0 1f b4 05 3a 52 4a d1 bc 27 e3 5c 3d c0 94 17 bd
       0.00051003875 -0.025548134 0.053927567 -0.037007093

weight f4 [64, 64, 2, 2]
000000 11 ce 5b bb 2a 52 cd 3b 3a 9a 10 bc 67 3f 9a bc
       -0.0033539573 0.0062658982 -0.008825833 -0.01882906
000010 2d 91 d1 bb cc 9d 66 3b 5b f8 3b bc 26 61 8c bc
       -0.00639548 0.003518927 -0.011472787 -0.017136168
000020 0e 1d 4d bc ef 60 c4 bc 14 fd bb bc a7 97 49 bd
       -0.012519134 -0.023972003 -0.022947825 -0.049216893
000030 70 58 c9 b3 88 d2 b1 b8 67 c3 b0 b4 1a bc 00 3c
       -9.3758786e-08 -8.479232e-05 -3.2924729e-07 0.007857347
000040 6c 75 f1 bb 70 23 10 bc c7 7b 8e 3b a8 31 fa 3b
       -0.007368734 -0.008797511 0.0043482515 0.007635314
000050 00 4e d5 b2 d8 34 e3 b7 6c 3e 70 ba e4 b1 a4 3b
       -2.4831934e-08 -2.7085116e-05 -0.0009164575 0.005026089
000060 3a 2a 1b 16 3a 7d 74 98 06 fc 90 96 82 96 33 17
       1.2534125e-25 -3.1599484e-24 -2.3423504e-25 5.8027987e-25
000070 c6 9a 42 ba 73 d4 dc b9 a3 58 80 3a aa 6b 04 b9
       -0.0007423576 -0.00042119957 0.0009792041 -0.00012628609
000080 41 c6 93 3c ca 59 f8 ba 4b d6 7d bc 51 be 0c bd
       0.01803887 -0.0018947658 -0.015492986 -0.034361187
000090 30 fe e0 b8 9b 96 1a 3d 80 b5 bc bc cd 15 c3 bb
       -0.000107284985 0.037741285 -0.023035765 -0.0059535266
0000a0 77 dc dd 3c b9 96 f8 3c f9 09 90 bc 8d 9c a1 bc
       0.027082665 0.030345308 -0.01758288 -0.01972797
0000b0 b7 4f ce 3b b5 67 1b bd ce 4b 50 3c ec eb a3 3c
       0.006296124 -0.0379407 0.012713386 0.020009957
0000c0 c4 86 16 1c 35 fb fd 15 f9 77 b3 95 d7 bb 1b 1d
       4.9805017e-22 1.0258222e-25 -7.248681e-26 2.061119e-21
0000d0 59 59 0e bd 80 33 9c bc 39 99 c4 3b cb 9a f1 bc
       -0.034753177 -0.019067526 0.005999711 -0.029492756
0000e0 7d 5b 15 bc 95 c2 2b 3b ad 2d ce bb e4 4e eb bb
       -0.009116051 0.002620851 -0.006292066 -0.0071810354
0000f0 e2 53 90 9c 20 0c 85 a3 91 18 43 1e e7 ff 34 b2
       -9.550804e-22 -1.4425024e-17 1.0328294e-20 -1.0535564e-08
000100 97 16 19 9e 5e cf 2b 29 8d 31 df 2f b0 0c 01 a3
       -8.104424e-21 3.814949e-14 4.0598672e-10 -6.995791e-18
000110 54 21 9c 36 99 00 a5 b7 84 be b0 b4 67 bf c5 b8
       4.653042e-06 -1.9669811e-05 -3.2921173e-07 -9.4293435e-05
000120 b9 a5 0b 39 22 ef 15 ae 53 07 ea 39 18 02 c9 36
       0.0001331781 -3.409107e-11 0.00044637415 5.9905105e-06
000130 19 92 4c 14 03 33 5a 98 d1 51 2c 18 72 0c 82 16
       1.0328181e-26 -2.8201594e-24 2.2271786e-24 2.1010487e-25
000140 f5 f4 fc b9 8a 91 e3 b5 ca 10 1d 3b 00 e3 aa 3a
       -0.00048247693 -1.6955175e-06 0.0023966306 0.0013037622
000150 4d ff 1d 95 8a a8 d8 16 92 1f 23 15 9b d3 c7 17
       -3.1907294e-26 3.5003045e-25 3.2942492e-26 1.291349e-24
000160 0d e6 9e 3c f0 fb 5d bc e3 fe e9 3b c4 e1 fd 3c
       0.019396806 -0.013548836 0.0071409806 0.030991443
000170 a0 5e 25 93 fe 29 97 97 f2 85 6a 97 2a a0 eb 95
       -2.0872582e-27 -9.768747e-25 -7.577854e-25 -9.516844e-26
000180 ea 61 a7 97 64 75 6a 96 ab 61 30 9a ec 9b 78 17
       -1.0816839e-24 -1.8939411e-25 -3.6474843e-23 8.0329923e-25
000190 f0 1f ac 95 8b 09 a0 17 94 7a cb 91 01 8f 82 18
       -6.9520635e-26 1.0342167e-24 -3.2103297e-28 3.374861e-24
0001a0 aa 59 e4 16 0d f3 59 16 f4 e5 9b 96 86 af 69 16
       3.6891973e-25 1.7605814e-25 -2.5186721e-25 1.8876976e-25
0001b0 ec 4d 58 3a 02 7b e8 b9 37 b5 a6 3a 59 39 dc b9
       0.00082513574 -0.00044342136 0.0012718801 -0.00042004397
0001c0 60 48 26 14 63 74 71 95 95 f9 b5 98 0a d3 2f 98
       8.395132e-27 -4.8761375e-26 -4.7039417e-24 -2.2724767e-24
0001d0 28 15 16 98 60 56 86 b8 d4 56 3c 16 5d 38 8b b7
       -1.9397727e-24 -6.4057065e-05 1.5213917e-25 -1.6596337e-05
0001e0 4c e5 13 b7 06 6f 6f b8 e7 6c 0c bb 44 b8 0d 3c
       -8.81527e-06 -5.708544e-05 -0.0021427216 0.008649889
0001f0 e6 a4 89 98 b3 f5 9f 98 63 33 4f 17 48 81 46 99
       -3.5580175e-24 -4.134863e-24 6.6950167e-25 -1.0262468e-23
000200 94 05 d0 3c 7f a2 31 bd f7 c8 bf 3c e2 d3 2e bd
       0.025393285 -0.04336786 0.023411257 -0.042682536
000210 ec 64 c2 37 fd 76 c8 b9 ee c6 6a 3a 98 1c 22 ba
       2.3173598e-05 -0.00038235626 0.00089560344 -0.00061840704
000220 a8 48 35 22 c0 e4 30 1c ee a9 1d 22 4f aa 83 97
       2.4568538e-18 5.852917e-22 2.1367428e-18 -8.508669e-25
000230 72 a1 c2 a6 6c ff 34 b9 37 0b 0f a0 be d5 16 b7
       -1.3505214e-15 -0.0001726129 -1.2116282e-19 -8.990462e-06
000240 14 1c 8e bc 2b e5 e3 3c 03 c4 3e 3c bc 29 07 bd
       -0.017347373 0.027819237 0.0116434125 -0.032998785
000250 3e 67 78 37 d2 8c b2 36 8b d3 59 ba 11 df 19 b5
       1.480599e-05 5.321207e-06 -0.00083094154 -5.7321546e-07
000260 85 2c d1 bc 09 9d af bc e7 97 01 bd 49 b4 52 3c
       -0.025533924 -0.021437185 -0.031639006 0.012860366
000270 91 73 d7 3b b8 8d 4a bd 73 93 05 3c 0c 0f 17 3c
       0.006575056 -0.04945156 0.00815283 0.009219896
000280 16 df 32 bd af 71 1e 3d ae 7f dd 3c d2 40 54 3c
       -0.043669783 0.038682636 0.027038421 0.0129549075
000290 41 69 9d bb 71 a4 80 39 d0 6f d5 3c 74 70 5c 3c
       -0.004803807 0.0002453658 0.026054293 0.013454545
0002a0 4a 45 dc 96 e6 4b 13 1b da 2d 9b 97 c0 c8 2a 16
       -3.5586644e-25 1.2184079e-22 -1.0028215e-24 1.3795836e-25
0002b0 a2 46 eb 18 c8 da b0 ac 59 a7 cd 20 38 64 e1 33
       6.0817397e-24 -5.0265105e-12 3.4839092e-19 1.0495609e-07
0002c0 97 33 33 bc 91 dc 27 3b ff c5 1d bc 26 91 0a 3c
       -0.010937593 0.0025613646 -0.0096297255 0.008457458
0002d0 9a aa 12 bd bf e7 8e bc 77 f7 1e 3c c4 85 33 bd
       -0.03580723 -0.01744449 0.009702555 -0.04382874
0002e0 d1 44 b4 bb da ae ea 3c ee 89 b3 bc 8c 0f 6d bc
       -0.0055013676 0.028647829 -0.021916356 -0.014469039
0002f0 51 55 10 30 39 72 3e a4 3c d9 f0 25 bf 2a cc b0
       5.2508137e-10 -4.1296433e-17 4.1780567e-16 -1.4855103e-09
000300 56 1b 0c bb 5e 0f 73 b8 2a 63 18 3b 9b 28 e1 b9
       -0.0021378598 -5.7950027e-05 0.0023252466 -0.00042945598
000310 c9 3b 82 3c 5e 88 bb bb 38 e2 eb bc 11 c5 51 bc
       0.015897648 -0.0057230433 -0.028794393 -0.012803332
000320 a5 4e 96 bb 83 19 e2 3a af 49 10 39 cd 30 35 b7
       -0.004587012 0.0017250035 0.0001376036 -1.0799803e-05
000330 4d a7 11 3c 1a bc 45 ba d5 27 32 3c de d0 e5 3b
       0.008889985 -0.0007542983 0.0108737545 0.0070134243
000340 6d 0a 6a 3b 54 56 9f 3b 28 bb a0 ba 6a 38 9f bc
       0.003571178 0.004862586 -0.0012262808 -0.01943608
000350 8f 33 09 bc ad 10 24 3c e5 f9 ae 3c 2f 08 35 bd
       -0.008374109 0.010013741 0.021359393 -0.044197258
000360 f3 25 25 bb c7 04 f7 39 d0 26 07 3b 3e ce a7 ba
       -0.0025199621 0.0004711507 0.00206225 -0.0012802554
000370 3d ba 36 16 5a 9f 9d 16 ee be 78 96 68 06 b8 94
       1.4760609e-25 2.5465283e-25 -2.0093527e-25 -1.8581779e-26
000380 7f 7b 19 3d c5 8e 52 3a 54 1f 2b 3d ff 03 2d 3d
       0.03747129 0.00080321386 0.041777924 0.04224014
000390 4a 68 17 bd 19 4c 1e bd aa 8e 00 3c d2 9d 4b 3c
       -0.036964692 -0.03864679 0.007846514 0.012427764
0003a0 ae 87 de 16 0a ca 0d 17 16 d8 a1 17 5f 11 9b 97
       3.595166e-25 4.5814566e-25 1.0458929e-24 -1.0021025e-24
0003b0 ed 45 42 bc 7f be 9a 3c 75 43 a8 3b 17 64 d7 bc
       -0.011857492 0.018889664 0.0051349946 -0.026292844
0003c0 91 e2 0b b9 43 cd a8 3c a4 be 5d ba 3d 88 67 3b
       -0.00013340476 0.020605689 -0.00084588886 0.0035329007
0003d0 8f bb 30 b9 77 bb 63 bc 1a 32 df bc ae 6d 6d 3c
       -0.00016854539 -0.013899676 -0.02724557 0.014491482
0003e0 4e 16 ad b9 d0 27 7c b9 fa 65 6d ba eb 9b 59 3a
       -0.0003301375 -0.00024047424 -0.0009056028 0.00083011267
0003f0 11 6d 9a bc 54 62 8a bc cc 99 c5 bb f7 bf 62 3c
       -0.018850835 -0.01689259 -0.006030297 0.013839713

bias f4 [64]
000000 a3 ad 4a bd 14 f5 72 3c dc 7f 04 3c d3 e2 d3 3d
       -0.049482 0.014828939 0.008087125 0.10345998
000010 68 13 33 3c 3b f8 17 bd b8 f2 42 bc d8 4c 16 bc
       0.01092992 -0.037101965 -0.011898689 -0.009173594
000020 35 53 1e bc e0 cb 93 ba d0 56 cc 20 dd 51 b2 3d
       -0.009663393 -0.001127597 3.4616392e-19 0.087070204
000030 f0 72 51 3d 95 d8 d5 bc 6d be bb bb ae 23 a3 3c
       0.051135004 -0.02610425 -0.0057294876 0.019914474
000040 d8 12 05 3d e8 5a 59 3c 42 d3 4a 3c 77 4a 58 39
       0.032488674 0.013266303 0.012379469 0.00020627106
000050 0d 54 19 3d 86 0b a4 3c 50 fb fe 3c cc 1b 17 3d
       0.037433673 0.020025026 0.031125695 0.036891744
000060 c3 ce 47 3d ab f9 0c bd c2 51 a9 3a dc 68 8f bc
       0.048781168 -0.03441779 0.0012918042 -0.017506056
000070 72 dc 3d 3c 30 97 6e 3c c6 f2 18 bd bd 3e f8 3c
       0.011588203 0.014562413 -0.0373409 0.030303353
000080 59 28 2a bd b2 1e 66 bd 4d a3 65 3b 3c 60 58 3d
       -0.041542385 -0.056181617 0.0035039962 0.05282615
000090 be 23 91 bc 30 57 fc bc 3f 9e d4 3c 33 42 95 ba
       -0.017717239 -0.030803293 0.025954364 -0.0011387527
0000a0 d2 8f fd bc ae 3c 96 ba 40 7b 95 bd 6c 32 dd 3c
       -0.030952368 -0.0011462176 -0.07298899 0.027001582
0000b0 77 47 b1 3c c9 ca 2f 3d 22 44 52 3d c6 43 4b b8
       0.021640522 0.042918 0.051334508 -4.846209e-05
0000c0 8c ce f3 bd b1 4d 31 3d c8 96 59 3d 79 12 a7 bd
       -0.1190463 0.043286983 0.05312231 -0.0815782
0000d0 2a fe af bb e7 08 97 bd 96 da 12 bd 58 45 ae 3d
       -0.005370875 -0.07374745 -0.03585299 0.0850932
0000e0 db 47 08 bd b7 74 19 3d 96 93 02 3c 07 3a 56 3d
       -0.03327165 0.037464824 0.007969758 0.052301433
0000f0 65 f5 02 bc ec ba df 3d d1 63 f1 3c d1 1d ee bc
       -0.007993077 0.109243244 0.029466541 -0.029066952

weight f4 [128, 64]
000000 6a 8f 00 1b 52 95 6b 3c 98 49 1f 3d be 2e d8 3d
       1.0634251e-22 0.014378862 0.038888544 0.1055579
000010 e8 25 0a 39 61 32 ef bb 7a a6 87 bd 21 18 d8 9a
       0.00013174827 -0.007299707 -0.0662355 -8.937449e-23
000020 c2 1b 05 17 e9 7c f1 3d 64 d2 ec 16 54 06 0a bb
       4.3009653e-25 0.11791403 3.8260632e-25 -0.00210609
000030 47 8a 78 bd 78 03 75 bd 7e e1 e0 3d 7d 74 a3 3d
       -0.060678747 -0.05981776 0.10980509 0.07981203
000040 21 78 93 bc db f3 8c b4 f2 34 67 bd 15 e6 d8 9a
       -0.018001618 -2.625446e-07 -0.056446977 -8.9707224e-23
000050 73 72 08 ba ad b7 ca 3d 1c 3c 81 3d 67 bd fb 95
       -0.00052050425 0.098983146 0.06310293 -1.01676917e-25
000060 12 fc cf bd b5 b1 35 bd 61 0c 96 16 45 bf 19 3c
       -0.101555005 -0.044358928 2.424162e-25 0.009383981
000070 a7 f5 0d bb 8c 32 37 3b cb a5 d0 18 fb 40 27 b6
       -0.0021661313 0.0027953712 5.3934148e-24 -2.4922763e-06
000080 af 3a 2d 3d 7b 30 c3 27 0b 78 01 bc 8c 48 60 bd
       0.042292293 5.4175935e-15 -0.007902156 -0.054756686
000090 92 55 8a bd 53 65 1e be 85 63 30 bd 47 11 bd 2d
       -0.067546025 -0.1546834 -0.04306366 2.1494485e-11
0000a0 c5 c3 d7 3d 49 c7 01 be 57 77 01 be 36 4a 05 3e
       0.10535387 -0.12673678 -0.12643181 0.1301659
0000b0 b2 52 d6 bd a8 d1 f7 bd 0b 2a ed 3d ac e5 80 97
       -0.10464992 -0.12100536 0.11580285 -8.329783e-25
0000c0 81 e3 0d be 0e 32 b6 af ef a6 aa bd b2 c2 bb bc
       -0.13856317 -3.3141173e-10 -0.08332621 -0.022919986
0000d0 62 0b a0 3c de 18 ad bd ea 3b 3e b2 9a 25 1f 3c
       0.019536678 -0.08452009 -1.10730785e-08 0.009713555
0000e0 4f ec 9e 3d c2 77 d2 bd 34 b9 9a a8 62 ba cb bd
       0.07759916 -0.10276748 -1.7177754e-14 -0.09947659
0000f0 f6 6a 83 39 da 0d e2 3d 13 3d ae bd c1 46 d1 3c
       0.0002506596 0.11037798 -0.08507743 0.025546433
000100 60 3c 1b 3c f8 88 1e bd d0 a2 f2 3c 99 64 c1 3a
       0.009474844 -0.038704842 0.02961865 0.0014754712
000110 78 e3 4f 39 e4 3d 8c 32 64 39 b0 bc 85 3a ad 16
       0.00019825797 1.632629e-08 -0.021511741 2.7986588e-25
000120 cb 40 37 9e 38 d4 64 bd ff f4 ba 1e 28 65 4c bc
       -9.701338e-21 -0.05586645 1.9794844e-20 -0.012475289
000130 2b 10 70 bd 95 b5 a9 bc 89 af 76 bc da 48 35 bc
       -0.05860917 -0.020716468 -0.015056499 -0.011064732
000140 27 3a 12 3c bf 21 ac ab 40 fc 08 bd b6 73 2d a2
       0.008924997 -1.2230701e-12 -0.03344369 -2.3507129e-18
000150 b1 d9 24 3b 56 50 98 bc f9 2d 54 bc 4f 0e 75 3d
       0.0025154168 -0.018592995 -0.012950414 0.0598281
000160 95 0a 4e bd 23 f9 81 bd c3 a2 99 1e b7 33 82 19
       -0.05030306 -0.06346347 1.6266822e-20 1.3462572e-23
000170 d9 25 0c 99 e5 4e 3c bc 6c ba 86 ae 4d 18 ab bc
       -7.245474e-24 -0.011493419 -6.12673e-11 -0.020885611
000180 cd de b1 bc 0d 64 2d 29 9e 74 77 1d c8 c9 be b9
       -0.021712685 3.8500497e-14 3.2750467e-21 -0.00036389963
000190 da d8 16 3d 68 79 18 bd d8 81 16 3d 66 b7 02 3c
       0.0368279 -0.037225157 0.036744922 0.007978296
0001a0 3b 39 a0 bc fc f3 e5 bc 14 c2 d3 3c 16 25 01 bd
       -0.01955854 -0.028070442 0.02584938 -0.03152951
0001b0 15 78 9f 3c aa f2 0b bd 43 92 ce bc 54 4e 82 a0
       0.01946644 -0.03416697 -0.025216227 -2.207469e-19
0001c0 7b 2d a5 bc a5 92 4b 3c 61 25 b1 bc fa ea 5a bc
       -0.020163288 0.0124250995 -0.021624269 -0.013361687
0001d0 c7 cf bc 39 f2 df c3 bc 2e c2 d3 1a 42 ff a5 bd
       0.0003601296 -0.023910496 8.758127e-23 -0.08105327
0001e0 c4 a3 7e bc bd ec 75 bd 1a a7 80 19 00 95 c6 39
       -0.015541974 -0.060040224 1.3302382e-23 0.00037876517
0001f0 d5 36 32 1e a2 20 92 bd 5c 4e 4f 3c 27 19 f1 bc
       9.4345805e-21 -0.071351305 0.01265296 -0.029430939
000200 58 6d 85 97 85 2e 2f ba 8a 34 8f ba 42 5f 77 bc
       -8.622526e-25 -0.0006682652 -0.0010925692 -0.015098395
000210 15 a9 8f 19 e2 ba 66 15 3b 0c 4b bc 5c e0 84 93
       1.4854145e-23 4.6595555e-26 -0.012393053 -3.354272e-27
000220 e6 3c 13 98 56 1a ab aa 8f d0 55 99 e2 03 6f bc
       -1.903005e-24 -3.0393976e-13 -1.105396e-23 -0.014588328
000230 82 3c 68 bc 58 82 e9 bb fa 24 e2 bb 27 5f 74 bc
       -0.014174582 -0.007126134 -0.0069013806 -0.014915264
000240 64 80 b6 b0 8b 7d 79 96 ef 97 7e bc 24 d9 df 95
       -1.3278734e-09 -2.0153674e-25 -0.0155391535 -9.041157e-26
000250 7e f4 4c bc 68 5d 9a b8 33 45 4a bc 86 13 13 17
       -0.012509463 -7.3606905e-05 -0.0123456 4.7522904e-25
000260 9e 62 49 bc 1d b0 15 b6 f2 a9 72 1c 78 4c 5d 9b
       -0.012291579 -2.2305242e-06 8.029073e-22 -1.83054e-22
000270 31 fb b2 99 fd 9a fc bb 01 0d c7 9b 04 22 6c 98
       -1.8506224e-23 -0.0077089057 -3.2930192e-22 -3.0519459e-24
000280 58 31 0b b3 05 18 0e 19 71 f9 ea 18 cc e5 72 bc
       -3.2408337e-08 7.346079e-24 6.0739454e-24 -0.014825296
000290 02 02 73 b8 7b cc 81 bb 7f 7e 2e ad 87 4f e0 9d
       -5.7937585e-05 -0.0039611435 -9.918843e-12 -5.9374536e-21
0002a0 aa 83 f6 bb 49 b4 11 bc eb a6 01 bc dc 47 28 bc
       -0.00752302 -0.008893081 -0.0079133315 -0.010271039
0002b0 ad 5e 80 bc f9 e1 55 b6 c1 fb af bb 83 f3 0f 16
       -0.015670145 -3.1871007e-06 -0.0053705876 1.1628287e-25
0002c0 c0 c5 9f 36 c6 83 ec 15 ae f9 87 2e 42 6f 64 b9
       4.7615904e-06 9.552754e-26 6.183441e-11 -0.00021785221
0002d0 28 ad 09 94 35 33 e5 bb 83 55 05 99 a7 e6 76 bc
       -6.9508815e-27 -0.0069946297 -6.893208e-24 -0.01506964
0002e0 f2 c3 3d b9 01 a8 83 b9 17 e4 76 14 4c 69 13 bc
       -0.0001809744 -0.0002511144 1.2464809e-26 -0.008997273
0002f0 73 68 16 97 84 49 4b bc 62 b7 09 ba 2d 25 d1 bb
       -4.8599447e-25 -0.012407664 -0.00052534614 -0.0063826055
000300 eb b0 57 1b 3c 16 2d 1a c7 7d 8f 9c 23 e2 48 22
       1.7841548e-22 3.5793522e-23 -9.495459e-22 2.722477e-18
000310 02 e7 f8 9a 20 86 ab 1d 62 7c 30 1c 91 ff 85 15
       -1.0294361e-22 4.5402005e-21 5.8394276e-22 5.4121485e-26
000320 c3 67 19 1a 9c e4 40 1b 1e a6 d3 15 b9 05 90 1f
       3.1723476e-23 1.5955735e-22 8.548431e-26 6.099584e-20
000330 b3 c9 2a 9b 75 a7 ed 9a bb c1 9d 9c 21 df dc 1f
       -1.4127243e-22 -9.8291444e-23 -1.0439467e-21 9.354276e-20
000340 62 39 b9 9b d2 bc 61 1d 8c fa 0d 1d 72 83 74 1c
       -3.0642765e-22 2.987612e-21 1.8790724e-21 8.0902717e-22
000350 2d 9c 3a 1a 9e d5 8e 9c d8 6a 9a aa b9 dc 8c 18
       3.8590056e-23 -9.451991e-22 -2.7430033e-13 3.6412025e-24
000360 b7 b4 23 1e b9 87 b9 1b d7 45 90 9a 20 ed 87 16
       8.666519e-21 3.0693391e-22 -5.9669836e-23 2.1960073e-25
000370 b7 c6 92 17 26 6e d3 9c e4 69 75 94 28 c0 e8 1a
       9.485192e-25 -1.3991281e-21 -1.2390222e-26 9.6263396e-23
000380 9c 7e 9d 1c 2a 45 66 9a 00 22 1f 9a b4 f4 b1 9e
       1.0422116e-21 -4.7618756e-23 -3.2907894e-23 -1.884181e-20
000390 fe 38 d6 9c 4c 71 76 1c 03 10 f2 1e fb 1d 96 16
       -1.4176064e-21 8.1541005e-22 2.5629369e-20 2.4252727e-25
0003a0 4a de a9 9d 4e 91 52 9c bf 87 6b 1f 34 cb 6d 9d
       -4.496377e-21 -6.9670973e-22 4.9875472e-20 -3.1471742e-21
0003b0 86 1b 0c a3 17 13 2e 9b a2 37 42 9d 54 72 f1 97
       -7.5952435e-18 -1.4399111e-22 -2.5704448e-21 -1.560312e-24
0003c0 2d d2 a9 9c 55 0c 1c 18 0e 3e 40 1a 4e 69 93 9d
       -1.1237811e-21 2.0168754e-24 3.9754797e-23 -3.901946e-21
0003d0 a6 1e cf 1c 39 0a 8b 21 66 33 e3 16 8a 9c 92 21
       1.3706033e-21 9.421712e-19 3.6706265e-25 9.93478e-19
0003e0 26 ec ca 9c e0 cf b2 1b 1c c7 b0 95 68 7a 99 1f
       -1.3428282e-21 2.9581966e-22 -7.1399973e-26 6.5000525e-20
0003f0 0e 8f 37 1c 26 4b 1d 9d 21 a7 48 1e 90 66 8c 22
       6.0734515e-22 -2.0817628e-21 1.0622473e-20 3.805567e-18

bias f4 [128]
000000 25 98 85 3c 20 11 81 3d 60 b8 8e ba cf 8a 19 9d
       0.0163079 0.063020945 -0.0010888688 -2.0321144e-21
000010 1a 1e a1 b9 bc a3 e9 3d 31 b0 b5 bc f2 6b 5b bc
       -0.0003073074 0.11408183 -0.022178741 -0.013392435
000020 18 3f e9 b9 af 36 2d 3e 71 10 87 bd c1 31 50 bc
       -0.00044488232 0.16915391 -0.06594933 -0.012707175
000030 be 17 8d bc db 07 39 bc 30 2a 8b 3d b6 18 ae 3d
       -0.017223235 -0.011293377 0.06795156 0.08500807
000040 94 cb cc 3d ac 03 c7 3d a6 9f 4e 3d 3c 3b 81 3c
       0.09999767 0.09717497 0.05044522 0.015775315
000050 6b 18 bc bb 6f b6 78 bc 72 2d 40 3d d1 ad 7e 3b
       -0.0057402155 -0.015180214 0.04691834 0.0038860927
000060 2b f1 b5 ba e7 fc 5d bd 80 76 09 bd 07 29 40 bd
       -0.0013881078 -0.054196265 -0.033560276 -0.046914127
000070 68 5b da bd 3f 71 a6 3d 39 f0 e9 3d 44 16 7e bd
       -0.106619656 0.08127069 0.11422772 -0.062032953
000080 f3 23 2a bb e7 38 ba bb 6f 8e 15 3e 98 01 ee 3d
       -0.0025961369 -0.005683053 0.14605115 0.11621398
000090 80 f8 e4 3d cd e7 dd 3d 14 42 65 bd fa e5 ba bb
       0.1118021 0.10835228 -0.05597122 -0.005703685
0000a0 8e 9d b7 bd 59 ae 2d 3d 23 c3 30 bd 15 f1 3c 3d
       -0.08965598 0.0424026 -0.043154847 0.04612835
0000b0 6d be 3c bd 83 a0 96 bd 68 07 01 bd fd 06 f0 bc
       -0.04608004 -0.07354834 -0.031501204 -0.029300207
0000c0 11 c0 b4 3d 3b ce fd bc f4 e3 3d bb 7b c1 06 be
       0.08825696 -0.030982127 -0.0028974982 -0.13159744
0000d0 16 44 75 3d 78 9c 16 be 98 bb 20 3e d0 fa cd bc
       0.059879385 -0.14708126 0.15696561 -0.02514401
0000e0 95 80 35 3e e3 63 c6 3d 68 4d 11 3e b1 36 35 bd
       0.17724831 0.09687021 0.14189684 -0.04424161
0000f0 db 69 19 3e 02 a2 8d bc 90 72 0a 36 e4 29 09 bd
       0.14981787 -0.017289165 2.0630287e-06 -0.033487216
000100 ec c8 ea bc c4 4e 00 3e d6 f9 96 39 5d f1 aa bd
       -0.02866026 0.12530047 0.00028796372 -0.08346818
000110 e2 3d de bb 8e 60 88 bd c6 db dc 3c 43 43 6c 3c
       -0.0067822793 -0.06659041 0.026960265 0.014420333
000120 de c2 8f bc 67 41 88 bc 24 8f 8c 3b 01 6c a8 bd
       -0.017548975 -0.016632749 0.0042895246 -0.08223725
000130 d2 e0 30 bc c2 56 b2 bb b2 7d 8b bb a1 6d b5 3d
       -0.010795789 -0.0054424712 -0.0042569274 0.08858801
000140 23 9a 94 bd f8 65 47 3b aa de 4a 3d 74 9e 88 bd
       -0.07255962 0.0030425768 0.049528755 -0.066708475
000150 47 25 e6 3c b0 87 7e 3d d0 a5 d9 bc ca 42 9f 3d
       0.028093947 0.06214112 -0.026568323 0.07776411
000160 37 e9 d5 bc 1d 2d 33 3d 28 59 45 3e 44 27 ef bc
       -0.026112182 0.043744195 0.19272292 -0.029193528
000170 96 84 72 bd 53 56 a7 3d fa 44 18 3e ec 22 bb 3d
       -0.059208475 0.08170762 0.14870062 0.0913752
000180 a9 b8 95 bb 26 3c 9a bd e9 4c db bc d5 fc c0 3c
       -0.0045691323 -0.07531004 -0.026770072 0.02355806
000190 bd 84 b4 3d c8 9f a5 bd 97 8e 6f 3d a5 81 9e bc
       0.0881438 -0.080871165 0.058485594 -0.019348929
0001a0 9f f0 b0 3d 7e 15 cd 3d c0 1a f1 bd c7 cf ab 3d
       0.08639645 0.10013865 -0.1177268 0.0838924
0001b0 f6 b8 14 bb 9b 32 09 bd 13 ce 98 3d 43 c6 df bd
       -0.0022693253 -0.033495527 0.074611805 -0.10926487
0001c0 ab 6c 1c 3d 80 26 84 bd 50 d0 e8 3c 82 7e 9b 3b
       0.03818957 -0.06452656 0.028419644 0.0047453055
0001d0 ab e3 30 bc 47 5e 16 3e 1f 89 b4 bc 5e 02 ac 3d
       -0.010796468 0.14684401 -0.02203804 0.08398889
0001e0 e8 3c 5b 3d 02 eb 90 3d d6 14 02 3d 42 2c af 3d
       0.05352488 0.07076074 0.031758152 0.085533634
0001f0 c2 80 9e 3d a3 c2 a8 3d 8a cb dc bc 75 74 d9 3d
       0.07739402 0.08240249 -0.026952524 0.106179155

weight f4 [64, 128]
000000 96 61 fe bc 31 63 63 98 46 b0 16 95 a0 43 67 17
       -0.031052392 -2.9389141e-24 -3.0431314e-26 7.472548e-25
000010 27 ee 1c 17 53 1d 35 bd 68 fb 65 16 42 20 01 99
       5.070691e-25 -0.04421742 1.8577803e-25 -6.675658e-24
000020 4a 18 38 bd 8b cb 45 bc f7 b3 76 bc 8b 15 be 94
       -0.04494504 -0.012072454 -0.015057555 -1.9193594e-26
000030 32 57 89 18 ed 51 a0 bb 53 bf b4 bd 05 6c f7 bc
       3.5501715e-24 -0.004892579 -0.08825555 -0.030202875
000040 99 61 85 bc f1 00 a1 18 e9 d1 ae 15 7f 9e e8 bc
       -0.01628189 4.1618475e-24 7.060922e-26 -0.02839589
000050 4c 94 43 96 42 fc 6d 98 7c dc 17 bc 7f fb 4f bd
       -1.5798769e-25 -3.075889e-24 -0.009268876 -0.050776955
000060 f0 de 78 18 7e c0 db bb 3e 1a e5 13 a8 8d 4a bd
       3.2165803e-24 -0.0067062965 5.7833604e-27 -0.0494515
000070 ae 6d 95 bd fd d1 9b bd 6a c2 3b 16 a4 fa ea 33
       -0.0729631 -0.076084115 1.5167086e-25 1.09420654e-07
000080 cc 7f ec 9a 66 d9 0a 98 24 67 dc bd be 4f 4e bc
       -9.781378e-23 -1.794584e-24 -0.1076186 -0.012592254
000090 5b ed 65 bb bc d7 bc bd 40 cd 0b bd 9e ee 60 16
       -0.0035084102 -0.092208356 -0.03413129 1.816987e-25
0000a0 1d 18 2f bd ba da 0f bd e6 07 dd 19 72 5b c3 bb
       -0.042747606 -0.035120703 2.2854055e-23 -0.005961829
0000b0 13 50 de bc b1 64 b6 bc 90 96 38 19 84 11 50 97
       -0.027137792 -0.02226481 9.542983e-24 -6.7230533e-25
0000c0 d5 3b 54 bd a0 1d 12 17 15 1f 28 bd b0 ba 3d bc
       -0.051814873 4.7212536e-25 -0.041045267 -0.011580154
0000d0 61 78 29 bd 27 63 00 bd 5b 99 70 3c 5b a1 ac 18
       -0.041374568 -0.03134456 0.014685 4.4623885e-24
0000e0 03 7e 39 bd 1b 31 0e bd a7 ec 29 bd 51 39 42 bd
       -0.04528619 -0.0347148 -0.041485455 -0.047417942
0000f0 78 70 4d bd c2 01 e2 9a e7 98 83 aa 95 5d da 95
       -0.050156087 -9.347425e-23 -2.3376372e-13 -8.8197145e-26
000100 b7 34 8f bc 52 0d 0a bd 37 3f 23 97 7e f2 ba bc
       -0.017481191 -0.03370411 -5.274793e-25 -0.022820707
000110 6b b6 02 bd b5 bd 23 97 29 20 7a bd db a0 5a bd
       -0.03191225 -5.2907585e-25 -0.061065827 -0.05337606
000120 c1 b7 de 98 11 24 63 9a ca 62 93 bc cb 2e 45 3b
       -5.75712e-24 -4.6971634e-23 -0.017991442 0.0030087705
000130 3a bb 10 18 95 b5 c9 97 38 9c c5 94 c2 59 ba bb
       1.870609e-24 -1.3035158e-24 -1.9953534e-26 -0.0056869695
000140 06 e4 09 bd 38 94 cb bc 34 2e 9f bc b4 13 90 bd
       -0.033664726 -0.02485095 -0.019431211 -0.07035008
000150 1f 22 7c bd 2d f3 21 96 9b dc 61 bc 96 19 0e bd
       -0.061555978 -1.3082209e-25 -0.013785507 -0.03469237
000160 45 88 8e bc 4d 98 2c bd 0e 77 03 bd c8 e3 cd bc
       -0.017398963 -0.042137433 -0.03209596 -0.025133029
000170 60 d0 e4 3b 06 a5 d1 bb b4 7f 11 bd 8f c9 88 bc
       0.006982848 -0.006397846 -0.035522178 -0.016697673
000180 84 8d 71 15 ff 91 8e 3c f2 f9 10 18 15 f7 d8 bc
       4.87812e-26 0.0174036 1.8737754e-24 -0.026485005
000190 27 85 a3 bc d9 41 f1 bc d8 5a 4d bc c2 e5 46 bd
       -0.019960953 -0.029450344 -0.012533866 -0.048558958
0001a0 04 b2 a8 3c a9 3c 0f bc ba ab 8e bc 4d 46 b7 3a
       0.020592697 -0.00874249 -0.01741587 0.0013982743
0001b0 ef 4e 44 96 f2 c4 a2 18 24 8d 4e bc 4e 2a bf bb
       -1.5857661e-25 4.2074882e-24 -0.012606893 -0.0058339005
0001c0 cf 39 45 bd 09 5a c4 bc a2 bf 11 bc 3e da b8 bc
       -0.048150834 -0.023968713 -0.0088957865 -0.022565003
0001d0 5d e2 b2 bc cc b2 d0 bd 1a 25 db 1a 0c a6 26 bd
       -0.021836454 -0.10190353 9.063622e-23 -0.0406857
0001e0 bc 73 e4 bc 9e 01 4d bc 09 8c 2f 3c 4c 75 48 bb
       -0.027887218 -0.012512593 0.010714539 -0.0030587493
0001f0 aa 89 0b bd 4e 68 d9 bd 4e 50 70 bb a7 c2 a0 bc
       -0.034066834 -0.10615598 -0.003666896 -0.019624067
000200 16 3a 17 3b f2 7f 1f 18 00 f1 10 98 6d 8e ec 95
       0.0023075393 2.0614864e-24 -1.8733238e-24 -9.554435e-26
000210 f6 c2 8e 15 33 8c 28 bd 5e cf d1 96 38 00 35 97
       5.766094e-26 -0.04114933 -3.3896638e-25 -5.848453e-25
000220 b4 cc 2f bd 5d 2a dc 3c 17 be 05 bc 73 b0 84 17
       -0.04291983 0.02687567 -0.008162997 8.574842e-25
000230 a7 82 0a 18 91 30 8e bc 04 26 bc 39 69 9d 17 39
       1.7902045e-24 -0.017357143 0.00035886478 0.00014459122
000240 ee 27 a7 bc f8 85 c5 1e 3d 2b 12 97 19 36 12 bd
       -0.020404782 2.0913595e-20 -4.722972e-25 -0.035696123
000250 95 d8 62 19 f9 bd 21 16 6d 20 4d bd 8c b9 60 bc
       1.17276645e-23 1.3065421e-25 -0.05007975 -0.013716113
000260 8b 10 82 98 28 af 0d bc 9c 91 08 98 5b fc 9c 3c
       -3.3620917e-24 -0.008647718 -1.7651102e-24 0.019163301
000270 a1 f5 ae 3c 9f 76 be bb f2 25 98 16 64 64 8f 95
       0.02135736 -0.0058124806 2.4580871e-25 -5.791563e-26
000280 09 07 41 17 79 16 a0 95 bf d4 97 bc 75 26 fa 3a
       6.2370543e-25 -6.465894e-26 -0.018534062 0.0019084947
000290 70 ce 8c bb c5 d7 19 bd 14 b2 fe bc 75 49 0f 95
       -0.00429707 -0.03755929 -0.031090774 -2.8936567e-26
0002a0 e2 11 fb bc aa 7a ad bc 25 7f 98 19 ce 10 18 bc
       -0.030648176 -0.021176655 1.5767785e-23 -0.00928135
0002b0 9f ef 84 3c 01 d5 eb bc 04 44 f0 98 6d da 11 1a
       0.016227541 -0.028788092 -6.2107224e-24 3.016174e-23
0002c0 ea 27 ba 3c 10 f8 67 12 db d5 83 bd 14 b8 5f bb
       0.02272411 7.319651e-28 -0.06437274 -0.0034136819
0002d0 f0 14 80 bd 38 e7 1e bd 69 a2 05 bd 69 e1 36 9b
       -0.062539935 -0.038794726 -0.03262559 -1.5127521e-22
0002e0 1c c3 bb bc 30 d7 06 bc fb 4a e3 bc 48 6f e4 3b
       -0.022920184 -0.008230016 -0.027745714 0.0069712736
0002f0 a8 e8 49 bc 94 0b 09 14 23 9b 2c 18 0d d4 3e 16
       -0.012323536 6.919016e-27 2.2308803e-24 1.5414989e-25
000300 d7 fb 3d bd c2 f1 be 3c 10 aa 99 17 a5 5e 74 3c
       -0.04638275 0.023308638 9.930323e-25 0.014915143
000310 55 49 c3 bb 76 c3 3b 1b 6b 34 8e bc 7a cd 20 3c
       -0.0059596696 1.5531434e-22 -0.01735898 0.009814614
000320 0c ae 1b 9b bc aa 8c 96 10 9a 8a bc c8 85 46 bd
       -1.2877537e-22 -2.2725968e-25 -0.016919166 -0.048467427
000330 cb 79 a0 17 84 36 89 97 58 96 65 1a 9d 0a b9 bc
       1.0370503e-24 -8.867179e-25 4.7477537e-23 -0.022588069
000340 38 e7 23 bd 68 e8 76 bd d6 11 28 bd db 38 07 bc
       -0.04001543 -0.060280234 -0.041032635 -0.0082533015
000350 cb 61 cb bc cb 98 88 9a 2f da 0f bc 9a ec 0a bc
       -0.024826905 -5.649513e-23 -0.008780046 -0.008479262
000360 9e b5 8b bc 29 22 5f 3c 66 59 cb bc 18 16 e2 bc
       -0.017054375 0.013618984 -0.024822902 -0.027598426
000370 b4 c9 0d 3d 1b 79 7e bd 97 fc ab bc 22 94 d8 bc
       0.034616187 -0.062127214 -0.020994468 -0.026437823
000380 92 45 c0 15 4d 02 c8 bb 5a e5 bd 15 bf 71 f6 bb
       7.7657945e-26 -0.00610379 7.6698345e-26 -0.007520884
000390 c7 1c c1 3b ab 7a a0 bb e5 ca 70 bb 1d 7f af bc
       0.005893323 -0.0048974357 -0.0036742028 -0.021422917
0003a0 59 df 91 bd 48 92 18 bc eb 10 f6 18 c1 7f 9f bb
       -0.07122678 -0.00931222 6.3606592e-24 -0.0048675244
0003b0 3f 7a 64 1a 5a ef 46 98 01 06 07 bc 06 81 15 bc
       4.7248045e-23 -2.5711742e-24 -0.008241178 -0.009125
0003c0 f6 30 b6 bc 47 c4 94 bc 03 4e 3a 3c be 5c 88 3c
       -0.022240143 -0.018159999 0.0113711385 0.016645785
0003d0 bc 93 64 bd e2 04 b6 3c ad fc f5 9a b6 29 00 bd
       -0.055804953 0.022219125 -1.01737845e-22 -0.03128978
0003e0 68 60 1c bc e9 bf 3f bd b8 c3 9f 3b 5e 82 bd 3a
       -0.009544469 -0.04681388 0.0048756264 0.0014458408
0003f0 33 61 d2 3c 9d af 03 bd cd 08 75 bc 86 ac 0a bc
       0.025681114 -0.0321499 -0.014955712 -0.008463984

bias f4 [64]
000000 89 a3 1d bd a5 94 93 bd ba b9 a8 bc 65 38 29 bd
       -0.038486037 -0.07206086 -0.020596374 -0.041313548
000010 cf 0c b4 bc 27 1f 38 3c 8c 15 cc bc ef 15 ce 3c
       -0.021978764 0.011237896 -0.024912618 0.025156943
000020 55 b2 8c bc 1e e5 bb b9 c5 92 9b 3d ee 8d 81 3d
       -0.01717488 -0.00035838125 0.075963534 0.06325899
000030 6f 24 bb 3c 32 f5 a6 a3 ed 48 8f bc 5e 80 b5 ba
       0.022844521 -1.81016e-17 -0.017490828 -0.001384746
000040 bd d2 80 3a 23 80 51 3d 5f a6 5c bc 2d ef 0d 3e
       0.000982843 0.05114759 -0.0134674 0.1386077
000050 ad eb ce bd 23 19 1d 3c 24 d9 c7 ba 10 f3 9c 3c
       -0.10103545 0.009588513 -0.0015247208 0.01915887
000060 91 52 5b 3d 2c 57 3b 3d 66 49 b8 3c 04 40 c5 3d
       0.05354554 0.04573743 0.022495937 0.09631351
000070 2e 5d 4b 3d ec cb 28 ba 3f ae 4a 3d 7f 17 cd bc
       0.04964941 -0.0006439078 0.04948258 -0.025035618
000080 96 40 9e bc 11 87 02 3e a3 7b 1d 3c 44 22 29 b7
       -0.019317906 0.12746836 0.009611997 -1.0081163e-05
000090 e9 83 cc bc c3 e2 ba 3b 10 f5 fe bc 4b e2 d8 bc
       -0.024965243 0.0057033016 -0.031122714 -0.026475092
0000a0 d8 f3 c3 b3 5f cb 61 bc b1 e7 92 3d 42 65 d9 3d
       -9.12475e-08 -0.013781398 0.07173098 0.106150165
0000b0 8b e8 f2 bc 42 58 b0 bc 11 cf 82 3d 15 b2 01 3c
       -0.0296519 -0.02152646 0.06387151 0.007915993
0000c0 42 b9 9c 3d 42 f1 ff bc 38 78 d1 bc 7e 04 cb 3d
       0.076525226 -0.03124297 -0.02557002 0.09912966
0000d0 5b 17 24 bc 3d c3 9c bc 97 7d b4 3b 55 0c 1c 3c
       -0.010015334 -0.019136066 0.0055081355 0.009524425
0000e0 36 8f 3e bd 58 b4 88 3d fc 3d 07 bc 36 11 0b 3c
       -0.046523295 0.06675023 -0.008254524 0.00848799
0000f0 3a 48 8f 3d 7b 18 93 3d 29 81 aa bb c2 3b 88 bd
       0.06996198 0.07182404 -0.0052033854 -0.06652023
