2-hypertuning-mlflow/mlruns/1/afa47234de8d4ad9a52ba79b6f7203ec/artifacts/pytorch_models/20250921-1128model.pt (torch, 376709 bytes, 12 tensors)

weight f4 [64, 1, 3, 3]
-0.086731076 0.18118583 0.39948553 -0.010515587 -0.1001327 0.1479587 0.19411108 0.1639019
0.2103858 0.26963308 0.34085935 0.38073286 0.086108096 0.033450235 0.2937183 0.30338478
0.16194633 -0.06394752 -0.14209469 0.07011708 0.10894074 0.0843193 0.29965815 0.0009291698
0.29706162 -0.0772652 -0.005142349 0.22064924 -0.075087555 -0.046486124 0.16277358 -0.07043342
0.3723022 -0.19105668 0.3009303 0.12021476 -0.03929764 -0.5573387 -0.5254593 -0.20651913
-0.42949292 -0.46544632 -0.060879953 -0.22430882 -0.08281741 0.17278187 0.14071819 -0.4899423
-0.43706208 -0.27271897 -0.35697544 -0.15090543 -0.45635232 0.056491394 -0.007674498 0.22045727
0.27868932 -0.077881746 -0.13638118 -0.11302038 -0.21058121 -0.5856019 -0.34204143 0.2154326
-0.40170562 -0.26785773 -0.40788987 -0.6251196 0.043867677 -0.39694703 -0.18883507 0.23978059
0.13042182 0.22429252 0.17857929 0.1368722 -0.10845304 0.24325165 -0.26705465 0.08698418
0.3629025 -0.1416085 0.10077347 0.12623769 -0.17741027 -0.015310514 0.0871347 0.008178711
-0.26386252 0.3161605 -0.104821526 -0.23008677 -0.037338167 -0.5315666 -0.48399574 -0.54294544
0.18019947 -0.4847743 -0.21969292 -0.06392283 -0.081597604 -0.20949714 0.04526623 0.28439274
-0.06998877 -0.2124589 0.07958274 -0.1393024 0.19300766 0.13053255 -0.11010299 0.028687155
-0.06436218 0.42646495 -0.23161241 -0.25690183 -0.12343353 0.32051095 0.29473293 0.15456146
-0.081471965 0.3819813 -0.07653296 0.103410095 -0.065593444 0.16826162 0.08002608 -0.00011476274
0.2772533 0.14535847 0.119510055 0.1222169 0.16608624 0.38120517 0.33841738 0.3068674
-0.00093302433 0.2232529 -0.079865545 0.0407165 -0.21202156 0.12544315 0.022141883 -0.40019208
-0.22777346 -0.459223 -0.45502764 0.18126749 -0.15203464 -0.34500408 -0.11390937 -0.1204047
-0.16160491 0.113118954 -0.12968394 -0.096378975 0.28968978 0.2945339 -0.120705724 -0.09105603
-0.21921287 -0.01254356 0.38457137 -0.19825937 0.2249912 -0.13699225 0.37606168 0.011584532
0.14973561 -0.051050074 -0.054551695 0.08315597 -0.4443871 -0.28783053 -0.26724 -0.2571372
-0.3784573 -0.2817241 -0.053186398 0.30784872 0.20187189 -0.17750782 0.39510998 -0.26127097
0.096620254 0.3468274 0.20377256 0.12396468 0.028555019 -0.14018448 0.029750813 0.18177013
0.17315294 0.030797781 0.07534425 -0.111995935 0.18530406 -0.0135872485 0.04442835 0.3105419
0.0064819916 0.375858 -0.25953937 -0.3556055 0.0071076276 -0.2805079 0.16656893 0.25858667
-0.13354032 0.3569082 0.3820535 0.13170408 -0.04299408 0.2849948 -0.029624157 0.05218375
0.042351156 -0.047294617 -0.19665919 0.09926519 0.07614398 0.24195819 -0.25451115 0.30450463
0.27611163 -0.22764847 0.0639578 -0.11993807 0.33778515 0.30725622 0.3398485 -0.025285248
0.24722743 0.24209921 -0.0020482317 0.009363484 -0.0021266546 -1.3897291e-05 -1.0373943e-08 -1.9562285e-05
-2.8378232e-05 -4.65488e-05 -7.454314e-05 -0.08766131 0.32771215 0.30642945 0.08820069 -0.16914266
-0.2074396 0.16592523 0.21644859 -0.16205767 -0.42080304 -0.53462946 -0.024216793 -0.44953412
00000000: 10a0 b1bd c788 393e 5e89 cc3e 9249 2cbc
00000010: 5f12 cdbd 7c82 173e 0ec5 463e e6d5 273e
00000020: 606f 573e 590d 8a3e 1e85 ae3e 6bef c23e
00000030: 7159 b03d 1d03 093d 3f62 963e 4055 9b3e
00000040: 42d5 253e ebf6 82bd 4581 11be 8b99 8f3d
00000050: 531c df3d 99af ac3d cb6c 993e 8893 733a
00000060: 7618 983e 383d 9ebd 2681 a8bb e0f1 613e
00000070: 81c7 99bd 3c68 3ebd 1eae 263e 663f 90bd
00000080: 659e be3e 5da4 43be 8913 9a3e 2833 f63d
00000090: 90f6 20bd c0ad 0ebf 8084 06bf c079 53be
000000a0: 7fe6 dbbe fb4e eebe 425d 79bd 36b1 65be
000000b0: 2d9c a9bd bbed 303e 6e18 103e b8d9 fabe
000000c0: 9ac6 dfbe d2a1 8bbe 7cc5 b6be f486 1abe
000000d0: 03a7 e9be 8563 673d 5b7a fbbb 8dbf 613e
000000e0: 5eb0 8e3e 7780 9fbd 82a7 0bbe 3b77 e7bd
000000f0: 9aa2 57be 02ea 15bf 0e20 afbe 5d9a 5c3e
00000100: 5cac cdbe a624 89be f1d6 d0be d707 20bf
00000110: 98ae 333d a43c cbbe fb5d 41be 0b89 753e
00000120: 4c8d 053e f0ac 653e 7ddd 363e 3a28 0c3e
00000130: a11c debd f616 793e 63bb 88be c324 b23d
00000140: 5bce b93e d201 11be 5262 ce3d 7444 013e
00000150: 0aab 35be f3d8 7abc ad73 b23d 0000 063c
00000160: fd18 87be cadf a13e abac d6bd de9b 6bbe
00000170: e8ef 18bd c014 08bf 4ace f7be 79fe 0abf
00000180: 3686 383e 5634 f8be 2ef7 60be f9e9 82bd
00000190: a51c a7bd 6b86 56be 1569 393d ed9b 913e
000001a0: 4656 8fbd d38e 59be 47fc a23d 4aa5 0ebe
000001b0: cda3 453e 53aa 053e ad7d e1bd 5301 eb3c
000001c0: 52d0 83bd 9d59 da3e ce2b 6dbe a388 83be
000001d0: b8ca fcbd 031a a43e 3ce7 963e 5c45 1e3e
000001e0: c6da a6bd 0e93 c33e 50bd 9cbd acc8 d33d
000001f0: db55 86bd c64c 2c3e b7e4 a33d c7ac f0b8
00000200: 25f4 8d3e dad8 143e b0c1 f43d db4c fa3d
00000210: 8312 2a3e 532d c33e 0b45 ad3e b91d 9d3e
00000220: 3496 74ba 699c 643e 8c90 a3bd 58c6 263d
00000230: 2e1c 59be 2b74 003e e562 b53c fae5 ccbe
00000240: 723d 69be 471f ebbe 62f9 e8be 2f9e 393e
00000250: f8ae 1bbe 60a4 b0be 5149 e9bd bd96 f6bd
00000260: c27b 25be e9aa e73d decb 04be 5762 c5bd
00000270: 3852 943e 26cd 963e 9034 f7bd 957b babd
00000280: 5779 60be 8183 4dbc 8ae6 c43e 8104 4bbe
00000290: 1864 663e b247 0cbe 288b c03e 0dcd 3d3c
000002a0: 4b54 193e e219 51bd 9971 5fbd ad4d aa3d
000002b0: b586 e3be 865e 93be aed3 88be 7da7 83be
000002c0: 28c5 c1be 243e 90be fbd9 59bd 599e 9d3e
000002d0: 81b7 4e3e 9cc4 35be db4b ca3e 4fc5 85be
000002e0: d7e0 c53d 5c93 b13e c1a9 503e 32e1 fd3d
000002f0: 37ec e93c 858c 0fbe fab7 f33c f321 3a3e
00000300: 014f 313e a14b fc3c 164e 9a3d 205e e5bd
00000310: 59c0 3d3e 0d9d 5ebc 80fa 353d 59ff 9e3e
00000320: e366 d43b 7670 c03e 58e2 84be ed11 b6be
00000330: 1ae7 e83b bb9e 8fbe 0c91 2a3e 7965 843e
00000340: cbbe 08be acbc b63e 849c c33e 6fdd 063e
00000350: 8f1a 30bd d7ea 913e 5cae f2bc a1be 553d
00000360: 6878 2d3d 00b8 41bd 0761 49be 8c4b cb3d
00000370: 60f1 9b3d e3c3 773e 494f 82be 08e8 9b3e
00000380: 815e 8d3e ae1c 69be 4ffc 823d 17a2 f5bd
00000390: 2df2 ac3e b050 9d3e 9f00 ae3e 0223 cfbc
000003a0: 3029 7d3e dbe8 773e a03b 06bb 4c69 193c
000003b0: 585f 0bbb 6928 69b7 1539 32b2 b019 a4b7
000003c0: ca0d eeb7 653d 43b8 0b54 9cb8 c687 b3bd
000003d0: e3c9 a73e 52e4 9c3e 90a2 b43d bc33 2dbe
000003e0: 0c6b 54be 4ee8 293e b3a4 5d3e 72f2 25be
000003f0: 7f73 d7be 7add 08bf 4c62 c6bc 5629 e6be

bias f4 [64]
-0.04503455 -0.18995042 -0.14051445 0.13306874 0.3007294 0.18282695 0.080568895 0.18739755
0.026773687 -0.043922562 0.21117982 0.36821067 0.0065377923 0.025243487 0.03454728 -0.023338282
0.16412248 -0.016403396 0.0742887 0.082424216 0.012986056 -0.05272408 -0.013537158 -0.0018132821
0.21329843 0.03331381 -0.015007758 -0.12176131 0.095917314 0.20218746 0.21059555 0.26378196
0.26785073 0.2779642 -0.11685181 0.2538792 -0.014082418 0.20628126 0.06373342 0.048130408
0.22912249 0.17698124 -0.003701775 -0.07072426 -0.118192755 0.04140232 -0.22186711 0.0017484725
0.34118384 -0.019537978 0.13566707 0.07551708 -0.10614777 -0.052542884 -0.033430323 0.29952934
0.07219056 -0.1775503 -0.04908078 0.21729107 0.28555012 0.17439196 0.32161283 0.37769157
00000000: 2676 38bd 5d82 42be 05e3 0fbe 2c43 083e
00000010: 34f9 993e fd36 3b3e 4e01 a53d 25e5 3f3e
00000020: 7e54 db3c 25e8 33bd 863f 583e 1c86 bc3e
00000030: fa3a d63b 6ecb ce3c 7381 0d3d ed2f bfbc
00000040: b90f 283e 6a60 86bc ad24 983d 07ce a83d
00000050: 77c3 543c 34f5 57bd f5ca 5dbc a7ab edba
00000060: e76a 5a3e 1074 083d 19e3 75bc fe5d f9bd
00000070: 4c70 c43d 3b0a 4f3e 5ca6 573e 6e0e 873e
00000080: bb23 893e 5351 8e3e 0050 efbd 74fc 813e
00000090: f1b9 66bc 653b 533e ab86 823d 6424 453d
000000a0: 169f 6a3e 923a 353e 7b99 72bb e1d7 90bd
000000b0: 0b0f f2bd 7b95 293d 2231 63be 002d e53a
000000c0: a6af ae3e 1c0e a0bc 4fec 0a3e b3a8 9a3d
000000d0: 0164 d9bd 3537 57bd 3cee 08bd e95b 993e
000000e0: a5d8 933d bfcf 35be ee08 49bd 8d81 5e3e
000000f0: a033 923e ce93 323e 70aa a43e ca60 c13e

weight f4 [64, 64, 3, 3]
-0.00078518543 -0.0010996497 -0.00089165504 -0.0008971039 -0.0008366835 -0.0015510216 -0.00071497814 -0.0012454682
-0.001293951 -0.0002080368 -0.0014542696 -0.0020390863 0.0004293202 -0.00040410328 -0.0022055919 0.00010018152
-0.00088368065 -0.0019299054 6.783169e-08 -2.420782e-07 -1.4653546e-07 1.5737542e-07 8.7823494e-08 -2.2778724e-07
1.311136e-07 -1.3286113e-07 -2.1011526e-07 -0.005517819 -0.005923394 -0.0051636714 -0.005882609 -0.006648504
-0.006436949 -0.005314662 -0.005671735 -0.0056771417 -0.004569666 -0.0042864135 -0.0056042196 -0.0051156487
-0.0049965857 -0.005122091 -0.004877505 -0.00484831 -0.004480499 -0.003864254 -0.003595074 -0.003580516
-0.0034147855 -0.0041373046 -0.003794875 -0.003160545 -0.0034264007 -0.0031217656 -0.00031954906 -0.0002685333
-0.00028191844 -0.00039472737 -0.00029750264 -0.000341731 -0.0002626858 -0.00026641 -0.00020211778 -0.0028884374
-0.0025445865 -0.00297465 -0.0031795318 -0.0026563078 -0.0027026306 -0.0029073246 -0.002578885 -0.002258896
-0.0030712804 -0.0033663234 -0.0029932703 -0.003014528 -0.0030785208 -0.003732027 -0.0032800748 -0.0035891968
-0.004550279 -7.7625343e-25 -3.3181474e-25 -3.969995e-26 -1.4735458e-25 -4.651819e-25 1.8923725e-25 -6.324486e-26
3.4304292e-25 -6.4427187e-25 -0.0025623424 -0.0020459357 -0.002403688 -0.0026041137 -0.002468444 -0.0027861265
-0.0024545367 -0.0020696966 -0.0022180295 -0.007029236 -0.0078103635 -0.009199933 -0.007461619 -0.0075337873
-0.007916344 -0.007617196 -0.008246198 -0.007642084 -1.714695e-23 8.510451e-24 5.5651463e-24 -2.3800784e-23
-5.1376952e-23 -2.9040037e-23 -2.211482e-22 -3.1717441e-22 -4.0095452e-23 -0.0032333848 -0.0039833337 -0.0037807084
-0.0033571555 -0.0040042056 -0.005062398 -0.0030767752 -0.00437076 -0.004836845 -0.003953371 -0.005781982
-0.0051491167 -0.004137751 -0.0053229257 -0.0056187212 -0.004883106 -0.0056237085 -0.005882448 1.9048548e-20
1.0916794e-18 -8.134209e-18 -9.194442e-18 5.318036e-14 2.380174e-13 1.6283497e-11 1.2644048e-10 1.4369705e-10
-0.0020327277 -0.0019961074 -0.0019843797 -0.0021816927 -0.002126713 -0.002547222 -0.0018612709 -0.0017533326
-0.0017934983 -1.6497353e-24 8.134721e-24 -3.3587837e-22 -7.9875644e-23 5.002194e-23 -3.1702038e-22 -1.9884114e-22
4.1053965e-22 3.7049876e-22 -0.003371367 -0.004658589 -0.0043216315 -0.00315811 -0.0040882756 -0.0045577376
-0.0034363861 -0.0039711543 -0.0046290504 -3.6931784e-08 -5.5757168e-09 -6.831114e-10 -4.919707e-08 -4.6445723e-09
-4.381242e-10 -3.1549352e-09 -8.8436876e-11 -3.9807346e-12 -0.0024091904 -0.002756965 -0.0032172294 -0.0024264501
-0.0029055236 -0.0030666029 -0.0027347056 -0.003795915 -0.0032972118 -1.0066114e-05 -1.3757678e-05 -1.4311136e-05
-1.0953143e-05 -1.4355266e-05 -1.9230487e-05 -6.775746e-06 -1.922654e-05 -1.6063168e-05 -3.480517e-18 -2.866417e-17
-4.284108e-17 -3.8781006e-16 7.437639e-14 5.029001e-14 -4.92162e-15 1.8301489e-12 1.8124044e-12 -0.001278915
-0.0012223051 -0.0019189172 -0.00093374116 -0.0013981856 -0.002012802 -0.0015574143 -0.0015589237 -0.003027709
-0.0061803404 -0.0066284775 -0.0066928193 -0.0063847466 -0.007934834 -0.0065419995 -0.0074124746 -0.0063923732
-0.0071886256 -0.0026971723 -0.004155484 -0.004127036 -0.0037365577 -0.004398528 -0.004666053 -0.0039594416
-0.00477074 -0.005173227 -1.6122516e-25 -2.54276e-26 2.6693083e-25 -8.7756955e-26 -2.161115e-25 -7.549528e-25
-5.721041e-25 8.123973e-25 2.5516828e-26 -3.2536867e-14 -1.1602069e-12 3.2811134e-13 1.8869641e-12 1.03318396e-11
8.04634e-12 1.3893345e-11 4.8919067e-11 4.592059e-11 -2.2505023e-05 -1.303489e-05 -6.181252e-06 -2.6189624e-05
00000000: e7d4 4dba 1f22 90ba f5bd 69ba a02b 6bba
00000010: e154 5bba a64b cbba 5f6d 3bba fa3e a3ba
00000020: ca99 a9ba 7424 5ab9 319d beba 31a2 05bb
00000030: 6216 e139 d3dd d3b9 b18b 10bb 8b18 d238
00000040: cea6 67ba e1f4 fcba deaa 9133 f9f6 81b4
00000050: 5c57 1db4 07fb 2834 7a99 bc33 ae95 74b4
00000060: 3bc8 0c34 97a8 0eb4 0b9c 61b4 d2ce b4bb
00000070: 0819 c2bb 0434 a9bb e7c2 c0bb b2db d9bb
00000080: 0bed d2bb 9e26 aebb f6d9 b9bb 5107 babb
00000090: 23bd 95bb 0b75 8cbb 9aa3 b7bb 2ca1 a7bb
000000a0: 66ba a3bb 37d7 a7bb 7ad3 9fbb 92de 9ebb
000000b0: 26d1 92bb 6d3f 7dbb 559b 6bbb 17a7 6abb
000000c0: 98ca 5fbb 3a92 87bb 70b3 78bb 2521 4fbb
000000d0: 778d 60bb 8996 4cbb 2689 a7b9 eec9 8cb9
000000e0: 74ce 93b9 69f3 ceb9 21fa 9bb9 5c2a b3b9
000000f0: 17b9 89b9 f2ac 8bb9 94ef 53b9 f04b 3dbb
00000100: 14c3 26bb 58f2 42bb b15f 50bb 7315 2ebb
00000110: 9e1e 31bb d088 3ebb 8302 29bb fc09 14bb
00000120: 8947 49bb 899d 5cbb be2a 44bb 638f 45bb
00000130: 02c1 49bb 0695 74bb 86f6 56bb bb38 6bbb
00000140: 821a 95bb 223d 7097 2562 cd96 aa95 4495
00000150: 886a 3696 82f7 0f97 ae43 6a16 3196 9c95
00000160: 5255 d416 7a64 4797 f9ec 27bb 1b15 06bb
00000170: 3187 1dbb c7a9 2abb 9ec5 21bb 7297 36bb
00000180: 4bdc 20bb bfa3 07bb 5c5c 11bb 8155 e6bb
00000190: 14ee ffbb 51bb 16bc 9980 f4bb fddd f6bb
000001a0: 8eb3 01bc ac99 f9bb 101b 07bc 726a fabb
000001b0: cbd5 a599 b69d 2419 8a4a d718 e32f e699
000001c0: 9671 789a d36d 0c9a 07ad 859b 5db8 bf9b
000001d0: c4e3 419a 32e7 53bb a086 82bb c3c5 77bb
000001e0: b903 5cbb b635 83bb 79e2 a5bb b9a3 49bb
000001f0: 9838 8fbb 667e 9ebb 488b 81bb c876 bdbb
00000200: ecb9 a8bb f995 87bb f06b aebb 401d b8bb
00000210: 7602 a0bb 1647 b8bb 8dc1 c0bb 90e8 b31e
00000220: 7b1a a121 b70c 16a3 869b 29a3 c880 6f29
00000230: ecfd 852a 2d3b 8f2d d505 0b2f 20ff 1d2f
00000240: 8337 05bb 20d1 02bb 5e0c 02bb bbfa 0ebb
00000250: 5360 0bbb 4bef 26bb e3f5 f3ba 14d0 e5ba
00000260: d113 ebba c048 ff97 3059 1d19 a906 cb9b
00000270: a120 c19a 2ae4 711a 87a0 bf9b 5a62 709b
00000280: ef27 f81b e8f3 df1b 27f2 5cbb 14a7 98bb
00000290: 799c 8dbb 4bf8 4ebb f1f6 85bb 1359 95bb
000002a0: fe34 61bb 7520 82bb 4aaf 97bb ed9e 1eb3
000002b0: 8694 bfb1 b1c5 3bb0 c04c 53b3 1796 9fb1
000002c0: 80dc f0af 35ce 58b1 8979 c2ae 450f 8cac
000002d0: 82e3 1dbb 33ae 34bb 27d8 52bb 1405 1fbb
000002e0: 996a 3ebb 0ff9 48bb bf38 33bb e3c4 78bb
000002f0: 0916 58bb a1e1 28b7 c7d0 66b7 dc19 70b7
00000300: 64c3 37b7 66d7 70b7 2851 a1b7 375b e3b6
00000310: ae48 a1b7 64bf 86b7 8e68 80a2 ae30 04a4
00000320: d291 45a4 aa8e dfa5 127b a729 6f7c 6229
00000330: ef51 b1a7 08c9 002c c012 ff2b 44a1 a7ba
00000340: c135 a0ba 2d84 fbba 4fc6 74ba 5343 b7ba
00000350: 37e9 03bb 2722 ccba cd54 ccba 876c 46bb
00000360: 7484 cabb b333 d9bb 704f dbbb 2337 d1bb
00000370: 1b01 02bc 455e d6bb 58e4 f2bb 1d77 d1bb
00000380: 908e ebbb 0bc3 30bb ba2a 88bb 163c 87bb
00000390: 09e1 74bb 8721 90bb b1e5 98bb 34be 81bb
000003a0: de53 9cbb 2c84 a9bb 4b96 4796 a0d2 fb94
000003b0: e138 a516 9446 d995 3cc4 8596 86a5 6997
000003c0: c20e 3197 bf6c 7b17 d8b4 fc14 7488 12a9
000003d0: dc48 a3ab d4b5 b82a 86c8 042c 78c2 352d
000003e0: 7e8d 0d2d 106a 742d f925 572e fdf5 492e
000003f0: 2bc9 bcb7 6db0 5ab7 8d68 cfb6 cab1 dbb7

bias f4 [64]
-0.014350248 0.0056460355 0.032972585 0.00929722 0.038433723 -0.058294676 -0.027703444 -0.0018218306
0.01655113 0.024453206 -0.011427964 0.04732506 0.04914249 -0.014694248 0.008158549 0.039460827
0.009145332 -0.051080424 0.03590369 -1.5552617e-09 0.009651519 0.0123909125 0.0260768 0.015389177
0.046609785 0.023417475 0.0012799382 0.070951045 0.033118676 0.02390339 0.020869473 -0.005430203
0.06261761 -0.010393813 0.0009555745 0.024478424 -1.5694219e-05 0.0037591148 0.04979397 0.019211698
0.041939918 -0.00977818 0.060646176 0.056467135 -0.0012070802 0.052551027 -0.056208096 0.040398594
-0.05187342 -0.05192367 0.06887648 -0.06737642 -0.013408216 0.041656967 0.03543833 0.02314546
0.006781007 -0.008064917 -0.05675078 0.006570267 0.067051075 0.01988599 0.013170713 0.03833283
00000000: 4d1d 6bbc 6102 b93b 430e 073d 5e53 183c
00000010: ae6c 1d3d 66c6 6ebd 55f2 e2bc 7eca eeba
00000020: 3c96 873c 1752 c83c 5b3c 3bbc ecd7 413d
00000030: a349 493d 25c0 70bc 6fab 053c ada1 213d
00000040: 4dd6 153c b539 51bd bf0f 133d e8c0 d5b0
00000050: 6821 1e3c 4103 4b3c 039f d53c e322 7c3c
00000060: e7e9 3e3d 01d6 bf3c 99c3 a73a c84e 913d
00000070: 73a7 073d 0bd1 c33c 75f6 aa3c d8ef b1bb
00000080: a93d 803d d04a 2abc 857f 7a3a fa86 c83c
00000090: 14a7 83b7 7b5b 763b c3f4 4b3d da61 9d3c
000000a0: 31c9 2b3d a934 20bc 2068 783d 154a 673d
000000b0: e436 9eba bf3f 573d 763a 66bd ff78 253d
000000c0: 3979 54bd eaad 54bd 1d0f 8d3d a6fc 89bd
000000d0: 22ae 5bbc 7fa0 2a3d c827 113d 8c9b bd3c
000000e0: 3633 de3b b722 04bc 8273 68bd 654b d73b
000000f0: 1352 893d f2e7 a23c f9c9 573c e302 1d3d

weight f4 [64, 64, 3, 3]
0.0020551272 0.0029595087 0.0030063433 0.0030478006 0.0036499407 0.004434305 0.0032745916 0.0037091326
0.0041483417 0.020909745 0.058120012 0.03601868 0.003927308 -0.023366863 0.015643412 0.011177663
-0.03574036 0.03629179 0.019039221 0.066941015 0.031958226 0.033482745 0.060553025 0.001805888
-0.0031402835 0.059097406 0.00024945574 -0.0035794345 -0.003792369 -0.003913322 -0.005888118 -0.0060310327
-0.0057009608 -0.01274102 -0.0066515636 -0.01195527 -0.0042045927 -0.011475054 -0.08040462 0.025401928
-0.052643273 -0.02995236 -0.0039360276 0.0220626 0.0007222744 0.012538677 0.012551314 -0.009559234
0.0047939103 0.015917562 0.024981769 -0.02637649 -0.018735487 -0.03600328 -0.014490482 -0.01351116
-0.0143178925 -0.013407051 -0.011086191 -0.009750844 -0.011100468 -0.010451125 -0.008678019 -0.035504624
-0.090167366 -0.014639033 -0.034748606 0.013148919 0.008940144 0.017152827 0.034666095 -0.008750528
-0.054453343 -0.06750041 -0.047598004 0.0026036133 -0.05420391 -0.009626165 0.031975575 -0.012040212
0.04697849 0.057928033 0.046140987 0.048041563 -0.006210709 -0.024989758 0.012547448 -0.0406937
0.019042285 -0.023504287 -0.0044182804 0.0132996775 0.01435342 -0.022095567 -0.011738705 0.030215982
0.0006178815 -0.008868946 -0.0171126 0.018775007 0.043803338 -0.012699379 -0.0040746843 0.030561872
-0.0046648923 0.015503393 -0.011421597 0.004657916 -0.0031285835 0.018931583 0.05780167 -0.015481052
-0.029796572 -0.013812972 0.032474644 -0.039868608 -0.020187212 -2.1734245e-20 2.2903586e-22 2.3933944e-21
3.1800118e-17 -1.1034474e-19 2.435642e-18 1.4569272e-15 -7.874568e-17 8.7269e-17 0.028519716 -0.014243356
0.028286166 -0.03345325 0.013963164 0.0033428464 0.013950602 -0.03894148 0.01963903 0.04388577
0.05929245 0.061956 -0.009413294 -0.031574983 -0.017848445 0.035422973 0.012258421 0.011967914
-0.0007263363 0.034726948 0.05611321 0.03969431 0.00054889364 -0.0034542168 0.03201714 -0.026767304
0.029102402 -0.03207777 -0.019719938 -0.021791348 -0.062717184 -0.04058923 -0.02081985 -0.06162263
-0.018861752 -0.021243798 -0.010688336 0.009305864 -0.0030886673 0.034110803 0.0023003186 -0.025054472
-0.20841974 -0.17362772 -0.16452996 5.2788427e-25 -6.3569653e-26 1.534443e-25 -2.6833922e-25 -1.9947066e-26
-4.278624e-25 -6.3423696e-26 -5.8660856e-26 4.923408e-25 -0.0054216497 -0.04223415 -0.08362803 -0.046128243
-0.06274018 -0.01700948 0.026980452 -0.019078834 -0.027093843 0.0012833229 0.0004926989 0.00015125953
0.003550962 0.0051112603 -0.0019727028 0.003239046 -0.0031875619 -0.003837858 -0.0029878975 0.060515996
0.03282779 0.018548306 0.040520687 0.0070605017 -0.008426719 -0.004125843 0.019985015 -1.6639628e-24
-1.8346202e-25 -1.5165434e-24 2.0760636e-24 -2.6699015e-24 -9.338704e-25 7.253869e-27 -1.9068775e-25 -3.2748793e-26
-0.025830079 -0.020447755 0.055837102 0.04056512 0.023008004 -0.021206945 -0.040174488 -0.010732398
0.02732857 0.011983283 -0.06597355 -0.037161686 0.038950417 -0.033804897 -0.0054622195 0.02258097
0.06163132 0.07433403 -0.013901637 0.0066042147 0.00895217 0.0012699314 -0.010657764 -0.017500559
-0.048213154 -0.0019220896 0.0024045792 0.020957448 -0.013281646 0.056074433 -0.008335668 -0.022610184
-0.011292678 -0.04543959 -0.029675437 -0.014857671 0.05154865 0.0049063754 0.009611494 -0.013717977
00000000: 50af 063b 51f4 413b 1206 453b 9cbd 473b
00000010: d833 6f3b a54d 913b 889a 563b eb14 733b
00000020: d0ee 873b ea4a ab3c 400f 6e3d 5388 133d
00000030: a6b0 803b dd6b bfbc 9d26 803c 8422 373c
00000040: 7c64 12bd b3a6 143d 24f8 9b3c 5f18 893d
00000050: a1e6 023d 3425 093d 7306 783d 8cb3 ec3a
00000060: 37cd 4dbb 1f10 723d 62c9 8239 f294 6abb
00000070: 6589 78bb 533b 80bb 1df1 c0bb f89f c5bb
00000080: 20cf babb b6bf 50bc 5cf5 d9bb 09e0 43bc
00000090: aec6 89bb dd01 3cbc 2dab a4bd b417 d03c
000000a0: 79a0 57bd a75e f5bc cbf9 80bb a0bc b43c
000000b0: 0457 3d3a 066f 4d3c 07a4 4d3c 559e 1cbc
000000c0: 3c16 9d3b 8c65 823c 91a6 cc3c 8213 d8bc
000000d0: 2a7b 99bc 2d78 13bd 7d69 6dbc ea5d 5dbc
000000e0: 9895 6abc 3fa9 5bbc dba2 35bc 01c2 1fbc
000000f0: bdde 35bc 323b 2bbc 402e 0ebc 4c6d 11bd
00000100: aba9 b8bd 8ed8 6fbc 8e54 0ebd 906e 573c
00000110: af79 123c 1684 8c3c 09fe 0d3d 605e 0fbc
00000120: 780a 5fbd a83d 8abd 20f6 42bd 62a1 2a3b
00000130: eb04 5ebd 10b7 1dbc d2f8 023d 4f44 45bc
00000140: 846c 403d f245 6d3d 55fe 3c3d 3bc7 443d
00000150: 3483 cbbb 52b7 ccbc d093 4d3c 70ae 26bd
00000160: 91fe 9b3c 108c c0bc 39c7 90bb e4e6 593c
00000170: 9b2a 6b3c c301 b5bc b353 40bc 8287 f73c
00000180: 53f9 213a 0e4f 11bc b92f 8cbc 0bce 993c
00000190: 216b 333d 0e11 50bc ee84 85bb e45c fa3c
000001a0: f4db 98bb f101 7e3c a621 3bbc 6ea1 983b
000001b0: ec08 4dbb 6816 9b3c 72c1 6c3d 3da4 7dbc
000001c0: f117 f4bc ce4f 62bc 2204 053d 444d 23bd
000001d0: a75f a5bc 2e46 cd9e 9571 8a1b fbd6 341d
000001e0: f4a6 1224 a745 02a0 fab7 3322 20f7 d126
000001f0: 3f93 b5a4 863a c924 2ea2 e93c f75c 69bc
00000200: 64b8 e73c 4606 09bd c1c5 643c a813 5b3b
00000210: 1191 643c 1a81 1fbd 08e2 a03c 91c1 333d
00000220: a4dc 723d 93c5 7d3d 373a 1abc c554 01bd
00000230: e736 92bc ae17 113d 8bd7 483c 1215 443c
00000240: 9b67 3eba d83d 0e3d f7d6 653d 8096 223d
00000250: a1e3 0f3a 2460 62bb 6824 033d 1b47 dbbc
00000260: 2968 ee3c fb63 03bd b58b a1bc c583 b2bc
00000270: de71 80bd e440 26bd 648e aabc 0368 7cbd
00000280: f683 9abc 7907 aebc 211e 2fbc 9f77 183c
00000290: 3d6b 4abb c5b7 0b3d f1c0 163b 093f cdbc
000002a0: fc6b 55be 77cb 31be 8b7a 28be 4d5f 2317
000002b0: 0e64 9d95 71f4 3d16 0c18 a696 d28b c594
000002c0: c06a 0497 8b07 9d95 bc3c 9195 425f 1817
000002d0: 18a8 b1bb b7fd 2cbd 2c45 abbd f8f0 3cbd
000002e0: ec7d 80bd 7757 8bbc 1c06 dd3c 374b 9cbc
000002f0: e8f3 ddbc 2c35 a83a 7728 013a 6c9b 1e39
00000300: 42b7 683b 5c7c a73b 7648 01bb 2d46 543b
00000310: 6ae6 50bb 9384 7bbb 9ad0 43bb 9fdf 773d
00000320: 6f76 063d 9ef2 973c 05f9 253d c85b e73b
00000330: 3910 0abc 1432 87bb 9db7 a33c 2ebe 0098
00000340: 6f1d 6396 79ac ea97 ada0 2018 d992 4e98
00000350: 6b82 9097 7cad 0f14 5c0f 6c96 072a 2295
00000360: 9a99 d3bc 0d82 a7bc 72b5 643d 9c27 263d
00000370: 487b bc3c 30ba adbc 018e 24bd f1d6 2fbc
00000380: 2ae0 df3c 8855 443c 241d 87bd da36 18bd
00000390: 798a 1f3d 0177 0abd 6bfc b2bb bafb b83c
000003a0: 1f71 7c3d 713c 983d b1c3 63bc 2b68 d83b
000003b0: 1fac 123c d473 a63a e79d 2ebc 555d 8fbc
000003c0: 287b 45bd a0ee fbba 2596 1d3b f4ae ab3c
000003d0: 439b 59bc 4eae 653d 5392 08bc fe38 b9bc
000003e0: ed04 39bc dd1e 3abd e719 f3bc 976d 73bc
000003f0: ad24 533d a9c5 a03b 8779 1d3c 5ec1 60bc

bias f4 [64]
0.02012985 0.0011285496 0.005203144 0.043055125 0.007664071 0.015513128 0.010813772 -0.0048227883
0.0062087853 -0.009212516 -0.006197782 0.068344444 -0.0019935665 0.015891759 -0.0007977228 -6.8553246e-10
0.0482014 0.044359796 0.019138984 0.034387555 0.01335771 0.05020122 0.0032487684 0.018412475
-0.007991212 0.019133246 0.026850075 0.011587018 0.057827838 -0.011013721 0.003585514 0.023914194
0.110104755 0.0112282075 -0.0020081708 0.0047009215 0.054903176 0.016921747 0.08127285 0.045275774
0.004913577 0.03841156 -0.040260255 -0.01793842 0.071417175 -0.013323584 -4.7742637e-09 0.035787206
0.008018918 0.007945769 -0.0045145303 -0.015435837 -0.004644854 0.06013651 -0.0070868996 0.010468353
-0.047589846 0.053659875 -0.002502516 -0.031775337 -0.0037678834 0.043620046 0.018403053 0.11704548
00000000: 5be7 a43c d7eb 933a 237f aa3b 925a 303d
00000010: e322 fb3b c62a 7e3c 3f2c 313c 7b08 9ebb
00000020: 1173 cb3b 18f0 16bc c316 cbbb 2cf8 8b3d
00000030: 7fa6 02bb 6f2f 823c 451e 51ba 0f70 3cb0
00000040: d56e 453d 9eb2 353d 5cc9 9c3c f7d9 0c3d
00000050: 4cda 5a3c cb9f 4d3d 4ae9 543b c2d5 963c
00000060: 93ed 02bc 53bd 9c3c b0f4 db3c 7ad7 3d3c
00000070: e2dc 6c3d e572 34bc f1fa 6a3b b3e7 c33c
00000080: 9a7e e13d 84f6 373c 849b 03bb 300a 9a3b
00000090: 27e2 603d 7a9f 8a3c 6172 a63d 1773 393d
000000a0: 1202 a13b 7155 1d3d f0e7 24bd 98f3 92bc
000000b0: 2b43 923d 294b 5abc de0a a4b1 9b95 123d
000000c0: c861 033c f82e 023c a0ee 93bb 98e6 7cbc
000000d0: dc33 98bb b351 763d 3939 e8bb 7483 2b3c
000000e0: 92ed 42bd 75ca 5b3d 4001 24bb db26 02bd
000000f0: 98ee 76bb efaa 323d 00c2 963c 8ab5 ef3d

weight f4 [128, 64]
0.05157901 -0.002159503 -0.051098727 0.11808804 -0.14613204 -0.107663535 2.1879619e-07 0.05302829
0.0010507973 -0.05847617 0.052594624 -0.01359863 0.07668558 -0.15901095 -0.07665282 -3.5782948e-25
-0.04373935 0.16372672 -0.012380689 0.075589694 0.12281863 0.07405194 0.004498094 0.057047166
0.001443603 0.03374328 0.0010547847 0.069520585 -0.015290545 -1.9702571e-05 -0.10457699 -0.11184849
-0.09806082 0.007637822 7.107607e-26 -0.000113111935 0.11658078 0.0031321477 -0.013703858 0.035819888
-0.11338118 0.018977543 0.037172403 -0.0028567782 0.12982476 -0.00027140032 6.911071e-26 -0.0012030418
-0.009396804 0.0120257335 0.079934984 0.11617391 1.5884632e-05 -0.074684456 3.6267256e-25 -0.10096081
-0.113666244 0.043250795 -0.019755643 0.020108942 0.010486542 0.11345599 0.11566868 0.004944425
0.09728596 0.0219202 0.029626561 -0.13339727 0.08368588 -0.082265325 -2.0537722e-19 -0.056830816
-3.5914972e-22 -0.05457691 0.03174362 0.012963568 0.07280018 -0.07941426 -0.024482345 -4.5847097e-25
-0.10076543 0.050320502 -0.06180667 -0.0055462345 -0.04185088 -0.08220943 0.00095687516 -0.03227015
3.2623485e-24 0.09228394 -2.0335704e-10 0.06210917 0.06518663 6.268938e-08 0.07784922 -0.06794758
0.06094125 -5.8089423e-12 5.39601e-22 -0.0001229341 -0.047210492 -0.075249456 -0.098644376 -0.11754231
-0.08828974 -0.03144823 -0.025262665 1.4673265e-20 0.067766584 7.8403025e-22 -8.685324e-26 -2.6024605e-07
0.009274383 0.091195315 -0.05824238 0.029912166 1.149866e-22 0.07187632 -2.6585143e-19 -0.039124038
-0.09761445 -0.05557448 0.058006063 -0.07694697 -0.0008169866 -0.04777923 -0.024919443 -0.014902252
0.08561874 -8.872284e-26 0.13961579 0.07196526 -0.07836094 -0.15843752 -2.6686429e-08 -0.098288156
0.012203393 0.061521284 0.062537804 0.08004654 -0.023225924 -0.15365987 0.0023183436 1.5040459e-20
0.05670677 0.026220614 0.17086959 -0.14900668 0.07558419 -0.04131784 -5.845237e-26 -0.09996498
0.0024871684 0.028254183 2.738428e-18 0.008495334 0.0042054057 -5.18161e-22 -0.0915313 -0.13775735
0.070268005 0.018684896 -1.9957508e-19 -4.87592e-24 -0.03938657 -0.075346716 0.017447507 0.014924226
-0.029330373 -0.022524463 -0.16826433 0.0028070344 0.10536324 -0.023631673 5.494618e-19 -0.059551906
-3.9344197e-24 -0.042398084 -0.054956783 -0.076401874 -1.9619988e-09 0.0554162 -1.1018868e-24 -0.041074358
0.058045607 0.09788712 -0.058300078 0.14039567 1.6494781e-20 0.07299842 0.15323265 0.17983608
-0.070868224 -0.03533279 0.09767778 0.024421686 0.100738384 0.13710846 7.0994494e-10 0.023907231
-0.01419296 -0.11497317 -0.044623435 0.080448635 -0.08575155 0.08303649 -0.0786907 3.2816826e-21
-0.0058205924 0.14741243 -0.047791943 0.15364608 0.005839291 -0.03026092 0.02699365 0.06081633
-0.006126398 -0.08214185 0.0059788083 -0.040015586 -0.05743074 -2.9364745e-07 -0.023541575 0.0674681
-0.12476841 -0.022746528 4.793822e-23 -0.00030181094 0.10517198 -0.06775941 0.08209506 0.011037341
0.14842784 -0.033727407 0.16126734 -0.0024399941 0.050103143 -0.00029092949 7.2414715e-22 0.11501187
-0.037367593 0.067976594 -0.09058406 -0.08223366 6.6013466e-09 -0.059282236 -2.275337e-23 0.1617711
-0.012227144 0.07339811 -0.11031005 -0.007702415 -0.0001121329 -0.020883117 0.13604096 -0.076367535
00000000: 8344 533d 7386 0dbb e64c 51bd 24d8 f13d
00000010: a3a3 15be b37e dcbd 3dee 6a34 3134 593d
00000020: e8ba 893a b584 6fbd 766d 573d cacc 5ebc
00000030: 540d 9d3d c4d3 22be 27fc 9cbd 587c dd96
00000040: 0828 33bd faa7 273e 60d8 4abc c5ce 9a3d
00000050: 5588 fb3d 8ba8 973d bf64 933b 4aaa 693d
00000060: 4737 bd3a 6536 0a3d b440 8a3a cf60 8e3d
00000070: 3285 7abc f346 a5b7 762c d6bd d210 e5bd
00000080: 1cd4 c8bd b246 fa3b d0f9 af15 8236 edb8
00000090: e7c1 ee3d b844 4d3b 2586 60bc e0b7 123d
000000a0: 6434 e8bd cb76 9b3c 1742 183d c938 3bbb
000000b0: c8f0 043e bc4a 8eb9 1e1c ab15 62af 9dba
000000c0: 0df5 19bc 9507 453c f4b4 a33d 96ec ed3d
000000d0: fd3f 8537 2af4 98bd c37b e016 8bc4 cebd
000000e0: d9c9 e8bd bf27 313d 96d6 a1bc 82bb a43c
000000f0: bfcf 2b3c 9d5b e83d b3e3 ec3d d804 a23b
00000100: dd3d c73d fe91 b33c 67b3 f23c 4b99 08be
00000110: 8163 ab3d b97a a8bd 7577 72a0 6ec7 68bd
00000120: ba17 d99b 0a8c 5fbd 9905 023d 2565 543c
00000130: 4318 953d f2a3 a2bd 338f c8bc d0e3 0d97
00000140: 1b5e cebd df1c 4e3d fe28 7dbd 30bd b5bb
00000150: d46b 2bbd 6b5d a8bd ced6 7a3a b42d 04bd
00000160: 7869 7c18 5dff bc3d eb97 5faf 2f66 7e3d
00000170: 9180 853d da9f 8633 696f 9f3d 1a28 8bbd
00000180: 889d 793d 4d62 ccac 9b15 231c dfe7 00b9
00000190: ca5f 41bd 631c 9abd 1006 cabd 06ba f0bd
000001a0: 40d1 b4bd dccf 00bd a6f3 cebc c795 8a1e
000001b0: 35c9 8a3d 67f5 6c1c c809 d795 f2b7 8bb4
000001c0: 95f3 173c 9cc4 ba3d 908f 6ebd 5c0a f53c
000001d0: a102 0b1b e433 933d 55ee 9ca0 8740 20bd
000001e0: 16ea c7bd 11a2 63bd c497 6d3d 5f96 9dbd
000001f0: 0b2b 56ba 27b4 43bd dc23 ccbc 9328 74bc
00000200: e158 af3d c8aa db95 71f7 0e3e 8662 933d
00000210: b37b a0bd 723d 22be 143c e5b2 4d4b c9bd
00000220: bdf0 473c befd 7b3d d213 803d 71ef a33d
00000230: 4b44 bebc 0359 1dbe 5aef 173b 990d 8e1e
00000240: 5c45 683d 9dcc d63c 70f8 2e3e 3595 18be
00000250: e2cb 9a3d e53c 29bd 97b8 9095 70ba ccbd
00000260: c3ff 223b 5175 e73c 710f 4a22 0330 0b3c
00000270: 80cd 893b c49a 1c9c c374 bbbd 4310 0dbe
00000280: ace8 8f3d 1111 993c de9d 6ba0 c6a0 bc98
00000290: d053 21bd 614f 9abd 13ee 8e3c be84 743c
000002a0: 4046 f0bc 3985 b8bc 7c4d 2cbe 39f6 373b
000002b0: afc8 d73d 3697 c1bc 292c 2221 b3ec 73bd
000002c0: 9b34 9898 9da9 2dbd 5d1a 61bd 9678 9cbd
000002d0: d9d3 06b1 19fc 623d 3c82 aa97 963d 28bd
000002e0: 3bc1 6d3d 0b79 c83d 10cc 6ebd e2c3 0f3e
000002f0: efc9 9b1e 3280 953d 05e9 1c3e f326 383e
00000300: 5c23 91bd 1eb9 10bd 4a0b c83d fd0f c83c
00000310: ed4f ce3d 2966 0c3e ef25 4330 19d9 c33c
00000320: 9789 68bc 0e77 ebbd 10c7 36bd 41c2 a43d
00000330: 829e afbd 090f aa3d 9728 a1bd f9f4 771d
00000340: abba bebb 49f3 163e 7cc1 43bd 6655 1d3e
00000350: 8657 bf3b c0e5 f7bc c921 dd3c 8b1a 793d
00000360: f4bf c8bb fc39 a8bd e1e9 c33b 62e7 23bd
00000370: 7f3c 6bbd 99a6 9db4 43da c0bc b72c 8a3d
00000380: 9586 ffbd ed56 babc a4d0 671a 613c 9eb9
00000390: 6864 d73d 72c5 8abd 7421 a83d f7d5 343c
000003a0: 78fd 173e c025 0abd 4423 253e 4fe8 1fbb
000003b0: f438 4d3d e587 98b9 2cdc 5a1c 588b eb3d
000003c0: c30e 19bd 5037 8b3d 2384 b9bd 1f6a a8bd
000003d0: 0fd2 e231 eed1 72bd 9e0e dc99 53a7 253e
000003e0: 5c54 48bc c051 963d 3cea e1bd 8a64 fcbb
000003f0: e428 ebb8 1213 abbc 524e 0b3e 9566 9cbd

bias f4 [128]
0.12304711 0.03910606 -0.0073016733 -0.018488728 -0.0062210294 0.049103048 -0.020896966 0.14684981
-0.10949321 -2.1641607e-05 -0.012767653 0.058877494 0.021722917 -0.025263617 -6.360505e-14 0.14088534
0.0616141 -0.030694993 -0.064203344 -0.09117732 -0.018818995 -0.062701285 0.027441483 -0.066347696
0.11265962 0.018649824 -0.101122305 -0.015188863 0.04846639 0.08181851 0.029585667 -0.06661512
-0.021378137 0.09207699 0.12060789 0.0461372 0.054602858 -0.14039335 -0.045211818 -0.09903728
-0.004021645 -0.043269314 -0.08804913 -0.026522834 -0.05840526 0.054635208 -0.0064082677 -0.12796879
-0.060905054 -0.024497885 -0.049712595 0.021253658 0.05547535 -0.048266742 0.068245135 -0.018828912
0.17577219 0.09160254 0.049186453 -0.021511955 0.10346048 0.06243476 -0.050906174 0.10440879
-0.15348709 -0.025103508 0.024868593 0.05571994 -0.04355172 -0.0013154472 -0.08333306 -0.048166562
-0.053727094 -0.0046073375 0.051217724 0.081343345 -0.02611756 0.1147597 0.028943578 -0.0049063205
0.11131588 0.116850235 0.18413593 0.11578701 0.06774707 -0.12254969 -0.08329279 0.053671435
0.04366713 0.16052392 0.118315 0.0761315 -0.13808556 -0.0026785824 -0.013573238 0.08780484
0.0036058612 0.0023143925 -0.02479126 -0.02453209 0.08142743 0.07737317 -0.08131382 -0.0440092
-0.011077929 -0.03464108 0.022163376 -0.097300015 0.041391198 0.038124036 -0.1532142 -0.01354802
-0.08284762 -0.013077909 0.21464443 -0.078114375 -0.092679046 0.106879935 -0.07433882 0.0992483
-0.024075193 0.047736928 -0.07783076 0.15805876 0.05152347 -0.047093738 0.05524801 0.13392471
00000000: 2000 fc3d ad2d 203d e042 efbb ac75 97bc
00000010: c7d9 cbbb 4720 493d 1d30 abbc cc5f 163e
00000020: fa3d e0bd ff8a b5b7 6b2f 51bc 8729 713d
00000030: 42f4 b13c a5f5 cebc d139 8fa9 3f44 103e
00000040: 115f 7c3d 1174 fbbc 0b7d 83bd 2dbb babd
00000050: 4b2a 9abc 8869 80bd f6cc e03c 4de1 87bd
00000060: 16ba e63d 84c7 983c 3619 cfbd b5da 78bc
00000070: b284 463d 7790 a73d a45d f23c 826d 88bd
00000080: 3421 afbc dc92 bc3d 4501 f73d 5cfa 3c3d
00000090: 3fa7 5f3d 46c3 0fbe 0730 39bd 0fd4 cabd
000000a0: 01c8 83bb 2a3b 31bd 1a53 b4bd 6a46 d9bc
000000b0: 5b3a 6fbd 2bc9 5f3d 72fc d1bb 400a 03be
000000c0: 9477 79bd caaf c8bc 6f9f 4bbd 271c ae3c
000000d0: 1f3a 633d 59b3 45bd 1bc4 8b3d 173f 9abc
000000e0: a0fd 333e 1d9a bb3d bc77 493d d739 b0bc
000000f0: 17e3 d33d 97bb 7f3d fe82 50bd 47d4 d53d
00000100: b82b 1dbe dfa5 cdbc 38b9 cb3c 983a 643d
00000110: 4a63 32bd 156b acba 86aa aabd 4d4a 45bd
00000120: f110 5cbd 26f9 96bb adc9 513d 5797 a63d
00000130: 7ef4 d5bc 2207 eb3d 151b ed3c 33c5 a0bb
00000140: 95f9 e33d 2d4f ef3d 218e 3c3e bd21 ed3d
00000150: fabe 8a3d 55fb fabd 6995 aabd 94d6 5b3d
00000160: 4edc 323d 6260 243e 224f f23d d5ea 9b3d
00000170: 4d66 0dbe 288b 2fbb 4962 5ebc 06d3 b33d
00000180: 5050 6c3b 10ad 173b 0a17 cbbc 86f7 c8bc
00000190: 6dc3 a63d d375 9e3d dc87 a6bd fe42 34bd
000001a0: 3480 35bc cee3 0dbd f88f b53c 3b45 c7bd
000001b0: d189 293d f327 1c3d 2fe4 1cbe 84f8 5dbc
000001c0: 03ac a9bd ba44 56bc c0cb 5b3e 6efa 9fbd
000001d0: 83ce bdbd dee3 da3d f43e 98bd b142 cb3d
000001e0: 5739 c5bc cc87 433d bc65 9fbd 28da 213e
000001f0: 460a 533d 5de5 40bd bd4b 623d 8f23 093e

weight f4 [64, 128]
-0.05784332 -0.025227278 -0.06386974 -0.0030838505 0.0055902638 0.0071197157 -0.05120884 -0.0059952075
0.019205762 2.3268596e-25 4.7264264e-22 0.03459277 -1.1677886e-24 -0.10429066 8.125342e-05 0.042384993
0.0046139364 0.005746943 -4.8732144e-23 -0.01742347 1.0939634e-23 -0.0041235364 0.058756433 -0.018081104
-4.270448e-26 0.073186755 -0.055891667 7.431797e-27 -0.04146457 -0.04703731 -0.025582846 0.021241996
0.045253705 0.02184235 -0.052692153 0.15305033 -0.05270204 0.048660338 0.012559143 0.017319739
-1.6970649e-22 0.025271982 -0.039472673 7.3498013e-25 0.00013163616 -0.0003252378 -3.2223923e-24 -0.06800747
0.04953811 -0.02153275 7.4516684e-25 -0.043069713 -1.0904199e-23 -0.027959103 0.053446896 0.14506851
-0.008365167 0.0310025 0.055165716 0.02887047 0.043803856 -0.058553487 -0.025042351 3.5810408e-24
-0.04183992 -0.08763098 -0.06926016 0.017925818 9.025693e-25 1.4680916e-25 -0.017763345 -0.019772537
0.013510653 -0.011378981 -0.15125845 -0.009347601 0.011090928 0.050055683 0.010074336 -0.013674821
0.06782006 -0.11670497 -0.050070934 -0.041111123 0.0041890806 -0.015843015 -0.01172438 -0.16631271
-0.09618028 0.017552914 -0.07982329 -0.0454228 0.08455119 -1.9796598e-11 1.0508411e-24 -0.013136562
0.004246741 0.005935821 -5.116028e-13 0.028600894 -0.056590203 -0.032189004 -0.015750786 -0.09066642
-0.00013203727 -0.11567904 0.00264599 -0.030939667 -0.06405218 0.023857145 0.054208983 -1.62872e-25
0.06024475 -0.014687039 0.007671063 -0.041854244 0.00089280336 -0.017227594 0.12423132 -0.008376854
0.042910513 -0.0026515047 -0.048951138 0.110231 -0.030657295 0.004432324 -0.14111729 0.050338518
-0.13127567 -0.05833116 -0.01905203 0.0022585234 0.0021268032 0.061221097 0.08787624 -0.061294086
0.1338028 5.4486645e-20 1.5262649e-23 0.043622036 -0.00015180174 -0.07239257 1.9138636e-07 -0.06400486
-0.055396397 -0.009090012 5.3361603e-08 0.07000964 -0.0029788555 -0.009378676 0.041084215 0.013102408
0.01534292 -0.002165847 -0.017861577 -5.7196465e-26 0.12846574 0.00988659 -0.027453937 0.0002709081
0.03516463 -0.10285896 0.11820388 -0.16987787 -0.07620556 0.110369235 -0.004158852 0.072856374
-3.909278e-20 -0.078036815 0.08214122 0.003146677 -0.02927245 0.008371653 -0.0008795768 0.12184739
0.13190912 0.020503528 0.025006888 0.042877797 -0.028917989 -0.037499007 0.04147733 -0.19494991
-0.0033510912 0.014600439 -0.022537276 0.020667477 0.116626345 0.037244372 0.039692245 -0.038579263
0.09881217 0.09997086 -0.08627997 -0.024123762 0.0010400371 2.555324e-25 -0.0017063415 0.097378485
0.14341456 -0.008863774 0.020107552 -0.013583425 -0.00051548175 -0.053640425 0.20119467 0.078318864
0.011611666 0.014784371 -0.112324744 -0.039389398 0.14536516 -0.034665134 -0.004040926 0.028714163
0.07518164 -0.07932255 0.07125068 0.021823553 0.034198638 -0.0141723035 1.0539239e-05 0.111865304
-0.0042935717 0.009572812 -0.00037866252 -0.023616591 0.05152955 0.096391335 0.019695899 0.043025807
-0.00981449 0.06254661 0.114142664 -0.07779419 0.03124844 0.081454776 0.072382025 0.0065812534
0.15940872 -0.014602878 0.013678223 0.008814947 -0.043706145 0.09623765 -0.019992374 -0.064965725
-0.059041332 -0.092091285 0.060671147 -0.059766036 -0.1860954 -0.02760665 0.01488224 -0.14516306
00000000: 1eed 6cbd 70a9 cebc 23ce 82bd 6d1a 4abb
00000010: 882e b73b 814c e93b 5cc0 51bd 7273 c4bb
00000020: 6755 9d3c 9006 9016 f4d8 0e1c 26b1 0d3d
00000030: dfb4 b497 5796 d5bd 9966 aa38 e39b 2d3d
00000040: 8130 973b da50 bc3b 79a7 6b9a aabb 8ebc
00000050: 729a 5319 bb1e 87bb 96aa 703d d31e 94bc
00000060: 5c76 5395 f0e2 953d a9ee 64bd b033 1314
00000070: c1d6 29bd 32aa 40bd 1e93 d1bc b203 ae3c
00000080: f35b 393d baee b23c bad3 57bd 3ab9 1c3e
00000090: 18de 57bd 1050 473d ddc4 4d3c 20e2 8d3c
000000a0: 9d29 4d9b 3007 cf3c 19ae 21bd 2077 6317
000000b0: d007 0a39 ae84 aab9 0e52 7998 8047 8bbd
000000c0: 79e8 4a3d 7365 b0bc 339e 6617 de69 30bd
000000d0: faea 5299 7d0a e5bc 22eb 5a3d d78c 143e
000000e0: 0e0e 09bc f4f8 fd3c 72f5 613d c481 ec3c
000000f0: ac6b 333d c8d5 6fbd 9e25 cdbc e988 8a18
00000100: 5660 2bbd df77 b3bd 45d8 8dbd 2ad9 923c
00000110: 74aa 8b17 aebd 3516 6f84 91bc 04fa a1bc
00000120: c95b 5d3c e86e 3abc 7fe3 1abe ae26 19bc
00000130: b9b6 353c 3007 4d3d d40e 253c 5b0c 60bc
00000140: 3ee5 8a3d 0403 efbd 2e17 4dbd 2364 28bd
00000150: 8e44 893b 36c9 81bc 9d17 40bc e14d 2abe
00000160: 2bfa c4bd 21cb 8f3c 657a a3bd 420d 3abd
00000170: 2d29 ad3d fa21 aead 1b9c a217 bc3a 57bc
00000180: 3f28 8b3b 4781 c23b de00 10ab 6c4c ea3c
00000190: 21cb 67bd 9ed8 03bd cb07 81bc 51af b9bd
000001a0: 7c73 0ab9 22e9 ecbd 5968 2d3b 2f75 fdbc
000001b0: ca2d 83bd 0f70 c33c 3d0a 5e3d 32a0 4996
000001c0: 33c3 763d e8a1 70bc 8a5d fb3b 5b6f 2bbd
000001d0: 050b 6a3a e220 8dbc fe6c fe3d 123f 09bc
000001e0: efc2 2f3d dec4 2dbb fd80 48bd cac0 e13d
000001f0: 0225 fbbc 073d 913b 0d81 10be c32f 4e3d
00000200: 216d 06be a8ec 6ebd 0113 9cbc bc03 143b
00000210: d661 0b3b f9c2 7a3d 75f8 b33d 820f 7bbd
00000220: 9a03 093e 28a7 801f 7d9c 9319 05ad 323d
00000230: f82c 1fb9 8e42 94bd e27f 4d34 fb14 83bd
00000240: 55e7 62bd 46ee 14bc b42f 6533 3761 8f3d
00000250: e738 43bb 05a9 19bc ec47 283d 7bab 563c
00000260: df60 7b3c e2f0 0dbb 7152 92bc 919c 8d95
00000270: 868c 033e 5dfb 213c 14e7 e0bc ab08 8e39
00000280: c908 103d b8a7 d2bd e014 f23d 77f4 2dbe
00000290: a911 9cbd 4409 e23d fb46 88bb b935 953d
000002a0: 459c 389f c4d1 9fbd a839 a83d 7b38 4e3b
000002b0: c7cc efbc 4229 093c 6693 66ba 208b f93d
000002c0: 2f13 073e 04f7 a73c 3fdb cc3c a1a0 2f3d
000002d0: 6be5 ecbc 8f98 19bd 22e4 293d f3a0 47be
000002e0: fb9d 5bbb ae36 6f3c 18a0 b8bc d74e a93c
000002f0: cbd9 ee3d 8e8d 183d 5694 223d 4a05 1ebd
00000300: 095e ca3d 86bd cc3d 8eb3 b0bd 329f c5bc
00000310: db51 883a ba2a 9e16 52a7 dfba 5f6e c73d
00000320: 44db 123e 5d39 11bc 98b8 a43c 048d 5ebc
00000330: 6521 07ba 10b6 5bbd fa05 4e3e a465 a03d
00000340: db3e 3e3c 253a 723c 840a e6bd c756 21bd
00000350: 9bda 143e 07fd 0dbd bf69 84bb f739 eb3c
00000360: d5f8 993d dc73 a2bd e0eb 913d 4fc7 b23c
00000370: df13 0c3d f332 68bc b0d1 3037 a319 e53d
00000380: 17b1 8cbb 49d7 1c3c 3987 c6b9 9577 c1bc
00000390: a610 533d d268 c53d 4b59 a13c d43b 303d
000003a0: f4cc 20bc 7018 803d a1c3 e93d 8f52 9fbd
000003b0: bafc ff3c c3d1 a63d 073d 943d 8ea7 d73b
000003c0: 0a3c 233e e940 6fbc a01a 603c 916c 103c
000003d0: 3705 33bd 3f18 c53d 0cc7 a3bc c00c 85bd
000003e0: 53d5 71bd 5b9a bcbd 4f82 783d 3bcd 74bd
000003f0: cb8f 3ebe 5727 e2bc a4d4 733c a0a5 14be

bias f4 [64]
-0.06606777 0.037613332 -0.0052158223 -0.04393261 4.247813e-14 -0.032530695 0.007693632 -0.06752072
-0.055496044 0.12760809 -0.011818393 -0.00023240334 -0.02459294 -0.05754956 -0.0589483 0.06300848
-0.05782093 0.06410828 -0.003140105 -0.0009424561 -0.039243028 0.087601915 -0.06960373 -0.022362953
0.06839751 0.09939919 -0.02516756 0.12046267 -0.014539438 0.031024879 0.11558536 0.0039620185
0.0771118 -0.004748458 -0.076347314 -0.021567255 -0.054476924 0.09419681 -0.0026625446 -0.07315392
1.3686525e-21 -7.302127e-05 0.030922543 0.17420162 -0.007824137 -0.016947027 -0.041050777 0.01038411
-0.048879385 2.2895607e-18 -0.03495061 -0.017834418 0.007627013 0.0421039 -0.0016371753 0.049672417
0.055290047 -0.043185208 -0.0030802884 0.05703513 0.009991404 0.044548403 -0.009677343 -0.019738695
00000000: 8a4e 87bd 7010 1a3d 7de9 aabb aef2 33bd
00000010: f34d 3f29 e83e 05bd dd1a fc3b 4e48 8abd
00000020: d24f 63bd b2ab 023e efa1 41bc 4cb1 73b9
00000030: 2277 c9bc 16b9 6bbd c673 71bd 970a 813d
00000040: a4d5 6cbd 344b 833d 38ca 4dbb 290f 77ba
00000050: 4cbd 20bd a268 b33d 678c 8ebd 8332 b7bc
00000060: fe13 8c3d cd91 cb3d 332c cebc 22b5 f63d
00000070: d336 6ebc e327 fe3c 04b8 ec3d d2d3 813b
00000080: cbec 9d3d f498 9bbb fb5b 9cbd d0ad b0bc
00000090: 3223 5fbd 42ea c03d 167e 2ebb b9d1 95bd
000000a0: 2ed3 ce1c ff22 99b8 4651 fd3c e961 323e
000000b0: cf30 00bc 7ed4 8abc dc24 28bd 1d22 2a3c
000000c0: c035 48bd 94f0 2822 5f28 0fbd 7c19 92bc
000000d0: 06ec f93b 2475 2c3d 7d96 d6ba 4e75 4b3d
000000e0: d177 623d f9e2 30bd aade 49bb ab9d 693d
000000f0: fcb2 233c 6378 363d b88d 1ebc 0bb3 a1bc

weight f4 [10, 64]
-0.008021029 -0.0977858 -2.6868224e-22 -0.0005336329 1.6952189e-22 0.010000599 0.005488676 0.17842957
0.041233912 0.14225133 -0.088857025 0.0047426717 0.026742708 0.15622357 9.575263e-06 -0.08192301
-0.026478859 1.2060733e-08 0.007793231 2.512769e-20 0.09419608 0.122622326 -0.15268731 0.006095489
-0.23369774 -0.1794364 0.006516516 0.10467346 0.008928174 0.054552168 -0.03485113 -0.031565864
-0.19846015 -1.2439355e-10 -0.045719173 0.019695736 -0.0016283339 -0.16743018 0.043414954 0.10540615
-2.184438e-22 1.5307976e-20 -0.0427599 -0.052881796 9.657568e-24 -0.10067821 0.0022373134 -0.06212687
0.011629656 -4.352662e-24 -0.0625989 -0.002213363 -0.14147502 0.15013692 -2.6926747e-09 0.085672714
-0.094312795 -0.021303955 0.019553974 -0.05582912 -0.063620225 0.052692086 0.025515944 -0.01478416
-0.045811564 -0.21681105 2.801517e-14 0.0072333394 -7.9964204e-21 0.01918134 -0.0028535854 -0.13299741
-0.17431477 -0.056834713 0.04837877 -0.005235631 0.09445272 -0.13899323 0.0004600288 0.19719557
-0.017262446 -0.059196893 -0.0046827598 -1.5691699e-20 -0.16398036 0.013031537 0.121600345 0.0028683078
0.014423313 0.077869885 0.056393676 0.035792828 0.022340016 -0.020504992 -0.052722104 0.0887954
0.091150604 -8.084508e-12 -0.041860897 0.03813687 -0.1112849 -0.060934182 -0.03782392 -0.1102013
-1.2533699e-21 -2.2055495e-23 0.08530749 0.12737077 -6.669041e-24 -0.13051495 -0.059494622 -0.08682739
0.037624385 -6.0862095e-20 0.14112815 1.0558722e-20 -0.3165877 -0.23594186 -3.814446e-14 0.09238706
0.07473126 -0.0009105652 -0.13315988 0.1551913 0.076201044 0.068193816 -0.046681266 -0.04484044
-0.0033087542 -0.05364244 -1.6185274e-24 0.0062351944 2.0737547e-19 0.01308684 -0.049041707 -0.04103935
-0.02827163 0.012715728 -0.15505959 0.013704694 -0.10047261 -0.07489016 0.004780547 -0.020450681
0.061929855 -0.0019282182 -0.025060242 -2.2791786e-19 -0.06679096 0.102572896 -0.0777947 -0.021048553
0.032494135 -0.11008234 0.11078535 -0.16722117 0.024927955 0.0641521 0.046071988 0.08019545
0.07309583 -1.950944e-11 -0.18890531 -0.04474229 -0.009218771 0.066081166 0.0028573992 -0.07449373
4.5623644e-23 -1.803168e-21 0.11201321 0.02870509 3.787795e-24 -0.1878658 -0.062237892 -0.09218482
0.034448396 1.9946777e-23 0.07123777 0.00504997 0.0050670602 -0.23365253 4.846614e-10 -0.18246703
-0.08450127 -0.011403526 0.0977209 0.046214193 -0.016229147 0.06663215 0.02816272 -0.011659903
-0.10256466 0.045099072 2.6916716e-18 8.5965655e-07 -6.6247942e-21 -0.009643819 0.07481185 0.10678194
0.066959836 -0.08513001 0.11877049 -0.008373274 0.034543958 0.018803153 0.00043521504 0.048023473
0.08532497 -5.0361595e-26 0.0007531507 -3.752844e-23 0.049673803 -0.10223841 0.038395565 -0.0016761156
-0.055377122 0.05770457 0.10129966 0.07368125 0.044457626 -0.17459397 0.07826296 -0.009772059
-0.03327886 -3.3084507e-11 -0.239844 0.09133252 0.031393155 -0.14924628 -0.071753584 0.070486136
-5.0093834e-22 -1.0376844e-23 -0.026272897 -0.09452786 2.5508363e-08 -0.14182894 0.017765747 -0.104283914
0.014743272 -4.0815048e-24 0.12066076 -2.5952508e-14 -0.12767568 -0.13388066 -3.1676017e-10 0.07309669
-0.056969147 0.0012119851 -0.012072471 -0.04929464 -0.09949749 0.09020242 -0.037799038 0.046978652
00000000: a26a 03bc ec43 c8bd 9068 a29b 7fe3 0bba
00000010: 7cf0 4c1b 8dd9 233c 5ada b33b 3eb6 363e
00000020: e4e4 283d 55aa 113e acfa b5bd 6a68 9b3b
00000030: 8613 db3c 12f9 1f3e 71a5 2037 40c7 a7bd
00000040: 31ea d8bc aa33 4f32 5c5e ff3b 0753 ed1e
00000050: e0e9 c03d 6a21 fb3d 105a 1cbe abbc c73b
00000060: 764e 6fbe 2dbe 37be 8088 d53b 0a5f d63d
00000070: 7a47 123c 1872 5f3d 0fc0 0ebd 354b 01bd
00000080: 2339 4bbe acc5 08af 0744 3bbd f458 a13c
00000090: d26d d5ba d172 2bbe e1d3 313d 2edf d73d
000000a0: 8a0a 849b 6a94 901e 0125 2fbd 959a 58bd
000000b0: f6cd 3a19 6130 cebd e49f 123b bf78 7ebd
000000c0: 508a 3e3c ad62 a898 da33 80bd 120e 11bb
000000d0: d4de 10be 7ebd 193e 090a 39b1 2d75 af3d
000000e0: 1127 c1bd a285 aebc a82f a03c 13ad 64bd
000000f0: 524b 82bd a8d3 573d d006 d13c 4339 72bc
00000100: e8a4 3bbd b703 5ebe 9556 fc28 a605 ed3b
00000110: 510c 179e 2f22 9d3c 3803 3bbb 7930 08be
00000120: 927f 32be 84cb 68bd d128 463d a88f abbb
00000130: 6d70 c13d 3e54 0ebe 0530 f139 a3ed 493e
00000140: f969 8dbc 7178 72bd d671 99bb 3334 949e
00000150: 78ea 27be 3a82 553c 9a09 f93d 38fa 3b3b
00000160: c24f 6c3c 3f7a 9f3d 0efd 663d 809b 123d
00000170: 6902 b73c 16fa a7bc 22f3 57bd 5dda b53d
00000180: 2bad ba3d 6339 0ead 5576 2bbd 6835 1c3d
00000190: 56e9 e3bd 1f96 79bd 41ed 1abd 38b1 e1bd
000001a0: 6667 bd9c c34e d599 b1b5 ae3d 7c6d 023e
000001b0: 7eff 0099 b6a5 05be a2b0 73bd 8fd2 b1bd
000001c0: 071c 1a3d e1b4 8f9f e683 103e d972 471e
000001d0: c817 a2be be9a 71be 91c9 2ba9 6d35 bd3d
000001e0: b40c 993d ffb2 6eba 105b 08be 78ea 1e3e
000001f0: 4b0f 9c3d 33a9 8b3d db34 3fbd 9caa 37bd
00000200: afd7 58bb 2db8 5bbd 7a74 fa97 9a50 cc3b
00000210: 64d3 7420 2f6a 563c f5df 48bd e118 28bd
00000220: e899 e7bc a155 503c f1c7 1ebe a789 603c
00000230: 95c4 cdbd 0360 99bd 23a6 9c3b 3088 a7bc
00000240: 29aa 7d3d 44bc fcba 234b cdbc f989 86a0
00000250: b3c9 88bd bd11 d23d d452 9fbd 046e acbc
00000260: 9218 053d da72 e1bd 6ee3 e23d 073c 2bbe
00000270: b635 cc3c 2d62 833d fbb5 3c3d 833d a43d
00000280: 44b3 953d 5a9b abad 6570 41be b143 37bd
00000290: 540a 17bc 9055 873d 3443 3b3b 2b90 98bd
000002a0: 569f 5c1a 573e 089d 2f67 e53d f026 eb3c
000002b0: 8188 9218 e45f 40be 29ed 7ebd 65cb bcbd
000002c0: c319 0d3d d4e9 c019 1ce5 913d 387a a53b
000002d0: 9509 a63b 9c42 6fbe 0439 0530 a3d8 3abe
000002e0: 000f adbd dbd5 3abc e521 c83d 184b 3d3d
000002f0: fdf2 84bc 7076 883d 81b5 e63c 2e09 3fbc
00000300: 6c0d d2bd ceb9 383d 3d9c 4622 26c3 6635
00000310: 1447 fa9d 1c01 1ebc f536 993d 7db0 da3d
00000320: 3d22 893d a558 aebd f13d f33d 0e30 09bc
00000330: f77d 0d3d 1209 9a3c 932d e439 43b4 443d
00000340: dcbe ae3d e860 7995 176f 453a f579 359a
00000350: c276 4b3d 5f62 d1bd ab44 1d3d 1bb1 dbba
00000360: 1fd3 62bd a15b 6c3d 3276 cf3d 32e6 963d
00000370: 3319 363d c3c8 32be 5548 a03d fc1a 20bc
00000380: 6a4f 08bd d881 11ae aa99 75be 8b0c bb3d
00000390: 1c96 003d 04d4 18be 8bf3 92bd 095b 903d
000003a0: 3a66 179c a5b7 4899 423a d7bc d397 c1bd
000003b0: 7c1d db32 9b3b 11be 7989 913c ce92 d5bd
000003c0: c48d 713c 44e5 9d98 fd1c f73d 69c2 e9a8
000003d0: 6abd 02be 0318 09be 0824 aeaf b8b3 953d
000003e0: 7b58 69bd 79db 9e3a 9dcb 45bc 2de9 49bd
000003f0: 57c5 cbbd 0cbc b83d 2ad3 1abd b06c 403d

bias f4 [10]
0.11722636 -0.083785966 0.012106653 -0.06402619 -0.17789152 -0.018353075 -0.0014309905 0.026726816
-0.078439556 -0.094348125
00000000: 6014 f03d fa97 abbd fc5a 463c 2a20 83bd
00000010: 3229 36be 3059 96bc 1390 bbba 32f2 da3c
00000020: eba4 a0bd 9739 c1bd
