2-hypertuning-mlflow/mlruns/2/896b78b12f8145ad949af75c6064bbcc/artifacts/pytorch_models/20250921-1131model.pt (torch, 96069 bytes, 12 tensors)

weight f4 [32, 1, 2, 2]
000000 53 99 d4 3e 92 90 96 3e 06 e6 84 3e 10 89 51 be
       0.41523227 0.29407173 0.25956744 -0.20462441
000010 84 12 b9 be aa 59 41 be 0a e2 c4 be 35 fd d0 be
       -0.3614694 -0.1888186 -0.38453704 -0.40818182
000020 5b 96 d8 bd 81 ee 14 3f 54 c3 99 be 98 c4 06 3f
       -0.10575553 0.5817643 -0.30031836 0.5264373
000030 fb 1c 5d bd 68 35 e1 3e 87 d7 0c 3f 56 b2 12 3f
       -0.053982716 0.43986058 0.5501637 0.5730337
000040 fa 01 04 3f ff f7 10 3f e9 85 75 3e d2 99 e6 3e
       0.51565516 0.5662841 0.23976864 0.4503923
000050 81 97 8d be 19 68 ca 3d 9a d5 05 3f 32 65 06 3f
       -0.2765465 0.09883136 0.52279055 0.5249816
000060 33 54 96 97 21 13 61 b9 e8 d1 92 b5 aa fb 1c 19
       -9.714778e-25 -0.00021464798 -1.0938938e-06 8.115834e-24
000070 f4 87 21 bf 43 ce 28 bf 17 fd c5 be b5 42 4a 3e
       -0.63098073 -0.6593973 -0.38669655 0.19752009
000080 20 68 32 ba 5e 85 56 b6 99 c5 48 bb e9 ce b0 bb
       -0.0006805677 -3.1966115e-06 -0.0030635356 -0.0053957594
000090 fe 0f 1b 3f 26 40 eb 3e 2c e2 f1 bd 9b 1f 0a 3f
       0.6057128 0.4594738 -0.11810717 0.53954476
0000a0 37 18 b4 3e 3d cb 7c be 15 f9 bd 3e 3c c0 95 3e
       0.35174724 -0.24686904 0.37104097 0.29248226
0000b0 2f 8f 8a b8 62 76 16 ba 2b b4 ad 15 ab 83 2a b9
       -6.607023e-05 -0.00057396863 7.01584e-26 -0.00016261514
0000c0 e4 af e9 bd e6 fc 4b bf de e5 85 bc b2 89 26 bf
       -0.114105016 -0.7968277 -0.01634496 -0.65053856
0000d0 98 40 f1 9c ad 6c cb 15 70 2f 14 96 c9 a2 00 b8
       -1.5964739e-21 8.216251e-26 -1.1970313e-25 -3.0669184e-05
0000e0 5b a2 51 3e 4c 30 43 bf 5e 32 25 bf ef 86 c2 be
       0.2047209 -0.7624557 -0.6452998 -0.3799357
0000f0 90 ec 23 bf 94 9e ce be 13 ec b7 be e5 4e cc 3e
       -0.6403284 -0.4035536 -0.35922298 0.39903942
000100 c3 a0 86 be 4c ec ab bd 47 34 a9 3e fa 19 8e 3e
       -0.26294526 -0.083946794 0.33047697 0.27754194
000110 47 aa 1f 3d c5 ca 33 3e 88 1a 17 be f9 2d 9e 3e
       0.03898075 0.17557819 -0.14756215 0.3089445
000120 70 3d 0a 3f a1 84 cd be dd e0 00 3e 24 e5 7d be
       0.53999996 -0.4014025 0.12585779 -0.24794441
000130 d9 f4 cb 3e af a0 09 3f e5 39 46 3e ef 88 ab 3e
       0.3983524 0.5376081 0.19358023 0.3350291
000140 bf 0c 71 be 70 b2 a9 bd 40 2a 15 3f ea a8 b6 3d
       -0.23540018 -0.082859874 0.58267593 0.089189366
000150 4c 5d f6 bc f7 6b 05 3f 7b 9b b4 be 40 58 f2 3d
       -0.030073784 0.52117866 -0.35274872 0.118332386
000160 4d 57 9c be 51 c9 32 3e 86 4a 48 bf 45 e2 d0 be
       -0.30535355 0.17459609 -0.78238714 -0.4079763
000170 98 59 e1 3e f8 ab 6a bd 21 a7 0d 3f e5 c5 d5 bc
       0.44013667 -0.05729291 0.55333143 -0.02609534
000180 8b a6 25 3e c2 ac 0a 3f 50 69 b7 3e 96 bd 5c bd
       0.16176812 0.5416986 0.35822535 -0.05389174
000190 e4 ed f3 3d 1d 4f d9 bd 0b 7b 25 3f 8d f4 df 3e
       0.119106084 -0.10610793 0.64640874 0.43741265
0001a0 1e 12 86 3d c6 30 cb 3e cd 4b 05 3e ab 65 c0 3e
       0.06546424 0.3968565 0.13017197 0.37577567
0001b0 9d 99 1f 3f 76 9b f2 3e d1 23 aa be 92 bc 94 3e
       0.6234377 0.47384232 -0.3323045 0.29050118
0001c0 bc d5 8c b6 7c 44 d4 b4 03 31 c3 bb 9d bf 02 a6
       -4.197207e-06 -3.9537906e-07 -0.0059567704 -4.5362495e-16
0001d0 34 85 16 3e 2d 8c 4e 3e 37 37 2e bf 31 94 3b bf
       0.1469925 0.2017066 -0.68053 -0.73273
0001e0 ce 8c ca b6 44 f8 32 bb 36 7a 29 bc 12 ed 10 bb
       -6.036461e-06 -0.0027308622 -0.010344079 -0.0022113961
0001f0 1f bb ad be 3a fb 96 be 55 1d 00 3f b8 82 0e 3f
       -0.33931825 -0.29488546 0.5004476 0.5566821

bias f4 [32]
000000 a6 57 c6 bb 70 b7 3d 3e 49 f3 6f 3e 64 cf 97 3e
       -0.006052929 0.18527007 0.2343265 0.29650414
000010 1b 7d 2d be db 88 09 bd ed d8 8f bb 3e 20 24 3e
       -0.16942255 -0.03357778 -0.0043898732 0.16027924
000020 0b ad 51 b6 6d 42 52 3c 4b fb df 3e d4 35 d6 b9
       -3.1244151e-06 0.01283322 0.4374641 -0.00040857366
000030 df c3 99 3e df fd b8 b4 62 b1 47 3e d1 8c dd 3d
       0.3003225 -3.4457386e-07 0.1950126 0.10817874
000040 37 89 f8 3e 52 be c0 3e ad d0 9b bc 53 dc a8 be
       0.48542187 0.37645203 -0.019020403 -0.32980594
000050 f4 e5 f2 bd 75 8f 1c be 0a 32 4c 3e 94 f3 e8 bb
       -0.11860266 -0.152891 0.19940963 -0.007109115
000060 2f 0b cc 3e 56 69 e5 3d 7c 04 dd 3d 0c de f4 3d
       0.39852282 0.11201732 0.10791871 0.119564146
000070 a7 f8 43 b9 03 83 70 3e c7 61 c5 b4 3c fe 95 bd
       -0.0001868928 0.23487477 -3.6765252e-07 -0.07323882

weight f4 [32, 32, 2, 2]
000000 e8 b9 12 be f2 3c 8b 3c a2 99 76 3b 53 7a 39 3c
       -0.1432873 0.016996834 0.0037628193 0.011320668
000010 25 5d f5 3d b0 a7 2f 3d b6 7f 86 bb b3 3e 48 3d
       0.119806565 0.04288453 -0.00410458 0.04888792
000020 40 4e 96 3c 66 35 11 3d 19 e2 3d 3c 88 1b 14 3a
       0.01834786 0.035451315 0.01158955 0.00056498544
000030 da 46 f9 bc 49 5b ef 3c 66 be 39 3d 4b 55 82 3d
       -0.030429292 0.029218333 0.045347594 0.063639246
000040 54 cc ee bc d3 e0 8c bd ef 7a cf 3c d4 d6 d5 bb
       -0.029150166 -0.06878819 0.025327174 -0.0065258536
000050 31 bf 8f 3d 60 ee 82 bb 1b af dd 3d 95 29 ca 3d
       0.07018889 -0.0039957017 0.10824414 0.098712124
000060 88 7c 15 94 18 25 ca 16 d0 d0 8d 19 b4 15 8a 15
       -7.547137e-27 3.265827e-25 1.4663397e-23 5.5772e-26
000070 ca 78 31 3e 20 43 4b 3d 48 c9 01 3e 73 b6 e9 3d
       0.17331234 0.049624562 0.12674439 0.114117526
000080 d1 71 cd 15 cd ef a0 15 3c 1b 30 1b 92 b6 09 98
       8.297841e-26 6.5001824e-26 1.4567179e-22 -1.779901e-24
000090 4c 08 dd bd 2a 91 d0 3c 88 75 bf 3d f3 3b 74 3c
       -0.10792598 0.025459845 0.09348589 0.014906871
0000a0 ea ee 84 3d f6 c0 40 3c 2b 14 46 bd fe 32 9b 3d
       0.06490882 0.0117647555 -0.048359077 0.07578085
0000b0 e8 7f cb 14 ce 7c 5b 17 19 37 cf 96 2f 9a 23 1a
       2.0548212e-26 7.092024e-25 -3.3477425e-25 3.383216e-23
0000c0 37 37 85 3d a7 81 ad 3b a2 8c 45 bc 86 c1 ad bd
       0.06504672 0.005294997 -0.012057455 -0.08484177
0000d0 44 82 cb 99 6f af 23 17 9e 7a 57 1b 1e 46 e1 15
       -2.1042322e-23 5.288957e-25 1.7824003e-22 9.09874e-26
0000e0 76 0b 6c 3d ed fb 6d 3d 81 e1 ba 3b 98 d5 2b 3d
       0.057628118 0.058101583 0.0057031517 0.041951746
0000f0 91 90 15 3e 37 69 3b 3e b8 03 a0 3d 5e 25 84 3d
       0.14605929 0.18301855 0.07813209 0.0645244
000100 0b 59 60 3c 0b d5 cc 3d aa 3c b8 3c 2f 92 5f 38
       0.0136931045 0.10001572 0.022489864 5.3303487e-05
000110 cf 81 2a 3d e8 97 7d bd a2 df c2 3d fb fa 5d 3c
       0.0416277 -0.061912447 0.09515311 0.013548608
000120 b3 96 f8 bd 96 dd 95 be 89 d7 83 bd 86 40 c4 bd
       -0.121381186 -0.2927062 -0.064375944 -0.09582619
000130 7c a3 c9 bd a3 b4 72 bd 52 a5 42 bb c2 29 53 bc
       -0.09845635 -0.0592543 -0.002970059 -0.012888374
000140 82 71 3e 3d 00 4b b2 3b 56 00 56 3e 8c 1f b1 3d
       0.04649497 0.0054410696 0.20898566 0.08648595
000150 36 7c c8 3a 7b 25 eb bd 3c 33 d6 bd c8 91 fa bd
       0.0015295807 -0.11481758 -0.10458991 -0.12234837
000160 a5 34 c3 3d 6b 08 6b 3d b4 0c 5d bd 36 2d a7 bd
       0.095315255 0.057381075 -0.053967193 -0.0816292
000170 b4 7d 28 be 06 62 1c 3c b6 c3 e3 3d 9d 72 55 38
       -0.16454202 0.009544855 0.11121313 5.08899e-05
000180 5b da 21 3d 60 85 45 bc 79 77 12 3d 11 a9 73 3c
       0.03951488 -0.012055725 0.03575847 0.014871852
000190 c0 86 e3 3b 05 85 cb b9 cf 5a e8 3d 69 11 00 bd
       0.0069435537 -0.00038818285 0.11345445 -0.031266604
0001a0 8d c3 8d bc 1f f2 89 3d a8 2b f0 3d a0 6f 2c bc
       -0.01730516 0.06735634 0.11727077 -0.01052466
0001b0 87 b9 9e bd 1d e7 a5 bd 9d f3 08 3d 9a 38 96 3d
       -0.0775023 -0.08100722 0.033435453 0.07335015
0001c0 8b 10 8f 97 86 9d 1a 99 08 4a d7 9a d7 27 84 13
       -9.245334e-25 -7.993425e-24 -8.904152e-23 3.336077e-27
0001d0 b2 e6 2e 3c 0a f5 6e 3d cf 3f 8d bd c0 e0 56 bc
       0.010675119 0.058339156 -0.06896936 -0.013115108
0001e0 ce 29 8b 94 a1 93 77 96 8d 73 93 93 30 53 d8 17
       -1.4051902e-26 -1.9999085e-25 -3.722196e-27 1.3979672e-24
0001f0 41 f2 5f 3d 61 8f 56 3c 0c 46 e7 3d e2 8d be 3d
       0.05467439 0.013095708 0.11292657 0.09304406
000200 04 a3 25 be b0 9e 34 be c6 05 05 3e b7 49 ef 3c
       -0.16175467 -0.1763866 0.12990484 0.029209955
000210 24 28 ff 3c 9e 7d 89 3d 71 95 2c be 3b c1 85 3c
       0.03114707 0.06713413 -0.16853882 0.016327491
000220 a8 48 b1 bc 7f 8a bf bd bc 3a 37 3c a0 92 49 bc
       -0.02164109 -0.09352588 0.011183437 -0.0123030245
000230 7f c1 b0 bd 8f 0e df bd bc a6 ef 3d e3 ea 87 3d
       -0.086306565 -0.10891449 0.11701724 0.06636598
000240 a5 cb 03 be 8e a6 52 be 22 22 19 3e cd 7f ec 3d
       -0.12870653 -0.20571348 0.14954427 0.115478136
000250 18 5a 16 3d 97 ca c3 bd 05 3b 22 3e e9 78 69 3d
       0.036707014 -0.09560125 0.15842827 0.057000075
000260 fb 55 63 1a 08 8d 7e 1a 39 7f 02 17 74 72 94 17
       4.7011954e-23 5.2639893e-23 4.2165843e-25 9.593168e-25
000270 07 82 9c 3d 63 9f 3d 3d da fa 55 be 42 4a 16 bd
       0.07641988 0.04629458 -0.20896474 -0.03669191
000280 f5 ba 54 96 2a e9 9b 9a 0a c4 d8 94 cf 1f 1b 19
       -1.7184217e-25 -6.4483194e-23 -2.188775e-26 8.019736e-24
000290 ba 07 d3 bd 47 1f 6e be 98 72 79 3d 23 c6 78 3d
       -0.10304208 -0.23254119 0.0609003 0.060735833
0002a0 52 62 14 bd 80 4c 74 bd ad 6c ff bc 64 dd 91 3d
       -0.036226578 -0.05964327 -0.03117975 0.07122305
0002b0 3f 8b 42 97 51 02 1f 17 61 23 be 17 60 08 ee 97
       -6.2860534e-25 5.1378595e-25 1.2287393e-24 -1.5382504e-24
0002c0 d2 24 c7 3d dd c3 15 3d 4e 1b f0 bd bb 11 2d 3d
       0.0972382 0.036563743 -0.11723958 0.042253237
0002d0 03 77 53 96 16 bb 73 97 cc fc 02 19 b2 c7 c7 9a
       -1.7081998e-25 -7.875367e-25 6.7718944e-24 -8.2627096e-23
0002e0 2f 32 28 3d d2 f9 d1 3d 52 d0 41 be 85 11 59 3c
       0.041063484 0.102527276 -0.18927124 0.013248806
0002f0 b8 50 65 3d 0f e4 7f bd 1c 37 fe bd fe 92 85 ba
       0.055985183 -0.062473353 -0.12412855 -0.0010190902
000300 8a 1e f4 bc d9 0d 80 bd fc 07 dd 3d bd 82 d8 3d
       -0.029799718 -0.06252641 0.107925385 0.10571811
000310 d4 d9 e3 3c e9 1a a8 bd a9 78 36 3d a8 a4 3d bd
       0.02781383 -0.08208258 0.044548664 -0.046299607
000320 f8 35 60 be 96 23 92 3b 8e 26 69 bd 86 c0 ce bc
       -0.21895587 0.0044598086 -0.056921534 -0.025238287
000330 ea dd 33 be 9f 80 82 be 7b 1a 26 3e a4 10 4f 3d
       -0.17565122 -0.25488755 0.16221039 0.05055298
000340 c8 03 e8 3d 65 a5 55 3d 5f 5b 3e 3e 2c fa 01 3e
       0.11328846 0.052159686 0.18589543 0.12693089
000350 44 f0 a9 bd 52 6b dd bd 02 1b f9 3d 40 f0 ae 3a
       -0.0829778 -0.10811485 0.121633545 0.0013346747
000360 a9 5e e6 3c b4 46 5c 3d 5c 40 3c be bd b3 6d 3c
       0.02812131 0.053778365 -0.18383926 0.014508185
000370 8c 21 9c bd 53 9e ac bd 8c ee 53 3d fd 9d 4b 3d
       -0.07623586 -0.084286354 0.051741168 0.049711216
000380 db d2 d8 bd 00 1e 84 bd 9f 1d d6 3d f6 4b 2c bd
       -0.105870925 -0.064510345 0.104548685 -0.04206463
000390 c7 b3 a6 bc 91 c3 98 bd ae ef 0c 3e 34 7e 87 3d
       -0.020349396 -0.07459176 0.13763306 0.06615868
0003a0 e2 db ef bc 64 b7 cb bd 2e aa f1 3d 7e a0 b2 3d
       -0.029279653 -0.09947088 0.11800037 0.08722018
0003b0 4f 2b fb bd ba 8b e7 bd ef 43 ca 3d 4b 8d 4a bc
       -0.1226412 -0.113059476 0.098762386 -0.012362788
0003c0 a9 86 6c 19 a4 59 9a 97 5b d7 83 95 89 2e 56 19
       1.22281084e-23 -9.974645e-25 -5.325025e-26 1.1072938e-23
0003d0 56 3c 64 3c eb ac 7e 3d b9 b5 a4 bd bc 97 3f bd
       0.013930401 0.062176626 -0.08042473 -0.046775565
0003e0 e0 6a 14 97 eb 75 15 96 e7 27 a2 19 eb e8 58 16
       -4.7956274e-25 -1.2073332e-25 1.6766524e-23 1.7521837e-25
0003f0 3c 93 11 3e 1b a6 bb bc 90 97 55 3e df 31 05 3e
       0.14216322 -0.022906354 0.20858598 0.13007306

bias f4 [32]
000000 37 7c 1d 3d a8 46 bf 3c 92 24 b7 3d 1f 3f 8f bc
       0.03844854 0.023349121 0.08942522 -0.017486153
000010 48 fc 41 bd d4 21 c3 bc d5 aa 2a bd 65 e6 ca bc
       -0.047359735 -0.023819841 -0.041666824 -0.024768064
000020 bf a3 58 3c 2d 9c 28 3d 9b c4 4e 3d 1c 80 b5 3d
       0.013222634 0.041164566 0.050480466 0.088623255
000030 78 36 15 bd 42 1e bc 3d c8 d1 19 bc c9 8b ed 3d
       -0.0364289 0.09185459 -0.009388395 0.115989275
000040 de 91 e9 3d e4 96 e7 3d 52 7d 93 ab ca b0 e0 3d
       0.11404775 0.11308077 -1.0479762e-12 0.1097122
000050 9b 7e 3f 3d b5 ca cc 3d de a3 71 bd 5a 7e dd 3a
       0.0467516 0.09999601 -0.058994167 0.0016898618
000060 97 de b0 3d 81 9c 59 3d d4 3f 3d ba c1 38 95 bc
       0.08636206 0.05312777 -0.0007219289 -0.018215539
000070 f1 14 a9 3d b4 45 bb 3d cc 3d cb 3c f9 f6 85 3c
       0.082559474 0.09144154 0.02480974 0.016353117

weight f4 [32, 32, 2, 2]
000000 6a fc 25 3a 47 1a cc bd 6f c3 d8 3d 97 87 22 bd
       0.0006331863 -0.099659495 0.10584151 -0.03968009
000010 51 f1 bd ba b9 80 a6 3d 5a 6b 8a 3e b6 78 4e 3e
       -0.0014491474 0.08130021 0.27035028 0.20163235
000020 94 94 70 3c 54 6f 24 be c3 fb 6e 3d 66 fc 84 bd
       0.014683861 -0.16058093 0.058345567 -0.06493454
000030 fd 36 90 bd fb 08 eb 3c ff 81 a0 3c 4c 7a 6b bc
       -0.07041738 0.028690806 0.019593237 -0.01437242
000040 52 69 fa ba 1f b3 7b bd 43 bb 7d bd d4 6b 84 bd
       -0.0019104874 -0.06145012 -0.061946165 -0.06465879
000050 58 93 cb bd 9a 4d 1b be 8e bc ce 3d f2 10 89 3c
       -0.09940213 -0.15166321 0.10094558 0.016731713
000060 d6 7c 9b 3d d6 11 9d bd 3c 32 18 3d 46 ac 03 be
       0.0759217 -0.076694176 0.037157282 -0.12858686
000070 91 72 bb bd 20 f1 e7 bd 1c 01 db 3c d4 f7 26 3c
       -0.09152711 -0.11325288 0.026733927 0.010190923
000080 3c 7a e5 bd 1e 07 d3 3d f2 26 8a be c1 33 7a 3d
       -0.11204955 0.10304092 -0.26982838 0.061084513
000090 40 98 a0 bd 34 f6 85 bb 0a b2 7b 3d 81 82 e2 3d
       -0.078415394 -0.0040881876 0.06144909 0.11060048
0000a0 d9 63 be bd 0f f0 ff bd c0 a0 47 bd 5d d4 c9 bd
       -0.09296388 -0.124969594 -0.048737288 -0.09854958
0000b0 bd 9d 07 3e 78 55 04 be db ba 15 3e f9 21 6c be
       0.13243766 -0.12923229 0.14622061 -0.23059835
0000c0 d5 20 b4 bc 1d 14 2c 3d 8e 8a d0 bd 3b df dd bd
       -0.021988312 0.04201137 -0.10182677 -0.108335935
0000d0 75 f4 c4 3c 73 89 07 be 97 47 f8 3d d1 90 17 3d
       0.024042347 -0.13236026 0.1212303 0.037003342
0000e0 45 b9 1d bc f4 fa 64 3d 32 36 44 3d e5 bd c0 3c
       -0.009626691 0.05590339 0.047903247 0.023528049
0000f0 39 9c 3c 3d 79 9f 8c bd e1 81 2c 3e 94 9e 37 bd
       0.046047423 -0.068663545 0.1684642 -0.044828966
000100 85 46 58 3c a6 7d d2 bd 6c 7f c6 b9 5b af aa bd
       0.013200407 -0.10277872 -0.0003786044 -0.08334228
000110 f2 86 06 ba 1a d2 f5 3c 08 b2 63 be 0b de 94 3c
       -0.0005131803 0.03000741 -0.22235882 0.018172285
000120 92 5a 48 17 23 40 ad 18 d1 7a 04 1b a8 f1 43 19
       6.47378e-25 4.4784213e-24 1.0958468e-22 1.0130066e-23
000130 01 ad 25 bd 66 ce 07 be d4 bf ce 3d 7c 60 4b bc
       -0.040448193 -0.13262329 0.10095182 -0.01241314
000140 41 40 a6 3d 9c 6a 8f bd f9 eb 2c 3d 06 ec 14 be
       0.08117724 -0.07002756 0.04221723 -0.14543161
000150 b9 ca 05 3e d3 a6 00 be 30 e6 b2 bb 97 4a 3f be
       0.13065614 -0.12563638 -0.0054595694 -0.18680798
000160 5d 2a 30 bd 30 90 10 bb 2d 03 54 3c e6 df af bc
       -0.04300915 -0.0022058599 0.01294021 -0.021469068
000170 d0 05 e6 bc 2b 7f b0 39 02 ea a4 bb b0 73 17 bc
       -0.028078943 0.00033664083 -0.0050327787 -0.009243891
000180 6d ec a5 bc 32 85 70 3c 9e b7 13 3e 97 92 25 3d
       -0.020254338 0.014680194 0.14425513 0.040423002
000190 a8 84 6c 3d ee 4b a3 bd 5b c1 cd 3d 94 58 c3 bd
       0.0577437 -0.07973467 0.10046645 -0.09538379
0001a0 7d c4 a9 30 a5 f0 4e 24 5f d0 17 a8 3a f3 5b 9e
       1.2352214e-09 4.4872963e-17 -8.427367e-15 -1.16440615e-20
0001b0 cf 14 66 3d c8 32 8b bd eb d4 ea 3b 8b 0a 36 3d
       0.05617219 -0.06796795 0.007166495 0.04444365
0001c0 c7 9c bc 3c 06 4a 02 be 5b 71 41 bc 9b 42 a7 bc
       0.023023976 -0.1272355 -0.011806811 -0.020417502
0001d0 6b 88 02 3d d5 2b 3b bd 36 21 d6 3d 23 0b 84 bd
       0.03186838 -0.0456961 0.10455553 -0.06447437
0001e0 99 d2 12 bd c8 6e 69 3d e8 3c 93 3d 60 8c 10 bd
       -0.035845373 0.056990415 0.07189351 -0.035290122
0001f0 8a cc 3a bd 53 8d 03 3d 04 33 4e 3e 2d e7 29 3e
       -0.04560522 0.0321172 0.20136648 0.16592093
000200 5f 97 c5 bc 97 b1 6a 3d 28 82 25 3b 00 de 60 3d
       -0.02412003 0.05729827 0.002525458 0.054899216
000210 ae 3d 84 3d 06 b3 b6 3d b8 bd e7 3d 33 4b 60 bd
       0.06457077 0.08920865 0.11315483 -0.054759216
000220 77 b8 d1 3d c4 0e 28 3d 99 e7 a9 3d e8 e0 62 bc
       0.10240262 0.041029707 0.08296127 -0.013847567
000230 27 f1 4a be 3a 74 1a bb 3b f1 37 be d5 86 e6 bd
       -0.19818555 -0.0023567812 -0.17963116 -0.11256186
000240 89 32 71 bd 18 15 82 bd 29 fe 9a 3d bf e4 b2 3d
       -0.058886085 -0.063516796 0.075680085 0.08735036
000250 95 99 4c bd 14 43 c6 bb 4b 7f ff bd a6 8c 22 be
       -0.049951155 -0.006050477 -0.12475451 -0.15873966
000260 5e a3 a6 3b 11 56 63 3d f9 ce 21 3d 34 6d 82 bd
       0.005085393 0.055502 0.039504025 -0.06368485
000270 4e 35 ae bd 51 32 e5 bc 7a 05 33 bd b5 0d 3e bc
       -0.08506261 -0.027978094 -0.043706395 -0.011599948
000280 ba 2b 89 bd 8b 55 84 3c cd 9b 8e bd ac ea e2 bd
       -0.06697793 0.016154071 -0.069633104 -0.11079916
000290 25 42 08 be f3 be 90 bd e2 b6 24 be 22 72 bd bd
       -0.13306482 -0.07067671 -0.1608539 -0.09250285
0002a0 90 03 05 3c 6e cd ac bd e2 e6 36 bc f0 26 07 be
       0.008118525 -0.0843762 -0.011163445 -0.13198447
0002b0 1c 69 c8 bc 99 81 51 bd 25 19 ed bd 07 7b 8c bd
       -0.024464183 -0.051148985 -0.115770616 -0.06859403
0002c0 c1 eb 1a be 49 c6 4b bd 3c 41 1f be f3 be f7 bc
       -0.15128995 -0.049749646 -0.15552229 -0.030242419
0002d0 ab 6c 38 3d 04 7c d3 bc 63 6f a1 3d 14 22 d2 3d
       0.04502551 -0.025815971 0.078825735 0.10260406
0002e0 72 fe 21 bd 7d 04 69 bc 22 c0 61 be c9 83 16 be
       -0.0395493 -0.0142222615 -0.22045949 -0.1469871
0002f0 56 92 56 be 9d f1 37 be 6b 32 fb bd 43 44 3b be
       -0.2095426 -0.17963262 -0.12265476 -0.18287759
000300 3b a3 d8 3d 74 1b 1a 3c e6 f6 ab 3b 4e 45 31 3c
       0.10578009 0.009405959 0.0052479384 0.010819746
000310 ef 52 0d be 16 3a 73 bd a1 43 3b be 37 fc f8 bd
       -0.13801168 -0.059381567 -0.18287517 -0.12157481
000320 de 00 65 17 f3 0e 0d 17 90 5a 15 96 5c f4 70 16
       7.3994985e-25 4.5578426e-25 -1.2064701e-25 1.9464152e-25
000330 6b b9 9a bc 0c d2 58 3b 26 66 37 3d a6 d5 b4 3d
       -0.018887242 0.0033084182 0.04477515 0.08829813
000340 5a b6 32 be c4 2b 41 be e5 1d 5a be 6d 50 4a bd
       -0.17452374 -0.18864352 -0.21300466 -0.049393106
000350 e8 01 b6 bc 0e c0 9c bc 42 8c c2 3c 71 fc 01 3c
       -0.022217706 -0.019134548 0.02374852 0.007933722
000360 8e 1d b9 3b 4e 0b cf 3d f1 f9 00 bd aa 3e e5 3d
       0.005649275 0.10109578 -0.031488363 0.11193593
000370 e6 a8 e1 3b ad 01 5b 3c b3 34 35 bc 86 49 84 ba
       0.0068865893 0.013367099 -0.011059928 -0.0010092712
000380 84 1a 95 3c 80 6c b6 3d a3 0b 60 bd f6 a6 d3 3d
       0.01820112 0.089074135 -0.054698598 0.1033458
000390 f0 78 2d 3b 96 b3 fc bb 32 50 01 3e 18 d7 2b ba
       0.002646979 -0.007711838 0.12628248 -0.0006555184
0003a0 4f 61 26 39 67 3f a9 38 37 4d b3 36 f8 b8 b0 37
       0.00015867244 8.0703576e-05 5.3436047e-06 2.1066968e-05
0003b0 aa f3 85 bd 49 7e f7 3d 99 73 55 be 5d 52 b4 3d
       -0.06540616 0.12084634 -0.20844878 0.08804772
0003c0 30 4a 14 bd cc a7 3a 3d 02 b1 93 bc 86 b8 ab 3d
       -0.036203563 0.04557018 -0.01802874 0.083848044
0003d0 96 f2 cd 3d 49 97 ae bb 83 bd 4c bd 18 56 45 bc
       0.10056035 -0.005328093 -0.04998542 -0.012044452
0003e0 3d b6 5b 3d a8 2d 34 3d 6a 89 09 be c1 21 c1 bd
       0.053640593 0.043988854 -0.13431326 -0.09430266
0003f0 bb 80 3b bd 7e ff e0 3d 20 dd c7 3d 6c 59 e1 3b
       -0.045777064 0.10986231 0.09758973 0.006877115

bias f4 [32]
000000 a5 56 8b 3d fc 52 36 3d c0 56 5d bc c0 81 2f bd
       0.068036355 0.044512734 -0.013509452 -0.04284835
000010 00 3c a0 3d 76 c0 01 3e 42 84 89 bb 5f 40 54 3d
       0.07823944 0.12671074 -0.0041966746 0.0518192
000020 06 73 25 bd 94 b3 2c bd 4f 39 68 bd b3 86 57 3d
       -0.040392898 -0.042163447 -0.05669528 0.052618694
000030 78 b1 00 3e 72 bf 9d 3d a1 35 d2 3c 1b 20 b6 3b
       0.12567699 0.07702531 0.025660338 0.0055580265
000040 9e ec b4 bb e2 12 95 3d 23 f1 36 bd 59 78 40 3d
       -0.005521371 0.07278992 -0.04466356 0.046989772
000050 bf ca 16 3c 4a 44 0c 3e ef 8c b7 bc 5e 0b 86 bd
       0.009203612 0.13697925 -0.02240607 -0.06545137
000060 78 f6 2a bc 6c 74 a7 3d 6a 6f 67 bb 69 41 27 bb
       -0.010434739 0.081765026 -0.003531421 -0.0025521165
000070 7d b1 2f bd 41 51 89 3c cf a6 89 bd 4e 59 21 3d
       -0.042893875 0.016762378 -0.06721269 0.03939181

weight f4 [128, 32]
000000 bd be 21 3c 46 1b 0b 3b 3c 66 41 a3 b8 cd b3 ba
       0.009872136 0.0021225973 -1.04842e-17 -0.0013717925
000010 4d cc 62 3b 0c 12 da ba 30 2d 45 ba d2 22 f4 ba
       0.0034606636 -0.0016637458 -0.0007521687 -0.00186261
000020 fe 62 a0 9d 38 a4 8e 39 9c f3 d9 3b 1e c6 ca 3b
       -4.2454003e-21 0.00027206703 0.006651355 0.006188168
000030 08 03 f5 3b e8 12 a4 39 94 0a 32 3b a3 aa 22 3c
       0.007477168 0.00031294604 0.002716695 0.009928378
000040 59 b7 86 bb cd d3 62 bb e2 04 6d 16 4e e3 8f ba
       -0.004111212 -0.0034611106 1.9146248e-25 -0.0010977776
000050 69 92 03 3c 9e f2 6e 3b e2 30 1e 16 b6 e1 17 27
       0.008030512 0.003646053 1.2778563e-25 2.1077818e-15
000060 42 c2 21 a9 00 53 26 ba 18 78 18 ba 8c af e3 a9
       -3.5917673e-14 -0.00063447654 -0.0005816235 -1.01112776e-13
000070 b3 00 df 3b 00 26 00 3c 6f 49 9e 3b b8 c2 77 3b
       0.0068055033 0.00782156 0.0048305313 0.003780527
000080 80 d8 de 3d a9 2e 23 be 80 5b e2 ba 24 c6 0d 3e
       0.10881138 -0.15935768 -0.0017269701 0.13845116
000090 fa 0e 94 bd cf f9 bf 3e 4c 5b 7e 3e 6c a3 f4 bd
       -0.07229419 0.37495276 0.24839514 -0.11945233
0000a0 9c f2 a3 bc 85 25 91 3e 3a a5 0b 3d 67 5a 96 bc
       -0.020013146 0.28348938 0.03409312 -0.018353654
0000b0 ad 19 e7 bc ca 0d 05 bd 0b 6a 41 3e 94 e5 3a 3e
       -0.028210485 -0.032483853 0.18888108 0.1825164
0000c0 bb a3 a2 bd d7 d2 72 3d c4 9d ab bb c2 41 f8 bd
       -0.07941385 0.059283104 -0.005237313 -0.12121917
0000d0 e8 9c fe bc a6 fe e9 3e e6 bb d0 ba 6f 12 ab 3c
       -0.031080678 0.45702094 -0.0015925139 0.020882813
0000e0 ee 6b 2f b4 65 84 92 bd c0 7b a7 be 84 a7 0e bc
       -1.633741e-07 -0.071541585 -0.327116 -0.008706931
0000f0 24 c2 a9 3e ca 4c 55 3e 48 da 17 3e 50 5f f8 bd
       0.3315593 0.20830074 0.14829361 -0.121275544
000100 ff 41 00 bd 06 c5 07 be 31 28 77 bc a9 e1 d2 bd
       -0.03131294 -0.13258752 -0.015085266 -0.102969475
000110 26 d8 b9 bd ce a8 1d bd b9 28 fb bd 63 47 9a 3c
       -0.0907443 -0.038491063 -0.122636266 0.018832868
000120 86 8a 93 bc 20 d7 07 be 22 00 db 3d 3c 4b c6 3d
       -0.018010389 -0.13265657 0.10693385 0.096823186
000130 ae 2d d2 bb 81 58 d0 bd 81 d4 6a 3c 6d 39 3f 3e
       -0.006414137 -0.10173131 0.014332891 0.1867425
000140 a1 f8 96 3c cc 26 57 3d c3 f5 0f bc 52 3d 55 be
       0.018429102 0.052527234 -0.0087866215 -0.20824173
000150 71 24 cc 3c 3c b3 26 bd ee d2 d9 3c 0d 06 03 3d
       0.02491972 -0.040698275 0.026589837 0.031988192
000160 b1 c4 96 17 56 73 b6 bd 17 30 83 bd f1 79 b5 bb
       9.743175e-25 -0.08908717 -0.06405657 -0.005538218
000170 2f 0f 1f 3e e7 1e 89 3e 0b 9b 3e bc 55 2c 0b 3c
       0.15533136 0.2678139 -0.011633645 0.008494456
000180 f4 9d 2c bc 2d 0e 9c bc 80 bd 40 18 01 bb 8b bc
       -0.010535706 -0.019049728 2.4911091e-24 -0.017056944
000190 c2 e4 ba bc 59 ef ae bc b8 06 aa bc 28 58 c1 bc
       -0.022814158 -0.021354364 -0.020755157 -0.023601606
0001a0 59 6c 94 99 d4 3d b1 bc dd e7 ae bc 03 07 87 bc
       -1.5346603e-23 -0.021635927 -0.021350795 -0.016482836
0001b0 fb c8 95 bc c5 39 8e bc 20 d3 82 bc 0f 27 95 bb
       -0.018284312 -0.017361531 -0.015969813 -0.0045517753
0001c0 62 66 d1 bc 17 2a b7 bc 3e a5 b6 96 dc 73 cf bc
       -0.025561515 -0.022358937 -2.9507968e-25 -0.0253238
0001d0 e6 ee cc bc 76 36 ba bc 26 e9 c0 2c cd 76 e4 9a
       -0.02501626 -0.022731047 5.482853e-12 -9.449052e-23
0001e0 f2 e9 f3 96 85 89 89 bc a6 1c d7 bc 44 ec 88 1a
       -3.9406408e-25 -0.016789207 -0.026258778 5.662999e-23
0001f0 59 92 93 bc ca 9b 9b bc 45 e4 8f bc dc a1 9d bc
       -0.01801412 -0.018995184 -0.017564902 -0.01924222
000200 b3 0c f5 17 5d 36 55 1e bb a3 5c 17 04 f6 0d 1d
       1.583596e-24 1.1287368e-20 7.129249e-25 1.8788382e-21
000210 a1 cc 6e a7 67 5b 15 27 2b 3e 03 1b e9 f4 09 96
       -3.3140065e-15 2.0727453e-15 1.0856154e-22 -1.1144052e-25
000220 81 5f ee 9a 11 a2 c2 96 cb d0 d5 a2 9d 07 1a 99
       -9.858879e-23 -3.1444669e-25 -5.7954834e-18 -7.963151e-24
000230 80 21 9b 28 e8 f8 12 9b 01 f6 32 98 2d b7 19 a7
       1.7222985e-14 -1.2157263e-22 -2.3130161e-24 -2.1332315e-15
000240 1b ba 96 98 31 2e fc 9c d8 b7 36 96 de c0 8f 98
       -3.896201e-24 -1.6687901e-21 -1.4759854e-25 -3.715938e-24
000250 7b cb e9 28 92 28 f4 1c 11 44 2c 2d 20 7a 63 1b
       2.5956442e-14 1.6157053e-21 9.792182e-12 1.881646e-22
000260 eb c9 72 ad 4d 71 92 17 1c 55 78 17 ca 51 88 97
       -1.3800942e-11 9.46363e-25 8.0240545e-25 -8.80944e-25
000270 e8 50 0a a0 a3 8c 5f ab 3c 2c b9 9b 46 49 43 19
       -1.1715824e-19 -7.942069e-13 -3.0634268e-22 1.0096061e-23
000280 f9 2d 82 be c4 0b 1b 3d 99 38 12 bd f5 59 df bd
       -0.254257 0.037853017 -0.035698507 -0.1090583
000290 fc 0e a5 3d fa 95 39 3e a7 ca 12 3e a5 bf 64 bc
       0.08059499 0.18123618 0.14335118 -0.013961707
0002a0 96 1a ac 3a 19 32 b0 3d ed 62 c5 bb 3a 64 0a 3e
       0.0013130482 0.08603305 -0.0060237558 0.13514796
0002b0 05 7e 26 3c 86 c9 83 bd 19 3f a9 3c 64 f9 e4 bc
       0.010161881 -0.06434922 0.02065997 -0.02795095
0002c0 d4 15 38 3e 66 a0 58 3e b1 32 9b bc 82 6b 92 bc
       0.17977077 0.21154937 -0.01894507 -0.01787353
0002d0 0b dd 3d 3d ac 5d 83 3e 0d 26 05 bc dd 80 44 3c
       0.04635338 0.25657403 -0.008126748 0.011993614
0002e0 b2 84 c5 36 72 9f 60 bd 73 21 b5 bd 1b 7e cf ba
       5.8865053e-06 -0.05483956 -0.088442706 -0.0015830429
0002f0 f9 58 46 bd 2f 81 02 bd 7e 49 ca bd be e3 8a bb
       -0.048424695 -0.03186148 -0.09877299 -0.0042385748
000300 66 71 7a bd 70 18 42 3e 7d 9e 4c 3c 3c 4c 23 bd
       -0.0611433 0.18954635 0.012488958 -0.039867625
000310 95 84 f7 3d bc 1d a3 3b 44 10 85 3b 02 2a 0e 3e
       0.12085835 0.00497791 0.004060777 0.13883212
000320 51 83 57 3c 01 0b 60 3e 36 32 d8 bd 28 7f 0c be
       0.013153867 0.21879198 -0.10556452 -0.13720381
000330 de 07 1d be 4e 5a 35 3e da 9a c1 bd a7 48 f4 bd
       -0.15335032 0.1771023 -0.09453364 -0.1192792
000340 48 75 a8 3e 40 8b 65 3d 21 2a 56 3c 42 ef 9a 3e
       0.32901978 0.056041002 0.013071568 0.30260664
000350 f9 01 a8 bd d0 a5 64 3e ec a8 ed bc 8f f6 97 3a
       -0.08203501 0.22328877 -0.029011212 0.0011593866
000360 a6 b4 59 b7 70 fe 0d 3e b7 46 5f bb 8c 88 be 3a
       -1.2976268e-05 0.13866591 -0.003406925 0.0014536544
000370 56 6d 99 3d e0 10 86 bd 4c 4c 94 3c 05 1c 10 3e
       0.07491557 -0.065461874 0.018102787 0.14073189
000380 d7 fb 85 3e 26 23 1e 3e e7 ad 80 ba 9f cc 3a 3e
       0.261687 0.15443096 -0.0009817452 0.18242119
000390 a2 1e c8 bc f7 18 71 bd 34 ae 5a be 0f 73 09 be
       -0.02442867 -0.0588617 -0.21355516 -0.13422798
0003a0 00 4d 9c 3c bf 89 01 be 07 18 9e 3d 08 b9 4a 3e
       0.019079685 -0.12650202 0.077194266 0.19797146
0003b0 ad b6 17 3e a5 ff 03 bd 7f 5e 94 bd 77 a8 b2 3c
       0.14815779 -0.032226223 -0.07244586 0.021808846
0003c0 ad 1c 12 be 81 39 b2 3d b1 f6 99 3c 90 f7 42 3e
       -0.14268751 0.08702374 0.01879439 0.1903975
0003d0 a7 9f e4 bd f8 44 a5 be fb 9d 91 3c d6 cf 1f 3a
       -0.11163264 -0.3227918 0.017775526 0.00060963386
0003e0 42 18 4a b5 79 55 48 3e 73 b6 30 3e fc 57 f4 3a
       -7.5286164e-07 0.19563855 0.17257099 0.0018641944
0003f0 0f 82 8e 3c 11 f5 55 bd 76 42 07 be df f8 f6 3d
       0.017396001 -0.052235667 -0.13208947 0.12059187

bias f4 [128]
000000 a6 d5 0e 3c 99 42 17 3e 38 cb 37 3e 75 bd af bc
       0.00871793 0.14771499 0.17948616 -0.021452645
000010 68 d7 42 9b d5 1a 6c 3e 93 f1 a9 bd ca b1 8d bd
       -1.6116905e-22 0.2305711 -0.0829803 -0.06918676
000020 1d 81 98 3d d0 e1 a5 bc a1 1b 66 3e a8 1d 19 3d
       0.074465014 -0.020249277 0.22471477 0.037381798
000030 d1 09 95 bd 71 d4 cd bc 15 f8 f4 3d a9 c5 16 be
       -0.07277263 -0.025125714 0.119613804 -0.14723839
000040 01 a4 3f bd 86 21 d9 21 18 ec 95 3d 14 fa 4d 3e
       -0.046787266 1.4713366e-18 0.07320422 0.20114928
000050 48 ee 12 be 7c 5b 53 3e 5a 42 a9 bd ac 73 97 bd
       -0.1434871 0.20640367 -0.08264609 -0.073951095
000060 1b a2 92 bd d6 1b 01 3c 0d f8 bb bc 59 f4 85 bb
       -0.071598254 0.007880172 -0.022945428 -0.0040879664
000070 fc fd ee bc 92 5a e1 3c 04 98 83 bd f0 6f 87 3b
       -0.029173844 0.027509008 -0.06425479 0.004133217
000080 3f e0 14 29 6d ae e2 39 28 9b 33 3e 8b 48 54 3e
       3.3057104e-14 0.00043236036 0.17539656 0.20730798
000090 15 e5 9a bd 73 e6 ea 3b f3 71 36 3e 67 de 0c 3e
       -0.07563225 0.007168585 0.17816906 0.13756715
0000a0 0f 40 fe 3d 29 d3 0e 3c 80 6c bc bd 8c 9b 80 3d
       0.12414562 0.008717337 -0.09200382 0.06279668
0000b0 bc cd 6a bd d3 43 be 3a 50 b1 7a bb 4e 93 90 3d
       -0.05732511 0.0014516063 -0.003825266 0.07059346
0000c0 e6 7e 8d 3d 33 b4 df bd 48 6f 40 1c 17 25 00 3e
       0.069089696 -0.10923042 6.36713e-22 0.12514149
0000d0 61 7f fa 3d 62 29 ca bd e5 4b 3a 3e e2 19 f4 3c
       0.12231327 -0.098711744 0.18193014 0.029797498
0000e0 72 7e 30 3e 66 60 e6 3d 97 a8 d2 bd 36 32 2a bd
       0.17235735 0.11248855 -0.10286062 -0.04155179
0000f0 4e 54 7a 3e 02 64 64 bc 46 a1 32 3e 22 de 22 3e
       0.24446222 -0.013939859 0.17444333 0.1590505
000100 5d f4 15 be 87 5f 93 bc 2a 57 cc 3d de 60 53 b9
       -0.14643998 -0.017989887 0.09977563 -0.00020158614
000110 64 ee d8 3d 5e f6 f7 bd 86 43 2f 3e 78 a2 46 bc
       0.105923444 -0.12107538 0.17115602 -0.0121236965
000120 ee 47 b4 3c a7 83 58 3e 38 b1 c3 3d 3e fb 14 3e
       0.022006955 0.21143971 0.09555286 0.14548966
000130 82 2b 24 3e 4a 1d a7 39 35 c9 a4 bc 1e 65 02 bd
       0.16032222 0.00031874544 -0.020115474 -0.031834714
000140 d3 c3 2f a3 8c ef d6 3d 0a 61 15 3e 6d d4 2d 3e
       -9.528236e-18 0.10494909 0.14587799 0.16975565
000150 d6 63 c9 3d 93 c5 9d bd 62 6a 04 3d e9 f1 9e 3b
       0.09833495 -0.077037 0.032328017 0.0048506153
000160 6a 0c 61 bd f7 9d c5 3d 21 dd 55 3e 5e 5d 98 b9
       -0.05494348 0.0964927 0.20885135 -0.00029061263
000170 7f 3b 1a 3e 51 42 10 be 55 6c ef 3c fd dd bc 3a
       0.15061758 -0.14087798 0.029226461 0.0014409419
000180 da f3 c9 3d 98 1d 03 3e 38 64 61 3d 4f 90 52 3c
       0.09860964 0.12804258 0.055027217 0.012851789
000190 e9 a2 95 bc 30 b3 ac 3d c6 e0 97 bc 78 03 ab 3d
       -0.018266158 0.08432615 -0.018539798 0.08350271
0001a0 fe 16 13 a7 b7 69 28 36 70 ab dd bd 6d 2a 9d 3d
       -2.0412812e-15 2.5095485e-06 -0.10823715 0.07674108
0001b0 4b e3 15 3e ee 30 0e 3e 16 19 9a b2 60 1a 7d bb
       0.14637487 0.13885853 -1.7939367e-08 -0.0038620457
0001c0 88 e6 98 bd 8f c7 2c 3d c1 21 1c bc a9 bc 08 bc
       -0.07465845 0.0421825 -0.009529532 -0.008345761
0001d0 40 39 23 bc 40 fb 20 ba dc fd 6e bc b2 bd b3 3d
       -0.00996238 -0.0006140955 -0.014586892 0.08776416
0001e0 25 6d 18 bd 92 3f 43 3e 29 18 8e 3d 6a 92 05 3e
       -0.037213463 0.19067219 0.06938202 0.13044134
0001f0 e6 03 f7 bc 72 d7 5a bc c0 3a de 3d 50 56 67 3c
       -0.030153226 -0.01335703 0.108510494 0.0141197

weight f4 [64, 128]
000000 36 38 d9 96 96 b6 24 bb d3 61 cc 19 0b de 28 15
       -3.5093715e-25 -0.0025133244 2.1132617e-23 3.410249e-26
000010 6e b4 12 17 fd ee 9d 3b 49 e3 91 17 d6 af 12 96
       4.740288e-25 0.0048197494 9.42778e-25 -1.184927e-25
000020 96 95 a0 3c 80 ff a3 ba 06 08 05 3c 80 1f ae 96
       0.019602578 -0.0012512058 0.008119589 -2.8131095e-25
000030 4c 57 1f 96 a2 ca 98 16 67 85 37 b8 ff 6d 35 18
       -1.2871464e-25 2.4684804e-25 -4.375484e-05 2.3449236e-24
000040 d2 ce 85 96 af 90 a8 95 83 07 8d 16 4e aa 30 1b
       -2.161783e-25 -6.808293e-26 2.278452e-25 1.4613407e-22
000050 bd ed fd 3a 7d 98 aa 18 00 94 bb 98 c3 a4 83 96
       0.001937322 4.4097944e-24 -4.848781e-24 -2.126817e-25
000060 11 67 65 1a c9 49 9f 15 03 be 07 16 26 4c 77 37
       4.7439346e-23 6.4336e-26 1.096517e-25 1.4740077e-05
000070 87 f9 f0 18 02 39 75 bb 4d 58 9b ba c3 b5 d7 96
       6.2290504e-24 -0.0037418013 -0.0011851877 -3.484983e-25
000080 d9 a6 34 17 7d 9e 45 bb 50 07 dd 12 c7 4d 90 3c
       5.837173e-25 -0.003015428 1.3948863e-27 0.017615212
000090 30 6c 70 b9 74 fc ac 16 d2 b8 86 bc 58 9b 05 bc
       -0.00022928487 2.794742e-25 -0.016445551 -0.008154713
0000a0 c7 8a 96 bb c2 5a 73 18 6a b4 a2 b9 b0 30 e3 13
       -0.0045941803 3.1452835e-24 -0.00031033467 5.7350866e-27
0000b0 11 bf 97 16 0a 54 02 98 9c f2 0f 18 0c 5a a6 96
       2.4515946e-25 -1.6844535e-24 1.8604803e-24 -2.6875574e-25
0000c0 ab 77 a0 bb 51 9b a8 bc 20 f3 15 17 b5 24 92 3a
       -0.004897078 -0.020581873 4.8451363e-25 0.0011149856
0000d0 32 8a b2 97 17 86 5f 17 52 02 9b bb 44 54 98 18
       -1.1537866e-24 7.222443e-25 -0.004730501 3.9376166e-24
0000e0 d6 17 5c 18 58 6a 46 ba e2 c4 2d 98 08 46 73 16
       2.8446368e-24 -0.0007568947 -2.2459126e-24 1.9651482e-25
0000f0 90 ec 97 98 e4 dd 42 16 17 74 42 ae f1 f9 82 bb
       -3.9271452e-24 1.5741212e-25 -4.42136e-11 -0.0039970805
000100 8d 15 78 95 48 ce 46 18 4d 2a 70 b6 72 94 45 16
       -5.0100202e-26 2.5695046e-24 -3.578741e-06 1.5960374e-25
000110 cb e6 1b 99 4a f2 92 13 72 f9 ba bc e0 e0 d2 96
       -8.0599205e-24 3.7094497e-27 -0.022824023 -3.4069246e-25
000120 5c bd fc 96 65 2e 6d ba 08 0b 61 bc f5 fc dd 38
       -4.0832298e-25 -0.0009047746 -0.01373554 0.00010585218
000130 65 88 fc bb 14 40 c4 96 e6 31 c4 97 2e a8 a8 15
       -0.007706689 -3.1705947e-25 -1.2678799e-24 6.812e-26
000140 ce 0b f9 15 07 af 76 bb 2f de 28 3b 1c a9 da bc
       1.00588924e-25 -0.0037640946 0.0025767197 -0.026691966
000150 ca 3c 60 bb 05 df 11 97 5a 33 d4 16 ff fb 1d 3c
       -0.003421592 -4.7133517e-25 3.4282855e-25 0.0096426
000160 ae 4e bd ba 3f 2e 10 bb 9a 93 bd 96 c4 3f 8e 97
       -0.0014443004 -0.002200022 -3.0627747e-25 -9.192632e-25
000170 dd bf 03 16 aa c7 85 b4 aa d9 b7 3b 94 b7 9d b6
       1.0642637e-25 -2.4918455e-07 0.0056106644 -4.700336e-06
000180 11 27 e4 96 a7 a8 9b ba 6f 49 3f 97 bc 72 bc 18
       -3.686004e-25 -0.0011875824 -6.1808115e-25 4.8712713e-24
000190 68 75 c6 ba 73 04 48 3c 9f 25 d0 1a ba 05 7a bb
       -0.0015141191 0.012208092 8.6087564e-23 -0.0038150386
0001a0 ec 9f 44 16 1c 2d 8a 9a a1 00 c9 97 74 1f 85 19
       1.5883216e-25 -5.714834e-23 -1.2989479e-24 1.3764581e-23
0001b0 28 4c b9 95 bc 4e b3 b9 96 1c 18 17 8f bc 53 1a
       -7.484106e-26 -0.00034200202 4.914993e-25 4.3786094e-23
0001c0 c7 46 4f bb 9e 36 d7 37 99 d9 93 b9 12 2d a2 96
       -0.003162788 2.565543e-05 -0.00028200148 -2.6200955e-25
0001d0 a8 fd 72 95 95 9b f9 17 40 b7 ac 9a a1 33 a5 ba
       -4.907161e-26 1.6130522e-24 -7.143359e-23 -0.0012603888
0001e0 4d 35 b1 97 c6 ca c0 3a 78 51 69 14 04 3b e5 3b
       -1.1451812e-24 0.0014708869 1.1779561e-26 0.0069955606
0001f0 bf d4 35 b4 b6 9b bb 18 b6 a1 5c bc e8 72 2f 3b
       -1.6934335e-07 4.8495595e-24 -0.013466289 0.002677137
000200 f4 18 51 9a 30 03 88 bc f5 d7 24 bc fa b0 db 15
       -4.3240344e-23 -0.016603082 -0.010061254 8.8732615e-26
000210 72 4d 0d 18 1c 5c 24 97 35 b6 2c a5 e0 4e 83 b0
       1.8262923e-24 -5.3107516e-25 -1.4980356e-16 -9.553922e-10
000220 59 e0 69 3b e0 8b 1a 14 36 fd 3d bd e1 3c b5 3c
       0.00356867 7.8025986e-27 -0.04638406 0.022123756
000230 1a 6d 6a 18 25 78 3b bc 3f f0 dc 3c 94 9c 17 bc
       3.0298873e-24 -0.011442219 0.026970027 -0.00925364
000240 b9 84 a3 bc 50 83 68 96 59 4f d7 bb 64 7f 47 3c
       -0.019960748 -1.8782246e-25 -0.0065707383 0.012176368
000250 7c 42 76 3c 33 7b f7 3c 7d 87 a9 bc b6 4f 73 3c
       0.0150305 0.030210113 -0.020694489 0.014850548
000260 72 cc 0b 3d c0 d6 8d 96 92 d6 16 12 c3 18 dd 19
       0.03413052 -2.2915305e-25 4.7596133e-28 2.2860866e-23
000270 40 5a ac 98 71 c1 15 a0 d9 90 1f 98 61 53 94 bb
       -4.4552087e-24 -1.2684795e-19 -2.0623398e-24 -0.004526541
000280 08 70 ca 9a 64 49 66 3c 67 41 b2 bb bc 8c 6c bc
       -8.372624e-23 0.014055584 -0.0054399255 -0.014437851
000290 e9 2a 41 17 bc 03 90 17 42 29 b1 3c be f5 f9 3c
       6.2415824e-25 9.306725e-25 0.021626119 0.030512687
0002a0 ab ad 52 17 f5 37 53 16 ad 6a ac 96 3e 3c 32 98
       6.807386e-25 1.7062101e-25 -2.785542e-25 -2.3036375e-24
0002b0 29 b2 90 b8 97 d9 ca 97 5d 76 a4 14 5e a1 38 94
       -6.89964e-05 -1.3108871e-24 1.6606454e-26 -9.32145e-27
0002c0 fa ca 84 b8 b0 59 1b 96 fc b2 44 97 80 cc 4c bd
       -6.332058e-05 -1.2549101e-25 -6.3556926e-25 -0.049999714
0002d0 03 e5 0e bb f9 59 8c 96 a3 b6 8a 96 dd 45 4a 3d
       -0.0021803982 -2.2675e-25 -2.2410362e-25 0.049383033
0002e0 15 0a 86 bd d3 35 1c 3d b8 93 52 1a 71 69 56 bb
       -0.06544892 0.03813727 4.3546308e-23 -0.0032716657
0002f0 4d 87 df 3c 30 20 f0 9a d5 ac 04 3a 35 8e 64 96
       0.027286196 -9.9313675e-23 0.00050611544 -1.8462566e-25
000300 2c 05 ac a8 78 94 2a 1a 09 e6 1d bd 44 e7 da 17
       -1.9098079e-14 3.5275108e-23 -0.038549457 1.4146299e-24
000310 b5 5a 34 bc 10 b4 2d 96 33 43 79 bc 65 3b 5e 9b
       -0.011007954 -1.4031646e-25 -0.015213775 -1.8382601e-22
000320 7b ec a0 15 aa 67 a9 bb ff 78 35 bd da 95 d0 bc
       6.4996586e-26 -0.0051698284 -0.044304844 -0.02546208
000330 6e 3b 99 3c 5c 34 d3 19 4a 8d 81 18 a4 00 4e 1a
       0.018705096 2.1838036e-23 3.3488384e-24 4.260032e-23
000340 b8 54 42 19 e9 6f 46 bd ad f3 25 96 be 71 9e 3c
       1.0046674e-23 -0.04844657 -1.3405484e-25 0.019341346
000350 7d 6d e4 bc 03 c5 ac 3c 81 32 3c bd 33 d6 af b7
       -0.02788424 0.021090036 -0.0459466 -2.096137e-05
000360 fb 8c 00 15 3d 99 b7 bc 74 91 31 bd 58 df 7b 98
       2.5960608e-26 -0.022411937 -0.043351606 -3.255375e-24
000370 9e 6b 6e bd 17 0b 3e 19 00 25 2c 17 33 23 91 15
       -0.0582081 9.825009e-24 5.56229e-25 5.862057e-26
000380 7c 52 1c bc f8 66 e6 bc f5 73 02 bb 4f 90 1d bc
       -0.00954115 -0.028125271 -0.0019905542 -0.009616925
000390 ee 2d 39 39 26 25 50 bb aa de 43 17 ad dd d0 16
       0.00017660085 -0.0031760423 6.328894e-25 3.374411e-25
0003a0 f4 0d 89 99 df f2 dd 9a 16 56 ec 39 f5 d0 c0 3c
       -1.4171104e-23 -9.179584e-23 0.00045077567 0.023537138
0003b0 d4 49 22 bb 75 8f 33 bc bb 43 b6 16 86 81 2b 98
       -0.0024763243 -0.010959496 2.944643e-25 -2.2166625e-24
0003c0 d7 2b 25 bd 7f 09 41 bd e9 4d 77 bc 23 ba 8c 19
       -0.040325012 -0.047128197 -0.015094259 1.455084e-23
0003d0 f8 05 9a 16 93 17 d1 19 25 6b 98 18 31 ed 69 3c
       2.4883809e-25 2.1619615e-23 3.9399267e-24 0.014277742
0003e0 6a df 43 a9 82 9d 58 bd b9 8c 3c 3b 86 1d ce bb
       -4.349248e-14 -0.052884586 0.00287704 -0.0062901406
0003f0 e7 3c 37 17 a7 3e e1 94 6c 4b 50 37 18 13 02 b6
       5.920736e-25 -2.2743906e-26 1.2415327e-05 -1.9382624e-06

bias f4 [64]
000000 93 43 bf bc 9f c1 1c bd c1 c5 0a 3e 98 97 79 3d
       -0.023347652 -0.03827059 0.13552 0.060935587
000010 60 66 a2 bb 2b c2 85 3d 1e 26 e4 3c 14 78 ba 3d
       -0.0049560517 0.06531175 0.027850207 0.09104934
000020 e8 d1 07 bd 25 cd 85 3c 9e 6e 5e 3d 00 d6 08 bc
       -0.033159167 0.016333172 0.05430471 -0.008351803
000030 f5 27 00 bd e2 3c 1d bd 8f 72 d0 3d e3 ee 5d 3d
       -0.031288106 -0.03838814 0.101781 0.0541829
000040 05 94 e2 bd 89 ac 4d bb 4e f7 ca b5 b1 15 8a 3d
       -0.11063389 -0.0031383357 -1.5122148e-06 0.067424186
000050 9b 03 8e 3d 80 13 85 3d cd ca 0d 3e ac b7 57 bd
       0.069342814 0.0649786 0.13846894 -0.052665398
000060 39 15 18 3d 78 c2 f3 bb a5 e9 f5 3d 03 20 77 3d
       0.037129615 -0.007438954 0.12007455 0.060333263
000070 83 1f 0e bc 1b 8b 90 3d a6 4e 4f 3d 5e 9b a4 bc
       -0.008674505 0.07057782 0.050612114 -0.020093616
000080 1d 0d 47 b9 59 e5 86 3d f1 07 f3 bb 16 8b 6a bd
       -0.00018983004 0.06586713 -0.007416718 -0.05726155
000090 ec b6 22 3c 15 39 08 bd 25 b6 7d 3d df aa b3 3d
       0.009931307 -0.033257563 0.061941285 0.087728254
0000a0 d8 ea 33 3b 03 38 57 bd e8 9b 87 3d 6a 5a 23 3e
       0.002745321 -0.05254365 0.06621534 0.15952459
0000b0 ee 0f a4 bc 91 5a 8f 3d 0f 34 63 3d 41 3f 21 b0
       -0.020027127 0.06999696 0.05546957 -5.866135e-10
0000c0 65 0e 4d 3d da 91 7d 3c ae b0 2e bd 52 dc c5 bb
       0.050062556 0.015476668 -0.042648964 -0.006038227
0000d0 de 98 b2 bc 78 f6 a2 3d 19 9d df 3d 93 0c 5a 3e
       -0.021801408 0.079571664 0.10918636 0.21293859
0000e0 ac 82 7f 3d 62 4c 22 bd 81 de 00 3d 0f 3e ed bc
       0.062380478 -0.039623626 0.031462196 -0.028960256
0000f0 fe c6 2f bc 23 fc 97 3d 7d 99 14 3e 33 28 03 bc
       -0.010728596 0.07421138 0.14511676 -0.00800519

weight f4 [10, 64]
000000 8d 3d 32 1c 37 43 ef 38 3d 81 b0 bc 89 00 a1 bd
       5.897481e-22 0.00011408928 -0.021546 -0.0786143
000010 eb 1b 9f 9b f6 94 1f bd 86 c7 5f bd 58 8b f7 bb
       -2.6322385e-22 -0.03896042 -0.05463364 -0.007554453
000020 9d d8 13 be 81 db 25 be 1b 87 0a 3e 48 9f d8 bb
       -0.144381 -0.16197015 0.13528101 -0.0066107847
000030 ca 76 11 bc dc ec 00 a0 b9 cf da bc 60 11 af bc
       -0.008878419 -1.0920392e-19 -0.026710378 -0.02137059
000040 0a dc 7c bc 36 e2 2a bc ce ff 6b 1d 29 75 7e bc
       -0.015433321 -0.010429909 3.1234239e-21 -0.015530863
000050 d3 9b dd bd 72 b4 26 3b 3f 2c 0b 3e 83 34 97 bc
       -0.10820737 0.0025437144 0.13591097 -0.018457657
000060 9a c4 67 bd cb b8 ad 3b cf 91 d0 3d d0 ac 78 bd
       -0.05658398 0.00530157 0.10184061 -0.06071168
000070 77 3b 83 bc 02 d4 34 bc 29 51 99 bd 65 e4 79 a3
       -0.016019566 -0.011036875 -0.07486183 -1.35466815e-17
000080 f3 1b b2 1c 9a af 30 3c e2 7a b2 3d be df c8 3c
       1.1786277e-21 0.010784054 0.08714844 0.024520751
000090 6b 27 15 bd fe 06 79 be 65 23 80 be 5f 96 ac 3c
       -0.036414545 -0.24319074 -0.25027004 0.021067796
0000a0 82 2c b8 3c 21 22 ce 3b 3a 14 25 3d 73 7b 47 3d
       0.02248216 0.0062906896 0.040302493 0.048701715
0000b0 9e 63 25 bd 4e f7 7c 3d 08 64 02 bc 9c 0c 42 9a
       -0.040378205 0.061759286 -0.00795842 -4.0128445e-23
0000c0 0d 70 d5 3d c9 d6 96 3d 4f 3c fb 3b 32 5f bd bb
       0.104217626 0.07365186 0.0076671015 -0.0057791704
0000d0 ec 0b b5 98 de 24 11 3e 65 f0 cf 3d 22 c5 cc 3d
       -4.679944e-24 0.1417422 0.101532735 0.099985376
0000e0 65 7e 6b 3d 7e a2 4a bd ec 9e 23 3d 5b 2a 63 bc
       0.057493586 -0.04947137 0.03994648 -0.013865079
0000f0 d4 3b 72 a9 47 63 71 b9 19 b8 8f 3d 73 91 34 ba
       -5.3786687e-14 -0.00023020535 0.07017536 -0.00068881287
000100 42 3a cc 98 25 51 09 b9 4f 92 e8 3c c4 aa ef 3d
       -5.279159e-24 -0.00013095567 0.028390078 0.11702493
000110 b4 ee d8 21 30 af e5 3d 4e 41 56 bd 89 2a 18 3d
       1.4699914e-18 0.11215055 -0.052308373 0.03714994
000120 60 66 c6 3d c4 41 db bd 33 d7 2e 3c a3 5f 9c 3b
       0.09687495 -0.10705903 0.010671425 0.004772143
000130 0a cf ff 3c ba fa 4e 1d da 9f e0 be 54 62 bf bb
       0.031226654 2.7393496e-21 -0.43871957 -0.005840579
000140 ee 5d e4 3c db 4f 55 bc 71 e3 1b 96 7e 4d 96 bd
       0.02787682 -0.013019527 -1.2592568e-25 -0.07338999
000150 87 74 48 3e 50 0d 10 3d df 97 ac 3d e3 bf 01 be
       0.19575702 0.035168946 0.084274046 -0.12670855
000160 c7 67 0f bf fa 42 23 3b 92 d3 ae bc e6 08 a2 be
       -0.56017727 0.0024911747 -0.021341119 -0.31647414
000170 67 21 17 3c 66 c7 00 bf d6 a4 16 be 33 c6 52 26
       0.009224272 -0.5030426 -0.14711317 7.3126996e-16
000180 df 3e a2 9d 33 d8 16 3e 00 ed aa bb b1 35 6d 3c
       -4.294605e-21 0.14730911 -0.005216241 0.014478133
000190 91 c9 b9 bd 2e c2 97 bb 7f 2f a6 3d 04 21 21 be
       -0.09071649 -0.0046313023 0.08114528 -0.1573525
0001a0 7b 5a 1c bd a2 c9 0d bb a3 6e fc bd a8 f8 15 3d
       -0.038172226 -0.0021635075 -0.1232579 0.03661409
0001b0 20 5b ab 39 2a d7 ad bd 82 4c fb ba cf 89 44 1f
       0.00032683555 -0.08488305 -0.0019172581 4.1618607e-20
0001c0 a6 90 e1 bb b0 eb a5 be fd 85 f6 3d 00 81 0e ba
       -0.0068836985 -0.32406378 0.12037275 -0.00054360926
0001d0 d4 0c 06 9b 86 8f 09 be d7 34 04 3e 78 07 5d 3e
       -1.1088365e-22 -0.13433656 0.12910782 0.2158488
0001e0 fe ca 96 be 81 72 29 be af 1b e0 3d 00 0d 7f bc
       -0.29451746 -0.16547586 0.1094278 -0.015567064
0001f0 72 9b d7 1d e5 ff 47 bd 4c c0 f6 bd 58 f4 84 b5
       5.7070753e-21 -0.048828024 -0.120483965 -9.90588e-07
000200 1c ed 6e af 7a 9d 84 bc ef 50 8f 3d 93 7d b8 3d
       -2.1730212e-10 -0.016188372 0.06997859 0.090083264
000210 6c 9d 8c 24 2f 14 e1 bd 8b 0d 7a be 4c 53 00 3e
       6.0982005e-17 -0.10990178 -0.24419229 0.12531775
000220 98 e1 37 3d 7d 90 53 3e 84 fe f0 bc 38 d4 e5 bb
       0.044892877 0.20660587 -0.029418238 -0.007013824
000230 63 55 d4 ba 62 38 51 a1 af 46 8e 3c 60 75 e3 bb
       -0.0016199764 -7.0886576e-19 0.017367689 -0.0069414824
000240 f7 1b 91 3d 36 51 6a bc bb 83 9d 20 59 36 64 be
       0.07085412 -0.014301589 2.6684006e-19 -0.22286357
000250 cd 63 7a bd e2 26 a6 bd f0 f9 e4 bd 75 da 62 3d
       -0.061130334 -0.08112885 -0.11180484 0.055384118
000260 9a ed 13 bd 6b e4 c1 3b ef 37 23 bd 7e e4 f8 3d
       -0.036115266 0.005917122 -0.039848264 0.121529564
000270 4e fd 11 3a a6 71 a8 3d 63 3a 88 3d b8 48 ac 26
       0.00055690564 0.08224802 0.066517614 1.1954608e-15
000280 13 c3 54 1a 1e d1 c0 bc cc 5d 0f 3e 15 95 c5 3b
       4.3998152e-23 -0.023537215 0.14000624 0.006029735
000290 3c 7a 83 be 63 3b 0d 3e b3 cd a7 3c ae d5 1b 3e
       -0.25679195 0.13792185 0.020483827 0.15218231
0002a0 09 02 f0 bb 31 4d 74 3c 81 a0 86 3d 34 a2 0c 3d
       -0.0073244614 0.014910982 0.065735824 0.034334376
0002b0 26 35 0c 3d 0a 91 f0 3d 50 0d 62 3b b8 f8 82 9c
       0.034230374 0.11746414 0.0034492798 -8.666971e-22
0002c0 d6 df f6 bd 95 3d b1 bd e5 9e 9c bd f4 6f 2b b9
       -0.12054412 -0.08654324 -0.07647494 -0.00016349537
0002d0 28 b5 07 9f 4e 87 81 3d 8b fc 87 3c 30 79 ad 3d
       -2.873721e-20 0.063246354 0.016599914 0.0847038
0002e0 ac 24 93 bd ee 3d 66 be cd 41 70 bb 5c 45 64 3c
       -0.07184729 -0.22484562 -0.0036660314 0.013932552
0002f0 e6 7a 6d b9 30 b8 bc 3c ca bf 2e 3c db 05 5e bb
       -0.00022647865 0.023037046 0.010665843 -0.0033878002
000300 ec 4d 23 a0 5e 1b 20 b9 4f 09 e1 3b bd 19 44 3d
       -1.3832419e-19 -0.00015268984 0.0068675647 0.04787611
000310 a6 d2 af 98 0f eb 39 bd 8c ca c2 3d ce c0 06 be
       -4.544914e-24 -0.045390185 0.09511289 -0.13159487
000320 35 df bb bd 2c 52 23 3d 26 b2 fd bd 72 07 25 3c
       -0.09173433 0.039873287 -0.12387495 0.010072576
000330 0f 02 07 bd 58 dd 4b 98 76 47 42 be 3b 8c fc bb
       -0.032960948 -2.6348885e-24 -0.18972573 -0.0077071465
000340 5c 9b ed bd 20 e5 86 3b ba a6 30 19 ab e7 7e 3d
       -0.11601898 0.0041166693 9.132657e-24 0.062232655
000350 9c 27 35 bc a3 36 82 bc 17 1c d4 3c ac bd b2 3d
       -0.011056807 -0.015895193 0.0258923 0.08727583
000360 ba d8 cf bd 93 c4 1e bd 56 17 ce 3d 5a 8d 8e be
       -0.10148759 -0.038761687 0.10063045 -0.27842218
000370 fb db 9f bc 93 cc 6d be fd 5d 9c bd 7e 36 00 98
       -0.019514075 -0.2322257 -0.07635114 -1.6571124e-24
000380 a1 de 06 98 d1 a8 8a 3d 1c d6 81 bc 6d 31 09 bd
       -1.7431493e-24 0.067704804 -0.015849166 -0.0334944
000390 94 b4 43 3d a3 41 a1 bd 5d b1 4a 3e d4 6d 02 3d
       0.047779635 -0.07873847 0.19794221 0.03184302
0003a0 af ab d6 bc 5e 0b e0 bb 3a 8e 4b 3c 04 95 0e 3e
       -0.026204912 -0.0068372926 0.012424046 0.13924032
0003b0 6a e8 ea 3c 24 40 2b 3c 14 ad 3f bc 4c e8 00 9f
       0.028675277 0.010452304 -0.01169898 -2.7297206e-20
0003c0 d5 e8 97 3d 28 67 e0 bd 05 17 ee 3d 76 e9 26 37
       0.07417456 -0.109571755 0.116254844 9.948728e-06
0003d0 5c 07 88 21 09 87 96 bb a7 f4 12 3e 3f 03 e0 3d
       9.217666e-19 -0.004593734 0.1435114 0.10938119
0003e0 5f d2 b8 bd 2b 1b b0 bc e6 32 84 bc 72 a2 30 3d
       -0.090245 -0.02149733 -0.016137552 0.04312367
0003f0 0f bc 72 9f 3b c8 d0 bc ed b7 12 3e 0c 0f c4 3c
       -5.1401052e-20 -0.025486102 0.14327975 0.023932956

bias f4 [10]
000000 ec 77 57 3d 22 7f 27 3d f8 b4 87 bd 47 a7 81 bd
       0.0526046 0.040892728 -0.06626314 -0.06330734
000010 78 d7 32 be 70 5a ab 3d 59 5f 2c 3e 5a 0e e6 3d
       -0.17465007 0.08366859 0.16833247 0.11233206
000020 2e 50 28 bc e0 c3 be 3a
       -0.010273023 0.0014554225
