2-hypertuning-mlflow/mlruns/2/1c8db27df6504c42b3d9fc78614c281c/artifacts/pytorch_models/20250921-1129model.pt (torch, 73349 bytes, 12 tensors)

weight f4 [16, 1, 3, 3]
0.011615989 0.22725423 -0.009572476 0.31779006 0.055488802 0.0665698 -0.11908551 -0.07681515
0.051385477 0.4217068 -0.0033282074 0.40500388 0.4232835 -0.2166493 0.17998554 0.20207696
0.078911066 0.4104978 0.028033152 0.38129047 0.18700564 0.07390562 0.112791575 -0.0023102982
0.1444397 -0.20551264 0.06273629 5.291819e-05 -0.00015833935 0.0011250977 -1.1174212e-09 -3.513802e-09
-0.00015052827 -4.327697e-06 1.8364726e-06 -2.2424695e-06 0.19334641 0.0798581 -0.026035335 0.11738853
0.1675158 0.14395575 -0.16451806 -0.31035838 -0.17122594 0.29129836 -0.095901765 0.012146111
0.048101224 0.043603376 0.20989133 0.069047645 -0.09397445 0.27790695 0.048556887 -0.42745388
-0.6039979 -0.44922003 -0.109273635 -0.5824269 -0.43192437 0.12108002 -0.13324897 -0.20857278
-0.010032342 0.2549404 0.22923462 0.16721839 0.17185193 -0.16241878 0.05958957 0.16048166
0.16136195 0.019782253 0.1686815 -0.28648221 -0.03316334 0.028453622 0.3298074 0.032452416
-0.112096444 -0.6137163 -0.64589715 -0.5306553 -0.112703755 -0.033833142 -0.2320908 -0.06870426
0.24687457 0.06228314 0.3790597 0.11788142 -0.21176855 0.04599832 -0.18741845 -0.21516208
0.082740724 0.2485296 -0.047751863 -0.04076243 0.15916261 0.32178113 0.13427041 0.06705286
-0.19435903 -0.047439404 -0.1455462 -0.24510463 -0.2168637 0.13506769 -0.15531754 -0.38090947
0.14073607 -0.24994674 -0.12742674 0.10603779 -0.13127029 0.055473916 -0.16028279 -0.068307064
0.041326668 0.25227886 0.3540211 -0.025964346 0.13795602 0.12167671 -0.2966213 -0.6623577
-0.64211535 -0.16035704 -0.3236995 -0.14045878 -0.024827218 0.31135246 0.16326088 0.40039927
0.28207168 -0.16979258 0.08280862 0.02152362 0.39839816 0.20155562 -0.063427925 0.4063733
00000000: fd50 3e3c 55b5 683e e0d5 1cbc 61b5 a23e
00000010: 3a48 633d bf55 883d 1be3 f3bd 4351 9dbd
00000020: 9479 523d f4e9 d73e 0e1e 5abb ab5c cf3e
00000030: 9db8 d83e 50d9 5dbe 214e 383e 43ed 4e3e
00000040: 209c a13d c52c d23e c8a5 e53c 8138 c33e
00000050: 687e 3f3e d45b 973d 45ff e63d 5f68 17bb
00000060: 00e8 133e e871 52be e27b 803d 79f4 5d38
00000070: e507 26b9 0478 933a c393 99b0 7577 71b1
00000080: 20d7 1db9 a236 91b6 b87c f635 557d 16b6
00000090: 9afc 453e a58c a33d 0e48 d5bc 6669 f03d
000000a0: 4389 2b3e 2369 133e 6c77 28be 4be7 9ebe
000000b0: da55 2fbe 0f25 953e 2568 c4bd 7b00 473c
000000c0: ca05 453d 7499 323d c1ed 563e da68 8d3d
000000d0: ad75 c0bd d249 8e3e 96e3 463d 3cdb dabe
000000e0: 9b9f 1abf 2b00 e6be dbca dfbd ee19 15bf
000000f0: 3125 ddbe cdf8 f73d 6b72 08be 1a94 55be
00000100: b15e 24bc 8c87 823e 7bbc 6a3e 4c3b 2b3e
00000110: f4f9 2f3e 1c51 26be 3114 743d 4e55 243e
00000120: 113c 253e 640e a23c d8ba 2c3e ccad 92be
00000130: 48d6 07bd 9217 e93c 84dc a83e d3ec 043d
00000140: d292 e5bd 831c 1dbf 8459 25bf 07d9 07bf
00000150: 3ad1 e6bd 9f94 0abd 36a9 6dbe d2b4 8cbd
00000160: b0cc 7c3e 9b1c 7f3d 1d14 c23e d06b f13d
00000170: dbd9 58be bc68 3c3d 9fea 3fbe 7353 5cbe
00000180: f873 a93d 8b7e 7e3e 7597 43bd 81f6 26bd
00000190: 86fb 223e 7fc0 a43e 2f7e 093e 0353 893d
000001a0: 0e06 47be d24f 42bd 100a 15be b5fc 7abe
000001b0: 8511 5ebe 2f4f 0a3e 900b 1fbe 9106 c3be
000001c0: 1e1d 103e 0af2 7fbe 287c 02be 572a d93d
000001d0: b86b 06be 9e38 633d 2c21 24be 93e4 8bbd
000001e0: 2746 293d b22a 813e 4142 b53e 2eb3 d4bc
000001f0: 5844 0d3e a431 f93d bfde 97be 4690 29bf
00000200: ac61 24bf a334 24be f1bb a5be 6dd4 0fbe
00000210: 7362 cbbc 9769 9f3e dc2d 273e 2201 cd3e
00000220: b36b 903e 1bde 2dbe 9197 a93d 4d52 b03c
00000230: d8fa cb3e 9964 4e3e 80e6 81bd 2910 d03e

bias f4 [16]
-0.15043856 -0.13055877 -0.17019367 -0.0026860477 -0.04148036 0.19984476 0.17844728 -0.07898102
-0.040475823 0.13963556 -0.12455561 -0.09307693 0.35571998 -0.116111435 0.12593246 0.023920462
00000000: 910c 1abe 33b1 05be 4047 2ebe 6708 30bb
00000010: 4fe7 29bd 1ba4 4c3e e2ba 363e cdc0 a1bd
00000020: fac9 25bd a0fc 0e3e 0317 ffbd 1e9f bebd
00000030: ee20 b63e d5cb edbd 70f4 003e d8f4 c33c

weight f4 [16, 16, 3, 3]
-0.045414515 0.0009961288 0.025021503 -0.028883308 -0.006459826 0.057159342 0.03467009 0.05650262
0.07763233 -0.1935723 -0.13965899 0.0040599876 -0.15017274 -0.0991566 0.041351482 0.08088722
0.025285494 0.13198854 0.05341132 0.03675147 0.063539386 0.015338748 0.08386767 0.14245537
0.09530318 0.13913499 0.13298371 -5.1340088e-21 3.1015767e-21 -7.940884e-21 3.143566e-22 -1.0899874e-21
-6.28301e-21 -1.0638371e-21 2.0689504e-22 -1.4858823e-20 0.02864954 0.10183882 -0.0538794 0.10307913
0.07291273 0.11630809 0.047365766 0.07943762 -0.016380686 -0.05701373 -0.058037154 -0.021945806
-0.07203337 0.045869622 0.0058604917 -0.053743057 -0.020785054 0.12327303 0.20409366 0.09202198
0.23536514 0.20002629 0.16737182 0.08766348 0.095245905 0.06586897 0.16684534 -0.09718933
0.024319354 0.09715488 -0.02422251 0.006283862 0.110144764 0.07351839 0.06799151 0.198395
0.014318409 -0.017146919 0.037627526 0.07637413 0.056080908 0.13859284 0.16148783 0.16316055
0.14251454 0.16009517 0.23914416 0.18037175 0.2372558 0.13284425 0.1191309 0.19442312
0.21605463 0.18782178 -0.0030916994 -0.079792954 -0.27415973 -0.041221283 -0.105524 -0.26471007
-0.07559626 -0.13243824 -0.24978532 0.09433681 0.051019665 -0.029142004 0.27184686 0.27077177
0.13351865 0.13222633 0.17541406 0.07055943 0.089635216 0.09769589 0.041295942 0.11441136
0.078254536 0.08300413 0.08205549 0.042228926 -0.034745608 0.00022703255 0.017307566 0.03242739
0.07587433 0.08169946 0.14152765 0.12892064 0.12042133 0.13571496 0.21725768 0.22666067
0.15133734 0.13932723 0.08494122 0.11780532 0.27781716 0.21407625 0.15856077 -0.17918596
-0.18471448 0.0139338365 -0.15259638 -0.13783813 -0.009547688 0.018428804 0.022794178 0.06561117
0.012640291 -0.0068371883 -0.035599343 0.030546537 0.007150414 -0.04479427 -0.010005419 -0.030147197
-0.050210465 0.102027036 0.13073678 0.025894301 0.14486459 0.06313922 0.033656083 0.14503896
-0.0074552703 0.06426338 -0.016996825 -0.029524136 -0.043564953 -0.019180112 -0.07703823 -0.10382224
-0.037414275 -0.033844817 -0.046458013 -7.1576375e-21 -9.162307e-22 8.0174166e-21 1.4011884e-20 1.5050212e-20
5.8662227e-21 -1.4309701e-20 -1.6085842e-20 -1.3474102e-20 -0.04314433 -0.13638029 -0.07691535 -0.15617014
-0.09448854 -0.037382096 -0.094705805 -0.17925574 -0.09808745 0.16091198 0.15200429 0.07594094
0.020828864 0.03298013 0.124788895 0.020072805 0.15129714 0.053624514 -0.0816252 0.019746594
-0.063641384 -0.12604696 -0.017763985 -0.05695099 -0.047730222 -0.0427465 0.026845634 0.045515977
-0.04216132 -0.06742543 0.02596715 -0.029891362 -0.061424274 0.0038880478 0.032514885 -0.05846434
-0.032578547 -0.061006077 -0.06231504 -0.075231574 -0.03243163 -0.103611976 -0.100570366 -0.08724871
-0.061547887 -0.16985857 -0.124977075 -0.119033515 -0.038672496 -0.09849669 -0.10772188 -0.12249954
-0.063395135 -0.070709355 0.009123837 0.08874063 0.102221005 -0.032583274 0.13202173 0.15411119
-0.041414104 0.037107695 0.119751364 -0.08462219 -0.13627033 -0.14667283 -0.1307822 -0.13423696
-0.18262959 -0.14017525 -0.18340114 -0.2066215 -0.001389017 0.029485323 0.017724741 0.07738047
00000000: 9204 3abd 8990 823a e5f9 cc3c b09c ecbc
00000010: f3ac d3bb ea1f 6a3d 3902 0e3d 4b6f 673d
00000020: b3fd 9e3d d137 46be c402 0fbe a509 853b
00000030: e2c6 19be 9e12 cbbd 2c60 293d 33a8 a53d
00000040: 8623 cf3c 0128 073e d4c5 5a3d b688 163d
00000050: f020 823d 5f4f 7b3c d0c2 ab3d d2df 113e
00000060: 502e c33d 6779 0e3e e22c 083e 16f5 c19d
00000070: 3859 6a1d c2ff 159e 5404 be1b d8b6 a49c
00000080: 8b5d ed9d 34c3 a09c ea1e 7a1b 6e56 8c9e
00000090: 71b2 ea3c df90 d03d a5b0 5cbd 271b d33d
000000a0: 4553 953d f032 ee3d 9b02 423d 31b0 a23d
000000b0: ca30 86bc 3b87 69bd 5eb8 6dbd b1c7 b3bc
000000c0: 3b86 93bd c9e1 3b3d 5e09 c03b ae21 5cbd
000000d0: 6b45 aabc 9276 fc3d eefd 503e 0576 bc3d
000000e0: 8f03 713e b1d3 4c3e 8563 2b3e e988 b33d
000000f0: 4910 c33d 4fe6 863d 81d9 2a3e 330b c7bd
00000100: 6239 c73c 23f9 c63d 496e c6bc dbe8 cd3b
00000110: 9493 e13d cf90 963d 223f 8b3d 0f28 4b3e
00000120: c397 6a3c b277 8cbc 521f 1a3d 0a6a 9c3d
00000130: 18b5 653d 48eb 0d3e 115d 253e 8f13 273e
00000140: 55ef 113e fdef 233e 35e2 743e 5fb3 383e
00000150: 2ff3 723e 5308 083e e7fa f33d db16 473e
00000160: 6d3d 5d3e 5a54 403e 1c9e 4abb 7d6a a3bd
00000170: aa5e 8cbe a6d7 28bd f81c d8bd 1488 87be
00000180: 36d2 9abd e49d 07be b9c7 7fbe a833 c13d
00000190: fff9 503d 36bb eebc 832f 8b3e 99a2 8a3e
000001a0: 1db9 083e 5766 073e be9f 333e 7681 903d
000001b0: ab92 b73d c814 c83d ef25 293d 8150 ea3d
000001c0: ea43 a03d 12fe a93d b50c a83d 3df8 2c3d
000001d0: 6951 0ebd 960f 6e39 99c8 8d3c 95d2 043d
000001e0: 0064 9b3d 0c52 a73d a0ec 103e c603 043e
000001f0: 759f f63d ddf8 0a3e cc78 5e3e bc19 683e
00000200: 2df8 1a3e ccab 0e3e aaf5 ad3d ea43 f13d
00000210: 0d3e 8e3e ce36 5b3e c15d 223e 867c 37be
00000220: cb25 3dbe bf4a 643c 3a42 1cbe 7025 0dbe
00000230: e86d 1cbc 01f8 963c dbba ba3c 265f 863d
00000240: 3919 4f3c 7e0a e0bb 9ed0 11bd bb3c fa3c
00000250: 054e ea3b 327a 37bd c5ed 23bc 41f7 f6bc
00000260: 7da9 4dbd 8df3 d03d dddf 053e 4920 d43c
00000270: 6257 143e 234f 813d f6da 093d 1885 143e
00000280: 574b f4bb 859c 833d ed3c 8bbc 9adc f1bc
00000290: 2a71 32bd 9c1f 9dbc 38c6 9dbd c1a0 d4bd
000002a0: b63f 19bd dda0 0abd c24a 3ebd 3634 079e
000002b0: f574 8a9c d971 171e a856 841e 2e25 8e1e
000002c0: a09e dd1d bc26 879e 2eed 979e c284 7e9e
000002d0: 1cb8 30bd 46a7 0bbe cc85 9dbd 11eb 1fbe
000002e0: 3583 c1bd f81d 19bd 1ef5 c1bd d18e 37be
000002f0: 13e2 c8bd 1cc6 243e 03a7 1b3e ec86 9b3d
00000300: 4ba1 aa3c 2c16 073d 5291 ff3d b96f a43c
00000310: a3ed 1a3e 61a5 5b3d 1d2b a7bd 9cc3 a13c
00000320: 6a56 82bd 7412 01be c785 91bc 7145 69bd
00000330: c480 43bd f416 2fbd 60eb db3c f66e 3a3d
00000340: 59b1 2cbd 5816 8abd 10b9 d43c bbde f4bc
00000350: 0598 7bbd 9ece 7e3b 542e 053d 4e78 6fbd
00000360: 1571 05bd 82e1 79bd 0e3e 7fbd 0313 9abd
00000370: 07d7 04bd 8432 d4bd d6f7 cdbd 74af b2bd
00000380: a319 7cbd 68ef 2dbe fbf3 ffbd d8c7 f3bd
00000390: 0d67 1ebd a2b8 c9bd 4a9d dcbd 0ae1 fabd
000003a0: 4fd5 81bd 11d0 90bd 257c 153c a6bd b53d
000003b0: 3f59 d13d 0a76 05bd b430 073e 53cf 1d3e
000003c0: d6a1 29bd 3dfe 173d 3440 f53d 664e adbd
000003d0: 738a 0bbe 6731 16be c5eb 05be 6a75 09be
000003e0: 4003 3bbe 1a8a 0fbe 82cd 3bbe 9694 53be
000003f0: ad0f b6ba 348b f13c 7a33 913c a779 9e3d

bias f4 [16]
0.07511963 0.06649317 0.023847917 0.030066876 0.039928444 0.03170761 0.07742936 0.09672857
0.031659447 0.03500443 0.036203723 0.12592012 0.07941848 0.0706079 -0.010706927 -0.00951849
00000000: 52d8 993d 922d 883d b55c c33c cf4e f63c
00000010: 028c 233d d7df 013d 4993 9e3d a119 c63d
00000020: 56ad 013d ce60 0f3d 5b4a 143d 34f1 003e
00000030: 28a6 a23d e09a 903d 1b6c 2fbc 71f3 1bbc

weight f4 [16, 16, 3, 3]
0.13593212 0.101076014 0.1606797 0.16392055 0.07456706 0.12767376 0.20462263 0.13265598
0.099632636 -0.019628994 -0.10419957 -0.054958176 -0.08097892 0.006183698 -0.09160525 -0.1279087
-0.10192759 0.051276572 0.0039296295 0.062635146 0.08073149 -0.014524474 0.014338268 0.06262281
0.0071456064 0.06303353 0.055594597 0.02523953 -0.019137464 0.11055103 -0.10235474 0.0324194
-0.062873125 -0.080731206 -0.08126127 -0.05795408 0.18316597 0.070154496 0.02107994 0.16337217
0.0942732 0.023141732 0.1764454 0.058322717 0.025683368 0.13885996 0.09280266 0.15941954
0.05876231 -0.00076450437 0.0723147 0.12208658 0.082862794 0.15022568 0.084254034 0.13403592
0.08079838 0.101347275 0.006938118 0.054056287 0.17464685 0.14079398 0.030721378 -0.029341374
0.076167665 0.16144916 -0.046952717 0.015599718 0.13941431 0.062100913 0.033169635 0.13143907
-0.063575655 0.05517312 -0.032990344 -0.079509 -0.040022675 -0.067419834 -0.13830647 -0.14153725
-0.03327354 0.16491598 0.0824526 0.11227261 0.12239662 0.11108497 0.08196548 0.007904488
0.04606538 0.016374607 -0.060024824 -0.07661701 -0.024306383 -0.06715236 0.014638712 0.061508544
-0.13037574 -0.07679328 0.021517942 0.042738132 0.07874301 0.07574417 -0.05652156 -0.0326796
0.08924342 0.0047586425 0.047347233 0.013304043 -0.07081994 -0.072556175 -0.04801828 -0.11770356
-0.061836094 -0.07978628 -0.11233621 -0.11880505 -0.07914172 0.14528874 0.0012942117 0.12190927
0.1369303 0.096911766 0.012925775 0.13748023 0.119883254 0.05423416 0.0067242775 0.007095053
0.0070477775 0.007064896 0.007929159 0.0078055477 0.0066899187 0.007935504 0.0077137286 0.14677095
0.082551144 -0.0073734834 0.12927847 0.05371121 0.1212159 0.11329468 0.12974656 0.08678129
3.9618743e-19 2.7284377e-19 5.9921863e-19 3.069947e-19 1.0077516e-18 4.1513424e-18 -2.9714906e-20 1.3541434e-19
4.260942e-19 -6.7250105e-10 1.6254475e-21 6.439442e-20 -1.0027251e-12 7.0332776e-20 -4.130003e-20 -1.3545086e-11
8.921063e-19 2.548764e-19 2.6324e-20 -1.7355122e-20 1.3528455e-20 -8.294104e-20 -1.4121582e-19 -1.3593866e-19
1.6243745e-19 -5.9582486e-19 -4.143807e-19 -1.7025453e-08 -2.478931e-20 2.4881391e-20 -2.6616114e-09 1.4777124e-19
-4.2262105e-20 -7.917125e-11 2.5858118e-19 9.6957976e-20 4.7740734e-19 -1.54948e-17 -1.7596971e-15 9.259657e-19
2.0146378e-13 3.630831e-15 -1.420639e-17 9.197076e-14 -6.6114686e-16 1.0612498e-11 1.6601908e-13 -1.1487844e-18
-8.5641555e-12 2.2648946e-14 -1.3067923e-17 -2.4426435e-11 7.144635e-16 -1.6391411e-17 -2.834696e-18 4.2617197e-18
-5.882101e-19 -2.2627782e-19 4.4460424e-18 -5.368635e-18 -3.216085e-20 -7.1542256e-18 4.8139616e-19 2.920866e-08
-1.0258613e-12 -2.4750332e-19 1.5910494e-08 -6.164901e-14 -7.05464e-18 2.3101522e-07 -1.9634227e-12 2.86933e-16
-8.409292e-11 -9.942321e-21 4.0891754e-20 3.1652212e-14 -3.274519e-19 3.4195587e-19 -5.298265e-12 1.0483018e-19
4.0118513e-19 4.29759e-20 -6.2162075e-15 -1.2376581e-15 -1.2071039e-17 5.250128e-14 2.0725954e-15 3.2292292e-18
6.3789513e-15 -2.896451e-16 3.8993328e-13 4.3897674e-20 4.163392e-20 2.4779802e-17 -2.1291637e-19 1.3108198e-19
7.102117e-17 4.776091e-19 5.4054924e-19 1.8837886e-06 5.128579e-10 -5.9554026e-19 -1.4851673e-06 -1.5401486e-11
-4.4919687e-16 1.5526932e-06 -1.2159021e-10 1.2626161e-15 9.7379225e-09 -5.2972944e-18 -1.4855162e-22 -2.478415e-11
00000000: ca31 0b3e f100 cf3d 3889 243e cada 273e
00000010: 9db6 983d e9bc 023e 9888 513e f8d6 073e
00000020: 320c cc3d fccc a0bc 9666 d5bd d31b 61bd
00000030: 47d8 a5bd 9ea0 ca3b 899b bbbd 80fa 02be
00000040: 6abf d0bd 6207 523d 1fc4 803b db46 803d
00000050: 8d56 a53d 0ff8 6dbc 0eeb 6a3c 6340 803d
00000060: b125 ea3b b917 813d 29b7 633d 21c3 ce3c
00000070: 2cc6 9cbc 9468 e23d 5d9f d1bd 34ca 043d
00000080: a0c3 80bd 6756 a5bd 4f6c a6bd 4261 6dbd
00000090: dc8f 3b3e 29ad 8f3d d7af ac3c 094b 273e
000000a0: 4f12 c13d bb93 bd3c 1aae 343e cde3 6e3d
000000b0: ed65 d23c 4e31 0e3e 520f be3d e03e 233e
000000c0: bfb0 703d 0569 48ba bb19 943d 8708 fa3d
000000d0: f8b3 a93d c3d4 193e 618d ac3d b640 093e
000000e0: 9f79 a53d 298f cf3d 2759 e33b 206a 5d3d
000000f0: a0d6 323e 4c2c 103e 66ab fb3c 525d f0bc
00000100: cbfd 9b3d ee52 253e 7e51 40bd f695 7f3c
00000110: a0c2 0e3e 875d 7e3d e2dc 073d f797 063e
00000120: f433 82bd 36fd 613d e220 07bd 9dd5 a2bd
00000130: d1ee 23bd 6913 8abd 36a0 0dbe 24ef 10be
00000140: d649 08bd bcdf 283e e9dc a83d 2fef e53d
00000150: 14ab fa3d 8480 e33d 85dd a73d d381 013c
00000160: 0daf 3c3d 0a24 863c 97dc 75bd 61e9 9cbd
00000170: 2e1e c7bc 2d87 89bd 35d7 6f3c 62f0 7b3d
00000180: 3881 05be cc45 9dbd 6546 b03c 2e0e 2f3d
00000190: 0444 a13d c21f 9b3d 2783 67bd 0bdb 05bd
000001a0: 41c5 b63d 63ee 9b3b 2cef 413d 33f9 593c
000001b0: 0b0a 91bd 5598 94bd d1ae 44bd 900e f1bd
000001c0: d847 7dbd fd66 a3bd 8710 e6bd 1050 f3bd
000001d0: 0e15 a2bd 92c6 143e 8aa2 a93a 91ab f93d
000001e0: 7537 0c3e ad79 c63d a1c6 533c 9ec7 0c3e
000001f0: 5a85 f53d a324 5e3d 5457 dc3b 9e7d e83b
00000200: 0bf1 e63b a580 e73b 4ee9 013c aec5 ff3b
00000210: 1b37 db3b eb03 023c 72c3 fc3b 204b 163e
00000220: 9310 a93d 439d f1bb 9361 043e 4900 5c3d
00000230: 0b40 f83d 0b07 e83d 48dc 043e 64ba b13d
00000240: 27de e920 fc0e a120 aedb 3021 ba37 b520
00000250: c7b7 9421 5228 9922 1e53 0c9f 79de 1f20
00000260: 8985 fb20 0edb 38b0 74a1 f51c 0a0c 981f
00000270: fb1e 8dab 8e11 a61f ac08 439f a549 6ead
00000280: d3a6 8321 d573 9620 879f f81e 1cea a39e
00000290: 988b 7f1e c8d6 c39f ddb7 26a0 f07c 20a0
000002a0: b5c5 3f20 41db 2fa1 719b f4a0 5e3f 92b2
000002b0: e020 ea9e 83ff ea1e 90e7 36b1 1e75 2e20
000002c0: c093 479f 7419 aeae afa3 9820 80ef e41f
000002d0: e1e7 0c21 10ea 8ea3 5d99 fda6 ffa5 8821
000002e0: fbd3 622a 81d0 8227 e407 83a3 8919 cf29
000002f0: 0790 3ea6 71b2 3a2d beeb 3a2a d987 a9a1
00000300: 87a9 16ad ea00 cc28 860f 71a3 71db d6ad
00000310: 1aee 4d26 202f 97a3 e529 51a2 ce3a 9d22
00000320: e69b 2da1 2392 85a0 af07 a422 5311 c6a2
00000330: 15e0 179f e0f8 03a3 4415 0e21 86e6 fa32
00000340: 8c60 90ab a519 92a0 8cab 8832 3cd2 8aa9
00000350: 9822 02a3 fb0c 7834 e129 0aac d667 a525
00000360: 1bec b8ae 1dce 3b9e 191b 411f 848c 0e29
00000370: 224b c1a0 e9da c920 876a baac f585 f71f
00000380: 62d1 ec20 adf2 4a1f 65f6 dfa7 865d b2a6
00000390: dfab 5ea3 db71 6c29 a358 1527 6a46 6e22
000003a0: 71d3 e527 12f8 a6a5 4f83 db2a 084d 4f1f
000003b0: 529c 441f a78d e423 065e 7ba0 19c1 1a20
000003c0: 80c3 a324 20f7 0c21 bf8a 1f21 7cd6 fc35
000003d0: 2bf9 0c30 c0c5 2fa1 f655 c7b5 1079 87ad
000003e0: e178 01a6 2266 d035 9ab0 05af 50f6 b526
000003f0: d64b 2732 886f c3a2 8096 339b f200 daad

bias f4 [16]
0.03184462 -0.0012716325 0.0818253 0.12417697 -4.177308e-06 0.051210716 0.0116637945 0.006680438
-0.017603166 0.13135332 0.09155832 0.010957934 0.07000223 0.022500517 0.0060468125 -0.00033212858
00000000: 816f 023d e8ac a6ba 0694 a73d 7f50 fe3d
00000010: cd2a 8cb6 54c2 513d 8019 3f3c 93e7 da3b
00000020: 8434 90bc 7c81 063e ee82 bb3d e888 333c
00000030: 545d 8f3d 0153 b83c 5724 c63b 8b21 aeb9

weight f4 [128, 16]
-0.26757547 -1.2850174e-20 -0.0010558153 -0.12460813 1.441512e-13 0.18165898 -0.08857759 0.16844377
-0.08968618 0.07152184 -0.09485511 0.16155942 0.15939808 -0.07437742 0.058449816 1.0689154e-23
0.29979205 7.0588984e-21 0.26802713 -0.013151821 4.775985e-07 -0.16954945 0.22287281 0.022337083
0.22944227 0.07023885 -0.18595874 0.24216883 -0.22939312 -0.20837553 -0.04896285 1.3681759e-18
0.2116327 7.0713027e-12 -0.21328613 0.2376391 -2.782529e-20 0.24938408 -0.18599114 0.055231962
0.20848967 0.21717763 0.08674107 0.24496019 0.24732779 -0.17266156 0.27374595 1.3809932e-24
0.029117387 -1.33031e-18 -0.014565826 -0.087172404 -8.207858e-16 -0.05396173 0.11761404 0.0783605
0.14875162 -0.010316483 0.07752755 -0.018553438 0.025842141 0.05492827 0.12553799 3.5054538e-26
-3.0889488e-25 3.0818557e-25 5.334422e-22 -2.0816306e-25 1.3415017e-23 2.281636e-21 -5.6985506e-26 -8.557538e-24
3.3832474e-23 -2.1470587e-15 -2.4146034e-17 -7.2477276e-18 -8.010144e-25 2.4049399e-24 -1.4939914e-11 -1.26543915e-23
0.008534575 -1.1606799e-21 -0.0057882736 -0.14762963 1.5085036e-17 -5.9421065e-11 0.01614241 8.7807455e-18
-6.965106e-08 0.08627015 7.908047e-05 0.004817774 -0.010195976 2.7209046e-06 -0.077006795 -2.0209304e-06
-0.036657393 -1.0518735e-20 0.26007116 -0.17648931 -5.612842e-10 0.23912264 0.043878704 0.01903754
0.012133959 -0.2629517 -0.16352426 -0.063015856 0.21012808 -0.08025315 0.14706591 8.840058e-11
0.031393103 -4.0545896e-07 -0.19152099 0.05442103 1.2502351e-24 -0.088104405 -0.091636054 0.11206215
6.8911568e-06 -0.055203922 0.058038797 -0.1970553 -0.06023204 -0.15144953 0.06140351 2.9202359e-24
0.2226476 8.30917e-09 -0.18697092 -0.11673416 1.7785583e-21 0.16580655 -0.12779106 0.10100468
0.09226949 0.06646847 0.18134233 0.23805115 0.27268165 -0.050814446 0.21997495 -2.051849e-15
-0.010263004 -1.8506037e-25 -0.005962483 -0.067531936 -3.3755367e-21 -0.023514308 -0.032715123 -0.025658388
-0.027353691 0.048078965 -0.008089217 -0.0100035155 0.018488955 -0.007570071 0.0059033507 -1.2104466e-22
-0.048766565 1.7319132e-11 -0.09663956 -0.14981572 -5.553994e-20 0.17874722 0.09221354 -0.023934564
0.021334413 -0.055134434 0.08034694 -0.03216229 0.36693624 -0.29188997 0.3883723 1.2180613e-15
-0.125934 3.9632596e-07 -0.122805916 0.16177617 1.0857953e-19 0.24148333 -0.2422963 -0.025440693
0.15215957 0.16206975 0.00048739964 0.2392702 0.14290033 -0.20673722 -0.080158405 -8.863901e-10
-0.049858052 5.392361e-21 -0.076418705 0.16709228 -1.0842692e-14 0.23584661 -0.17198579 0.14665747
-0.051221948 0.020460412 -0.03930221 -0.061925247 0.11966306 -0.24499774 0.08041021 -2.2895953e-23
0.24632487 -4.0769516e-11 0.039974403 0.051362433 1.89938e-19 -0.10728581 0.16723467 0.046266112
-0.091647185 -0.1541501 0.06118849 -0.035860322 -0.17382321 0.12703025 0.27652305 -3.1388447e-23
0.24822807 5.013682e-08 -0.12831987 -0.26830468 7.834058e-10 -0.068499014 -0.0432638 0.052687857
-0.16260804 0.20358098 0.32467812 -0.11998076 0.21681094 -0.11094804 0.21447167 -9.476746e-24
0.069241896 -2.2002483e-21 0.10095499 -0.28847992 -3.476221e-20 0.028102096 0.14296594 0.15746559
0.09534209 0.08774555 -0.0051785903 0.20472905 -0.099154286 -0.13698402 0.23137292 -9.702178e-14
00000000: a7ff 88be a1bb 729e 4863 8aba 8c32 ffbd
00000010: c14c 222a d004 3a3e 2b68 b5bd 867c 2c3e
00000020: 63ad b7bd 0b7a 923d 6543 c2bd d56f 253e
00000030: 4039 233e 3053 98bd 1369 6f3d 20c2 4e19
00000040: 587e 993e bd56 051e da3a 893e bc7a 57bc
00000050: 5234 0035 5f9e 2dbe c538 643e 42fc b63c
00000060: eaf2 6a3e 63d9 8f3d f86b 3ebe 1bfb 773e
00000070: 08e6 6abe 6560 55be 458d 48bd 39e8 c921
00000080: 3eb6 583e a2cc f82c ae67 5abe aa57 733e
00000090: b666 039f 8a5e 7f3e 7674 3ebe e93a 623d
000000a0: 517e 553e d063 5e3e 4da5 b13d d8d6 7a3e
000000b0: 7f43 7d3e 31ce 30be 6e28 8c3e c7b2 d517
000000c0: 9687 ee3c b151 c4a1 81a5 6ebc 7287 b2bd
000000d0: 4d93 6ca6 fa06 5dbd a1df f03d 787b a03d
000000e0: 5852 183e 7706 29bc c4c6 9e3d 61fd 97bc
000000f0: e6b2 d33c 77fc 603d 088d 003e e894 2d15
00000100: 5932 bf96 f4c1 be16 1739 211c c1d8 8096
00000110: f9bd 8119 4265 2c1d db16 8d95 e086 2599
00000120: 939a 231a 3eb6 1aa7 36b5 dea3 6db2 05a3
00000130: e6e6 7797 be12 3a18 b269 83ad 83c5 7499
00000140: 9ad4 0b3c a165 af9c 8fab bdbb 392c 17be
00000150: 8922 8b23 16ab 82ae 163d 843c e6f9 2123
00000160: 1393 95b3 68ae b03d 01d8 a538 6bde 9d3b
00000170: 060d 27bc c998 3636 bdb5 9dbd 529f 07b6
00000180: 1026 16bd 7bb1 469e 0c28 853e 9db9 34be
00000190: dd48 1ab0 91dc 743e 28ba 333d 9df4 9b3c
000001a0: 83cd 463c 9ba1 86be e772 27be 750e 81bd
000001b0: d12b 573e c35b a4bd 7298 163e 1a65 c22e
000001c0: 0e96 003d dbad d9b4 141e 44be 96e8 5e3d
000001d0: ea76 c117 1570 b4bd afab bbbd d780 e53d
000001e0: 963a e736 821d 62bd 17ba 6d3d ddc8 49be
000001f0: dfb5 76bd 9615 1bbe 3f82 7b3d 3bf1 6118
00000200: bcfd 633e 1ec0 0e32 4e75 3fbe 5212 efbd
00000210: 5262 061d 31c9 293e a9db 02be 8bdb ce3d
00000220: c9f7 bc3d 9f20 883d ceb1 393e aec3 733e
00000230: ee9c 8b3e cf22 50bd 1d41 613e efd9 13a7
00000240: 2926 28bc f917 6596 ef60 c3bb 2f4e 8abd
00000250: 600c 7f9d 14a1 c0bc 4b00 06bd 8a31 d2bc
00000260: d914 e0bc 73ee 443d a388 04bc c9e5 23bc
00000270: 2676 973c 5c0e f8bb e570 c13b 8255 129b
00000280: 73bf 47bd 3857 982d f6ea c5bd 4b69 19be
00000290: d523 839f 8309 373e 74da bc3d 6b12 c4bc
000002a0: 82c5 ae3c a5d4 61bd f08c a43d 9bbc 03bd
000002b0: 11df bb3e 9a72 95be bcd8 c63e 888a af26
000002c0: d8f4 00be a0c6 d434 ab81 fbbd a7a8 253e
000002d0: 2630 0020 6847 773e 851c 78be 0069 d0bc
000002e0: b8cf 1b3e 9df5 253e ac89 ff39 3f03 753e
000002f0: 7754 123e ecb2 53be 172a a4bd 28a6 73b0
00000300: f537 4cbd b7b7 cb1d 6981 9cbd 3d1a 2b3e
00000310: 1753 43a8 c681 713e 0b1d 30be 602d 163e
00000320: 1bce 51bd 989c a73c 5bfb 20bd 54a5 7dbd
00000330: e811 f53d b0e0 7abe 1cae a43d a26f dd99
00000340: 963c 7c3e 654e 33ae 33bc 233d 6a61 523d
00000350: 3d3d 6020 aab8 dbbd 913f 2b3e 8981 3d3d
00000360: 85b1 bbbd 86d9 1dbe c8a0 7a3d 46e2 12bd
00000370: b6fe 31be 3814 023e 6e94 8d3e 04c9 179a
00000380: 802f 7e3e 0456 5733 4966 03be 3b5f 89be
00000390: 4857 5730 3649 8cbd 6235 31bd 39cf 573d
000003a0: b982 26be 8877 503e 363c a63e 79b8 f5bd
000003b0: b003 5e3e ba38 e3bd 769e 5b3e 934e 3799
000003c0: b2ce 8d3d fe3e 269d 7dc1 ce3d a4b3 93be
000003d0: ef28 249f 5e36 e63c aa65 123e a93e 213e
000003e0: b742 c33d f0b3 b33d 2ab1 a9bb 7ea4 513e
000003f0: 6711 cbbd 8a45 0cbe 06ed 6c3e 4079 daa9

bias f4 [128]
0.19593546 0.097353466 0.08989575 -0.30419877 -1.8554772e-13 0.007561717 0.21724693 0.2389597
0.21855883 -0.0152790435 0.16339147 0.15165025 -0.17452987 0.1975928 0.21558654 0.07385478
0.16199885 -0.057420596 -0.06080049 -1.429506e-06 0.21511151 -0.008791701 0.13101937 -0.08816416
-0.13577263 0.14532676 -0.16663456 0.27971634 -0.023551993 0.030985558 0.09248181 -0.039114535
-0.04085305 0.24957652 0.24630821 0.11635535 0.074721806 -0.02556819 0.11535957 0.020809084
-4.3134925e-08 0.10930488 -0.0066714543 9.6566825e-17 0.1653327 0.26530075 0.032236896 0.01758021
0.22388951 -1.9662984e-05 0.25003755 -1.0247998e-16 -0.19940716 0.040757086 -4.5696097e-06 -0.13936622
0.2629426 0.08435253 -0.010604021 -0.11926891 -0.00029669542 0.15247403 0.26588854 0.005420319
-0.07100653 -0.080817804 0.053960185 0.12172576 0.1780895 0.08568925 -0.2599069 0.068783015
0.3390562 0.24030453 1.0756583e-12 0.024194133 0.1863966 1.1005153e-23 0.1826468 0.02244361
0.014786779 0.24152935 0.15477736 -2.7849218e-08 -0.01570853 0.22020528 0.0042467774 -0.030922847
-0.18633574 0.2163252 0.14724727 -0.005051801 -0.02831563 -0.09863997 0.122459434 -0.15888822
0.028464898 0.252335 1.2724512e-18 -0.07721173 2.1799789e-22 -0.015954379 0.0057425937 0.17316523
0.14241944 0.075217634 0.22075105 0.11579254 0.03366137 0.05217845 -0.04448946 0.17040977
-0.17328253 -0.19863884 0.2134286 0.10433533 -0.16193767 0.0017889382 0.21472533 0.10531465
0.3617727 0.1424726 -0.026508788 0.1361719 0.107987605 -0.16651733 0.17636262 0.22029078
00000000: 4ea3 483e 4161 c73d 431b b83d f1bf 9bbe
00000010: 7de8 50aa 48c8 f73b fb75 5e3e dab1 743e
00000020: e3cd 5f3e f454 7abc 1850 273e 344a 1b3e
00000030: f5b7 32be c455 4a3e b8c2 5c3e 2d41 973d
00000040: 07e3 253e dc31 6bbd ef09 79bd 74dd bfb5
00000050: 3146 5c3e 110b 10bc f129 063e 698f b4bd
00000060: fb07 0bbe 8ad0 143e 40a2 2abe fb36 8f3e
00000070: 1cf0 c0bc 6dd5 fd3c 1a67 bd3d 9036 20bd
00000080: 8755 27bd fd90 7f3e 3838 7c3e b74b ee3d
00000090: bf07 993d 6174 d1bc a341 ec3d d077 aa3c
000000a0: 5a43 39b3 3ddb df3d 379c dabb feaa de24
000000b0: fa4c 293e 80d5 873e d60a 043d 5f04 903c
000000c0: 4b43 653e f0f1 a4b7 ec04 803e 814d eca4
000000d0: 6431 4cbe e7f0 263d a654 99b6 05b6 0ebe
000000e0: 6aa0 863e 05c1 ac3d 7dbc 2dbc 4243 f4bd
000000f0: c98d 9bb9 2722 1c3e 8b22 883e ee9c b13b
00000100: df6b 91bd ce83 a5bd 5b05 5d3d 5b4b f93d
00000110: 185d 363e d87d af3d 8412 85be 1cde 8c3d
00000120: c698 ad3e 6412 763e ad62 972b c632 c63c
00000130: c0de 3e3e e1de 5419 c307 3b3e a9db b73c
00000140: 3f44 723c 7853 773e f57d 1e3e 1439 efb2
00000150: 2daf 80bc 7e7d 613e 8d28 8b3b e951 fdbc
00000160: ccce 3ebe 5a84 5d3e fdc7 163e 9489 a5bb
00000170: 2ef6 e7bc c103 cabd 03cc fa3d 98b3 22be
00000180: 382f e93c 0e32 813e d9c7 bb21 2f21 9ebd
00000190: 8ac5 831b c2b2 82bc 5e2c bc3b 3a52 313e
000001a0: 67d6 113e b40b 9a3d 900c 623e a424 ed3d
000001b0: 81e0 093d 12b9 553d 943a 36bd e67f 2e3e
000001c0: fa70 31be fb67 4bbe 078d 5a3e c3ad d53d
000001d0: fdd2 25be ce7a ea3a f5e0 5b3e 35af d73d
000001e0: 453a b93e 56e4 113e f528 d9bc a670 0b3e
000001f0: 9b28 dd3d 8583 2abe 6798 343e e893 613e

weight f4 [64, 128]
2.301197e-16 3.795526e-18 -1.8587203e-05 5.321692e-19 -2.1423342e-25 1.8532717e-24 -2.3556357e-20 -1.0652368e-24
-2.4676797e-07 -2.9031023e-25 2.5426336e-21 2.779979e-13 4.4625062e-18 -4.566547e-20 -4.4040138e-17 4.9413826e-19
-5.9488144e-08 1.2729505e-14 -8.582349e-25 -1.6154483e-23 7.0886406e-21 -4.1103236e-09 -1.6765668e-10 -1.4414655e-18
-9.347635e-15 -2.472809e-18 -2.4310784e-10 -6.2414713e-12 -7.5211794e-17 -2.1422747e-24 9.736547e-25 -3.158223e-08
-4.120002e-26 -2.2260232e-19 -5.7186077e-19 -1.952283e-19 2.6262136e-24 2.4608245e-25 2.4856136e-19 1.2858978e-18
-1.3684922e-25 -8.202535e-11 5.9874598e-24 5.04607e-25 -9.899419e-19 -6.0458114e-19 -1.1573516e-08 1.9865513e-17
8.726409e-20 2.2098723e-23 3.3534204e-19 1.3986614e-25 4.6546055e-21 -5.6166388e-24 -5.1625748e-24 -3.9486053e-25
-2.1698963e-09 -2.8818927e-06 -3.6846273e-24 5.9640074e-19 3.8501552e-26 -3.3410238e-06 -8.908859e-18 -1.5020433e-12
-1.4467695e-23 3.651194e-20 -8.3455607e-19 2.4690866e-19 -3.8726138e-19 -1.8946695e-20 -2.4003794e-19 4.175352e-16
1.5415304e-13 -2.1378213e-09 -1.6269071e-22 -2.5038483e-19 -4.4507148e-21 4.7711462e-23 6.2740525e-20 2.4509943e-19
1.5839325e-25 -1.5264752e-07 -2.6228382e-19 -1.0738525e-24 -9.078215e-25 8.4281634e-19 -7.571317e-12 -1.7509525e-07
-2.1364155e-21 3.804959e-17 1.3140643e-25 -3.7064244e-26 3.5294637e-23 9.817683e-19 -2.3752233e-16 -9.3166785e-12
-1.1215942e-19 1.292676e-24 -2.4861751e-26 -2.8494847e-20 5.644946e-25 -7.925221e-26 -1.3259377e-16 -1.2606832e-20
-3.638651e-06 3.976324e-19 -4.4134322e-07 4.6690437e-18 -7.804568e-20 -1.5025604e-10 1.2875954e-24 4.460524e-14
4.1656283e-19 -3.18868e-19 -6.2521165e-26 -2.6981058e-06 -2.694229e-19 -4.3713948e-18 1.5618429e-21 -8.806024e-15
-1.7119772e-18 1.2097703e-18 1.3787267e-24 -9.519859e-22 -3.2476656e-17 -5.8848332e-08 1.2972868e-13 -2.8727196e-11
0.13515487 -0.037785497 0.050496984 -0.017169755 -2.1147406e-25 -0.014624896 0.17084816 0.04933435
0.10709617 -9.4924464e-05 0.090236776 0.17598072 -0.01105576 -0.0784305 0.028895538 0.034354348
0.12315473 0.015613676 -0.023066236 4.5021855e-25 0.05162331 -0.00031795556 0.008189275 0.12500905
0.0284752 0.052430365 0.03544443 -0.037734333 -0.047942672 -0.25368667 -0.021224704 0.085575916
-0.00058430166 0.042111605 -0.041975275 -0.005143045 -0.055295996 0.03069491 -0.07163912 -0.045311417
-6.04295e-26 0.061761767 0.008023292 -2.1642424e-26 -0.13547178 0.10669819 0.033095654 0.030361373
0.060146578 8.643012e-20 0.25454596 2.3427246e-26 -0.0598589 0.015343361 1.0477544e-20 -0.03301815
0.015057636 0.09222542 0.0030934345 0.04204836 9.754077e-07 0.05240285 0.032299906 0.06127194
-2.0614728e-07 -0.022406837 0.014493701 0.034760304 -0.027008697 0.08501736 -0.028581306 -0.070493355
0.14327796 0.095970854 2.6558988e-17 -0.08253671 -0.023636568 1.16907276e-26 -0.070048094 0.02644739
-0.07413602 0.09015577 0.012924062 5.225925e-24 0.011260487 0.056100618 0.0068890895 0.10053284
-0.12591748 0.06168436 0.040779173 3.8374477e-09 0.01977954 0.0135385655 0.08191218 0.0711669
-0.008697238 -0.026375512 1.0849453e-24 -0.031729966 1.8009893e-22 -0.0044689993 -0.06658394 -0.0048996294
0.00013793474 -0.07142309 0.12681365 0.00061837357 -0.043653827 0.032369092 -0.21596454 0.023467485
0.013369224 0.0056313607 -0.047778293 0.079076685 -0.024294391 0.1156622 0.043409575 0.03828976
0.20259051 0.10363034 -0.0042686486 -0.026320867 0.07199788 -0.03324384 0.07976552 0.066172495
00000000: aca7 8425 bb07 8c22 b7eb 9bb7 9111 1d21
00000010: a49a 8496 d463 0f18 c77b de9e 61d6 a497
00000020: 887b 84b4 7eb1 b396 b01d 401d b87f 9c2a
00000030: 2ea3 a422 2aa6 579f 6b19 4ba4 08d8 1121
00000040: e87f 7fb3 7b50 6528 30ce 8497 903c 9c99
00000050: 90e6 051e ca3a 8db1 2957 38af 07b9 d4a1
00000060: 5c64 28a8 0b76 36a2 63a6 85af 2d9a dbac
00000070: 356d ada4 1fc0 2598 70aa 9617 07a5 07b3
00000080: 3b03 4c95 b666 83a0 94c8 28a1 227c 66a0
00000090: 8531 4b18 5251 9816 88b9 9220 d8c3 bd21
000000a0: 4069 2996 2b60 b4ae eea0 e718 162b 1c17
000000b0: f316 92a1 dc70 32a1 ddd4 46b2 1e3a b723
000000c0: e80b ce1f cab9 d519 75f3 c520 5925 2d16
000000d0: 95d8 af1d 7f48 d998 aab7 c798 2668 f496
000000e0: 381d 15b1 8a66 41b6 c88a 8e98 c406 3021
000000f0: 84a6 3e15 5a36 60b6 e656 24a3 d064 d3ab
00000100: 47ec 8b99 3a6c 2c1f 4651 76a1 c8bf 9120
00000110: 4999 e4a0 4cf2 b29e 82b1 8da0 52b1 f025
00000120: 978f 2d2a f3e8 12b1 56ae 449b 16cd 93a0
00000130: ac24 a89d eeb7 661a 5224 941f 61ae 9020
00000140: d314 4416 6ee7 23b4 36d3 9aa0 ae2b a697
00000150: 847a 8c97 67c1 7821 2e32 05ad d101 3cb4
00000160: 496c 219d 0779 2f24 5cac 2216 8388 3795
00000170: a5ac 2a1a 28e2 9021 1cec 88a5 97e6 23ad
00000180: 1b6a 04a0 2c08 c817 0738 f694 2890 069f
00000190: dfb3 2e17 0e38 c495 c6de 18a5 e622 6e9e
000001a0: 8c2f 74b6 82b8 ea20 c0f1 ecb4 df41 ac22
000001b0: b847 b89f 5135 25af e93e c717 57e2 4829
000001c0: 32e5 f520 f839 bca0 7fcb 9a95 1b11 35b6
000001d0: 0a0a 9fa0 a846 a1a2 df04 ec1c 9ea2 1ea8
000001e0: aca4 fca1 d487 b221 fe58 d517 2cdc 8f9c
000001f0: abc5 15a4 6dc0 7cb3 bf0f 122a e5af fcad
00000200: 0a66 0a3e f7c4 1abd edd5 4e3d 96a7 8cbc
00000210: 67e5 8296 439d 6fbc d2f2 2e3e d112 4a3d
00000220: 3d55 db3d 2f12 c7b8 0fce b83d 4a34 343e
00000230: 3823 35bc 2ca0 a0bd 56b6 ec3c 25b7 0c3d
00000240: 8c38 fc3d 81d0 7f3c 67f5 bcbc fd55 0b17
00000250: f772 533d 46b3 a6b9 4f2c 063c 5f02 003e
00000260: d344 e93c 39c1 563d 2e2e 113d 518f 1abd
00000270: 895f 44bd 38e3 81be 6edf adbc 6d42 af3d
00000280: d22b 19ba 387d 2c3d 44ee 2bbd fd86 a8bb
00000290: 0e7e 62bd e473 fb3c 88b7 92bd 7798 39bd
000002a0: bf9d 9595 e8f9 7c3d 2074 033c 1056 d694
000002b0: 1db9 0abe 9584 da3d 4f8f 073d 6ab8 f83c
000002c0: 425c 763d cd13 cc1f d953 823e 2003 e814
000002d0: 9b2e 75bd b862 7b3c 4bea 451e 0a3e 07bd
000002e0: 4eb4 763c aee0 bc3d 38bb 4a3b e73a 2c3d
000002f0: c1ea 8235 5fa4 563d e84c 043d 49f8 7a3d
00000300: 5559 5db4 8b8e b7bc fd76 6d3c d260 0e3d
00000310: 5841 ddbc 951d ae3d 5823 eabc d25e 90bd
00000320: 75b7 123e 5e8c c43d a3f6 f423 0209 a9bd
00000330: 7aa1 c1bc 088f 6714 6075 8fbd 32a8 d83c
00000340: a0d4 97bd 97a3 b83d 72bf 533c 0e2b ca18
00000350: e87d 383c c3c9 653d dfbd e13b 29e4 cd3d
00000360: 83f0 00be bda8 7c3d 1008 273d 8cda 8331
00000370: b408 a23c dcd0 5d3c 93c1 a73d f4bf 913d
00000380: dc7e 0ebc 7511 d8bc 1ce3 a717 48f7 01bd
00000390: ebb9 591b af70 92bb 295d 88bd 128d a0bb
000003a0: 93a2 1039 4546 92bd 70db 013e 591a 223a
000003b0: 5bce 32bd 7495 043d cf25 5dbe e23e c03c
000003c0: 970a 5b3c 4787 b83b 2cb3 43bd f5f2 a13d
000003d0: 0805 c7bc 4ee0 ec3d 3dce 313d b9d5 1c3d
000003e0: e373 4f3e 253c d43d 05e0 8bbb dc9e d7bc
000003f0: a073 933d b12a 08bd 1b5c a33d 7285 873d

bias f4 [64]
-7.200091e-20 0.14663136 1.531466e-17 -0.007977599 -0.020723468 0.042748995 -0.03737005 0.09578335
-0.0598824 0.13921277 -0.03257895 0.097216 0.041792214 0.04782126 0.066394836 0.002685397
-0.0056736735 -0.01886887 0.00076524995 -0.06523944 0.031510107 -0.039869443 0.07108699 0.054029882
0.008738394 -0.01899224 -0.013129701 0.0017970995 -0.040492315 0.019340089 -0.019511975 -0.06512903
-0.019829977 -1.2324602e-06 0.115500376 -0.022831684 -0.023483513 -0.008258348 0.06513509 -1.716078e-07
-6.32954e-05 -0.021815527 -0.027126603 -0.004593182 -0.04586049 -0.007043582 0.051906865 -0.08153695
0.014919335 0.058419555 -1.7622471e-05 0.08359383 0.047134224 0.007276038 0.013257995 -0.012768056
0.051333304 0.00189855 -0.0123062655 -2.6318303e-12 -0.0032556797 -0.034706146 0.07828399 0.17530711
00000000: e101 aa9f 8826 163e b840 8d23 7ab4 02bc
00000010: 43c4 a9bc 9219 2f3d 5611 19bd 102a c43d
00000020: 3f47 75bd cb8d 0e3e 8171 05bd 2f19 c73d
00000030: 502e 2b3d 3ae0 433d 04fa 873d 7cfd 2f3b
00000040: 39ea b9bb e392 9abc 0e9b 483a 419c 85bd
00000050: be10 013d 244e 23bd 0e96 913d 704e 5d3d
00000060: 7b2b 0f3c 9d95 9bbc f51d 57bc a78c eb3a
00000070: 45db 25bd 1b6f 9e3c 94d7 9fbc 5e62 85bd
00000080: 7a72 a2bc 036b a5b5 768b ec3d 8309 bbbc
00000090: 7f60 c0bc 064e 07bc 8c65 853d 3143 38b4
000000a0: 76bd 84b8 7ab6 b2bc 9c38 debc 6782 96bb
000000b0: 36d8 3bbd d9cd e6bb 4b9c 543d d8fc a6bd
000000c0: 3a70 743c 5849 6f3d f8d3 93b7 3e33 ab3d
000000d0: d10f 413d d56b ee3b 1038 593c 1c31 51bc
000000e0: df42 523d c4d8 f83a 38a0 49bc d732 39ac
000000f0: 3e5d 55bb 0828 0ebd 5b53 a03d b583 333e

weight f4 [10, 64]
5.8852083e-22 0.00094840256 -5.5630225e-25 3.5645916e-22 -0.022678543 0.020571694 -0.22149743 -0.06024256
-0.023768814 0.1111031 9.278078e-05 0.068622164 0.13816176 -0.21204108 -0.009359758 0.018152285
-7.7855467e-22 -0.030390766 9.0268065e-26 -0.036779027 -0.023165338 -0.013389661 0.12883396 0.06482611
0.04730769 0.031734742 0.008485432 0.0077047544 -0.17002296 -0.0031717806 -0.010115045 0.07296028
0.023871532 8.304286e-19 -0.06308733 -0.16423377 0.039248344 0.0037407973 -0.040432036 -4.223528e-14
1.4388385e-15 0.0039445865 -0.036922865 -5.1292137e-21 -0.19319923 -0.042638037 0.0039263465 -0.15399656
0.008246452 0.14750938 -1.9576598e-21 -0.02930679 0.033607967 -0.084326945 0.095112115 -0.014527206
0.038993835 0.030452358 -0.079196975 -0.0018645161 -5.995389e-22 0.011879227 -0.13324429 0.091816455
-1.2680875e-23 -0.018461294 5.3264433e-24 -3.8276523e-20 0.0073467293 0.034027983 0.1214238 0.12515742
0.0028859072 0.3226024 -1.6523401e-07 -0.13940579 -0.3978361 0.10929618 -0.08373943 -0.038344193
-5.058908e-20 0.029405693 -7.460972e-20 0.014468639 -0.07927743 0.006970344 -0.3370872 -0.22547936
0.06631411 0.11834617 0.014561836 -0.7144643 -0.06850602 -0.16670887 -0.01598705 0.043573014
-0.022904493 -7.328598e-16 0.11205906 -0.26635066 0.064223126 0.003101896 -0.11057225 -2.7286695e-16
8.927961e-19 -0.0122175375 0.044449624 -1.4839266e-23 0.09584517 -0.15848334 0.027032798 -0.39361715
-0.03450179 -0.07532074 -2.8768404e-24 0.0041112797 -0.06122682 -0.017150784 -0.024848036 6.21538e-05
0.06835954 -0.039613254 0.03808304 0.0023577318 7.8439785e-24 0.00021579649 -0.1783303 -0.012153555
-9.26989e-22 -0.046243902 -5.957444e-23 2.5600462e-22 0.008102084 -0.020061776 0.000971426 -0.05047854
0.028870031 0.08466163 0.0044955905 0.06596608 0.1452357 -0.13576338 0.027130902 -0.018819971
-1.5248823e-25 -0.030532269 4.805651e-25 0.13984826 -0.04725727 -0.106508195 0.08821191 0.058519866
-0.04519934 -0.056725156 -0.007468469 0.021210594 -0.046159066 0.11304099 -0.007639873 0.047904246
0.024427349 -1.227891e-19 -0.27918875 -0.12756003 0.040453 -0.00059320073 0.12925108 -1.7703783e-11
0.0052731433 -0.015029139 0.011425595 1.7636683e-22 -0.124778345 0.03878175 0.13722686 -0.03954333
-0.009396458 0.13665107 -3.6100112e-25 -0.09482197 -0.24928053 -0.08184752 -0.050350238 0.019634375
0.12171742 -0.2502566 -0.17558798 0.00016907809 3.7634673e-22 -0.014569834 -0.13369067 0.015944157
-1.0661878e-18 0.054927688 -1.5260953e-23 -8.119691e-24 0.021445097 0.061898682 0.02800662 0.0076027005
0.057816043 0.08637452 2.6277462e-07 0.011884091 0.12551166 -0.042549662 0.0273377 0.04198709
-1.217802e-25 0.00084760005 4.918062e-21 0.040685505 0.028520973 -0.015423076 0.060278967 -0.07590933
-0.050405636 -0.059614055 -0.001711228 -0.17864014 -0.22540052 -0.057667978 -0.0023240952 -0.035333175
0.022700597 5.996653e-14 0.022194041 -0.2353111 -0.025026562 0.005095967 0.08837238 1.1440835e-14
-4.6198375e-12 0.00027404595 -0.0027945347 -4.0516793e-19 0.06546447 -0.26300874 -0.050653886 -0.13662586
0.044971563 0.043351464 9.896248e-25 -0.03890523 0.16297112 0.024965122 0.0761598 0.033045582
0.13917173 0.12364496 -0.0010050794 0.00111548 -3.1548517e-23 -4.6446985e-05 -0.2380723 0.04665048
00000000: 98de 311c 389e 783a ce2a 2c97 6277 d71b
00000010: 5ac8 b9bc f885 a83c 39d0 62be e7c0 76bd
00000020: d1b6 c2bc 068a e33d 4d93 c238 c789 8c3d
00000030: 477a 0d3e 4c21 59be ac59 19bc 1ab4 943c
00000040: c04d 6b9c 0ef6 f8bc 2f7e df15 9ba5 16bd
00000050: 3cc5 bdbc 4f60 5bbc 0ded 033e 8dc3 843d
00000060: b5c5 413d 4afc 013d 7b06 0b3c 2a78 fc3b
00000070: 801a 2ebe a6dd 4fbb 93b9 25bc 336c 953d
00000080: 3b8e c33c 6919 7521 ee33 81bd e62c 28be
00000090: dfc2 203d 2a28 753b 109c 25bd f635 3ea9
000000a0: c55b cf26 9741 813b 6e3c 17bd b6c6 c19d
000000b0: 05d6 45be 39a5 2ebd 95a8 803b 46b1 1dbe
000000c0: 201c 073c b30c 173e a6ea 139d cb14 f0bc
000000d0: 82a8 093d 9bb3 acbd 24ca c23d 8503 6ebc
000000e0: 00b8 1f3d 3977 f93c 0632 a2bd c762 f4ba
000000f0: 1333 359c 17a1 423c 3171 08be 440a bc3d
00000100: a748 7599 243c 97bc 8a0e ce18 7ac1 349f
00000110: d5bc f03b ed60 0b3d 0bad f83d 4429 003e
00000120: 7d21 3d3b 242c a53e 2e6b 31b4 64c0 0ebe
00000130: 2cb1 cbbe add6 df3d 947f abbd cd0e 1dbd
00000140: 72e6 6e9f 35e4 f03c cf2a b09f df0d 6d3c
00000150: 355c a2bd 7c67 e43b b296 acbe 10e4 66be
00000160: b1cf 873d 7a5f f23d c494 6e3c 22e7 36bf
00000170: e24c 8cbd bbb5 2abe 46f7 82bc 9e79 323d
00000180: 34a2 bbbc 823b 53a6 387f e53d 1d5f 88be
00000190: 6a87 833d 2e49 4b3b b473 e2bd 0e4c 9da5
000001a0: e2c0 8321 112c 48bc cf10 363d 3e84 8f99
000001b0: 794a c43d 7549 22be e373 dd3c 3088 c9be
000001c0: c051 0dbd c341 9abd b295 5e98 eab7 863b
000001d0: f9c8 7abd cd7f 8cbc 1c8e cbbc 9158 8238
000001e0: 1600 8c3d 8241 22bd f6fc 1b3d 2d84 1a3b
000001f0: 80b9 1719 6e47 6239 389c 36be b41f 47bc
00000200: 2615 8c9c 3f6a 3dbd cb0a 909a ccbe 9a1b
00000210: 9abe 043c 9858 a4bc 4ca7 7e3a 96c2 4ebd
00000220: d880 ec3c 1463 ad3d bf4f 933b 3919 873d
00000230: abb8 143e 8e05 0bbe a041 de3c 572c 9abc
00000240: 73c5 3c96 cf1e fabc 4aba 1417 6234 0f3e
00000250: d790 41bd f820 dabd 72a8 b43d 87b2 6f3d
00000260: f122 39bd a358 68bd 0fba f4bb d7c1 ad3c
00000270: 4a11 3dbd 0982 e73d e657 fabb 3e37 443d
00000280: dd1b c83c baf6 10a0 d4f1 8ebe 199f 02be
00000290: 0cb2 253d 0781 1bba 655a 043e 60b9 9bad
000002a0: 55ca ac3b c73c 76bc 6b32 3b3c e436 551b
000002b0: ca8b ffbd 9dd9 1e3d 3385 0c3e 30f8 21bd
000002c0: 9af3 19bc 42ee 0b3e e972 df96 0532 c2bd
000002d0: 6543 7fbe ac9f a7bd 0d3c 4ebd 45d8 a03c
000002e0: fc46 f93d a221 80be 56cd 33be 8e4a 3139
000002f0: d67c e31b 50b6 6ebc 35e6 08be 529d 823c
00000300: 7057 9da1 dbfb 603d 4a98 9399 c30e 1d99
00000310: a1ad af3c 7989 7d3d 246e e53c 1320 f93b
00000320: 84d0 6c3d 20e5 b03d 7813 8d34 7eb5 423c
00000330: 2186 003e 8e48 2ebd 50f3 df3c a8fa 2b3d
00000340: b0c1 1696 7a31 5e3a 94cc b91d d8a5 263d
00000350: d1a4 e93c 12b1 7cbc 14e7 763d 5a76 9bbd
00000360: 2476 4ebd de2d 74bd 494b e0ba 71ed 36be
00000370: 65cf 66be 4235 6cbd d94f 18bb 85b9 10bd
00000380: 9af6 b93c 5a08 8729 47d0 b53c 65f5 70be
00000390: 8104 cdbc 12fc a63b 94fc b43d 8a19 4e28
000003a0: cc8b a2ac d3ad 8f39 8324 37bb 3f2b efa0
000003b0: 3c12 863d 15a9 86be 737a 4fbd a6e7 0bbe
000003c0: 1a34 383d 4e91 313d 1423 9917 175b 1fbd
000003d0: e7e1 263e a883 cc3c abf9 9b3d ce5a 073d
000003e0: 0983 0e3e 9239 fd3d debc 83ba 4c35 923a
000003f0: 2c8f 189a 12d0 42b8 3ac9 73be 9314 3f3d

bias f4 [10]
0.0801784 -0.025885142 -0.024117107 0.08759293 -0.00014777659 0.08548234 0.15159747 -0.10422209
-0.038036164 -0.18790042
00000000: 9334 a43d 140d d4bc 3d91 c5bc ec63 b33d
00000010: 7af4 1ab9 5d11 af3d 5e3c 1b3e 6472 d5bd
00000020: cfcb 1bbd f868 40be
