2-hypertuning-mlflow/mlruns/2/f71a8e3faf8e4e478d79b92b6c2b1d2c/artifacts/pytorch_models/20250921-1129model.pt (torch, 137605 bytes, 12 tensors)

weight f4 [32, 1, 3, 3]
0	0x3dc8f2e0	0.0981195
1	0xbd849dc6	-0.064754054
2	0x3ea0e42b	0.31424078
3	0x3e2d701b	0.16937296
4	0x3e20fc70	0.15721297
5	0xbe3b3b1b	-0.18284266
6	0xbdc25f34	-0.09490815
7	0xbe3672ed	-0.17817278
8	0x3dd8a27d	0.10577867
9	0xbec57312	-0.38564354
10	0xbf01b90e	-0.50672996
11	0x3e292f0c	0.16521853
12	0xbf11b531	-0.569171
13	0xbce6cbd2	-0.028173361
14	0xbefe3729	-0.4965146
15	0xbedf675d	-0.43633547
16	0xbe949647	-0.29020903
17	0xbdc59145	-0.096468486
18	0xbf08958e	-0.533532
19	0xbeb54e3e	-0.35411257
20	0x3d520f98	0.051284403
21	0xbe7f4e33	-0.24932174
22	0xbdb693d2	-0.08914913
23	0x3e1892c1	0.14899732
24	0x3ed2250f	0.41043898
25	0xbd8c9714	-0.06864753
26	0xbdd2e354	-0.10297266
27	0xbca98031	-0.02069101
28	0xbe819b50	-0.25313807
29	0x3c3d5c0f	0.011557593
30	0x3c525bcb	0.012839268
31	0xbda49848	-0.08036858
32	0x3e736897	0.23770367
33	0x3d8d5f04	0.069028884
34	0x3e98f8bc	0.2987727
35	0xbe19c1bc	-0.1501531
36	0xbe1d41ea	-0.15357175
37	0x3cda2436	0.026628595
38	0x3cef0fa0	0.029182255
39	0x3e839fb4	0.2570778
40	0xbe925739	-0.2858217
41	0x3d97ba14	0.074085385
42	0xbe9bbece	-0.3041901
43	0xbdf4e08b	-0.11956891
44	0x3dd9dbe3	0.10637643
45	0x3eb188fb	0.3467482
46	0xbbc56f67	-0.006025243
47	0xbd56d940	-0.05245328
48	0xbdd7f9c2	-0.105456844
49	0x3e51c362	0.20484689
50	0x3e365c53	0.17808656
51	0x3dcea115	0.10089318
52	0x3e117646	0.14205274
53	0x3c7f4e49	0.0155826295
54	0xbdbbf71b	-0.09177991
55	0x3ec7f9bb	0.39057717
56	0x3ec4208b	0.38306078
57	0x3e9a0981	0.30085376
58	0x3d4854bc	0.048908934
59	0xbd6599c5	-0.05605485
60	0x3d3959fd	0.045251835
61	0x3de27649	0.11057717
62	0xbe888900	-0.26667023
63	0xbe09bacf	-0.13450168
64	0xbdb2bd90	-0.087275624
65	0x3daa4212	0.08313383
66	0x3d46a48b	0.048496764
67	0x3d7a512c	0.061112568
68	0x3e4096b6	0.18807492
69	0x3ea48ebb	0.32140145
70	0x3e688efd	0.22710796
71	0x3e0f92e3	0.14020877
72	0xad9d8541	-1.790801e-11
73	0x1e482aaa	1.05967346e-20
74	0x986972b5	-3.0172456e-24
75	0xa9b17c70	-7.8819655e-14
76	0x1e86f154	1.4287613e-20
77	0xb6d4fe60	-6.3477055e-06
78	0x9d8c2491	-3.70955e-21
79	0x249bf48c	6.763481e-17
80	0x22f3cb13	6.6080295e-18
81	0xbeb6c786	-0.356991
82	0xbf112e0d	-0.5671089
83	0xbf18b1ae	-0.5964612
84	0xbd810c5d	-0.06301186
85	0xbe984cc7	-0.29746076
86	0xbec1eb45	-0.3787481
87	0xbce30d66	-0.02771635
88	0xbe9f132c	-0.31069314
89	0x3cf4e07a	0.029892195
90	0xbe76b614	-0.24092895
91	0xbeec41c4	-0.46143925
92	0xbeddc878	-0.43317008
93	0xbe94bfb4	-0.29052508
94	0x3c707924	0.01467732
95	0x3e5a2364	0.21302563
96	0xbe4640bf	-0.19360636
97	0xbcd6254f	-0.026140837
98	0x3e9b25a4	0.30302155
99	0xbe037ff4	-0.12841779
100	0xbedd9080	-0.43274307
101	0xbe41d94c	-0.18930548
102	0xbf1f012e	-0.62111175
103	0xbe8bc067	-0.2729523
104	0xbee8cd86	-0.45469302
105	0xbda71da5	-0.08159951
106	0xbbb6eea6	-0.0055826483
107	0xbd56ad94	-0.05241163
108	0xbde1522f	-0.110020034
109	0xbe325013	-0.17413358
110	0x3ea48ff3	0.32141075
111	0x3df87651	0.12131942
112	0xbdba054b	-0.09083041
113	0x3ecc8043	0.39941606
114	0x3d6f4a9d	0.058420766
115	0x3eb4e5f4	0.3533169
116	0x3e98b983	0.29829034
117	0x3d5a2280	0.053255558
118	0x3c84046b	0.016115388
119	0x3b479781	0.0030455294
120	0xbe17a3f6	-0.1480864
121	0x3b5dc1ad	0.0033837364
122	0xbdda9425	-0.106727876
123	0xbe289f84	-0.164671
124	0x3e085ff8	0.13317859
125	0x3e8deafc	0.2771834
126	0xbe7aebe6	-0.2450405
127	0x3e34b581	0.17647363
128	0xbda57681	-0.080792435
129	0x3eaef7f1	0.3417354
130	0x3ea2f7f7	0.31829807
131	0x3eaab883	0.33343896
132	0xbe42af55	-0.19012196
133	0xbcf582f2	-0.029969666
134	0x3e0068e9	0.1254002
135	0xbf1f136b	-0.62139004
136	0xbe471508	-0.19441617
137	0xbeea9b4d	-0.4582161
138	0xbf110d52	-0.5666095
139	0xbdaf2866	-0.08552627
140	0xbee4f5a6	-0.44718665
141	0x3e950c8d	0.29111138
142	0xbebb1b2d	-0.3654417
143	0xbdd45cdb	-0.10369273
144	0x3d8918b6	0.06694166
145	0x3dcff8b3	0.101548575
146	0x3d944b66	0.072409436
147	0x3e5edc63	0.21763758
148	0x3e890aef	0.26766154
149	0x3dc12395	0.09430615
150	0x3e213b7f	0.15745352
151	0xbdf4e0b4	-0.11956921
152	0x3e2952f5	0.16535552
153	0x3d8164f5	0.06318084
154	0xbe824626	-0.25444144
155	0xbef1434b	-0.47121653
156	0xbf097c9c	-0.53705764
157	0xbe5663e4	-0.20936543
158	0xbed1197d	-0.4083976
159	0xbea8b779	-0.3295248
160	0x3e221f03	0.15832143
161	0x3e8a4d41	0.27012065
162	0xbd0b1353	-0.033953976
163	0xbe3e8d3c	-0.18608564
164	0xbe462f8c	-0.19354075
165	0x3eca527c	0.39516056
166	0x3eb135f3	0.34611472
167	0x3e5386b2	0.20656851
168	0xbcde2aec	-0.027120076
169	0x3e126fc4	0.14300448
170	0x3d945f37	0.07244723
171	0xbe8fa8de	-0.28058523
172	0xbec0ccc0	-0.37656212
173	0xbdfda96b	-0.123858295
174	0xbdcb99aa	-0.099414185
175	0x3d1f6b67	0.038920786
176	0xbd8d35ec	-0.068950504
177	0xbc827a86	-0.015927564
178	0x3ed8bb40	0.4233036
179	0x3ece4098	0.40283656
180	0x3df97c45	0.12181906
181	0xbd6dbd55	-0.05804189
182	0xbd0c95ee	-0.03432267
183	0x3e796cba	0.24357882
184	0x3e928f8c	0.28625143
185	0xbc296468	-0.01033888
186	0x3eb816e7	0.35954973
187	0xbc22dd2e	-0.009940429
188	0x3dbed380	0.09317684
189	0x3e397398	0.18110502
190	0x3ebb0ffb	0.3653563
191	0x3ea27a57	0.31733963
192	0xbdfe0795	-0.1240379
193	0xbe10e0ef	-0.14148305
194	0x3d5be67e	0.05368661
195	0x3dba6e1a	0.091030315
196	0x3defb09c	0.117036074
197	0xbdefc461	-0.11707378
198	0x3ea42486	0.32059115
199	0x3e38adb2	0.1803501
200	0x3e893e97	0.26805565
201	0xbd55d355	-0.052203495
202	0xbe5fe7e2	-0.218658
203	0x3de5dafa	0.11223407
204	0xbe78b936	-0.24289402
205	0xbd7ef976	-0.062249623
206	0x3eada1f1	0.33912614
207	0xbe84e984	-0.25959408
208	0xbe0a2e31	-0.13494183
209	0x3dfb5ffc	0.12274167
210	0xbd8b8446	-0.068123385
211	0x3e28fa31	0.1650169
212	0x3ebbdaeb	0.3669046
213	0xbddb8849	-0.10719354
214	0x3e0cee4e	0.13762781
215	0xbe2471c5	-0.16059025
216	0x3e602109	0.21887602
217	0x3ec2d448	0.38052583
218	0x3e5a6ab0	0.2132976
219	0x3c9e766f	0.019343583
220	0x3e92efe6	0.28698653
221	0x3e29a07e	0.16565129
222	0x3eb36aa9	0.35042313
223	0xbe51d975	-0.2049311
224	0x3c18b4b9	0.009320431
225	0x3e3d32fd	0.18476482
226	0xbe3293c6	-0.17439184
227	0xbe20551e	-0.1565747
228	0xbe35f72b	-0.17770068
229	0xbdc434b0	-0.09580362
230	0x3e925cbc	0.28586376
231	0x3e33e63b	0.17568295
232	0x3ddc9fe6	0.10772686
233	0x3e03ef14	0.1288417
234	0x1986bde1	1.3931967e-23
235	0x31843e8c	3.8488164e-09
236	0xa09c9575	-2.652633e-19
237	0x2906f5fa	2.9967328e-14
238	0x21c8e3f1	1.3612863e-18
239	0x95944b33	-5.989537e-26
240	0xb7828271	-1.555795e-05
241	0x1f8bb9d7	5.9176236e-20
242	0xb867781c	-5.5186552e-05
243	0xbee5e891	-0.44903997
244	0x3cd7fbc2	0.026365165
245	0x3c22ef17	0.009944699
246	0xbe0d8a96	-0.13822398
247	0x3e2f1c6f	0.1710069
248	0x3e445d1e	0.19176146
249	0xbf0406d9	-0.5157295
250	0xbe566515	-0.20936997
251	0xbe889e36	-0.26683205
252	0x3f0146ae	0.50498474
253	0x3e9ac60b	0.3022922
254	0xbd577abd	-0.052607287
255	0x3edc42ac	0.43019617

bias f4 [32]
0	0xbd3bd9ea	-0.045862116
1	0x3e5d7164	0.21625286
2	0x3d5ca102	0.053864487
3	0xbdd4945c	-0.1037986
4	0x3e8545be	0.26029772
5	0x3c3b2ac5	0.011423771
6	0x3df1e479	0.11811156
7	0x3e88948a	0.26675826
8	0xb42638e0	-1.5480646e-07
9	0x3e61c2b6	0.22046933
10	0x3e1211c2	0.14264587
11	0x3e10ec7f	0.14152716
12	0xbaefd00f	-0.0018296259
13	0xbd785847	-0.060631063
14	0x3e290dbb	0.16509144
15	0x3e26a50f	0.16273902
16	0xbe4e22e4	-0.20130497
17	0x3ddc0568	0.10743219
18	0xbe1320bb	-0.14367954
19	0x3cf3531b	0.029702714
20	0x3e7d0165	0.24707563
21	0x3e273ed1	0.16332556
22	0x3e52cbb0	0.20585513
23	0xbd5ff88d	-0.054680396
24	0x3e90c8c1	0.28278163
25	0xbd4f2940	-0.05057645
26	0xb7654a38	-1.3666744e-05
27	0x3e40f16e	0.18842098
28	0xb9509070	-0.00019890233
29	0x3e8b06da	0.27153665
30	0x3dafe393	0.08588328
31	0x3e0d079b	0.13772433

weight f4 [32, 32, 3, 3]
0	0x3db73616	0.08945863
1	0x3d7ac906	0.061226867
2	0x3da09ef9	0.07842822
3	0x3dc36a66	0.09541778
4	0x3dac291f	0.08406281
5	0x3db54f1a	0.08852978
6	0x3da80ba7	0.082053475
7	0x3df8c9f9	0.12147898
8	0x3dc5a32d	0.09650264
9	0x3d28e18b	0.04123072
10	0xbdcd67ba	-0.1002955
11	0xbddb8519	-0.10718746
12	0xbdb49f9f	-0.08819508
13	0xbde755d5	-0.11295668
14	0xbe6edbaa	-0.23325983
15	0xbd52f352	-0.05150158
16	0xbe04ad75	-0.12956794
17	0xbd851ca4	-0.064996034
18	0xbcf09caa	-0.029371578
19	0x3c023654	0.007947523
20	0xbda48804	-0.080337554
21	0xbc928e80	-0.017890215
22	0xbd2c424b	-0.04205541
23	0xbe04f4f4	-0.12984067
24	0x3dca6eb8	0.09884399
25	0xbc72934b	-0.014805625
26	0xbde17b3a	-0.11009832
27	0x3dc86685	0.09785179
28	0x3df6932f	0.12039792
29	0x3e087bc7	0.13328467
30	0x3dddbb47	0.10826736
31	0x3df82264	0.121159345
32	0x3de1b3b3	0.11020603
33	0x3dddc0c7	0.10827785
34	0x3d70ee71	0.058821145
35	0xbc6e7d4a	-0.014556238
36	0xbd8dfd74	-0.06933108
37	0xbd813c2c	-0.06310305
38	0xbd3cebe6	-0.046123408
39	0xbd008c78	-0.03138396
40	0xbd40d821	-0.047081117
41	0xbe06f421	-0.13179065
42	0xbd65bc2f	-0.05608767
43	0xbd9c53c1	-0.07633162
44	0xbdb15d03	-0.08660319
45	0x3d9676df	0.073468916
46	0x3e021d46	0.1270648
47	0x3d29dda2	0.04147113
48	0x3dd15c25	0.10222653
49	0x3d882096	0.0664684
50	0x3dc9e62f	0.09858357
51	0x3dc0cd47	0.094141535
52	0x3e012587	0.12611972
53	0x3c85bd2d	0.016325558
54	0x3dabdd51	0.08391822
55	0x3d6ac79a	0.05731926
56	0x3d78c7f0	0.06073755
57	0xbc842207	-0.016129507
58	0x3d4044f9	0.046940777
59	0x3d67c69c	0.056585893
60	0x3dc3d64a	0.09562357
61	0x3cb5e93e	0.022205945
62	0x3b9ff59b	0.0048815734
63	0xbce93965	-0.02846975
64	0xbcbff319	-0.023431348
65	0xbc103d4f	-0.00880368
66	0x3d7dff92	0.06201131
67	0x3d21ab90	0.039470255
68	0x3b6ea0ac	0.0036411686
69	0xbc93f27b	-0.01805996
70	0x3da2cf27	0.079496674
71	0xbd604396	-0.054751955
72	0x95aa7270	-6.8843004e-26
73	0x9722375c	-5.2414896e-25
74	0x158f4020	5.785841e-26
75	0x96dc104c	-3.5553202e-25
76	0x15c4ff95	7.9567007e-26
77	0x1791f06b	9.431095e-25
78	0x97c00e95	-1.241139e-24
79	0x1779c1c8	8.0700826e-25
80	0x97c501af	-1.2731252e-24
81	0x3d11bb76	0.035579167
82	0xbda8a103	-0.082338355
83	0xbda96caf	-0.08272683
84	0xbc122af3	-0.008921373
85	0xbde95150	-0.11392462
86	0xbe4e8ac8	-0.20170128
87	0x3c3430d7	0.010997972
88	0xbe10bb8a	-0.1413404
89	0xbdc8c8e2	-0.0980394
90	0x3cf6a422	0.030107561
91	0xbd352f49	-0.044234548
92	0xbd9a2f07	-0.07528501
93	0xbce84546	-0.028353345
94	0xbc740f13	-0.014896172
95	0xbe2974cb	-0.16548459
96	0x3d0fc384	0.035098568
97	0xbe037f0b	-0.12841432
98	0xbe1cfacc	-0.15330046
99	0x3d3b3a3f	0.045709845
100	0xbd21a57b	-0.039464455
101	0xbda761cc	-0.0817295
102	0x3c5e1384	0.013554458
103	0xbdac9ad1	-0.084279664
104	0xbe4a07e8	-0.19729578
105	0x3d9158d4	0.07097021
106	0xbdf64a6c	-0.120259136
107	0xbd1d6652	-0.03842766
108	0x3dbe04ce	0.0927826
109	0x3d034d0d	0.032055903
110	0x3dd590f8	0.10428041
111	0x3cc811e7	0.024422599
112	0x3ceb9974	0.028759696
113	0x3dce26fd	0.1006603
114	0x3cfce1e7	0.030869437
115	0x3d76bdde	0.060239665
116	0x3cc5139e	0.024057206
117	0x3da373ae	0.079810485
118	0x3d91f9ef	0.07127749
119	0x3d464ebd	0.048414934
120	0x3dbc3d6d	0.091914035
121	0x3d917550	0.07102454
122	0x3ab7ae3e	0.001401372
123	0x3ddd2eba	0.10799928
124	0x3d9b40b2	0.07580699
125	0xbd03b2cf	-0.032152947
126	0x3dbbcb11	0.09169591
127	0xbb24d470	-0.0025151037
128	0x3d9b3f3f	0.075804226
129	0x3b9b25a1	0.0047347103
130	0x3d9c3fcf	0.07629358
131	0x3d42f934	0.04760094
132	0x3db93b23	0.090444826
133	0x3d46035c	0.048343047
134	0xbd3f445e	-0.04669606
135	0x3d41e50e	0.047337584
136	0xbd999d85	-0.075007476
137	0xbdb78248	-0.08960396
138	0xbd81dde0	-0.063411474
139	0xbe1640f9	-0.14673223
140	0xbe75d20b	-0.24005906
141	0x3c8d620e	0.01725867
142	0xbdbb6be9	-0.091514416
143	0xbde7215b	-0.11285659
144	0x3de59d22	0.11211611
145	0x3dc661d7	0.0968663
146	0x3d822410	0.063545346
147	0x3ded3daa	0.11584027
148	0x3e106955	0.14102681
149	0x3da4aab4	0.080403715
150	0x3db26e4d	0.087124445
151	0x3e0cf3b1	0.13764836
152	0x3dc9fd8c	0.09862813
153	0x3db66c9d	0.08907435
154	0x3d3a80bb	0.045532923
155	0xbd25a104	-0.04043676
156	0x3d76ec96	0.06028422
157	0xbdce7925	-0.100817
158	0xbe060f1b	-0.130917
159	0x3e06d92f	0.13168786
160	0xbb4ca9de	-0.0031229178
161	0xbdef5500	-0.11686134
162	0x3e1ae587	0.1512662
163	0x3e10c7b7	0.14138685
164	0x3de81085	0.11331276
165	0x3e13a862	0.14419702
166	0x3df19129	0.11795265
167	0x3d8186cd	0.06324539
168	0x3e05d732	0.13070372
169	0x3d9cdc2c	0.07659182
170	0x3d6ec794	0.0582958
171	0x3e21096c	0.1572625
172	0x3e182a6f	0.14859937
173	0x3dfc35d0	0.123149514
174	0x3df2ff1a	0.11865063
175	0x3d82d2e0	0.063878775
176	0x3d9a6bc1	0.07540084
177	0x3df0a17c	0.11749551
178	0x3c85f8a9	0.016353922
179	0xbd432406	-0.047641777
180	0x3ceef943	0.029171592
181	0x3d967d57	0.073481254
182	0x3d7e384f	0.06206542
183	0x3d3ef23f	0.046617743
184	0x3d9892cf	0.074498765
185	0x3d308858	0.043098778
186	0xbb727143	-0.0036993779
187	0x3da8a7a0	0.08235097
188	0x3d01af24	0.031661168
189	0x3c3d3aa5	0.0115496265
190	0xba3c1d0d	-0.000717596
191	0x3c1da22e	0.009621186
192	0xbbf6fdfc	-0.0075376015
193	0xbb2ba433	-0.00261904
194	0xbcdf41ff	-0.02725315
195	0x3d4a3aa4	0.04937233
196	0x3c788bcc	0.015170049
197	0x3d24e6fa	0.04025934
198	0x3d61aa73	0.055094194
199	0x3cdcaefd	0.02693891
200	0xbd6ebf01	-0.058287624
201	0xbb85ca89	-0.004082982
202	0x3d181098	0.0371252
203	0x3c66b468	0.014081098
204	0x3d5943ec	0.05304329
205	0xbc1d293f	-0.009592353
206	0x3d2759a8	0.040856987
207	0x3dd15811	0.102218755
208	0x3d9c1fc6	0.07623248
209	0x3e26588c	0.16244715
210	0x3dbeb7c3	0.093123935
211	0x3dcd6b9d	0.10030291
212	0x3e02003a	0.12695399
213	0x3dfddac0	0.12395239
214	0x3df280f3	0.11841001
215	0x3d8078f7	0.06273072
216	0xbc6ec20e	-0.014572633
217	0x3d6c0ef3	0.057631444
218	0x3cb01f74	0.021499373
219	0x3d37b565	0.044850726
220	0x3dbc28d6	0.09187476
221	0xbcf9e6d2	-0.030505572
222	0x3d2aabcb	0.04166774
223	0x3c2a138a	0.010380635
224	0xbd1fa49a	-0.038975336
225	0x3dbcafb3	0.092131995
226	0x3de2acae	0.11068092
227	0x3dd3d7f0	0.10343921
228	0x3debac05	0.115074195
229	0x3dd4629e	0.10370372
230	0x3db285b3	0.08716907
231	0x3dd0dbd0	0.10198176
232	0x3da212c7	0.07913738
233	0x3d7923bc	0.060825095
234	0x96e43021	-3.686576e-25
235	0x980adb71	-1.7946872e-24
236	0x1542af94	3.9316495e-26
237	0x9772d216	-7.8459583e-25
238	0x96004728	-1.036221e-25
239	0x1614cb71	1.201954e-25
240	0x13d959a4	5.4866894e-27
241	0x976ddb6f	-7.6855794e-25
242	0x1320a41a	2.0275747e-27
243	0xbc0634ce	-0.008191301
244	0xbe3669f4	-0.17813855
245	0xbe4ac4a2	-0.19801572
246	0xbdb1491b	-0.08656522
247	0xbe76eef0	-0.24114585
248	0xbe7c5a07	-0.24643718
249	0xbdc7c791	-0.09754861
250	0xbe302c08	-0.17204297
251	0xbe4cae30	-0.19988322
252	0x3d9c6d2b	0.0763801
253	0x3e03984a	0.12851062
254	0x3ccc4ce9	0.024939017
255	0x3d054dcc	0.032544896

bias f4 [32]
0	0x3cdc4bbb	0.02689158
1	0x3d0c3285	0.034227867
2	0xbc1b7094	-0.00948729
3	0xba3cb122	-0.00071980257
4	0x3d0ef4e8	0.03490153
5	0xbd52a2b9	-0.051424716
6	0xbc44cad1	-0.012011246
7	0x3bcb4de1	0.0062043522
8	0x3c3329c6	0.0109352525
9	0xbc6e2209	-0.014534482
10	0x3d345c83	0.04403354
11	0x3d93e3b8	0.07221168
12	0x3cbd7e6a	0.023131568
13	0x3c82f062	0.015983764
14	0x3c2c2aee	0.010508282
15	0xbd444862	-0.047920592
16	0x3c1ae978	0.009455077
17	0x3bfcaa58	0.0077107362
18	0x3d33435f	0.043765422
19	0x3b14cd08	0.0022705216
20	0xbcc912a1	-0.024545016
21	0x3cf7445b	0.030183962
22	0x3ce156a5	0.027507136
23	0x3bdc531d	0.006723775
24	0x3d0f422c	0.034975216
25	0x3d1cfe8f	0.038328703
26	0xbd54e69e	-0.051977746
27	0xbc44e175	-0.012016644
28	0x3d7766aa	0.060400642
29	0x3bd3a75a	0.006459159
30	0xbc566896	-0.013086459
31	0xbd2d3a2f	-0.042291816

weight f4 [32, 32, 3, 3]
0	0x3d92b9aa	0.07164319
1	0x3d260155	0.040528614
2	0xbe3dc1aa	-0.18530908
3	0x3d80f3d0	0.062965035
4	0x3dbe7130	0.092989326
5	0xbe23c941	-0.15994741
6	0x3d23dccd	0.040005494
7	0x3b2db933	0.0026508092
8	0xbe3a30e6	-0.18182716
9	0xbe0c6f60	-0.13714361
10	0xbe53d93b	-0.20688336
11	0x3d336ede	0.043806903
12	0xbdde13d8	-0.10843629
13	0xbe1ca631	-0.15297772
14	0xbb3cb4ca	-0.0028794282
15	0xbd57595c	-0.052575454
16	0xbd232215	-0.039827425
17	0x3def5f9f	0.1168816
18	0x3bfbeacf	0.0076879035
19	0x3becf8f5	0.0072318264
20	0x3bcac1c9	0.006187652
21	0x3c003417	0.007824919
22	0x3be65536	0.007029201
23	0x3bce2804	0.0062913913
24	0x3bf108c8	0.007355783
25	0x3bdfd77e	0.0068311086
26	0x3bd0b59b	0.0063693053
27	0x2fe646e2	4.1887122e-10
28	0xaffaa2ca	-4.5590404e-10
29	0xafdcf280	-4.0190073e-10
30	0xaedc41c4	-1.0016124e-10
31	0x2f0700cc	1.2278462e-10
32	0xb00aebe7	-5.0539345e-10
33	0xb0d6b3a4	-1.5621606e-09
34	0x2f8c45a9	2.5515348e-10
35	0xaf5bf0c6	-2.0003474e-10
36	0x3a8f2267	0.0010920287
37	0x3cce3663	0.025172418
38	0xbe21ca90	-0.15799928
39	0x3dc3c808	0.09559637
40	0x3bc77bca	0.006087755
41	0xbd3d685a	-0.046242096
42	0x3d3f1466	0.046650313
43	0x3d851d3f	0.06499719
44	0xbdc1e029	-0.09466583
45	0x3cc11444	0.023569234
46	0x3ca8ab15	0.02058939
47	0x3c4851ca	0.012226531
48	0x3cb35a1e	0.021893557
49	0x3ca4fb98	0.0201395
50	0x3c5ec6a4	0.013597164
51	0x3ca8a835	0.02058802
52	0x3ca8200a	0.02052309
53	0x3c414f2c	0.011798661
54	0x3bc88208	0.0061190166
55	0x3c3fe434	0.011712123
56	0x3b544e90	0.003239546
57	0x3be7b448	0.0070710517
58	0x3c37ee00	0.011226177
59	0x3bae8000	0.0053253174
60	0x3b9db506	0.0048128394
61	0x3c327f86	0.010894662
62	0x3c2eee6f	0.010676964
63	0xbd4937a1	-0.049125317
64	0xbdcc94aa	-0.09989293
65	0x3c70f9b2	0.0147079695
66	0xbcc1c5e6	-0.023653936
67	0x3c8f9fa3	0.017532175
68	0x3d6950a4	0.05696167
69	0xbd80359f	-0.062602274
70	0xbd0f5a6c	-0.034998342
71	0x3d2cde03	0.042203914
72	0x3c563fe7	0.013076759
73	0xbd1a3a62	-0.037653334
74	0xbdc46fdf	-0.0959165
75	0x3d6d2c23	0.05790342
76	0x3da23eec	0.07922158
77	0xbc9f5c9b	-0.019453337
78	0x3d4bfdc9	0.049802575
79	0x3c49b5f2	0.012311446
80	0xbd035f8f	-0.032073554
81	0xbe41ac6c	-0.1891343
82	0xbe008579	-0.12550916
83	0x3d889fb5	0.06671087
84	0xbe03b0bd	-0.12860389
85	0xbdf24ad6	-0.1183068
86	0x3dc54993	0.09633174
87	0xbd8ba223	-0.068180345
88	0xbd7030e8	-0.05864039
89	0x3dd5bb98	0.10436171
90	0xbde4f9ac	-0.11180434
91	0xbe1617db	-0.14657538
92	0xbd3fe1ad	-0.04684608
93	0xbcb7d994	-0.022442617
94	0xbd8b2065	-0.06793288
95	0x3d83b5d1	0.06431163
96	0xbe1c7b3f	-0.1528139
97	0xbdf05028	-0.117340386
98	0x3d48a992	0.04898984
99	0x3d2317d2	0.03981764
100	0xbc3138ad	-0.010816735
101	0xbe1fca91	-0.15604617
102	0x3dc1a3e6	0.09455089
103	0x3d87daf3	0.06633558
104	0xbd412fb4	-0.047164634
105	0x3d899329	0.06717522
106	0xbbebb988	-0.007193748
107	0xbdcede2c	-0.1010097
108	0xbdbd9a9a	-0.092580035
109	0xbe0c2b91	-0.13688494
110	0x3d02c591	0.031926695
111	0xbd82aca3	-0.06380584
112	0xbcc6d491	-0.024271281
113	0x3d6bbf54	0.05755551
114	0xbbc1d653	-0.005915442
115	0xbd0b368f	-0.033987578
116	0x3cf83dc2	0.030302886
117	0x3c3b4e97	0.0114323115
118	0xbc6e9cda	-0.0145637635
119	0xbd7a1fa8	-0.061065346
120	0x3da1d976	0.079028055
121	0x3cf51148	0.029915467
122	0xbbbc44bb	-0.005745498
123	0x3d45a848	0.04825619
124	0x3d26f6cc	0.040762708
125	0xbc907f1b	-0.017638734
126	0xbe273d1a	-0.16331902
127	0xbe4a53cb	-0.19758527
128	0xbd56ea16	-0.052469335
129	0xbd75677e	-0.05991315
130	0xbe005807	-0.1253358
131	0x3cba4ea2	0.022742573
132	0xbe56486e	-0.20926067
133	0xbe3af945	-0.18259151
134	0xbd49b58f	-0.049245413
135	0xbdbc766c	-0.09202275
136	0xbc42e2eb	-0.011894922
137	0xbd4aa587	-0.049474265
138	0x3d9e5594	0.077311665
139	0xbc87f440	-0.01659596
140	0x3d4f4a2c	0.050607845
141	0xbbe658b4	-0.007029617
142	0xbd1a3c3b	-0.037655097
143	0x3d145c90	0.036221087
144	0xbcac3abd	-0.021024102
145	0xbcdd7e76	-0.02703784
146	0xbe32622b	-0.1742026
147	0x3d9dfabf	0.07713842
148	0x3d210596	0.039311968
149	0xbd1fefb4	-0.039046958
150	0xbb222b12	-0.002474491
151	0x3d635476	0.05550047
152	0xbd901bdd	-0.070365645
153	0x3c7ea779	0.015542858
154	0x3caf31f9	0.021386134
155	0xbe3506ca	-0.17678371
156	0x3cf490eb	0.029854259
157	0x3c9f0885	0.019413242
158	0xbdfdc5f5	-0.12391273
159	0x3dc0a837	0.094070844
160	0x3d5fd172	0.054643102
161	0xbd7efe38	-0.06225416
162	0xbe58c8ab	-0.21170299
163	0x3c28a621	0.0102935145
164	0x3e113449	0.14180101
165	0xbddee02a	-0.108826
166	0x3cab34fd	0.02089929
167	0x3e162e94	0.14666206
168	0xbcdd45d1	-0.02701083
169	0x3d9659cf	0.073413484
170	0x3e28e034	0.16491777
171	0xbcb19efb	-0.021682253
172	0xbd2bc0b0	-0.041931808
173	0xbe110e11	-0.14165522
174	0x3d5936c7	0.053030755
175	0x3d0ba8ee	0.03409665
176	0xbd2bcf88	-0.041945964
177	0x3d057b50	0.032588303
178	0xbb497122	-0.0030737598
179	0xbd63d74c	-0.055625245
180	0xb220cd80	-9.359951e-09
181	0xb06617c5	-8.370729e-10
182	0x97ba663f	-1.2045779e-24
183	0xb893e356	-7.051851e-05
184	0xaeb12c34	-8.05688e-11
185	0x2f1b1766	1.410548e-10
186	0xb9cbca7a	-0.00038870034
187	0x30b84476	1.340722e-09
188	0xad9bb7d0	-1.7703089e-11
189	0xbe27d7ff	-0.1639099
190	0xbe4dbdc9	-0.20091929
191	0xb92181d5	-0.00015402523
192	0xbd4a4e87	-0.049391296
193	0xbdbfe2e5	-0.093694486
194	0xbc352754	-0.01105674
195	0xbdd519c3	-0.10405304
196	0xbdcd51c2	-0.1002536
197	0x3d31de82	0.04342509
198	0x3d5e62b7	0.05429336
199	0x3c688d0e	0.014193786
200	0xbdc9fe5e	-0.0986297
201	0x3da98080	0.082764626
202	0x3d414e1d	0.047193635
203	0xbda45c4a	-0.08025415
204	0x3cd58cca	0.02606811
205	0x3d54afb3	0.051925372
206	0xbd9066e3	-0.07050874
207	0x3d70e7c0	0.058814764
208	0x3d265745	0.04061057
209	0xbde834a9	-0.11338169
210	0x3d115247	0.035478856
211	0x3d259be4	0.040431872
212	0xbdaf9728	-0.08573753
213	0x3d9d6640	0.07685518
214	0x3d78f53f	0.06078076
215	0xbd2bc717	-0.041937914
216	0xbe258e4e	-0.16167566
217	0xbe1b2dc3	-0.15154175
218	0x3cd1eb8c	0.025625013
219	0xbe09dc42	-0.13462928
220	0xbdd14fe1	-0.10220314
221	0x3d5b6dd8	0.053571552
222	0xbe1a3186	-0.15057954
223	0xbd955b74	-0.07292834
224	0x3dec42e6	0.11536197
225	0xbe40960c	-0.18807238
226	0xbe1e08f8	-0.15433109
227	0xbac1a886	-0.0014774955
228	0xbdf09bf3	-0.11748495
229	0xbdc228aa	-0.09480412
230	0x3bc76471	0.0060849716
231	0xbe141efd	-0.14464946
232	0xbe2593dd	-0.16169687
233	0x3de4ebcd	0.11177788
234	0xbb946e92	-0.0045297826
235	0x3d4919ed	0.04909699
236	0x3e31d2af	0.17365526
237	0xbe90cd0c	-0.28281438
238	0xbd8c436c	-0.06848797
239	0x3ddfb68b	0.10923489
240	0xbe8fe307	-0.28102896
241	0xbd505b00	-0.050868034
242	0x3e1d8c36	0.15385517
243	0x3588a571	1.0180939e-06
244	0x16a663ca	2.6881722e-25
245	0x13bb5340	4.7287527e-27
246	0x34f29fa2	4.519216e-07
247	0xb4a4c140	-3.0687988e-07
248	0x972f260a	-5.659356e-25
249	0x13bc4e90	4.753534e-27
250	0x960067ad	-1.0372472e-25
251	0x1509a580	2.7797486e-26
252	0xbc027662	-0.007962795
253	0x3c93724a	0.017998833
254	0xbdf97cb0	-0.121819854
255	0x3db2cec9	0.087308474

bias f4 [32]
0	0xbd081fea	-0.03323356
1	0x3d2e5345	0.04255988
2	0xbc7ddbeb	-0.015494327
3	0xbd11a158	-0.03555426
4	0x3ce13859	0.027492689
5	0xbd44c131	-0.048035804
6	0x3d39c456	0.045353256
7	0x3c72e3ee	0.0148248505
8	0x3ce5f2d0	0.028069884
9	0x3c2cb3c4	0.010540906
10	0xbcfbbec8	-0.03073062
11	0xbb6b1a63	-0.0035873882
12	0x3c849104	0.01618243
13	0xbcb236b4	-0.0217546
14	0x3b3ece13	0.002911453
15	0x3d0fa1e6	0.035066508
16	0x3b0ef88a	0.0021815621
17	0xbcfc33b9	-0.030786382
18	0x3d5cf815	0.053947527
19	0xbca27b03	-0.019834047
20	0xbd59e286	-0.053194545
21	0xbc9943d6	-0.018709105
22	0x3da4a239	0.08038754
23	0x3c7cade3	0.015422317
24	0x3d4947ce	0.049140744
25	0x3cf4a689	0.029864566
26	0xb9e8912a	-0.00044358644
27	0x3c09886f	0.008394345
28	0x3d944f0b	0.07241639
29	0x3df50f72	0.119658366
30	0x3d089d8c	0.033353373
31	0x3c9e834b	0.019349715

weight f4 [128, 32]
0	0xbac6e24d	-0.0015173644
1	0xbd87083e	-0.06593369
2	0x3c888f44	0.016669877
3	0xbd6bf6ef	-0.05760854
4	0xbdc8fb3a	-0.09813543
5	0x3dddc8ac	0.10829291
6	0x36df5a53	6.656433e-06
7	0xbd0529f2	-0.032510705
8	0xbe1da562	-0.1539512
9	0xbe28cf03	-0.16485219
10	0x9bcd7635	-3.3990795e-22
11	0xbab79e88	-0.0014009038
12	0x36b5291a	5.399005e-06
13	0x3e25e9cf	0.16202472
14	0x3ce54337	0.027986152
15	0xbd2f2254	-0.042757347
16	0x3d8d34f1	0.068948634
17	0x3d052239	0.03250334
18	0x3e324ccc	0.17412108
19	0xbd9a41f2	-0.07532109
20	0x3d38d22a	0.045122303
21	0xbcaa4c02	-0.020788196
22	0x3d9cf78f	0.076644056
23	0x3d2f8c84	0.042858616
24	0xbe3fbcf8	-0.1872443
25	0xbdabbb7a	-0.08385368
26	0x3e0efa07	0.13962565
27	0x3d7bd152	0.06147892
28	0x3e1eee05	0.15520485
29	0x3e08e15f	0.13367222
30	0x3ce7a050	0.028274685
31	0x3ab55649	0.0013834919
32	0xbcfceb5c	-0.030873947
33	0x3db7ea7f	0.089802735
34	0x3c570873	0.013124573
35	0xbd162310	-0.036654532
36	0xbcb1763f	-0.02166283
37	0x3dff5b4e	0.12468587
38	0x16b4ea6b	2.9228507e-25
39	0x3cc6e480	0.02427888
40	0xbdbef6a7	-0.09324389
41	0x3dfd8831	0.12379492
42	0xb7b04315	-2.1012072e-05
43	0x3d4138cc	0.047173306
44	0x3b2f9b4a	0.002679544
45	0xbc22da9d	-0.009939817
46	0xbe310020	-0.17285204
47	0x3e1676e5	0.14693792
48	0xbe39d0fe	-0.1814613
49	0x3e1c7908	0.15280545
50	0xbd9fbf36	-0.078001425
51	0x3dac52b7	0.08414214
52	0xbdba4503	-0.09095194
53	0xbb68031e	-0.0035402249
54	0xbd48fe20	-0.049070477
55	0xbe4d928e	-0.20075437
56	0x3de1d12e	0.11026226
57	0xbbfa9a67	-0.0076478007
58	0xbd862448	-0.06549889
59	0x3e1c7cd9	0.15282
60	0xbc4dab09	-0.012552985
61	0xbe96a380	-0.29421616
62	0xbe46689f	-0.19375847
63	0xbdcb0b75	-0.09914295
64	0x3e53b01e	0.20672652
65	0x3e127d63	0.14305644
66	0xbc84a585	-0.016192207
67	0x3d1e2106	0.038605712
68	0xbd532b01	-0.051554684
69	0x3e044ec0	0.12920666
70	0x3bbe890a	0.005814676
71	0xbe493d48	-0.19652283
72	0x3d39d407	0.04536822
73	0x3d4b4e1f	0.04963505
74	0x3b6865b7	0.0035461017
75	0xbcee4ea7	-0.029090239
76	0xbb42fc73	-0.0029752522
77	0xbda7070a	-0.081556395
78	0x3e56069b	0.20900957
79	0x3c66d4db	0.014088835
80	0x3e6b2cc1	0.22966291
81	0x3cc81c0f	0.024427442
82	0x3e67942f	0.22615121
83	0xbe0b7ba8	-0.1362139
84	0xbd7f9f29	-0.062407646
85	0xbc19ff06	-0.009399181
86	0x3e825cc9	0.25461414
87	0x3e5e908e	0.2173483
88	0xbda161c4	-0.078799754
89	0x3d09dace	0.033655934
90	0x3c001c86	0.0078193005
91	0x3c5c00ac	0.013427895
92	0x3986118c	0.00025571545
93	0x3e0b94ea	0.13631025
94	0x3e072ec1	0.13201429
95	0x3b5048c7	0.003178166
96	0x151e3248	3.194751e-26
97	0x1d12371c	1.935143e-21
98	0x184cafbd	2.6455107e-24
99	0x14455698	9.963036e-27
100	0x9c5ed2c5	-7.372605e-22
101	0xa1cf4d6f	-1.4047362e-18
102	0xa501e4bc	-1.1266465e-16
103	0x1d8c2b2f	3.7102342e-21
104	0x97b437b0	-1.1646285e-24
105	0xaceac341	-6.6723575e-12
106	0x1a3905c5	3.8261764e-23
107	0x97adb066	-1.1224392e-24
108	0x95e8057c	-9.3712707e-26
109	0x166b0318	1.8984125e-25
110	0x9ba158bb	-2.6692556e-22
111	0x19c3310a	2.0182334e-23
112	0x1b748cd3	2.022871e-22
113	0xa4ff71fe	-1.1078173e-16
114	0x95670cde	-4.666023e-26
115	0x9a8620cc	-5.547409e-23
116	0x1a8039de	5.303305e-23
117	0x178e596d	9.199109e-25
118	0x1561345f	4.5479702e-26
119	0xad6d9911	-1.3505878e-11
120	0x1a8591b1	5.524289e-23
121	0xa083a7c2	-2.2303276e-19
122	0x14fbd7fc	2.5429714e-26
123	0x1b3ee228	1.5789507e-22
124	0x97ef8ddd	-1.5480824e-24
125	0xa4eea4f5	-1.03495495e-16
126	0x18ae9045	4.512362e-24
127	0x96106d09	-1.1666633e-25
128	0xbcd69306	-0.026193153
129	0x3e5b7f76	0.21435341
130	0xbc59cd04	-0.013293508
131	0x3b424a4e	0.002964634
132	0x3dc35a83	0.09538748
133	0xbbdbf796	-0.006712864
134	0x3d47040f	0.048587855
135	0xbddf8dc0	-0.109157085
136	0xbdb137e6	-0.0865324
137	0xbda19e7b	-0.07891556
138	0x3515ec8e	5.585106e-07
139	0xbd2c09e5	-0.042001624
140	0xba7ac934	-0.0009566725
141	0x3df18fda	0.11795016
142	0x3e0aa625	0.13539942
143	0x3d6bdcad	0.0575835
144	0x3e1b7f9c	0.15185398
145	0x3d07c9bf	0.033151384
146	0x3dd039e8	0.10167295
147	0xbd8bf8cc	-0.068345636
148	0xbd243f4c	-0.040099427
149	0xbc73234d	-0.014839959
150	0x3e005d98	0.12535703
151	0xbd452828	-0.048134
152	0x3d3f608b	0.04672293
153	0xbe5b3c00	-0.21409607
154	0xbdeae619	-0.11469669
155	0x3dff9455	0.12479464
156	0xbe0b72b8	-0.1361798
157	0x3e01be4f	0.12670253
158	0x3d876c90	0.066125035
159	0x3e4b9da2	0.19884351
160	0x3daccfce	0.08438073
161	0x3e0c4883	0.13699536
162	0x3bbdf21c	0.005796684
163	0xbc45a5ee	-0.0120634865
164	0x3e6decd9	0.23234881
165	0x3e3cd15b	0.18439238
166	0x3d0ffd8e	0.035153918
167	0x3e3e9fd6	0.1861566
168	0x3d92f08a	0.071747854
169	0x3d2c39dc	0.042047366
170	0x34c6b3cf	3.7011202e-07
171	0xbbbae19b	-0.005703164
172	0x3c2c5eb2	0.010520624
173	0x3e33dba9	0.17564262
174	0x3da9ae65	0.08285216
175	0x3d9aa45e	0.07550882
176	0xbe1db343	-0.15400414
177	0xbc80a840	-0.015705228
178	0xbe2b970c	-0.16756839
179	0x3e1e239f	0.15443276
180	0x3db1c7b7	0.08680671
181	0x3c6503bd	0.013977942
182	0xbe1bc101	-0.15210344
183	0xbdeadeff	-0.114683144
184	0xbd3b440a	-0.045719184
185	0x3e56b064	0.20965725
186	0xbc6af80c	-0.014341366
187	0x3d4aec63	0.049541842
188	0xbbc0f707	-0.005888823
189	0x3dfb00c0	0.122560024
190	0xbc8f4968	-0.017491058
191	0x3db70435	0.08936349
192	0x2e0dda46	3.2253554e-11
193	0xae9f9a9f	-7.257949e-11
194	0x9ffcff0c	-1.0714809e-19
195	0xad62fd34	-1.2902835e-11
196	0xaec082bb	-8.7543715e-11
197	0x2cd656c0	6.091877e-12
198	0x187a7428	3.2370387e-24
199	0xaf6d204a	-2.1566496e-10
200	0xae8e16cd	-6.4614626e-11
201	0xaf4b5388	-1.8492419e-10
202	0x1706a9b0	4.351191e-25
203	0x1770d355	7.781492e-25
204	0x1768e240	7.524881e-25
205	0xaf1a11b0	-1.4012502e-10
206	0x2d953ca9	1.6966277e-11
207	0xaf43cd8c	-1.7808172e-10
208	0x2ea14b91	7.3348556e-11
209	0x2ed14c31	9.517754e-11
210	0x2d9283d1	1.6656817e-11
211	0x2eb1d62b	8.087072e-11
212	0x2efee9b0	1.1592094e-10
213	0x9908c93e	-7.071676e-24
214	0xaf03a157	-1.19717e-10
215	0xaf1f4876	-1.4486709e-10
216	0xaf15b233	-1.361478e-10
217	0xaf29b015	-1.5433017e-10
218	0x2f2091ce	1.4603715e-10
219	0x2f0fa078	1.3062784e-10
220	0xaf24614b	-1.4950279e-10
221	0xae822aad	-5.919296e-11
222	0xaf7323aa	-2.2113392e-10
223	0xae82c232	-5.9462116e-11
224	0xb642f8bd	-2.9053037e-06
225	0xbb4de30b	-0.0031415846
226	0x17242a59	5.304471e-25
227	0xbb648926	-0.0034871786
228	0xb9dddb8e	-0.00042315986
229	0xbb48472b	-0.0030559998
230	0x1a20c247	3.324416e-23
231	0xb99de649	-0.0003011695
232	0xb5c01b07	-1.4312981e-06
233	0xbb15a888	-0.0022836048
234	0x1b95b644	2.4767769e-22
235	0x99d4e9c2	-2.20147e-23
236	0x981b97ff	-2.0110019e-24
237	0xbb5c8aa8	-0.0033651982
238	0xbb8b196b	-0.0042449734
239	0xba4f6ee1	-0.00079129456
240	0xbb67c619	-0.0035365878
241	0xbb57c517	-0.0032923871
242	0xbb351f83	-0.002763719
243	0xb9b34909	-0.00034195956
244	0xbb0bd2bd	-0.0021335327
245	0x99dd8160	-2.2903119e-23
246	0xbb9940da	-0.0046769204
247	0xbbab1336	-0.005220796
248	0xb8d73d27	-0.000102633894
249	0xb7f0a7b9	-2.8688331e-05
250	0xb7c3fbbe	-2.3363038e-05
251	0xb995e74a	-0.00028591818
252	0xb9aa65f7	-0.00032500896
253	0xb6abd612	-5.121118e-06
254	0xbbc2de2a	-0.005946894
255	0xb8bc0b92	-8.966694e-05

bias f4 [128]
0	0x3da9a3a9	0.08283169
1	0xbdb21b26	-0.086965844
2	0x3e079931	0.13242032
3	0x19aadb9c	1.7666288e-23
4	0x3c99ece1	0.01878971
5	0x3c72a680	0.0148102045
6	0xaea34282	-7.424196e-11
7	0xb8b70cc9	-8.7285014e-05
8	0x39e4c4f6	0.00043634296
9	0xa09ed68d	-2.690822e-19
10	0x1470f69e	1.216554e-26
11	0xbd77a373	-0.06045861
12	0x1dc70aad	5.26859e-21
13	0x3bbb5314	0.005716691
14	0xbd259165	-0.040421862
15	0x3c101633	0.008794355
16	0x3e1aa56f	0.1510217
17	0xbd716b64	-0.058940306
18	0x3d4b7859	0.04967532
19	0x3cae8417	0.02130322
20	0x3dc3ae66	0.09554748
21	0x3e01e234	0.12683946
22	0xbe2e3180	-0.1701107
23	0xbe1f100c	-0.15533465
24	0xbe16b661	-0.1471801
25	0xbd5a60cd	-0.053314973
26	0xbccdb515	-0.02511076
27	0x3b5a80c8	0.003334092
28	0x3e18d012	0.14923123
29	0xbc1a1d88	-0.009406455
30	0x3e1b76b7	0.15182005
31	0x3dae20fa	0.085023835
32	0x3e6c4b3c	0.23075575
33	0xbdd5bf7f	-0.104369156
34	0x3e446a9e	0.19181296
35	0x3da1987b	0.078904115
36	0xbd07f147	-0.033189084
37	0x3d915783	0.0709677
38	0xbd902d62	-0.07039906
39	0x3d9b65ec	0.075877994
40	0x3db339e4	0.08751276
41	0xaa8fd648	-2.555059e-13
42	0x3d554ed2	0.052077122
43	0xbe12c950	-0.14334607
44	0x3e2e5f5f	0.17028569
45	0x3dd6bdde	0.10485433
46	0xbd24ecf5	-0.040265042
47	0x3dc2ba66	0.09508209
48	0x3b84ded6	0.0040548844
49	0x3cfee5d9	0.03111546
50	0x15e1551a	9.101104e-26
51	0x3e73538b	0.23762338
52	0xbc6dd95c	-0.014517155
53	0x3c8cc672	0.01718447
54	0xbded1902	-0.115770355
55	0x3e5ad8d1	0.21371771
56	0xbc9fa3f6	-0.019487362
57	0xbd20f1d3	-0.03929312
58	0xbd499eae	-0.049223594
59	0xbda774f3	-0.08176603
60	0x96d08aa9	-3.369172e-25
61	0xbc165397	-0.009175203
62	0x3e89fb87	0.26949713
63	0x3e64ddb2	0.22350195
64	0xbd29ac11	-0.04142386
65	0xbc002892	-0.007822173
66	0xbc860ab7	-0.016362531
67	0xbcd4cf18	-0.025977656
68	0x3c891def	0.016737906
69	0xa2651c21	-3.1050179e-18
70	0xbcb2855f	-0.021792112
71	0x3d3e5429	0.04646698
72	0xbdb3cf86	-0.08779816
73	0xbdc3787a	-0.095444635
74	0xbcac9f51	-0.021072062
75	0xbd838f24	-0.06423786
76	0x3e5472e1	0.20746948
77	0x3e09a328	0.13441145
78	0xa54a3f55	-1.7542165e-16
79	0x3ca0812e	0.019592848
80	0xbcac1b6e	-0.021009173
81	0xbe2aebd4	-0.16691524
82	0x3e39dc59	0.18150462
83	0xbcba2676	-0.022723418
84	0x3e772d88	0.24138463
85	0x3dd788f7	0.10524171
86	0xbd072312	-0.03299243
87	0xbbe13dbb	-0.006873814
88	0x3cc5894d	0.024113322
89	0xbc450c32	-0.012026833
90	0x3e0afa42	0.13572028
91	0xbd192316	-0.037386976
92	0x3cdbd15b	0.026833227
93	0x3d50358c	0.050832316
94	0x3e0d3417	0.13789402
95	0xbd3b7f03	-0.045775425
96	0x3d98c517	0.07459467
97	0x3d317043	0.04331995
98	0x3c4d4a0f	0.012529864
99	0xbcbf8ba0	-0.023382008
100	0xbd038555	-0.032109577
101	0x3e0598c6	0.1304656
102	0x9a299770	-3.507071e-23
103	0xbd921965	-0.0713375
104	0xbe36eddc	-0.17864174
105	0x3e0fd1db	0.14044897
106	0x3dec6653	0.11542954
107	0x3e357432	0.17720106
108	0x3e3e36ee	0.18575642
109	0xbd1b97b4	-0.037986472
110	0x3b8715ab	0.004122456
111	0xbe567912	-0.20944622
112	0xbdc154d8	-0.09440011
113	0x3d1c7591	0.038198058
114	0x3e6534b5	0.22383387
115	0x3d8b4aa1	0.06801344
116	0xbcfd589b	-0.03092604
117	0xbc039957	-0.008032165
118	0xbd88cdbf	-0.06679868
119	0x3df42185	0.11920456
120	0x1f8c8539	5.9512705e-20
121	0xa4429eed	-4.220166e-17
122	0x964dc523	-1.6621974e-25
123	0xa63954c6	-6.429966e-16
124	0x3db0be5e	0.0863006
125	0xae0ec809	-3.246473e-11
126	0xbcf67c9d	-0.030088717
127	0x3c1e3241	0.009655536

weight f4 [64, 128]
0	0xbcb86e01	-0.022513391
1	0xbe1cb917	-0.15304981
2	0x3d907f9d	0.0705559
3	0x184b844d	2.630393e-24
4	0x3e119eb9	0.14220704
5	0x3d74bada	0.059748508
6	0x2e922060	6.645062e-11
7	0x3c4a0be1	0.012331934
8	0x3d139f2f	0.03604048
9	0x9913bbfb	-7.637684e-24
10	0x17c01b90	1.2414667e-24
11	0x3d30518c	0.04304652
12	0x14142ec2	7.481312e-27
13	0x3d64bbe3	0.055843245
14	0xbc76319f	-0.015026479
15	0x3df50564	0.11963919
16	0x3abd5add	0.0014446635
17	0x3ddad3b4	0.106849104
18	0x3cda40c5	0.026642213
19	0x3d0d280d	0.034462024
20	0x3db1ffc7	0.08691364
21	0xbd2282df	-0.03967559
22	0x3d368a78	0.044565648
23	0x3da71e33	0.08160057
24	0x3c29a620	0.010354549
25	0xbd07c8c2	-0.033150442
26	0xbd84f16e	-0.064913616
27	0x3da2ec5c	0.07955238
28	0x3d87ce3f	0.06631135
29	0x3b7cb3fd	0.003855943
30	0x3e0962c4	0.13416582
31	0x3d9abb51	0.07555259
32	0xbcb2fb2c	-0.021848284
33	0x3b50e8ca	0.0031877034
34	0x3d915e25	0.07098035
35	0xbb9abdad	-0.004722318
36	0x3d4acfda	0.04951463
37	0x3ae01be2	0.0017098153
38	0x3c553d4c	0.013015103
39	0x3d2c3b9e	0.042049043
40	0xbd4fe0ec	-0.05075161
41	0x3bd779ff	0.0065758224
42	0x3dcfc1cc	0.10144386
43	0xbd59c574	-0.05316682
44	0x3caffd7e	0.02148318
45	0x3d720dca	0.05909518
46	0x3a84d65e	0.0010134687
47	0x3da59127	0.08084326
48	0xbcf85c27	-0.03031738
49	0xbc56811d	-0.013092306
50	0x1ae80bae	9.597182e-23
51	0x3dd55a99	0.10417671
52	0x3d76736f	0.06016868
53	0x3ca54734	0.020175554
54	0xbcb7c650	-0.02243343
55	0x3d9c9bfc	0.07646939
56	0xbc313225	-0.010815178
57	0x3d86cb30	0.06581724
58	0x3d693673	0.056936692
59	0x3d98bade	0.07457517
60	0x971d9160	-5.0912925e-25
61	0x3d32a0a6	0.043610238
62	0xbd33daca	-0.043909825
63	0x3c0ab372	0.008465635
64	0x3d59f732	0.05321426
65	0x33384150	4.290024e-08
66	0x3cc82ef9	0.02443646
67	0x3de134a0	0.109963655
68	0xbd91c96a	-0.07118495
69	0x241a7b8b	3.3498072e-17
70	0xbc508d82	-0.012729051
71	0xbc9f46b0	-0.019442886
72	0x3c4ae998	0.012384795
73	0x3ce78341	0.028260829
74	0xbbbb0c2b	-0.0057082376
75	0x3b3a1c96	0.0028398386
76	0x3da10048	0.07861382
77	0x3d026140	0.031831026
78	0x2218949c	2.0678514e-18
79	0xbd754b50	-0.059886277
80	0xbd12b58b	-0.035817664
81	0x3b9554f3	0.004557246
82	0xbcb2bb84	-0.02181793
83	0xbc9857b0	-0.0185965
84	0x3dfe81b4	0.12427083
85	0x3d515552	0.05110676
86	0xbdf421f7	-0.11920541
87	0x3cdbfee9	0.02685495
88	0x992aad8c	-8.8238415e-24
89	0xbc43ba07	-0.011946208
90	0x3d8923ec	0.06696305
91	0x3dccf9de	0.10008596
92	0x3de90fe1	0.11379982
93	0x3d8923bd	0.0669627
94	0xbd46f476	-0.04857298
95	0x3d60bde4	0.054868594
96	0x3daed97f	0.08537578
97	0x3d38cfdc	0.045120105
98	0x3d3cd60d	0.046102572
99	0xbceaced6	-0.02866308
100	0xbd485a92	-0.0489145
101	0x3cfa206a	0.030533034
102	0x97008b76	-4.1535055e-25
103	0xbc1b8a60	-0.00949344
104	0xbd9e874c	-0.077406496
105	0x3cf8d042	0.030372743
106	0x3d04b853	0.032402348
107	0x3c91aac2	0.017781619
108	0xba273c70	-0.00063795503
109	0xbd1817e8	-0.037132174
110	0xbd5530b2	-0.052048393
111	0xbd1a09fe	-0.037607186
112	0x3caf9a21	0.0214358
113	0x3d1cd7c4	0.038291708
114	0x3dbeea35	0.09322015
115	0xbcdb7be7	-0.02679248
116	0xbdcdb4d7	-0.10044258
117	0xbb1307eb	-0.002243514
118	0x3c260aa2	0.010134371
119	0xbdce225c	-0.10065147
120	0x968b1fd6	-2.2476752e-25
121	0x225a0c56	2.955104e-18
122	0x164032c8	1.552566e-25
123	0x9685e4e8	-2.163177e-25
124	0x3e0407fc	0.12893671
125	0x1596b753	6.087375e-26
126	0x3c36397f	0.011122107
127	0x3ccb926c	0.024850093
128	0xb8b0e273	-8.4345134e-05
129	0xb91e76c2	-0.00015112295
130	0xbb4f12e5	-0.0031596955
131	0x195f6b43	1.1550491e-23
132	0xbd184c9d	-0.03718244
133	0xbaaa17e7	-0.0012977094
134	0x15cb9876	8.223159e-26
135	0x1666f1de	1.8655572e-25
136	0xbc5d1b7e	-0.013495324
137	0x1996c5ee	1.558958e-23
138	0x9a6dad7c	-4.915059e-23
139	0x3b7b9a0e	0.0038391384
140	0x1671f46d	1.9544952e-25
141	0x96d4d3f7	-3.4384216e-25
142	0x3c3cce99	0.011523866
143	0xbb5c77c6	-0.0033640726
144	0xbc401f1a	-0.011726165
145	0x3b3be1a2	0.0028668423
146	0x3be9e5a9	0.0071379733
147	0xbc497daa	-0.012298027
148	0xbb4b1cd8	-0.0030992534
149	0xbc540842	-0.012941422
150	0xb829517e	-4.0368635e-05
151	0xbb90c9af	-0.004418574
152	0x3a365820	0.00069558807
153	0xba3c90a6	-0.0007193185
154	0xb792f529	-1.7518718e-05
155	0xb9c79836	-0.00038069644
156	0xbb168e79	-0.0022973104
157	0x3ad16047	0.0015974127
158	0x3b48713e	0.0030585076
159	0xba7d42d9	-0.0009661145
160	0x35e650b9	1.7159829e-06
161	0xbb86e260	-0.0041163415
162	0x3c1bdf1c	0.009513643
163	0x3c275483	0.01021302
164	0x3abdc628	0.0014478611
165	0x18b0776f	4.561553e-24
166	0x3993d792	0.00028198637
167	0xbb34710f	-0.0027533208
168	0x96c60670	-3.1992688e-25
169	0x9786d7f7	-8.714064e-25
170	0xb9c866c5	-0.00038223542
171	0xb996dacd	-0.0002877325
172	0xbadd6549	-0.0016891147
173	0xbd2e3415	-0.042530138
174	0xbb98be1f	-0.004661336
175	0xbce7b431	-0.028284164
176	0xbb8a5e95	-0.004222701
177	0xb0eec87a	-1.7373758e-09
178	0x18b97a4e	4.7944875e-24
179	0xbb0d2202	-0.0021535163
180	0xbb0907a8	-0.0020909104
181	0xb9da632e	-0.00041654095
182	0x1ab2680e	7.3787184e-23
183	0xbc8dfd12	-0.017332587
184	0xbbde7812	-0.006789216
185	0xbb09586b	-0.0020957242
186	0xbb23e6d9	-0.0025009422
187	0xbbdaf86c	-0.006682446
188	0x96bfb8ab	-3.0974256e-25
189	0xb778800d	-1.4811766e-05
190	0xb7adbdfa	-2.0711672e-05
191	0xbb6e56a8	-0.003636757
192	0x393a201a	0.00017750301
193	0x16e7c36f	3.7443399e-25
194	0x1b1a612d	1.276998e-22
195	0xa18456d2	-8.967649e-19
196	0xba13f66b	-0.0005644324
197	0x9a688158	-4.808096e-23
198	0xbac19090	-0.0014767814
199	0xbb9a46f8	-0.004708167
200	0xb97a5007	-0.0002387167
201	0x3b5b59a9	0.003347019
202	0x16b85d1f	2.978557e-25
203	0x1c5a85c6	7.230305e-22
204	0x3c7e5a42	0.015524449
205	0x3ba18265	0.0049288743
206	0x167b9c0a	2.0324856e-25
207	0x3b0f278e	0.0021843645
208	0xb8a363a1	-7.791003e-05
209	0xbad4c8ba	-0.0016234138
210	0xb734849e	-1.0759713e-05
211	0x9aec5b2a	-9.7754596e-23
212	0xb5084742	-5.076764e-07
213	0x3cb4c4bf	0.022066472
214	0xba9e23c8	-0.0012065107
215	0x94f247ec	-2.4464124e-26
216	0x15f0ae46	9.721018e-26
217	0x1806afa3	1.7407768e-24
218	0xb95a02ed	-0.0002079119
219	0x3bba0009	0.0056762737
220	0x3c64f243	0.013973775
221	0xbb223fb9	-0.002475722
222	0xbbe2205a	-0.0069008293
223	0xb9ca407b	-0.00038576484
224	0xba5a6c83	-0.00083322095
225	0xb7c35679	-2.3286078e-05
226	0xbb342500	-0.0027487874
227	0x1282a362	8.24443e-28
228	0xba75f614	-0.0009382677
229	0x3cbcc2ef	0.02304217
230	0x148ff87a	1.4537317e-26
231	0xb9a006c9	-0.00030522633
232	0x190faf4f	7.42833e-24
233	0x3af271b8	0.0018497026
234	0x172d07df	5.590925e-25
235	0x2d4105da	1.0972079e-11
236	0xbc189f09	-0.009315261
237	0x3c7d061f	0.015443354
238	0xae57dddb	-4.9082387e-11
239	0xbb425e0d	-0.002965811
240	0x97698a66	-7.5461044e-25
241	0xba4c2aef	-0.000778838
242	0x3c48f98b	0.012266527
243	0xbacd8727	-0.0015680537
244	0xbb40eaef	-0.0029436906
245	0xb8c37c81	-9.321515e-05
246	0xb942b4b0	-0.00018568593
247	0xbad37522	-0.0016132931
248	0x161a0584	1.2441761e-25
249	0x975e0362	-7.173634e-25
250	0x1799ed0c	9.947232e-25
251	0x15f8e2ad	1.00524034e-25
252	0xbbbd1d88	-0.0057713427
253	0x17dd6651	1.4307619e-24
254	0x1886b5c8	3.482174e-24
255	0xba00719d	-0.0004899742

bias f4 [64]
0	0x3d3832d9	0.044970367
1	0xbcff6218	-0.031174704
2	0xbd0a01fd	-0.033693302
3	0x3d020f25	0.031752724
4	0xbb9d2ca0	-0.0047965795
5	0x3d5bcb92	0.053660937
6	0xbd22a473	-0.039707612
7	0x3ce6233f	0.028092979
8	0x3e134ed1	0.14385535
9	0xbcab0e98	-0.020880982
10	0xbc4df441	-0.012570442
11	0x3d80f589	0.06296832
12	0xbb3bbb0b	-0.0028645422
13	0x1ed9e518	2.307052e-20
14	0xbd8e6135	-0.069521345
15	0x3e45cf9a	0.19317475
16	0x3d5f8438	0.054569453
17	0x3d57e2a4	0.052706376
18	0xbb9201d8	-0.004455786
19	0xbe2b919c	-0.16754764
20	0x3cb49098	0.022041604
21	0xbc9386d0	-0.01800862
22	0x3d35023f	0.044191595
23	0xbbfcb398	-0.007711839
24	0xbccae186	-0.024765741
25	0x3e0d3174	0.13788396
26	0xbd92e86d	-0.07173238
27	0xbd197469	-0.037464533
28	0xbde0f414	-0.10984054
29	0x3dd5b013	0.10433974
30	0xbbe1a242	-0.0068857977
31	0xbdd3dce4	-0.10344866
32	0x3e1221c5	0.14270695
33	0x3d34a833	0.04410572
34	0x3e054e00	0.13018036
35	0xb6c77242	-5.9439635e-06
36	0xbb7b864d	-0.003837961
37	0x3d119e01	0.035551075
38	0x3cf7ac7b	0.030233612
39	0x3d22795a	0.03966651
40	0x3b0fcd5b	0.002194247
41	0x3e1e985c	0.15487808
42	0x3b1a67e8	0.0023560468
43	0xbbc229c8	-0.005925391
44	0xbdb82061	-0.08990551
45	0xbb3f7131	-0.0029211754
46	0x3c4e0812	0.012575166
47	0x3e04c40b	0.1296541
48	0xb86a75e3	-5.5899738e-05
49	0x3da49b41	0.08037425
50	0xbc93a228	-0.018021658
51	0x3ba6f1c4	0.0050947387
52	0x3db80ac6	0.0898643
53	0x3b86e265	0.004116344
54	0xbc393044	-0.011303011
55	0x3ce9e768	0.028552726
56	0xbcaa5862	-0.020794097
57	0x3bcd4f26	0.0062655387
58	0x3d69b17d	0.05705403
59	0xbc19b19a	-0.009380722
60	0xbc54306b	-0.012950997
61	0x3c162379	0.009163731
62	0x3dcfb337	0.101416044
63	0x3903d14e	0.00012571106

weight f4 [10, 64]
0	0x3bf39349	0.0074333292
1	0x38c2ddfc	9.291989e-05
2	0x3dbfd158	0.09366101
3	0xbdc13d19	-0.094354816
4	0xb6d2bff1	-6.2808326e-06
5	0xba9a04ef	-0.0011750738
6	0x95076000	-2.7338764e-26
7	0x3cf1ee37	0.029532535
8	0xbe0adb4c	-0.13560218
9	0xbddb9f29	-0.10723717
10	0xbd0daed2	-0.03459055
11	0x3e1097c7	0.14120398
12	0x3a092199	0.00052311417
13	0xa005f36f	-1.1346084e-19
14	0xba95e72e	-0.0011436695
15	0x3e0baa4d	0.13639183
16	0xbe8c78f9	-0.27436045
17	0xbd9a53c4	-0.07535508
18	0x1f436d38	4.13832e-20
19	0xbe090d13	-0.13383894
20	0x3da9ca19	0.082905
21	0xbcab171b	-0.020885041
22	0x3d03f80c	0.032218978
23	0x3c916b35	0.017751316
24	0x181c694e	2.0215693e-24
25	0xbd5d8c01	-0.054088596
26	0xba5df0c2	-0.00084663567
27	0x3bf76fff	0.007551193
28	0xbd70619b	-0.058686834
29	0x3ba0a4d3	0.004902461
30	0xb9934254	-0.00028087443
31	0xbdeeb0f1	-0.11654843
32	0x3de38ec8	0.11111218
33	0xbd92aedd	-0.07162259
34	0x3def908d	0.11697493
35	0x9d3e7023	-2.5204264e-21
36	0xbc5dcb4c	-0.013537239
37	0x3d5cd1a4	0.053910866
38	0x3dba2e8d	0.0909091
39	0x3d2868a3	0.041115414
40	0x3d877a2e	0.06615101
41	0xbb7fcecc	-0.0039033173
42	0xbdbad3ae	-0.09122406
43	0x3e0c5ce6	0.13707313
44	0xbd8c6376	-0.06854908
45	0x1c04d90f	4.395568e-22
46	0x3d07f042	0.033188112
47	0xbba48dfe	-0.0050218096
48	0x92458900	-6.2331105e-28
49	0xbdbfcee9	-0.09365637
50	0x22b7ddea	4.983721e-18
51	0xbd0f9acd	-0.03505974
52	0xbdbeb2ed	-0.09311471
53	0xbd8fd7c1	-0.07023574
54	0xbc6a9b8a	-0.01431931
55	0x3e23ee93	0.16008978
56	0xbbbf8a22	-0.005845324
57	0x3c944323	0.01809842
58	0xbdc47d5d	-0.09594224
59	0x3c51b7ef	0.012800201
60	0xb5bc3e6a	-1.4025256e-06
61	0x3dfc41b3	0.12317219
62	0xbdf2e8d9	-0.118608184
63	0x3cdda6cc	0.027057074
64	0x3dfe7eb2	0.12426509
65	0x3931b0a3	0.00016945838
66	0xbe5a04ea	-0.21290937
67	0xbe312434	-0.17298967
68	0x98899953	-3.5568488e-24
69	0x3e0f25e3	0.13979296
70	0x9c68e7c0	-7.706189e-22
71	0xbd1ad12b	-0.037797134
72	0x3d964b76	0.07338612
73	0xbeb0aa46	-0.34504908
74	0xbcc0185a	-0.023449112
75	0xbd2d33f0	-0.04228586
76	0x3af1cb87	0.0018447497
77	0x9c3f9000	-6.3382714e-22
78	0xb99c6084	-0.00029826548
79	0x3dd4f80c	0.10398874
80	0x3e1564ab	0.14589183
81	0x3db3c2be	0.087773785
82	0x9867c4d1	-2.9955417e-24
83	0x3d86f89e	0.06590389
84	0xbcfd17f1	-0.030895205
85	0x3c57f53c	0.013181027
86	0xbc9cff33	-0.019164657
87	0xbd5f32b7	-0.054491725
88	0x15caf758	8.197739e-26
89	0xbdb3f505	-0.08786968
90	0xbb5c7fbe	-0.0033645476
91	0xbc6ee16d	-0.014580113
92	0xbc904e17	-0.017615361
93	0x3df8f176	0.1215543
94	0xbc0c4046	-0.008560246
95	0x3ce54024	0.027984686
96	0x3d93965f	0.072064154
97	0xbd944cdb	-0.072412215
98	0x3dc35938	0.095385015
99	0x9e3c01e8	-9.953031e-21
100	0xbc80e92f	-0.01573619
101	0xbdfc621e	-0.12323402
102	0x3d9b4aea	0.07582648
103	0x3ddbe16a	0.10736354
104	0xbe4b2416	-0.19837984
105	0xbe1c9023	-0.15289359
106	0x3e3810cb	0.17975156
107	0xbd3a8564	-0.045537367
108	0x3de7975b	0.11308166
109	0x1d08a923	1.8086892e-21
110	0x3d55bdc7	0.05218294
111	0x3c33e42f	0.010979696
112	0x987865e5	-3.2104692e-24
113	0xbeb1e861	-0.34747604
114	0x2083e0df	2.234107e-19
115	0x3cf6e5e5	0.03013892
116	0xbeaeca2a	-0.34138614
117	0xbe90778a	-0.282162
118	0x3ded2714	0.11579719
119	0xbe166e26	-0.14690456
120	0xb941999a	-0.00018463135
121	0x3d1b680c	0.037941024
122	0x3e00281e	0.12515303
123	0x3cb1a2d1	0.021684082
124	0x37aa5bee	2.0308387e-05
125	0xbe03993f	-0.12851427
126	0x3db5c493	0.08875384
127	0x3a398b4a	0.00070779456
128	0x3de478a1	0.11155821
129	0x3a5b5b83	0.00083678233
130	0x3d22df7e	0.03976392
131	0xbda82d08	-0.08211714
132	0x1e366448	9.6557375e-21
133	0xbc970a0b	-0.018437406
134	0x2012a0da	1.2419902e-19
135	0xbd71072f	-0.05884474
136	0x3de1ff66	0.110350415
137	0xbcb1b58e	-0.021693017
138	0x3c2e12fe	0.010624645
139	0x3dc830f3	0.09774961
140	0x3b018953	0.001976569
141	0x14d087ac	2.1056146e-26
142	0xbaa75f93	-0.0012769572
143	0xbd0f1073	-0.034927797
144	0xbd988914	-0.074480206
145	0xbd7dc601	-0.06195641
146	0x9b9d72b4	-2.6047596e-22
147	0x3c7aa116	0.015297195
148	0xbd9d9202	-0.076938644
149	0x3c3eb7d0	0.011640504
150	0xbea8f69a	-0.33000642
151	0x3d3008cf	0.04297715
152	0x1aa51beb	6.8287504e-23
153	0x3d8b0c19	0.06789417
154	0x3c026300	0.007958174
155	0x3d0a85af	0.033818897
156	0xbd99ab0f	-0.0750333
157	0xbde40c9a	-0.11135216
158	0xb21e8033	-9.2259596e-09
159	0xbe197ce9	-0.14989056
160	0x3d1c4442	0.038151033
161	0xbd886e10	-0.06661618
162	0x3d94460a	0.072399214
163	0x9a88a818	-5.651985e-23
164	0xbc77b97a	-0.015119905
165	0xbe2b744e	-0.16743585
166	0x3dac5952	0.08415474
167	0x3c221754	0.009893257
168	0xbda8256c	-0.08210263
169	0x3dae148f	0.08500015
170	0xbe102336	-0.14075932
171	0xbd99b227	-0.07504683
172	0xbde1a23e	-0.11017273
173	0x1fd48990	9.001307e-20
174	0x3d17a543	0.03702284
175	0x3e16f435	0.14741595
176	0x977b7f92	-8.126349e-25
177	0xbd1e2ec8	-0.038618833
178	0x18459c19	2.5540462e-24
179	0x3d874df6	0.06606667
180	0xbc9a2dbf	-0.018820642
181	0x3cb0538f	0.021524219
182	0xbe78daaf	-0.24302171
183	0xbdbdf276	-0.092747614
184	0x3cbb063b	0.02283012
185	0x3c4d4cc7	0.012530512
186	0x3d398050	0.045288384
187	0xbbc59cea	-0.0060306685
188	0x3b7d304b	0.0038633521
189	0x3e005552	0.12532547
190	0x3d9077f9	0.07054133
191	0xbc0798f4	-0.008276213
192	0xbd863c08	-0.06554419
193	0xb93897c7	-0.00017604149
194	0x3ccb1a3b	0.024792781
195	0x3d3c19e0	0.045923114
196	0x9e449dee	-1.0408813e-20
197	0xbd9ca7d9	-0.07649202
198	0x1975640b	1.2686407e-23
199	0xbd986cac	-0.074426025
200	0xbb65d67a	-0.0035070465
201	0xbc903105	-0.0176015
202	0xbc2966aa	-0.010339418
203	0xbcd4a628	-0.025958136
204	0xbb941ea9	-0.0045202565
205	0x9674074b	-1.9712464e-25
206	0x3b246c87	0.0025089101
207	0x3db4d78d	0.088301755
208	0xbd4e6b7d	-0.050395478
209	0xbdab05fe	-0.08350752
210	0x171b95ad	5.027212e-25
211	0xbddc4c2d	-0.10756717
212	0xbb354157	-0.0027657354
213	0x399b9eee	0.00029682316
214	0xbd9bdbb7	-0.07610267
215	0x3ce4f29f	0.027947722
216	0x97a4bb00	-1.0645457e-24
217	0x3d8c1248	0.06839424
218	0xbb24642d	-0.0025084123
219	0xbc217033	-0.009853411
220	0x3da05e49	0.078304835
221	0x3d8bfaf6	0.068349764
222	0x38b45e3c	8.6006214e-05
223	0x3e1885dd	0.14894815
224	0xbc94306e	-0.0180895
225	0xbd54fc52	-0.051998444
226	0x3e0e876f	0.13918851
227	0x1ff0852d	1.01864275e-19
228	0xbb8a47a6	-0.004219967
229	0xbcd17078	-0.025566325
230	0x3d45d2e0	0.04829681
231	0x3c705bd4	0.014670331
232	0x3c8650dc	0.016395979
233	0x3d1b8622	0.037969716
234	0x3dca2838	0.09870952
235	0x3e116ecc	0.14202422
236	0x3cbb8d34	0.02289448
237	0x9a6c2daa	-4.8840543e-23
238	0x3cbad314	0.022805728
239	0xbcc6e32c	-0.024278246
240	0x9cd1a000	-1.3871819e-21
241	0x3cd851ea	0.026406247
242	0x1733be38	5.807811e-25
243	0xbbb69890	-0.005572386
244	0xbea26ef4	-0.31725276
245	0xbdecc96a	-0.11561854
246	0x3dafbe84	0.0858126
247	0x3e4571dc	0.19281715
248	0x3bc1cf5d	0.005914612
249	0xbd6a9ffc	-0.05728148
250	0xbd554cfd	-0.052075375
251	0xbb5ecaa0	-0.0033995286
252	0x35403213	7.159844e-07
253	0x3ccbbe0b	0.024870893
254	0xbe18ca46	-0.14920911
255	0x3ad8e115	0.0016546572

bias f4 [10]
0	0xbd439270	-0.047747076
1	0x3dfe388f	0.124131314
2	0xbca73d26	-0.0204149
3	0xbddc17b7	-0.10746711
4	0x3c4446ca	0.011979768
5	0xbd9bcd20	-0.07607484
6	0x3d7d818e	0.06189113
7	0xbda443c3	-0.08020737
8	0xbd65ba22	-0.056085713
9	0xbe2095e1	-0.15682174
