2-hypertuning-mlflow/mlruns/2/9b527ba759014473b2a43590e658e615/artifacts/pytorch_models/20250921-1133model.pt (torch, 137669 bytes, 12 tensors)

weight f4 [32, 1, 3, 3]
0	0xbea74a70	-0.3267398
1	0x3e2bad4c	0.16765326
2	0xbdbf711a	-0.09347744
3	0x3c412378	0.011788242
4	0x3e82e1b0	0.2556281
5	0xbe2e2a18	-0.17008245
6	0xbe827ebf	-0.25487325
7	0x3e1a3ee9	0.15063061
8	0x3e8ee5a2	0.2790957
9	0xbe804905	-0.2505571
10	0x3e658746	0.22414884
11	0x3e2276de	0.15865657
12	0x3dc4d740	0.09611368
13	0xbd4a79d1	-0.04943258
14	0x3d863e8f	0.06554901
15	0x3dac0d2c	0.0840095
16	0xbe4f226a	-0.20227972
17	0x3e120309	0.1425897
18	0x3df16004	0.11785892
19	0xbea4321e	-0.32069486
20	0x3e7f097e	0.24905965
21	0x3ed487fc	0.41509998
22	0xbebf34de	-0.37345022
23	0x3db11e91	0.08648408
24	0x3eb41531	0.35172418
25	0xbe9f4dbe	-0.31114
26	0xbe55d7e3	-0.20883135
27	0x16f96fb7	4.0298622e-25
28	0xb97107a2	-0.00022986394
29	0xb7f8e020	-2.966827e-05
30	0xb9c6931d	-0.0003787511
31	0x1699dd88	2.485829e-25
32	0xb41317ab	-1.3699052e-07
33	0xb986cf28	-0.00025712815
34	0x2e13eef5	3.3636167e-11
35	0xb8675314	-5.5152064e-05
36	0xacfd90e5	-7.206779e-12
37	0xb89a972e	-7.371452e-05
38	0x2312d0e7	7.958913e-18
39	0x1af85fb8	1.0272504e-22
40	0x1a4504f5	4.074265e-23
41	0x9728487b	-5.437521e-25
42	0x9a21484e	-3.3352427e-23
43	0xb59b7076	-1.158113e-06
44	0xa669a6c9	-8.106415e-16
45	0x3e1dd194	0.15411979
46	0x3ce2408d	0.02761867
47	0x3e29101e	0.16510054
48	0xbe2ae12f	-0.16687463
49	0x3e1736b8	0.14766967
50	0x3eb41963	0.3517562
51	0xbe52542f	-0.20539926
52	0xbeb456d3	-0.35222492
53	0xbe2c15eb	-0.16805236
54	0xbd7f27a2	-0.062293656
55	0x3d80b0d7	0.062837295
56	0x3e7ddcee	0.24791309
57	0xbe0fccb5	-0.14042933
58	0xbe4b2763	-0.19839244
59	0x3e9d643a	0.3074053
60	0xbd0720ee	-0.03299039
61	0x3dc649d8	0.09682053
62	0x3dbc5f87	0.09197908
63	0x3ece3733	0.4027649
64	0xbe4a859a	-0.19777527
65	0x3d60d4af	0.05489033
66	0x3d3cb610	0.046072066
67	0x3e8d16ce	0.2755646
68	0x3e1f77ed	0.15573092
69	0x3d074515	0.033024866
70	0x3e8b1421	0.27163795
71	0xbe9d5e99	-0.30736235
72	0xbe7306ec	-0.23733109
73	0xbe50c98c	-0.20389384
74	0x3e99c074	0.30029643
75	0xbec86dd7	-0.391463
76	0x3e9b4f98	0.30334163
77	0xbdf0f283	-0.117650054
78	0xbe11096b	-0.14163749
79	0x3e8ccf7d	0.2750205
80	0x3e369598	0.17830503
81	0xbe2bae14	-0.16765624
82	0xbf07a745	-0.5298961
83	0xbf247646	-0.6424297
84	0xbeb747fb	-0.35797104
85	0xbf32ca17	-0.69839615
86	0xbd2ae26d	-0.041719843
87	0xbe30463c	-0.17214292
88	0x3dd10a8b	0.10207089
89	0x3e04dae0	0.12974119
90	0x3ea351ab	0.31898245
91	0x3ed55ab9	0.41670778
92	0x3c6dc3f9	0.014512056
93	0xbd00fcbb	-0.031491023
94	0xbe2eab37	-0.17057501
95	0x3cd06302	0.025437836
96	0x3d92f027	0.07174712
97	0x3e577f7d	0.21044727
98	0x3cb86927	0.022511078
99	0xbe9c1dfb	-0.30491623
100	0xbd227537	-0.039662566
101	0xbd999e19	-0.07500858
102	0x3de224d1	0.110421784
103	0xbe8415de	-0.25797933
104	0x3e944fd4	0.28967154
105	0xbeddbc37	-0.4330766
106	0xbecb634c	-0.39724195
107	0x3da7aefb	0.08187672
108	0xbdf67eb3	-0.12035885
109	0x3e92af25	0.2864925
110	0xbe8d7cde	-0.2763433
111	0x3ec3f222	0.3827067
112	0x3e30336a	0.17207113
113	0x3e9882c6	0.29787272
114	0x3e97bed1	0.2963777
115	0x3e52e2a3	0.20594268
116	0xbe09562e	-0.13411781
117	0xbec31f9b	-0.3811005
118	0xbcae6c25	-0.021291802
119	0xbea589eb	-0.32331786
120	0xbf0d6770	-0.5523596
121	0xbe98ddb4	-0.29856646
122	0x3e5ee769	0.21767963
123	0xbeea41ef	-0.45753428
124	0x3cccc772	0.024997447
125	0x3da4e26d	0.08051
126	0x3eb83673	0.3597904
127	0x3d0728ac	0.032997772
128	0xbd36c111	-0.044617716
129	0x3e4c05df	0.19924115
130	0x3e92b3a8	0.28652692
131	0xbd239061	-0.039932612
132	0xbe457228	-0.19281828
133	0x3d3bf614	0.045888975
134	0xbdc5fdee	-0.09667574
135	0xbe467c3c	-0.19383329
136	0x3e8ec01c	0.27880943
137	0xbdcf65d9	-0.10126848
138	0xbcba92be	-0.02277505
139	0x3ebcae4e	0.36851734
140	0x3d98f5b4	0.07468739
141	0xbeb372e2	-0.35048586
142	0x3e4ab3f1	0.19795205
143	0xbe1b5429	-0.15168823
144	0xbe27d5d9	-0.1639017
145	0xbd2e193e	-0.04250454
146	0xbe8f2f84	-0.2796594
147	0xbe6115eb	-0.21981017
148	0xbdd04b98	-0.10170668
149	0xbe298f1b	-0.16558497
150	0x3eeb5d62	0.45969683
151	0x3dd9ddeb	0.106380306
152	0x3ee790ef	0.45227763
153	0xbeb3d06a	-0.35119945
154	0xbd8e4058	-0.06945866
155	0xbbb82c5c	-0.0056205224
156	0xbeac40c9	-0.33643177
157	0x3e8c5488	0.27408242
158	0x3d2f4c1f	0.042797204
159	0x3d35c045	0.044372816
160	0x3d8ba3d9	0.06818361
161	0x3e31dc51	0.173692
162	0x3eba5a12	0.36396843
163	0xbe953491	-0.29141667
164	0x3e0d15cb	0.13777845
165	0x3e690f37	0.2275971
166	0x3d3c10b9	0.045914385
167	0x3e492f9b	0.19647066
168	0x3dc03b56	0.093863174
169	0xbc69ce85	-0.0142704295
170	0x3daec4bd	0.085336186
171	0xbf0033e2	-0.50079167
172	0xbed63b78	-0.41842246
173	0xbd7a8b4e	-0.061168008
174	0xbee0eb68	-0.439296
175	0xbe73c789	-0.23806585
176	0xbec3b4f1	-0.38223985
177	0xbea392b9	-0.31947878
178	0xbe1eb483	-0.15498547
179	0x3e700e42	0.23442939
180	0xbf1ebd19	-0.6200729
181	0xbe96d0fb	-0.29456314
182	0x3d679744	0.056540743
183	0xbece6316	-0.40309972
184	0xbef28502	-0.47367102
185	0x3e8d814c	0.27637708
186	0xbe4b8530	-0.19875026
187	0xbd4a02ab	-0.04931895
188	0xbcc2e011	-0.023788484
189	0xbdd67c70	-0.10472953
190	0xbe527824	-0.20553643
191	0xbe3d06f9	-0.18459691
192	0x3d878d4c	0.06618747
193	0x3b93a2de	0.0045054993
194	0x3dfec2ca	0.12439497
195	0x3d6a7627	0.057241585
196	0x3e650e14	0.22368652
197	0x3ea1e375	0.31618848
198	0xbe7613a1	-0.24030925
199	0xbe0d9fd4	-0.13830501
200	0x3e43afac	0.19109982
201	0x3e821638	0.25407577
202	0xbceb0fc2	-0.028694037
203	0x3bf06ef8	0.0073374473
204	0x3eb96014	0.36206114
205	0xbd1aaae9	-0.03776065
206	0xbeab87bf	-0.33502004
207	0xbe53ba7d	-0.20676608
208	0x3e3394d9	0.1753725
209	0x3ec1f7d5	0.37884393
210	0x3e71f712	0.23629406
211	0x3cc012ba	0.02344643
212	0x3e7aef50	0.24505353
213	0x3e108b0a	0.14115539
214	0x3ece484d	0.40289536
215	0xbe87a34e	-0.2649178
216	0xbe2bab90	-0.16764665
217	0xbecc16d3	-0.39861163
218	0x3e90a1b7	0.2824838
219	0xbdafcdc1	-0.08584166
220	0xbee224b7	-0.44168636
221	0x3eb18385	0.34670654
222	0x3e232da7	0.15935384
223	0x3ce9c0bb	0.028534284
224	0x3d4a82dc	0.049441203
225	0xbe8707d8	-0.26373172
226	0x3d42d1f5	0.047563512
227	0x3ebacd45	0.36484733
228	0xbeccdfae	-0.40014404
229	0x3e75ba34	0.23996812
230	0x3ea6104e	0.32434314
231	0xbe81bfe8	-0.25341725
232	0x3e97d13d	0.29651824
233	0xbcfc03fa	-0.030763615
234	0x3e971806	0.29510516
235	0x3e4f1799	0.20223846
236	0xbd8e80b8	-0.06958145
237	0x3e2c95fe	0.16854092
238	0x3e68aef2	0.22722986
239	0x3eaac7b3	0.33355483
240	0x3dfa52ef	0.122228496
241	0xbe634f4f	-0.22198223
242	0x3d9a876c	0.07545361
243	0x3ea19b64	0.31563866
244	0x3dc60bad	0.09670196
245	0x3eb7302d	0.35778943
246	0xbe40b3a0	-0.18818521
247	0x3ed91a23	0.42402753
248	0xbe4ea18a	-0.2017881
249	0x3e7e3059	0.2482313
250	0xbe22beb9	-0.15893067
251	0x3e46f4b5	0.19429286
252	0xbe290cd0	-0.16508794
253	0xbe65f787	-0.22457705
254	0x3edb8a37	0.42878887
255	0x3ea3e7b4	0.32012713

bias f4 [32]
0	0x3b3ec2aa	0.0029107728
1	0x3b361e2b	0.0027788978
2	0x39547d00	0.00020264462
3	0xb28c7f05	-1.6355907e-08
4	0xb3313851	-4.1262243e-08
5	0x3d1d34a3	0.038380276
6	0x3e618473	0.22023182
7	0x3cadfd12	0.021238837
8	0x3d493c22	0.049129613
9	0x3e2e1c6e	0.17003033
10	0xbe3a3cce	-0.18187258
11	0x3e178434	0.14796525
12	0x3cfd711e	0.030937728
13	0x3e63984d	0.22226067
14	0x3c3a94ae	0.011387987
15	0x3b1e32c2	0.002413914
16	0xbd461e6b	-0.048368853
17	0x3ea989f9	0.33113077
18	0x3eaa649f	0.33279893
19	0x3e5b9611	0.21443965
20	0x3e405b7d	0.187849
21	0x3e6e61f1	0.23279549
22	0xbceedc8f	-0.029157905
23	0xbc693d7b	-0.0142358495
24	0x3e2a8f1e	0.16656157
25	0xbdd40d85	-0.10354141
26	0x3dd69de5	0.10479335
27	0xbdb6ae8b	-0.0892001
28	0xbe1e32e8	-0.15449107
29	0x3e1010a5	0.1406885
30	0x3c35cea8	0.011096634
31	0xbd8cfbf2	-0.06883992

weight f4 [32, 32, 3, 3]
0	0xbd983083	-0.07431128
1	0x3dc18109	0.0944844
2	0xbca970fc	-0.020683758
3	0xbbd52ba8	-0.0065054484
4	0x3ccf5e3c	0.02531349
5	0x3c97eebf	0.01854646
6	0xbcc9a88d	-0.024616504
7	0x3c86eb4c	0.01646962
8	0x3df08293	0.11743655
9	0x3dacc037	0.084350996
10	0x3d0dc6b5	0.03461333
11	0xbcedb5d9	-0.029017376
12	0x3d40aa17	0.04703721
13	0x3dbff5f0	0.09373081
14	0xbc1259c8	-0.008932538
15	0x3c2c4803	0.010515216
16	0x3d40b942	0.047051676
17	0xbd41429e	-0.04718267
18	0x3d50a7d6	0.05094131
19	0x3da56c9b	0.080773555
20	0x3e1fecbb	0.1561765
21	0x3d622dd2	0.05521948
22	0x3e0a8c52	0.1353009
23	0x3e32555a	0.17415372
24	0x3e682250	0.22669339
25	0x3e40ee11	0.18840815
26	0x3df2ab76	0.1184911
27	0x97a3f7f6	-1.0596222e-24
28	0x95269cae	-3.364703e-26
29	0x16399469	1.4991011e-25
30	0x96d9d2a5	-3.5191176e-25
31	0x951de079	-3.1882975e-26
32	0x96fcf91d	-4.0870008e-25
33	0x1414fa61	7.521469e-27
34	0x96ca6da6	-3.2704058e-25
35	0x96af59f0	-2.8329533e-25
36	0x979d6279	-1.0170745e-24
37	0x916e6990	-1.8807419e-28
38	0x96428cb0	-1.5715588e-25
39	0x95be8a47	-7.695855e-26
40	0x18356c0f	2.3448257e-24
41	0x15f30640	9.815678e-26
42	0x181b2ec3	2.005689e-24
43	0x944e9838	-1.0430362e-26
44	0x168c9934	2.2714905e-25
45	0x3d5643f4	0.0523109
46	0x3d75ae69	0.059980784
47	0xbdec3ea1	-0.11535383
48	0x3e0c62fb	0.13709633
49	0x3e042c4c	0.12907523
50	0x3d6a2678	0.057165593
51	0x3e08c855	0.1335767
52	0x3e179a5e	0.1480498
53	0x3d88577c	0.06657311
54	0x3c804e19	0.01566224
55	0x3d6655ae	0.056234054
56	0xbd6856e6	-0.056723498
57	0xbc837a32	-0.016049478
58	0x3d665718	0.056235403
59	0x3c1f93cc	0.009739827
60	0x3d7cca5c	0.061716422
61	0x3d8349c6	0.064105555
62	0xbd6a4260	-0.057192206
63	0xbc8640b6	-0.016388278
64	0x3da9fdad	0.08300338
65	0x3c07cc8c	0.008288514
66	0xbdae069d	-0.08497355
67	0x3d5e67ff	0.054298397
68	0x3afeb6d3	0.0019433148
69	0xbda2c522	-0.07947756
70	0x3d7febf4	0.06248088
71	0x3d6d2f04	0.057906166
72	0x3d3c890f	0.046029147
73	0x3ca3562d	0.019938553
74	0xbe4b6517	-0.19862781
75	0x3d510992	0.051034518
76	0x3d8cd8cb	0.068772875
77	0xbdb5bd1b	-0.0887396
78	0x3d1be675	0.038061578
79	0x3d0e1f24	0.034697667
80	0x3d0cdbf6	0.03438946
81	0xbd08b4f4	-0.033375695
82	0xbe0b6677	-0.13613306
83	0xbe3130ed	-0.1730382
84	0xbc338764	-0.010957573
85	0xbdc2787b	-0.09495636
86	0xbdedae77	-0.11605542
87	0x3ccaacca	0.024740595
88	0xbcf475b0	-0.029841274
89	0xbdc9aecb	-0.09847792
90	0xbd5538e1	-0.052056197
91	0xb968d4d2	-0.00022204526
92	0xbd646e70	-0.055769384
93	0xbd809588	-0.06278521
94	0xbd2a5c5c	-0.041591987
95	0x3d31428a	0.043276347
96	0xbdb1ee83	-0.086880706
97	0xbc8d5487	-0.01725222
98	0x3cc0a3cc	0.023515604
99	0x3e1f976a	0.15585104
100	0xbd4b0de9	-0.049573813
101	0xbe0b33f1	-0.13594033
102	0x3dab2974	0.08357516
103	0x3c91b0ea	0.017784555
104	0xbd1a1a93	-0.037623
105	0x3e1895c0	0.14900875
106	0x3def1636	0.11674158
107	0x3dbb42bf	0.0914359
108	0xbc955e36	-0.0182334
109	0x3daf81c5	0.085696734
110	0x3d02c122	0.031922467
111	0xbcba7716	-0.022761863
112	0x3c658fc3	0.014011326
113	0xbc8c8d61	-0.017157258
114	0xbd917677	-0.071026735
115	0xbcdeff9b	-0.027221492
116	0x3d1d472b	0.03839795
117	0x3dbc4dff	0.09194564
118	0xbc81dc95	-0.015852252
119	0xbd87ffd2	-0.06640591
120	0x3c8ed57b	0.01743578
121	0x3a869457	0.0010267597
122	0xbde16318	-0.11005229
123	0x3d4db8f2	0.050225206
124	0x3d5973e7	0.05308905
125	0x3d906f6d	0.07052503
126	0xbbc8f16c	-0.0061322954
127	0x3dcfa854	0.10139528
128	0x3dc4d752	0.096113816
129	0x3c66da6a	0.01409016
130	0x3ce44b5b	0.027867964
131	0x3d826961	0.06367756
132	0xbcc33d48	-0.023832932
133	0xbc8ec40d	-0.017427469
134	0x3d4dd872	0.050255246
135	0x3c0bd60b	0.008534919
136	0x3dacf05c	0.084442824
137	0x3d3a0ef0	0.0454244
138	0xbc0cb149	-0.00858719
139	0x3db9a425	0.09064511
140	0x3d4f42d0	0.050600827
141	0x3d49a2d1	0.04922754
142	0x3def94d4	0.116983086
143	0x3e0c607d	0.13708682
144	0xbe2441f7	-0.16040789
145	0xbe7f5239	-0.24933709
146	0xbcb7fdb8	-0.02245985
147	0xbe21b454	-0.15791446
148	0xbdf63db3	-0.12023487
149	0xbdffbe3d	-0.12487457
150	0xbdb3d254	-0.08780351
151	0xbd9a691b	-0.075395785
152	0xbda1b830	-0.07896459
153	0xbd5608e2	-0.052254565
154	0x3d780620	0.060552716
155	0xbd4fa230	-0.050691783
156	0xbd08eb7d	-0.033427704
157	0xbcafd87d	-0.021465534
158	0xbc156bd6	-0.009119948
159	0xbb419bc6	-0.002954231
160	0x3d5ab7c7	0.05339792
161	0x3c3a4e03	0.0113711385
162	0xbd5accb3	-0.053417873
163	0xbd03d9cc	-0.03219013
164	0xbcc05a42	-0.023480538
165	0xbd8b5007	-0.068023734
166	0xbd15ab94	-0.036540583
167	0x3c70f744	0.01470739
168	0xbcbb1a32	-0.02283964
169	0xbd1ac50e	-0.037785582
170	0xbd48b455	-0.049000103
171	0x3ce54a83	0.027989632
172	0xbe2b8523	-0.16750006
173	0xbe25fe60	-0.16210318
174	0xbc18ba85	-0.0093218135
175	0xbe191b74	-0.14951879
176	0xbe0ccdbc	-0.13750356
177	0x3d6a71ce	0.05723744
178	0x3c4b9dc9	0.012427756
179	0xbdc2e1c1	-0.095157154
180	0x3e18b08a	0.14911094
181	0xbdd946fd	-0.10609243
182	0xbddd1183	-0.10794356
183	0x3e10348f	0.1408255
184	0x3cf42f9e	0.029807862
185	0xbd999d66	-0.075007245
186	0x3ddcf7c1	0.10789443
187	0xbb88c332	-0.0041736597
188	0x3da3ff4c	0.080076784
189	0xbae1113f	-0.0017171277
190	0x3d273b15	0.04082783
191	0xbcbbbf61	-0.022918405
192	0xbc998b36	-0.018743139
193	0xbc8e95e3	-0.017405456
194	0xbd2b272a	-0.041785397
195	0x3cf03238	0.029320821
196	0x3cacf361	0.021112146
197	0xbdd1aae5	-0.10237674
198	0xbd22dad5	-0.039759476
199	0xbdd08f9e	-0.10183643
200	0x3d92327f	0.071385376
201	0xbdadbd48	-0.08483368
202	0xbc0f3011	-0.008739487
203	0x3ca5d541	0.020243289
204	0x3e01b90d	0.12668248
205	0xbc8110a4	-0.015755005
206	0xbd144643	-0.03619982
207	0x3b22c484	0.002483637
208	0xbc11a687	-0.008889801
209	0xbd85436a	-0.06506999
210	0x3d18a6b7	0.037268367
211	0xbc4f6a79	-0.012659662
212	0x3ae13469	0.0017181757
213	0xbd101c6a	-0.035183348
214	0x3c92a674	0.017901637
215	0xbc6a75fa	-0.014310354
216	0x3de7a118	0.11310023
217	0xbc487749	-0.012235471
218	0xbd5c5b4d	-0.05379801
219	0x3ded9ce0	0.11602187
220	0x3d615410	0.05501181
221	0xbd337a49	-0.043817792
222	0x3de12805	0.10993961
223	0xbd0e0161	-0.034669284
224	0x3bf5b31c	0.007498158
225	0x3cd915ec	0.026499711
226	0x3d1340d4	0.035950497
227	0xbd738e01	-0.059461597
228	0x3d914404	0.07093051
229	0x3dd292d2	0.1028191
230	0xbb5da032	-0.0033817408
231	0x3cc8113b	0.024422279
232	0x3df3690b	0.1188527
233	0x3e0c3e43	0.13695626
234	0xbd4e67c9	-0.050391946
235	0x3da8a3f1	0.08234394
236	0x3d8c7ffb	0.06860348
237	0xbd487585	-0.0489402
238	0x3d0dc6ec	0.034613535
239	0xbc8c03cd	-0.017091656
240	0xbc9de585	-0.019274483
241	0x3cb82b3a	0.02248155
242	0x3d40ee2b	0.047102135
243	0xbd9c0d36	-0.07619707
244	0x3db69dfb	0.08916851
245	0x3d49b3ae	0.04924362
246	0x3c742168	0.014900543
247	0x3c507e49	0.012725421
248	0xbcff1c15	-0.03114132
249	0xbd17b5d3	-0.037038635
250	0x3d20346a	0.039112486
251	0xbc83807f	-0.016052483
252	0xbc6faacc	-0.0146281235
253	0x3c9269b2	0.017872665
254	0xbd7aa4f3	-0.061192464
255	0xbd8e76cf	-0.06956255

bias f4 [32]
0	0x3cb46a0d	0.022023225
1	0xbc35ab3b	-0.011088188
2	0xbd0e4b99	-0.034740064
3	0x3dd2830a	0.102789
4	0xbadf77d3	-0.001704926
5	0x3c2926b7	0.010324172
6	0x3dd4423e	0.10364197
7	0x3d88b32c	0.06674799
8	0xbb0608a7	-0.0020451935
9	0x3d3d096f	0.046151575
10	0xbd8cbec7	-0.068723254
11	0xbcc1a62c	-0.023638807
12	0x3db1d0f3	0.08682432
13	0x3d08ce4d	0.03339987
14	0x3c8043fe	0.015657421
15	0x3c857b41	0.016294124
16	0x3c99e533	0.018786049
17	0x3d07ca3c	0.03315185
18	0x3d3144b7	0.043278422
19	0xbcd1f54f	-0.025629668
20	0xbade58ec	-0.0016963757
21	0xbce6b991	-0.028164657
22	0x3dc3dafd	0.09563253
23	0x3c8703de	0.016481336
24	0xbc2a4e22	-0.010394605
25	0x3d7d8e5a	0.061903335
26	0xbdda1e43	-0.10650303
27	0x3cd89b30	0.026441187
28	0x3cafe364	0.021470733
29	0xbd34cfa2	-0.044143327
30	0xbcc3fab0	-0.023923248
31	0xbd6e0faf	-0.058120426

weight f4 [32, 32, 3, 3]
0	0xbdbe8977	-0.09303563
1	0xbdc86ad0	-0.09785998
2	0x3d0cf0cd	0.034409333
3	0xbd723f5e	-0.059142463
4	0xbc9ab1b6	-0.018883567
5	0x3daf49db	0.08559009
6	0x3cb71164	0.02234716
7	0x3d6c5ae7	0.05770388
8	0xbcfe4165	-0.031037042
9	0x3d7e1c19	0.062038515
10	0x3e623a22	0.22092488
11	0x3d888f7d	0.06667993
12	0x3d3daf32	0.046309657
13	0x3cc9a805	0.02461625
14	0xbd28f24e	-0.041246705
15	0xbd3f0239	-0.04663298
16	0xbdda88fe	-0.106706604
17	0xbe16636e	-0.14686367
18	0xbb99a83e	-0.0046892455
19	0x3c23a27b	0.009987469
20	0x3c717c1d	0.014739064
21	0x3c4713b9	0.012150698
22	0x3cb12874	0.021625735
23	0x3c82a068	0.015945628
24	0x3ca06195	0.01957778
25	0x3ceab64c	0.028651379
26	0x3cbaddd6	0.022810858
27	0x3dd12653	0.10212388
28	0x3debbb37	0.11510318
29	0x3cf13aa3	0.029446905
30	0xbc460992	-0.012087243
31	0x3cc838da	0.024441171
32	0xbdd53f3a	-0.1041245
33	0xbdb4330b	-0.08798798
34	0x3c46d49e	0.012135653
35	0xbe5c8b29	-0.2153746
36	0xbd2f6cd2	-0.04282839
37	0xbdba5dce	-0.09099923
38	0x3cd8f8c0	0.0264858
39	0xbb9697a2	-0.0045957128
40	0x3d30bb65	0.043147463
41	0x3d278ff2	0.04090876
42	0x3c40967c	0.011754628
43	0x3d72d16c	0.05928175
44	0x3bb053c1	0.005381078
45	0xbdcc1182	-0.09964277
46	0xbd21e183	-0.039521705
47	0xbb1392fd	-0.0022518032
48	0xbcc304d6	-0.023806017
49	0x3cfb92ec	0.030709706
50	0x3c7736a4	0.015088711
51	0xbd348752	-0.044074364
52	0x3dc67134	0.096895605
53	0xbd48f7b5	-0.049064357
54	0xbdb027f6	-0.08601372
55	0xbd571c08	-0.052516967
56	0x3b62ef26	0.0034627407
57	0x3da5ea02	0.08101274
58	0x3da8e4b6	0.08246748
59	0xbd0669b3	-0.032815646
60	0xba1e8d38	-0.0006048265
61	0x3dad96f5	0.084760584
62	0x3d1faed5	0.038985092
63	0xbce42f53	-0.027854597
64	0x3ce00c2d	0.027349556
65	0x3cf7831f	0.03021389
66	0x3d156204	0.036470428
67	0x3d564c42	0.05231882
68	0x3d13331e	0.03593742
69	0x3cda5150	0.026650101
70	0x3d179fd2	0.03701765
71	0x3d866921	0.065630205
72	0xbe04fc28	-0.12986815
73	0xbdc19cde	-0.09453748
74	0x3c822de7	0.015891029
75	0x3d6c73be	0.057727568
76	0x3d1511cd	0.03639393
77	0x3b8bf6eb	0.0042713783
78	0x3c0a99ec	0.008459549
79	0x3d9ca416	0.076484844
80	0x3d80d327	0.06290274
81	0x3dd8bfea	0.1058348
82	0x3e2ed623	0.17073874
83	0x3d0b2a0c	0.033975646
84	0xbce506a3	-0.027957266
85	0x3bb91776	0.0056485487
86	0xbe02ac35	-0.12761004
87	0xbe21b31e	-0.15790984
88	0xbcaeec57	-0.02135293
89	0xbe454d81	-0.19267847
90	0xbe1500ee	-0.14551136
91	0x3d5ecc92	0.054394312
92	0x3e4e8f88	0.2017194
93	0xbd5ed9dc	-0.054406986
94	0xbcd2a274	-0.02571223
95	0x3c5e44bd	0.013566193
96	0xbd5c6df3	-0.053815793
97	0x3ce85745	0.028361926
98	0xbdbfa826	-0.09358244
99	0xbd4fe63c	-0.050756678
100	0xbd00c039	-0.031433318
101	0x3e19ad5a	0.15007535
102	0xbddaffbe	-0.1069331
103	0x3c9312d3	0.017953312
104	0x3d35c0cb	0.044373315
105	0x3cbecbf4	0.023290612
106	0x3d933935	0.07188646
107	0xbc9ae22c	-0.018906675
108	0xbd330312	-0.0437041
109	0xbd3dbafd	-0.046320904
110	0xbc6743de	-0.014115302
111	0xbd12a432	-0.03580112
112	0x3d29ef6f	0.041488107
113	0xb9a8b9c9	-0.00032181878
114	0x3d58a23a	0.052889086
115	0x3dba21c9	0.09088475
116	0xbce780fa	-0.028259743
117	0xbd94278f	-0.07234108
118	0xbdf19a46	-0.117970034
119	0x3c0a77e9	0.00845144
120	0xbc2150bc	-0.009845909
121	0x3cb141b8	0.021637782
122	0x3d7a1362	0.06105364
123	0x3d85c5c4	0.065318614
124	0x3d8a51f4	0.067539126
125	0x3d735238	0.05940458
126	0x3d55ab7f	0.052165505
127	0x3e5231db	0.20526831
128	0x3db7559c	0.089518756
129	0xbd2612a1	-0.04054511
130	0xbc382c3e	-0.011241017
131	0xbd1aa97d	-0.037759293
132	0xbced8267	-0.028992845
133	0x3a9d7991	0.0012014379
134	0x3c349e51	0.011024074
135	0x3e14419d	0.14478154
136	0x3e8418fb	0.2580031
137	0xbd0104d9	-0.031498764
138	0x3d0c49b7	0.034249987
139	0x3d3df25a	0.046373703
140	0xbd355925	-0.044274468
141	0xbc251eed	-0.010078174
142	0x3d4b095f	0.049569484
143	0xbdb84634	-0.08997765
144	0xbdca84ba	-0.09888597
145	0xbda260a2	-0.079285875
146	0xbdb41611	-0.08793271
147	0x3dc5a0e6	0.096498296
148	0x3d9e6cf4	0.07735625
149	0x3d09c057	0.033630695
150	0x3d80fee7	0.06298619
151	0x3d870c7f	0.0659418
152	0x3d3e29ff	0.04642677
153	0xba173591	-0.0005768175
154	0x36dc1981	6.55948e-06
155	0x38bb028d	8.91733e-05
156	0xb9a1326c	-0.0003074588
157	0xb9048e79	-0.00012641576
158	0x3970ab5e	0.00022952023
159	0x38313004	4.2244807e-05
160	0xa02bb6c7	-1.4544739e-19
161	0x37bb249b	2.2309183e-05
162	0xbe01a462	-0.12660363
163	0xbd87d54c	-0.0663248
164	0xbcf5a9cf	-0.029988198
165	0x3d919e4f	0.07110273
166	0x3da16e61	0.07882381
167	0x3d1f478f	0.038886603
168	0x3c493620	0.012280971
169	0x3c4191f2	0.011814581
170	0x3b29b70a	0.0025896453
171	0x3cf19efb	0.029494753
172	0x3e02c3a6	0.12769946
173	0x3dc6368f	0.09678375
174	0xbcbda0e8	-0.023148015
175	0xbd95d85b	-0.07316657
176	0xbdb4e1c4	-0.08832124
177	0xbdc0a053	-0.094055794
178	0xbdb14266	-0.086552426
179	0xbe2eb629	-0.17061676
180	0xb89d33c6	-7.495987e-05
181	0x278e42bb	3.9485267e-15
182	0xabf99667	-1.7734259e-12
183	0x2d59bb7f	1.2376654e-11
184	0x345f36ba	2.0788403e-07
185	0x96f8099a	-4.007262e-25
186	0xb56edbc7	-8.898173e-07
187	0x9c54e56e	-7.0441447e-22
188	0xa49333d3	-6.383888e-17
189	0x3d705581	0.058675293
190	0x3dbe3a57	0.09288471
191	0x3e217633	0.15767746
192	0xbd2ca732	-0.042151637
193	0x3d422daa	0.04740683
194	0xbd2de18e	-0.042451434
195	0xbd94fdf1	-0.07274998
196	0xbd704881	-0.058662895
197	0xbdc6be84	-0.09704307
198	0x3c3bb5bd	0.011456904
199	0x3de041c0	0.10950041
200	0x3dfabc28	0.12242919
201	0x3c551511	0.013005511
202	0x3d72328e	0.059130244
203	0x3d0e3472	0.034717984
204	0xbd89f82f	-0.067367904
205	0x3d128703	0.03577329
206	0xbe0ee256	-0.13953528
207	0xbd3ed049	-0.046585355
208	0x3bf9cf59	0.0076235947
209	0x3d913c72	0.07091607
210	0xbd41fb39	-0.047358725
211	0x3d6386a5	0.05554833
212	0x3d9225b9	0.07136101
213	0xbbf8a08b	-0.0075874976
214	0x3d043d92	0.03228528
215	0x3cdf438c	0.027253889
216	0x3c2f2560	0.010690063
217	0x3dee37ba	0.11631723
218	0x3e6e69e8	0.23282588
219	0x3cac8254	0.021058239
220	0x3cf5f7ad	0.030025328
221	0xbcaf5f91	-0.021407874
222	0xbc8bac00	-0.01704979
223	0xbcec2522	-0.0288263
224	0xbde58b3e	-0.11208199
225	0xbd84903a	-0.064728215
226	0xbde03257	-0.109471016
227	0xbd55746e	-0.05211299
228	0xbd957e17	-0.0729944
229	0x3ce7ffc3	0.028320199
230	0x3db36537	0.087595396
231	0x3ce34614	0.027743377
232	0x3d137f60	0.036010146
233	0x3d5d9341	0.05409551
234	0xb8045138	-3.1546893e-05
235	0x3d6278ce	0.05529099
236	0x3dd6984d	0.10478268
237	0xbd307ee6	-0.04308977
238	0xbc962c31	-0.018331619
239	0xbd532192	-0.051545687
240	0xbe09a70b	-0.13442628
241	0x3d7135ea	0.058889307
242	0xbd5bb243	-0.0536368
243	0x3d841a0f	0.06450283
244	0x3dee707d	0.11642549
245	0x3cc7b3b3	0.02437768
246	0xbccb3ef5	-0.024810294
247	0x3d2c783b	0.04210685
248	0xbccebe92	-0.025237355
249	0xbd88f6de	-0.06687711
250	0xbda0efc0	-0.07858229
251	0xbe244d17	-0.16045032
252	0xbd51159d	-0.051046003
253	0xbd836079	-0.06414885
254	0xba2436c0	-0.0006264262
255	0xbd9cbb0f	-0.07652866

bias f4 [32]
0	0x3bcac536	0.00618806
1	0xbc6a0553	-0.014283496
2	0x3d85bf24	0.06530598
3	0x3ceecdaa	0.029150803
4	0xbbfffdd1	-0.0078122397
5	0x3cf19283	0.029488808
6	0xbc7021d4	-0.014656503
7	0xbda0bf41	-0.07848979
8	0xbd7990d4	-0.060929134
9	0x3cfe9d57	0.031080885
10	0x3cbdf597	0.023188395
11	0xbd0b5672	-0.034017988
12	0xbdbf52db	-0.09341975
13	0x3cdd9396	0.027047914
14	0x3d0824c2	0.03323818
15	0x3b934f86	0.004495564
16	0x3d833463	0.06406476
17	0x3d044fc0	0.032302618
18	0x3d96aefe	0.07357596
19	0x3c3c0749	0.011476346
20	0xbd28cdd9	-0.041211937
21	0x3cf16770	0.029468268
22	0x3d121ff2	0.035674997
23	0x3dbeaf1b	0.093107425
24	0x3dd002c9	0.10156781
25	0xbc84f4dc	-0.01623004
26	0x3d01711e	0.031602018
27	0x3d8841aa	0.066531494
28	0x3d0f4088	0.03497365
29	0x3cdb5ae7	0.026776744
30	0x3ceb9658	0.028758213
31	0xbd5b2456	-0.05350145

weight f4 [128, 32]
0	0x3d84eda8	0.06490642
1	0xbcab0eb7	-0.02088104
2	0x3df178f1	0.11790646
3	0xbcb89f8f	-0.022537021
4	0x3e625202	0.22101596
5	0xbc765f25	-0.015037333
6	0xb6b0b5a1	-5.266353e-06
7	0x3d7efea2	0.062254556
8	0x3ba79486	0.005114141
9	0xbddc80ed	-0.10766778
10	0xbd10d6d5	-0.03536113
11	0xbc883d50	-0.016630799
12	0xbdd672ec	-0.10471138
13	0x3b797044	0.00380613
14	0x3d12f175	0.035874803
15	0x3d52cb2a	0.051463284
16	0x3db31940	0.087450504
17	0x3da5f09c	0.08102533
18	0xbc4d1061	-0.012516112
19	0x3dfd9bf9	0.12383265
20	0xbd052810	-0.03250891
21	0x3d6f8ede	0.05848586
22	0x3e328707	0.17434321
23	0xbe3409b6	-0.1758183
24	0x3e53742c	0.20649785
25	0xbdb92f31	-0.09042204
26	0x3dcc2e99	0.09969825
27	0xbe0a93af	-0.135329
28	0xbe2f3b10	-0.17112374
29	0xbdcbc6b2	-0.099500075
30	0x3e2849f4	0.16434461
31	0x2e1b2084	3.52718e-11
32	0xbdd2aff6	-0.10287468
33	0x3ca7e2a9	0.020493822
34	0x3d809f2a	0.06280358
35	0x3e492002	0.19641116
36	0xbd9736ee	-0.07383524
37	0xbd0e5423	-0.034748208
38	0x33823433	6.063092e-08
39	0x3e10ed38	0.14152992
40	0xbdcd0a91	-0.10011781
41	0xbdca6ef1	-0.09884442
42	0x3e0b1d4b	0.13585393
43	0x3c3309b3	0.010927605
44	0xbcae8871	-0.021305295
45	0xbe26f814	-0.16305572
46	0x3b800e15	0.0039079287
47	0xbe3c1480	-0.18367195
48	0x3e0d8948	0.138219
49	0x3d41391c	0.047173604
50	0x3d5a03ae	0.053226165
51	0xbe35c637	-0.17751394
52	0x3d1971fa	0.037462212
53	0x3d99d9c2	0.07512237
54	0xbd7e862c	-0.062139675
55	0x3c140e28	0.009036578
56	0x3e2169db	0.15763037
57	0xbccbc90f	-0.024876146
58	0xbdf436db	-0.11924525
59	0x3e0e41b9	0.13892259
60	0x3e3f8cd0	0.1870606
61	0xbe3112e8	-0.17292368
62	0x3d9dd4dd	0.07706616
63	0xb35e767c	-5.1796164e-08
64	0x3e667ed4	0.22509319
65	0xbcab0e6b	-0.020880898
66	0x3d3c6c06	0.046001457
67	0xbd67b7bb	-0.056571703
68	0x3d672328	0.056430012
69	0xba800009	-0.0009765635
70	0x352fdb9d	6.551216e-07
71	0x3de04ae3	0.109517835
72	0x3d525e07	0.051359203
73	0x3d8f3c78	0.069939554
74	0xbd0014d0	-0.03126985
75	0x3e7b8917	0.24564014
76	0xbde45017	-0.111480884
77	0x3dcd5439	0.1002583
78	0x3dc4586b	0.09587177
79	0x3dbd1a58	0.0923354
80	0x3d95905d	0.07302926
81	0x3deb7534	0.11496964
82	0x3e064708	0.13113034
83	0x3e3d96b5	0.18514521
84	0xbcf5a9dd	-0.029988224
85	0x3df5fcfe	0.12011145
86	0xbd57beb7	-0.052672114
87	0xbe2abf5b	-0.16674559
88	0x3e4a7589	0.19771399
89	0xbe0f9801	-0.14022829
90	0xbbb17172	-0.005415135
91	0xbd928c9f	-0.071557276
92	0xbcd50f70	-0.026008338
93	0x3e60a8c6	0.21939382
94	0xbe2aceb9	-0.16680421
95	0x2866f56c	1.2820782e-14
96	0x3df0d942	0.11760189
97	0xbc969c79	-0.018385159
98	0x3d882745	0.06648115
99	0x3d2b89ba	0.041879393
100	0xbe2b4a8b	-0.16727655
101	0x3bc5b19c	0.0060331356
102	0xbb2bf592	-0.00262389
103	0xbe06cdf6	-0.13164505
104	0xbb5237f3	-0.0032076805
105	0x3e2fd8f7	0.1717261
106	0x3e2b1b1f	0.16709565
107	0x3d64d2d7	0.055865135
108	0x3e259ef0	0.16173911
109	0xbccadbde	-0.024763044
110	0xbdd6190a	-0.104539946
111	0xbdbc730a	-0.092016295
112	0x3de5c7bc	0.11219737
113	0x3df80a76	0.1211137
114	0xbe374b66	-0.17899856
115	0x3d54b4cf	0.051930245
116	0xbb2e574c	-0.0026602326
117	0xbdd696c0	-0.10477972
118	0x3da1000e	0.078613386
119	0x3cc39a0a	0.023877162
120	0x3e04a541	0.12953664
121	0xbd2f1fc9	-0.042754922
122	0x3d067630	0.032827556
123	0x3dd15062	0.1022041
124	0xbdf232dd	-0.11826108
125	0xbbc550d3	-0.006021598
126	0xbdc0c33f	-0.0941224
127	0x2704ba23	1.8419585e-15
128	0xbd3bcac5	-0.045847673
129	0xbcbd5de9	-0.023116069
130	0xbe300458	-0.17189157
131	0x3e229002	0.15875247
132	0xbce73279	-0.02822231
133	0x3dc16741	0.09443522
134	0x37be0a3e	2.2654534e-05
135	0xbd72c285	-0.05926754
136	0x3e0263e1	0.12733413
137	0xbc91cc0d	-0.017797494
138	0xbe17e085	-0.14831741
139	0xbdbbf71e	-0.09177993
140	0xbdfbffec	-0.123046726
141	0x3dfe704d	0.124237634
142	0x3e19461f	0.14968155
143	0xbe0adb9f	-0.13560341
144	0x3d843f70	0.06457412
145	0xbd735f3b	-0.05941699
146	0x3d372a7d	0.044718254
147	0xbe604b6d	-0.21903773
148	0x3d26c1b6	0.04071208
149	0xbe34c962	-0.17654946
150	0x3e7af63f	0.24507998
151	0xbdf24512	-0.1182958
152	0x3e25f6d9	0.16207446
153	0xbcc7591a	-0.02433448
154	0xbd88571b	-0.06657239
155	0x3e3130cf	0.17303775
156	0xbd53e532	-0.05173225
157	0x3e10e56d	0.14150019
158	0x3e13f976	0.1445063
159	0xa0630ff3	-1.9232925e-19
160	0x3d7356ec	0.059409067
161	0x3ca984bf	0.020693181
162	0xbcdd7cc0	-0.027037024
163	0x3e3e26f1	0.18569542
164	0xbdd2e116	-0.10296838
165	0x3ded2dca	0.11580999
166	0xbb962253	-0.0045817285
167	0xbd93d56a	-0.0721844
168	0xbe237b58	-0.1596502
169	0xbd4665fe	-0.04843711
170	0x3e5f201c	0.21789593
171	0xbe31ac48	-0.17350876
172	0x3e3a945b	0.18220656
173	0x3dead04c	0.11465511
174	0x3e43df1a	0.19128075
175	0xbdfd5de2	-0.12371422
176	0x3cc6ecdd	0.024282867
177	0xbe22f287	-0.1591283
178	0x3d12710c	0.03575234
179	0xbdb134c2	-0.08652641
180	0x3c8625e8	0.016375497
181	0xbd24cfb9	-0.040237162
182	0x3e59d1b0	0.21271396
183	0x3e1d00e9	0.15332378
184	0xbdf8c725	-0.12147359
185	0x3e3bda55	0.18345006
186	0x3e111d3f	0.14171313
187	0xbd223c77	-0.039608445
188	0x3d56e698	0.052466005
189	0x3d1d84c0	0.03845668
190	0xbae16131	-0.0017195103
191	0xb40a94b1	-1.2906345e-07
192	0xbcf12c5f	-0.029440103
193	0x3caffd68	0.021483138
194	0x3e4cdce8	0.20006144
195	0xbe0f0fc5	-0.1397086
196	0x3db191b2	0.08670367
197	0x3d8c6308	0.06854826
198	0xb027ea81	-6.1087496e-10
199	0x3dd38eea	0.10329993
200	0xbcc0ae1e	-0.023520526
201	0xbcf111eb	-0.02942749
202	0x3e2b3939	0.16721047
203	0x3db08d40	0.08620691
204	0x3d816c01	0.06319428
205	0xbe12c72b	-0.14333789
206	0x3ba89e2a	0.0051458078
207	0xbdde44c6	-0.10852961
208	0xbd9f02db	-0.077642165
209	0xbd549791	-0.051902357
210	0xbb4abb41	-0.0030934366
211	0x3e32e100	0.17468643
212	0x3cbe40ef	0.023224322
213	0x3e5d3e65	0.21605833
214	0xbe2f9ce9	-0.171497
215	0xbd5944f3	-0.05304427
216	0xbd5fac3b	-0.05460761
217	0x3da3353c	0.07969138
218	0x3e0bf1f6	0.1366652
219	0x3c2dce5c	0.010608282
220	0x3d3db914	0.046319082
221	0x3e50ba8c	0.20383662
222	0x3e541e8e	0.2071478
223	0xb3ab480a	-7.975912e-08
224	0x3c7d12e2	0.015446397
225	0xbc900eaf	-0.017585127
226	0xbde80512	-0.11329092
227	0x3dfcbb05	0.12340359
228	0xbe101e44	-0.14074045
229	0x3e35b102	0.17743304
230	0x39df3d01	0.00042579326
231	0xbe3a2edc	-0.18181938
232	0xbd721a32	-0.059107013
233	0x3c9335fb	0.017970076
234	0x3ca81e76	0.020522337
235	0xbe0dfb63	-0.13865428
236	0x3e18aa48	0.14908707
237	0x3ded1da2	0.11577918
238	0x3d8b5119	0.068025775
239	0xbcecd2e5	-0.028909156
240	0x3dee10ba	0.11624284
241	0x3c95b864	0.0182764
242	0xbd2ac951	-0.041695897
243	0x3e28a628	0.16469634
244	0x3b86943a	0.0041070255
245	0x3bb15c0d	0.0054125846
246	0x3e2b4c22	0.16728261
247	0x3d8609d3	0.065448426
248	0x3bae6099	0.005321574
249	0xbdcf0244	-0.10107854
250	0x3e3aa8aa	0.18228403
251	0x3dcca165	0.09991721
252	0xbe04c53a	-0.12965861
253	0xbdaefb72	-0.08544053
254	0x3e21c830	0.15799022
255	0x3464d818	2.1312769e-07

bias f4 [128]
0	0xbb0145ab	-0.0019725363
1	0x3e02ccbc	0.12773412
2	0x3d8b6451	0.06806243
3	0xbe059174	-0.13043767
4	0x3e45ae77	0.19304834
5	0x3e540ff6	0.20709214
6	0x3e219d12	0.15782574
7	0x3d3ba477	0.045811143
8	0x3d932969	0.07185633
9	0xbcadc62c	-0.02121266
10	0x3e0d4533	0.13795929
11	0x3bd2ca80	0.0064328313
12	0x3d5d62e6	0.054049395
13	0xbd6cef5c	-0.05784546
14	0x3d1ec5b6	0.03876277
15	0x3de8b6db	0.11363002
16	0x3d56cf18	0.052443594
17	0xbd5c4a42	-0.053781755
18	0x3e1019f9	0.14072408
19	0xbc4e9cec	-0.012610655
20	0xbd2e5812	-0.04256446
21	0x3d28d4d5	0.041218597
22	0x3db90728	0.09034568
23	0x3d4e441e	0.05035793
24	0x3d24834a	0.04016427
25	0xbda57a22	-0.080799356
26	0xbdc385d7	-0.09547012
27	0x3c3c2261	0.011482806
28	0x3d1fcbb4	0.039012626
29	0xbb8c30e0	-0.0042782873
30	0x3c123766	0.008924341
31	0x3e182a15	0.14859803
32	0x3e44efe6	0.19232139
33	0x3d9f7e3f	0.077877514
34	0x3e045929	0.12924637
35	0x3e1595ed	0.14607973
36	0x3d19177a	0.037375905
37	0x3e4f03b3	0.20216255
38	0x3e1292ad	0.14313765
39	0x3e2b9cbd	0.1675901
40	0xbd336431	-0.04379672
41	0x3dadf3eb	0.08493789
42	0x3db8eb5b	0.090292655
43	0xbdf00ffa	-0.11721797
44	0x3b02ef45	0.0019979042
45	0xbe0c14b3	-0.13679771
46	0x3d84788b	0.06468304
47	0xbe17ee43	-0.14836983
48	0xbdad382e	-0.08457981
49	0x3d93f5a5	0.07224587
50	0x3dd47cf6	0.10375397
51	0x2811c800	8.092485e-15
52	0x3e5091da	0.20368138
53	0x3cde6864	0.027149387
54	0x3df3638b	0.11884221
55	0xbd6b42cf	-0.05743676
56	0xbdb448f1	-0.08802975
57	0xbda15f3d	-0.078794934
58	0xbd6c7db4	-0.057737067
59	0xbda23432	-0.07920112
60	0xbdda9552	-0.10673012
61	0x3e26d266	0.16291198
62	0x3de1e215	0.1102945
63	0x3d32dd34	0.043667987
64	0x3e2a0564	0.16603619
65	0x3e1ed36a	0.15510336
66	0x3d5ace1f	0.05341923
67	0x3dc8d6f9	0.09806628
68	0xbcc2466f	-0.023715226
69	0xbd9cf205	-0.07663349
70	0x3cf3556e	0.029703822
71	0x3e1556b6	0.14583859
72	0xbd2093c1	-0.03920341
73	0xbd2d54b6	-0.042317115
74	0xbdc5b65e	-0.096539244
75	0xba21bdd4	-0.0006169949
76	0x3e52f406	0.206009
77	0xbdd3a4fc	-0.10334203
78	0xbce004e3	-0.02734608
79	0xbdf78cf3	-0.12087431
80	0xbda925a6	-0.08259134
81	0x3e25bc37	0.1618508
82	0xbcda7751	-0.026668223
83	0x3d8cac6a	0.06868823
84	0x1b41bbdf	1.602529e-22
85	0xbcd9a142	-0.026566152
86	0xbe0599bb	-0.13046925
87	0xbdbe5296	-0.09293096
88	0x3d8e0d24	0.069361
89	0x3d4cad4a	0.04996995
90	0x3e2155db	0.15755408
91	0xbc69d97f	-0.0142730465
92	0xbdebec10	-0.11519635
93	0x3dcc39a0	0.099719286
94	0x3e0bd16c	0.13654107
95	0x3ca85369	0.020547586
96	0x3df9e677	0.12202161
97	0x3df501dc	0.11963245
98	0xbd86c2b4	-0.065801054
99	0x3cb48d9d	0.022040183
100	0x3dcc0a08	0.09962851
101	0xb90b7646	-0.00013300133
102	0x3e3d7a10	0.18503594
103	0x3d1a33c9	0.037647042
104	0x1587c8fe	5.4843176e-26
105	0x3e379dfb	0.17931359
106	0x3dc81e08	0.09771353
107	0xbdb464bb	-0.08808275
108	0x3e422604	0.18959814
109	0xbc2f904d	-0.010715556
110	0x3d7530f5	0.059861142
111	0xbbcb147e	-0.006197511
112	0xbbc36d69	-0.0059639704
113	0xbd17478f	-0.036933478
114	0xbddc107a	-0.1074533
115	0x3e3d186c	0.18466347
116	0x3de5422b	0.11194261
117	0x3e2eb206	0.17060098
118	0xbda22ac7	-0.079183154
119	0x3e16a0c7	0.14709769
120	0xbc2fd32c	-0.0107315
121	0x3cb39a67	0.02192421
122	0xbca41534	-0.020029642
123	0x3cb474f9	0.022028433
124	0x3d72a918	0.05924329
125	0x3dda56a5	0.106610574
126	0x3db77ea6	0.08959703
127	0xbdbb74c1	-0.091531284

weight f4 [64, 128]
0	0xbcd688e0	-0.026188314
1	0xbc6e7d8f	-0.014556303
2	0xbb80313e	-0.00391212
3	0xbb940e00	-0.0045182705
4	0xbc91edc8	-0.017813578
5	0x3ca7760c	0.020442031
6	0xbab1dec0	-0.0013570413
7	0xbbf75e9b	-0.0075491196
8	0xbbe236bb	-0.006903497
9	0xbd1126b2	-0.035437293
10	0x38b6f334	8.7237364e-05
11	0xbbe15ed4	-0.0068777595
12	0x3bf44aa0	0.007455185
13	0x3b4fbaaf	0.0031696965
14	0xbbc90514	-0.0061346386
15	0xbc296803	-0.01033974
16	0xbd020d51	-0.03175098
17	0x1532fc37	3.6145776e-26
18	0xbbc96596	-0.006146143
19	0xbc31dc78	-0.0108557865
20	0xbc4a4042	-0.012344422
21	0xbc998933	-0.01874218
22	0xbc22f0a6	-0.00994507
23	0x3bc2f01d	0.005949034
24	0xbc520709	-0.01281906
25	0xbbc7f234	-0.006101871
26	0xb9ec4792	-0.00045066752
27	0x9641158e	-1.5597217e-25
28	0xbc7e3148	-0.015514679
29	0x399f606e	0.0003039869
30	0x3bf2655b	0.0073973364
31	0xbc1ca9b5	-0.009561946
32	0xbca2639c	-0.019822888
33	0x3af7ae48	0.0018896544
34	0x964de1b6	-1.663099e-25
35	0xbcad28c2	-0.021137599
36	0xbba3b4dd	-0.004995926
37	0x3b475f0a	0.0030421638
38	0xbc343cd1	-0.011000828
39	0xbbc9597e	-0.0061447015
40	0x170b24e7	4.49599e-25
41	0xbbe174a7	-0.006880361
42	0x3b1773b8	0.0023109745
43	0xbc012d69	-0.007884362
44	0xbcec82a6	-0.028870892
45	0xbd2f86a0	-0.042852998
46	0xbce5416f	-0.027985303
47	0x3b500de6	0.0031746565
48	0x1946b2f8	1.02725025e-23
49	0xbc8b678b	-0.017017147
50	0xbc12f6c3	-0.008969965
51	0x1768b175	7.5187225e-25
52	0xbc99e2e0	-0.01878494
53	0x3b9ab1c4	0.0047208983
54	0xbca2d3f4	-0.019876458
55	0x18915361	3.7565813e-24
56	0xbc22040a	-0.009888658
57	0xbc854c55	-0.01627175
58	0x3baf6beb	0.005353441
59	0xbbc147cf	-0.005898453
60	0x95e0d68c	-9.0811375e-26
61	0xbc4cf1de	-0.0125088375
62	0x3a4d2038	0.00078249304
63	0xbcc4275a	-0.023944546
64	0xbb029edf	-0.001993112
65	0x95e79b16	-9.354484e-26
66	0x3a0e8e4c	0.0005438074
67	0xbcad8a1b	-0.021184018
68	0x1629255e	1.3663502e-25
69	0x9737b56f	-5.935949e-25
70	0x1848445a	2.5883903e-24
71	0xbd186ee1	-0.037215117
72	0xbbced6ee	-0.0063122427
73	0x3afde5fa	0.0019370907
74	0xbc77a90a	-0.015115986
75	0xbc35ecdf	-0.011103838
76	0xbb0a6f88	-0.0021123607
77	0x95422231	-3.920496e-26
78	0xbcec617e	-0.028855082
79	0xbc7607c0	-0.015016496
80	0x3bb4e3fd	0.0055203424
81	0xbc4d353a	-0.012524897
82	0xbd089051	-0.033340756
83	0xbc09cfc7	-0.008411354
84	0x984236a6	-2.5101503e-24
85	0x96c6e3d6	-3.213241e-25
86	0xbc3feea0	-0.0117146075
87	0xbb1cde6c	-0.0023936285
88	0xbc842fe5	-0.01613612
89	0x3bebe71b	0.007199181
90	0xbc329f04	-0.01090217
91	0x94dfda96	-2.2603463e-26
92	0x999e2a2a	-1.6353847e-23
93	0xbc16d459	-0.009205901
94	0xbcc58755	-0.024112383
95	0x3bb5ecb5	0.0055518993
96	0x39182cf6	0.00014512599
97	0xbbac75e6	-0.005263078
98	0xbb84669b	-0.004040552
99	0x99027ba5	-6.745812e-24
100	0xbcfa8630	-0.030581564
101	0xbb999f5f	-0.004688188
102	0xbc44915b	-0.011997546
103	0x3bffdaac	0.00780805
104	0x99d91d98	-2.2449227e-23
105	0xbc2ca5a8	-0.010537542
106	0xbca94bf3	-0.020666098
107	0xbbe4bab1	-0.006980263
108	0xbc8b64b7	-0.017015798
109	0x9b3e9335	-1.5763997e-22
110	0xbbe27e8c	-0.006912058
111	0xbc866ea2	-0.016410176
112	0x95da7162	-8.8228385e-26
113	0xbcc52b54	-0.024068512
114	0xbb13b961	-0.0022540914
115	0x38f883aa	0.00011850086
116	0xbbab1d86	-0.0052220253
117	0xbcbb3fa9	-0.022857504
118	0x3c7d2a41	0.015451969
119	0xbcacc0a7	-0.021087958
120	0x17189fd0	4.931556e-25
121	0x3cc0a06b	0.023513993
122	0x971c3fe5	-5.0486965e-25
123	0x95ac5038	-6.959681e-26
124	0xbcf0cb0b	-0.029393693
125	0x3ca06900	0.019581318
126	0xbcd83dec	-0.026396714
127	0x95e10474	-9.08838e-26
128	0xbd451dfe	-0.048124306
129	0xbcbcef70	-0.023063391
130	0x3c83c226	0.016083788
131	0xbcb00aa2	-0.021489445
132	0x3b67f3a5	0.0035393026
133	0xbd97fb75	-0.074210085
134	0x3ce5d226	0.028054308
135	0x3ca0e777	0.019641621
136	0xb92e9e82	-0.00016652982
137	0xbc5f9e32	-0.013648557
138	0x3c9bc827	0.019016339
139	0xba900eb0	-0.0010990705
140	0x3cb13980	0.021633863
141	0xbcb0df8f	-0.021590976
142	0xbccbd70e	-0.02488282
143	0xbd233dc4	-0.039853826
144	0xbcb4a215	-0.022049943
145	0xba53c4f8	-0.0008078362
146	0xbd91c721	-0.07118059
147	0xbd1aa222	-0.03775228
148	0xbc4e8000	-0.01260376
149	0xbd07514e	-0.033036523
150	0xb8e66020	-0.00010985159
151	0x3b228800	0.00248003
152	0xbcc27a1f	-0.023739873
153	0xbd56ae3d	-0.05241226
154	0xbbfca716	-0.007710348
155	0x2ab37943	3.188093e-13
156	0x1429cc36	8.572593e-27
157	0xbbb80cb8	-0.0056167506
158	0xbc4d38c9	-0.012525746
159	0xbbee101e	-0.007265105
160	0xbc2e1037	-0.010623983
161	0xbce17fc4	-0.027526744
162	0xbd4d81a2	-0.050172456
163	0x3c5a595f	0.013326972
164	0x3ca4c11a	0.02011161
165	0x3d0677b6	0.03282901
166	0xbd8e17a9	-0.069381066
167	0xbd190e9e	-0.037367456
168	0x2d573fa8	1.223547e-11
169	0xbd8534e4	-0.06504229
170	0xbd004d5e	-0.031323783
171	0xbc656a78	-0.014002435
172	0xbc624430	-0.0138102025
173	0xbc70c0ac	-0.014694374
174	0xba3dbd21	-0.000723796
175	0xbb28d22f	-0.0025760045
176	0x3a917343	0.0011096973
177	0xba028478	-0.0004978846
178	0xbca22e58	-0.019797489
179	0x96300c27	-1.4221001e-25
180	0x3baf4795	0.0053491094
181	0xbca166a4	-0.019702263
182	0xbc7f6b16	-0.015589496
183	0x323111e9	1.0306828e-08
184	0xbcaef4f2	-0.021357033
185	0x9aea876a	-9.6998905e-23
186	0xbae72b4f	-0.0017636808
187	0xbc7c519f	-0.015400319
188	0x95488448	-4.049403e-26
189	0xbd0a7a02	-0.033807762
190	0xbd7734cf	-0.060353097
191	0xbc1aa74d	-0.009439302
192	0xbb120a82	-0.0022284095
193	0xbbd566fb	-0.0065125204
194	0xbae68c07	-0.0017589339
195	0xbcc5158f	-0.024058132
196	0x17d931a2	1.4035825e-24
197	0xb9e63ce2	-0.0004391438
198	0x9674289d	-1.9722978e-25
199	0x3cd354f8	0.025797352
200	0x3c202c69	0.009776213
201	0x97ed5ba0	-1.5338895e-24
202	0xbd4c7168	-0.04991284
203	0x3be0e6ce	0.0068634516
204	0x3bc02bc9	0.0058645946
205	0xaef8caa4	-1.13137305e-10
206	0x3c254205	0.010086541
207	0xbd06a718	-0.032874197
208	0xbc8c34c7	-0.01711501
209	0xbb9d5e13	-0.0048024743
210	0xbca2859a	-0.019839097
211	0x3c790cd1	0.01520081
212	0x1804c8ce	1.716198e-24
213	0x97d5afd4	-1.3809188e-24
214	0xbc5609ac	-0.013063829
215	0xbba6d26c	-0.005091002
216	0xb8a64a40	-7.929327e-05
217	0xbd0d82fb	-0.03454874
218	0xbcc798b2	-0.024364803
219	0x95d89f1d	-8.749274e-26
220	0xae00a55a	-2.9250692e-11
221	0xbd54520b	-0.051836055
222	0xbc22f6fd	-0.009946582
223	0xbcb9a650	-0.022662312
224	0xbbf1b0e4	-0.0073758233
225	0xbcd6ad50	-0.026205689
226	0xbc25e2f6	-0.0101249125
227	0x9d146098	-1.9637575e-21
228	0xbc52d020	-0.012867004
229	0xbcbbdaf6	-0.022931557
230	0x3caa4cc9	0.020788567
231	0xbd1085c3	-0.035283815
232	0x15d9ec00	8.8017944e-26
233	0xbc2d3de9	-0.010573843
234	0xbc7e1fab	-0.01551048
235	0xbd839516	-0.0642492
236	0xbcbdc108	-0.023163334
237	0x179dcf0c	1.0198153e-24
238	0x3d04150e	0.03224664
239	0xbc5719d1	-0.013128714
240	0x1795b91e	9.675629e-25
241	0xbcc24496	-0.023714345
242	0x3b9125a4	0.004429536
243	0xbc3e9b55	-0.011633714
244	0xbd2fb300	-0.042895317
245	0xbd0f9c9a	-0.035061456
246	0xbc290bc6	-0.010317748
247	0xbcd676d8	-0.026179716
248	0x95bd4105	-7.6439075e-26
249	0xbc59fccf	-0.013304903
250	0x97bebcda	-1.2326135e-24
251	0x3abb42ed	0.0014286913
252	0xbcf3cf6f	-0.029761998
253	0x3c9a29c2	0.01881874
254	0xbce4e2e9	-0.02794023
255	0x3c575b8f	0.013144388

bias f4 [64]
0	0xbc1cdbaa	-0.009573856
1	0xbd5931ca	-0.053026
2	0xbd30051c	-0.042973623
3	0xbb81b35a	-0.003958148
4	0x3d9b535e	0.075842604
5	0xbdc26a29	-0.09492905
6	0x3dafa732	0.08576812
7	0x3d32fae1	0.043696288
8	0xbd944088	-0.07238871
9	0x3d0b8a6b	0.034067553
10	0x3dfae025	0.122497834
11	0x3d39021d	0.04516803
12	0x3d24379f	0.040092107
13	0xbb930c05	-0.004487517
14	0xbda42a90	-0.08015931
15	0xb3e8c89a	-1.0839831e-07
16	0x3da191ff	0.07889175
17	0xbd55c8c2	-0.05219341
18	0xbd247d1f	-0.040158387
19	0x3cbf138a	0.023324747
20	0xbb93694c	-0.0044986364
21	0xbcc0e8f8	-0.023548588
22	0xb42962ec	-1.5775339e-07
23	0x3d96c435	0.07361642
24	0x1fb6e912	7.746558e-20
25	0x3d7e1eeb	0.062041204
26	0xbbf4c059	-0.0074692187
27	0xbd718532	-0.058964916
28	0x3c0f88f9	0.008760684
29	0xbd2b5042	-0.041824587
30	0x3d75ff5a	0.060057975
31	0xbce1aa16	-0.027546924
32	0xbd5ebea7	-0.05438104
33	0x3d0367b9	0.03208134
34	0x3db36f13	0.0876142
35	0x3d97698c	0.07393178
36	0xbc77b860	-0.015119642
37	0xbd39eb13	-0.0453902
38	0x3d87e11a	0.066347316
39	0x3d84f716	0.064924404
40	0x3d8508aa	0.06495793
41	0x3db64de2	0.08901574
42	0x3d2ba056	0.041900955
43	0xbd656565	-0.0560049
44	0x3d9a1cf7	0.07525056
45	0x3d03238a	0.032016315
46	0x3bbd91da	0.005785209
47	0x3db12876	0.086502954
48	0x3d43e1e6	0.047822855
49	0x3c1dba06	0.009626871
50	0x3d0efebf	0.034910914
51	0x3cd43be0	0.025907457
52	0x3d94e2ac	0.07269797
53	0x3d3cf978	0.04613635
54	0xbb83637c	-0.004009662
55	0xbda12da3	-0.07870033
56	0xbc13a7e3	-0.009012195
57	0x3d96f078	0.073700845
58	0xbd2c2b1f	-0.04203331
59	0x3db3652d	0.08759532
60	0x3d10816f	0.035279687
61	0xbcd8e391	-0.0264757
62	0x3d3d2f9b	0.04618798
63	0x3d339ceb	0.04385082

weight f4 [10, 64]
0	0x3c45d097	0.0120736575
1	0x3c89cd55	0.016821543
2	0x3c6b7f91	0.014373676
3	0x37e04248	2.6733745e-05
4	0x3e13e685	0.14443405
5	0x3c88506f	0.016639916
6	0x3e1e86c0	0.1548109
7	0xbd3cf961	-0.046136264
8	0x3d20380f	0.03911596
9	0x3dc06f13	0.09396186
10	0xbd0bda10	-0.034143507
11	0x3d2de47f	0.04245424
12	0xbc882f70	-0.016624182
13	0xbd9f9d47	-0.0779367
14	0x9bced686	-3.4218474e-22
15	0x9c1617a9	-4.9661417e-22
16	0xbe20dc4c	-0.15709037
17	0xb3079599	-3.1568195e-08
18	0xbdb4e1b1	-0.0883211
19	0xbd77b697	-0.060476866
20	0x3dbe17ab	0.09281858
21	0x3a06a0d1	0.0005135658
22	0x1aa50c36	6.826213e-23
23	0xbde88246	-0.11352973
24	0x3c77bbc0	0.015120447
25	0x3dc2da34	0.09514275
26	0x3c1b7df6	0.009490481
27	0x3cc4f3b4	0.024041988
28	0xbc3a4328	-0.01136855
29	0xbabe3cd1	-0.0014513974
30	0xbd31ea4c	-0.043436334
31	0x3c9efdf1	0.019408198
32	0xbcb2e359	-0.021836923
33	0x3d60a3b2	0.054843612
34	0x3b785877	0.0037894526
35	0xbd94fb24	-0.07274464
36	0xbe1108a1	-0.14163448
37	0xbb99faf9	-0.0046991077
38	0x3dd24ff0	0.10269153
39	0x3be9ddcb	0.0071370355
40	0xbc809a72	-0.015698645
41	0xbe3c9ab4	-0.1841839
42	0xbd2ca03b	-0.042144995
43	0xbd454252	-0.04815895
44	0xbd5fab72	-0.054606862
45	0x3c3ccaff	0.011523007
46	0x3d4932f1	0.049120847
47	0x3dd9e73d	0.10639808
48	0xbd418acb	-0.047251504
49	0xbd1ce312	-0.03830249
50	0xbe2e72b4	-0.17035943
51	0x3d535c4f	0.051601704
52	0x3e0fb476	0.14033684
53	0xbe042667	-0.12905274
54	0xbe1c5faf	-0.15270875
55	0xbd66cd74	-0.05634828
56	0xbc9f44fe	-0.019442078
57	0xbe229e29	-0.15880646
58	0xbb8f45cf	-0.0043723355
59	0x3dc22bc1	0.09481002
60	0xbe10584f	-0.14096187
61	0x9c09f480	-4.5645506e-22
62	0x3d6b3468	0.057423025
63	0x3d9160bd	0.070985295
64	0xbb9cf1a8	-0.00478955
65	0xbd157113	-0.03648479
66	0xbd01e48e	-0.031712107
67	0x31009c36	1.8715247e-09
68	0xbd5cb69a	-0.05388508
69	0xbe82adb9	-0.25523165
70	0xbdf49155	-0.119417824
71	0x3e05aac5	0.13053425
72	0xbba7b05e	-0.00511746
73	0x3d1c349b	0.038136106
74	0xbd7ad073	-0.06123395
75	0x3d21a36c	0.039462492
76	0x3d8f7eeb	0.070066296
77	0xb9cb298a	-0.00038750126
78	0x9d791bde	-3.2969283e-21
79	0x1e17d8e4	8.038725e-21
80	0xbad90dd6	-0.001655991
81	0xbc21b50e	-0.009869827
82	0x3c99a7be	0.018756744
83	0xbd79327a	-0.060839154
84	0x3da85cf0	0.082208514
85	0x3b4fd829	0.0031714535
86	0x1a4c156b	4.2203513e-23
87	0x3cb5f96d	0.022213662
88	0xbc53c1e0	-0.012924641
89	0x3d937803	0.07200625
90	0xbbb8d2d0	-0.005640365
91	0xbe2956c9	-0.16537012
92	0xbc15fcd4	-0.009154517
93	0x3d512f63	0.051070582
94	0xbe102c3d	-0.14079376
95	0xbb3f393a	-0.0029178397
96	0x3d9969be	0.07490872
97	0xbdfb1c52	-0.12261261
98	0xbe105194	-0.1409362
99	0x3c565895	0.013082643
100	0x3e3f0437	0.18653952
101	0x3e27c3bd	0.16383262
102	0xbe6f6049	-0.23376574
103	0xbe045611	-0.12923457
104	0xbe81aa3c	-0.2532519
105	0xbdb3e3ba	-0.0878367
106	0xbd24440b	-0.040103953
107	0xbbe2d840	-0.0069227517
108	0xbe4284e4	-0.18996006
109	0x3c9671f0	0.018364877
110	0x3d8554f5	0.06510345
111	0x3dbe7107	0.09298902
112	0xbe20795a	-0.15671292
113	0x3d556c79	0.0521054
114	0x3deb0297	0.11475103
115	0xbe49d424	-0.19709831
116	0xbe4e482e	-0.20144722
117	0x3dd9ef2b	0.10641321
118	0xbdddab5b	-0.10823699
119	0xbdcf686c	-0.10127339
120	0x3c6d1891	0.014471189
121	0x3e0d3bd4	0.13792354
122	0x3c2c4774	0.010515083
123	0x3d4f9577	0.05067965
124	0xbe1a328e	-0.15058348
125	0x9a29b70e	-3.509625e-23
126	0x3e2f9d05	0.17149742
127	0x3e1bbb1d	0.15208097
128	0x3bc44033	0.0059890985
129	0xbc6687c5	-0.014070456
130	0xbd097547	-0.03355911
131	0x3a45cb73	0.000754527
132	0xbcaf4ead	-0.02139982
133	0xbdfd9f57	-0.12383907
134	0x3d808b93	0.06276622
135	0xbde92714	-0.11384407
136	0x3ba0664a	0.0048950063
137	0xbe212f24	-0.15740639
138	0xbdeb8ab1	-0.11501063
139	0xbd9434f6	-0.07236664
140	0xbd1574f8	-0.036488503
141	0xbd084cec	-0.033276483
142	0x1d22ccfd	2.1546498e-21
143	0x9f923d14	-6.193445e-20
144	0x3dafc6f3	0.085828684
145	0xafb2b4f4	-3.2506586e-10
146	0x3ca3b0ef	0.01998183
147	0xbd92611d	-0.07147429
148	0x3e196829	0.1498114
149	0xbaecf69e	-0.0018078869
150	0x36d5bea2	6.3700872e-06
151	0xbe0c5557	-0.1370443
152	0x3c53b766	0.012922144
153	0x3e1fd49e	0.15608451
154	0x3c60e465	0.0137263285
155	0xbe0f5eeb	-0.14001052
156	0xbe0fc160	-0.1403861
157	0x3c9346f3	0.017978167
158	0xbd837400	-0.064186096
159	0xbcb1be3f	-0.021697162
160	0x3d035b6d	0.032069612
161	0xbe081e4b	-0.13292806
162	0xbd3dd307	-0.04634383
163	0x3d996388	0.07489687
164	0xbdc6dea4	-0.09710434
165	0x3d60cc6c	0.054882452
166	0xbd14812a	-0.036255993
167	0x3e049e7a	0.12951079
168	0x3c77ea09	0.015131482
169	0xbd797a5c	-0.060907707
170	0x3d235e16	0.03988465
171	0xbd5fcdc3	-0.05463959
172	0x3db76ae2	0.08955933
173	0xbd44056c	-0.047856733
174	0x3d902183	0.07037642
175	0xbe070e26	-0.13188991
176	0xbc24172d	-0.010015291
177	0xbc2714ca	-0.010197828
178	0xbe0ca062	-0.13733056
179	0xbd7ffb46	-0.062495492
180	0x3dbde8be	0.09272908
181	0xbe3c8c9e	-0.18413016
182	0xbe0c9014	-0.13726836
183	0xbdb992ca	-0.09061201
184	0x3c4674a8	0.012112774
185	0x3e28d979	0.16489209
186	0x3cbcb4b7	0.02303539
187	0xbdaf7aef	-0.085683696
188	0xbdc7a75e	-0.0974872
189	0x1f82ccb9	5.539583e-20
190	0xbe2a6f6d	-0.16644068
191	0xbdfdf10d	-0.123994924
192	0xbb4b6e18	-0.0031040963
193	0xbbb6d3b3	-0.0055794357
194	0xbd8ad8ee	-0.06779657
195	0xa93ade23	-4.149297e-14
196	0xbc2d4718	-0.010576032
197	0xbd68b425	-0.056812424
198	0xbd2d664f	-0.042333897
199	0xbc2ea2e4	-0.010658953
200	0x3cb73cfd	0.022367949
201	0xbe0664fd	-0.13124461
202	0xbe9096c5	-0.28240028
203	0x3dd3caa3	0.10341384
204	0xbe03e3f5	-0.12879927
205	0x3c2227b7	0.009897164
206	0x25965e93	2.6084938e-16
207	0x1a456e05	4.0827518e-23
208	0xbd41cef4	-0.047316507
209	0x379a1eef	1.8372635e-05
210	0xbd4ddc14	-0.05025871
211	0x3d83bf53	0.064329766
212	0xbdd5d0cd	-0.10440216
213	0xbb5a274b	-0.003328758
214	0x378cf3aa	1.6802765e-05
215	0xbea1780c	-0.315369
216	0xbb91b731	-0.004446887
217	0x3db5337a	0.08847709
218	0xbc5f029f	-0.013611465
219	0xbddaaacf	-0.106771104
220	0x3d58685b	0.052833896
221	0xbcc4eb85	-0.024038086
222	0xbd053a7c	-0.03252648
223	0x3b0a8656	0.00211372
224	0xbdc10bee	-0.094261035
225	0x3d399560	0.04530847
226	0x3d7142d2	0.058901615
227	0xbe2ad3bc	-0.16682333
228	0x3daf69f8	0.08565134
229	0x3cce57af	0.025188295
230	0x3c572809	0.013132104
231	0xbe0672e6	-0.13129768
232	0x3d911cf2	0.07085599
233	0xbd8b02e8	-0.06787664
234	0x3e0640b5	0.13110621
235	0x3d3c7434	0.046009257
236	0x3dec3e9f	0.115353815
237	0xbd402236	-0.046907626
238	0x3e03eddc	0.12883705
239	0xbca6954d	-0.020334864
240	0x3be87569	0.0070940745
241	0x3deddd04	0.11614421
242	0x3d8a78d9	0.06761331
243	0xbbd72d6e	-0.006566695
244	0x3d9f169f	0.077679865
245	0x3da6983f	0.081345074
246	0xbca34490	-0.019930154
247	0x3c99b37a	0.018762339
248	0xbcf93a98	-0.030423447
249	0xbca67fed	-0.020324672
250	0xbc9587ee	-0.018253293
251	0xbd0b5f58	-0.034026474
252	0xbd648bff	-0.055797573
253	0x1af83162	1.0265018e-22
254	0xbd0e4936	-0.03473779
255	0xbc06c969	-0.008226731

bias f4 [10]
0	0xbd341a1a	-0.043970205
1	0xbddc3933	-0.107530974
2	0x3db11fe9	0.086486645
3	0xbdd648c5	-0.104630984
4	0xbdcb3ed9	-0.099240966
5	0x3da97c3b	0.08275648
6	0x3e1c71ba	0.15277758
7	0x3d69ebe6	0.057109736
8	0x3d59098a	0.052987613
9	0xbdf84cdd	-0.121240355
