2-hypertuning-mlflow/mlruns/2/c943b244dce9459c8ffe19a3ce29468c/artifacts/pytorch_models/20250921-1129model.pt (torch, 376709 bytes, 12 tensors)

weight f4 [64, 1, 3, 3]
000000 74 ad 82 be 90 7c 9f 3e b1 da 43 be 9c 7c 2f 3b
       -0.2552296 0.3114972 -0.19126393 0.0026777154
000010 91 74 df 3d b2 11 c0 3d 5e fd b0 3e 36 bd 90 be
       0.10910905 0.09378375 0.34568304 -0.28269356
000020 74 53 aa bd 96 6e 0c 3e d7 00 a5 be 20 84 3c be
       -0.08316699 0.1371406 -0.32227203 -0.18409777
000030 3a 0d ae 3e 0e f8 88 3d 59 97 8b 3e f4 03 64 bd
       0.33994466 0.06687938 0.27263907 -0.055667832
000040 37 2d 79 bd c8 be 26 3e 29 bb 87 3e 3a 2e 86 3e
       -0.060834136 0.16283715 0.2650998 0.26207143
000050 40 d7 02 be ab 79 a1 3e ba 50 87 3e 30 9f 1f be
       -0.12777424 0.31538138 0.26428777 -0.15588069
000060 94 03 9f 3d bd be 93 3e fa 30 fe 3d 2b e0 43 3e
       0.07764354 0.2885646 0.12411685 0.19128482
000070 0a 92 f1 3d 25 53 8b bd fa f3 e3 3d a9 93 a7 bd
       0.11795433 -0.06802968 0.11130519 -0.08182461
000080 5e 62 6c 3e 1c 0c 9c 3e 56 27 93 be e6 9b 5f be
       0.23084399 0.3047799 -0.28740948 -0.21836814
000090 29 b9 01 3e 21 b6 89 3e 2b c7 43 3d 75 60 e5 bd
       0.12668289 0.26896766 0.047797363 -0.11200038
0000a0 bf 02 c2 bc fd 5a cc ba 3a cd 1c 3d 49 5b f3 bd
       -0.02368295 -0.0015591081 0.038281657 -0.11882646
0000b0 34 13 c2 3e 87 76 e1 3d 65 86 0b be 0f e7 9e 3e
       0.37905276 0.110089354 -0.13625486 0.3103566
0000c0 21 74 4b 3d 7c 7b 1b be ab 77 99 3d 59 52 e9 be
       0.049671296 -0.15183824 0.07493528 -0.4557064
0000d0 ec e9 2e be 76 fe 6f bd 5f b6 97 be a6 c6 1a 3d
       -0.17081422 -0.058592282 -0.29631326 0.037787102
0000e0 14 1b ca be e5 58 db bd 86 7a f8 be bd a7 bf be
       -0.39473784 -0.10710315 -0.48530978 -0.37432662
0000f0 72 b2 b1 be 6f d0 bc be 04 42 83 be 1c 84 7b bb
       -0.34706455 -0.36877772 -0.25636303 -0.0038378304
000100 11 b2 10 be f2 10 91 3e 18 cd ae 3e 9a 62 cd bc
       -0.14130427 0.2833324 0.3414085 -0.025071431
000110 c2 d3 5c 3e f2 cf 96 3d ae a5 8b be 34 8a 9f 3e
       0.21565154 0.07363881 -0.2727484 0.31160128
000120 1f 97 99 be 38 e6 53 be 0d 60 b1 3e 24 25 94 be
       -0.2999811 -0.2069329 0.34643593 -0.28934586
000130 48 a4 8e 3d 50 f1 5b 3e f5 6b 1e 3e 8c 80 3d bc
       0.06964928 0.21478772 0.1547087 -0.0115662925
000140 43 61 18 3e f2 74 a0 bd a4 e0 1b 3d 44 d6 f9 3c
       0.14880852 -0.078348055 0.03805603 0.030497678
000150 15 18 ab bd c2 37 b6 3d 9d 52 4e be 4f 46 c4 bd
       -0.08354203 0.08897354 -0.20148702 -0.09583723
000160 2b fc ee bd c2 a9 dc 3e 5a 75 8e be 43 78 92 be
       -0.11669191 0.43098265 -0.27823907 -0.28607377
000170 f0 9f 12 3c 5f 2c e8 3c be d2 41 3e 2e 73 50 bd
       0.008949265 0.02834147 0.18928048 -0.050891094
000180 e4 f6 d7 bc eb 8a 95 3e f9 c2 88 3e bf 00 11 a8
       -0.026362844 0.29207548 0.26711252 -8.049279e-15
000190 4c 16 4b b7 fd c8 4c 28 16 e8 04 b9 0c 1a 1b 30
       -1.2104934e-05 1.1367857e-14 -0.0001267496 5.6425686e-10
0001a0 1b 30 9c b9 46 2e 48 aa 8a 53 b5 29 45 67 c1 28
       -0.0002979048 -1.7779623e-13 8.0525064e-14 2.147209e-14
0001b0 02 59 a3 be a0 b1 31 be b7 56 7e 3e a0 78 95 be
       -0.31903845 -0.17352915 0.24837767 -0.29193592
0001c0 94 c2 33 3e 3e 8d be bd 5e 43 ad 3e f1 33 27 be
       0.17554694 -0.093042836 0.3384046 -0.16328408
0001d0 e6 53 94 3e 28 08 1f be 4b 16 aa 3d db f8 95 3e
       0.2897026 -0.15530455 0.08305033 0.29291424
0001e0 ad aa a7 3e 75 2a 45 be 2b 8c 1a be b3 22 08 3e
       0.32747403 -0.19254477 -0.15092532 0.13294487
0001f0 2e cc a2 3d 5e 54 62 be c8 93 70 bd c0 0b 2e 3e
       0.079491004 -0.22102496 -0.058734685 0.1699667
000200 a8 8c 35 be b8 98 33 be dc 30 92 bc 61 1b 39 3e
       -0.17729437 -0.17538726 -0.017845564 0.1807685
000210 81 d7 ad bb 69 73 bf 3e 28 17 54 3e d3 d9 4a 3e
       -0.005305231 0.37392738 0.20711958 0.19809656
000220 02 4d 87 3e bc 50 1e bd f0 33 61 3e f9 b3 54 3d
       0.2642594 -0.038651213 0.21992469 0.051929448
000230 11 3c 92 3e 55 44 40 bd 99 4d c2 bc 91 e8 29 be
       0.28561452 -0.046940167 -0.023718642 -0.16592623
000240 70 4c a6 be 65 70 3a 3e 04 27 1b bd e7 ac 06 3d
       -0.32480192 0.18206938 -0.037879005 0.032879736
000250 c4 f7 34 be ca 5a 50 3e 10 cb 7a bc 87 71 98 bd
       -0.1767264 0.20347133 -0.015307203 -0.074435286
000260 0d ef 91 3e ae 73 fa 3d 3b 3f 7d be 3e aa 54 3e
       0.28502694 0.122290954 -0.24731152 0.20768067
000270 83 3c 83 be 50 2a 9d 3e 88 dd 25 3e 66 10 be 3c
       -0.25632104 0.30696344 0.16197789 0.023201179
000280 2e 35 60 3e 92 f4 f1 3d fe ab 9c 3e c4 c5 0b be
       0.21895286 0.11814226 0.3059997 -0.1364966
000290 5e bf ae be 8e 0e 8a 3e c4 d7 44 3e fa c5 19 be
       -0.34130377 0.2696423 0.19222933 -0.15016928
0002a0 c1 a9 d8 3e 69 d3 2c be a4 f7 6c be 8b c6 bc 3e
       0.42317012 -0.16877522 -0.23141342 0.36870226
0002b0 44 75 aa 3d d1 3b bd 3d de 45 90 3e 2a 9c b9 3e
       0.08323148 0.09239925 0.28178304 0.36251956
0002c0 8c 43 65 be 11 9b 8d 3c 73 5b 80 be e8 ab 88 3e
       -0.22389048 0.017285855 -0.2506977 0.26693654
0002d0 47 bd 87 bc 7e a0 9c bc 49 66 ae bc e8 94 84 bc
       -0.016569747 -0.019119497 -0.021289008 -0.016184285
0002e0 0d 33 92 bc 08 a8 aa bc f5 d0 91 bc 66 90 99 bc
       -0.017846609 -0.020832077 -0.017799834 -0.018745612
0002f0 b6 4a b0 bc f2 62 82 bd 0b 83 9b bc 2c 83 d9 bd
       -0.02152 -0.063665286 -0.018983385 -0.10620722
000300 f7 22 86 be 1f f9 c0 3d 97 0d 4d 3e f1 b7 53 3c
       -0.2619855 0.09422516 0.20024715 0.012922273
000310 f3 25 2b be 9e 92 a1 3e 12 0b 06 bf e1 1d 9a be
       -0.16713695 0.31557173 -0.5236064 -0.3010092
000320 b7 53 80 be 67 0a 11 bf 6f 38 e0 bd 54 3d 65 be
       -0.2506387 -0.566565 -0.10948264 -0.22386676
000330 5e 63 14 be d0 d8 41 be 3c 76 81 bc a4 60 c4 3e
       -0.1449103 -0.18930364 -0.015803449 0.3835498
000340 76 db 43 bc e5 be 3f be f8 6b f5 3e c1 3a be bd
       -0.011954179 -0.18725164 0.47933936 -0.0928855
000350 a6 84 e1 be 49 7c 07 3d c9 44 06 3c 5b 89 31 be
       -0.44046515 0.033077512 0.008195111 -0.17337553
000360 97 3d 83 be 6a 89 89 3e fd 72 14 3c 88 ac 81 3e
       -0.25632927 0.2686265 0.0090606185 0.25326943
000370 4d 90 5c 3e f2 82 09 3d 62 26 12 3e a8 9c 21 3d
       0.21539421 0.033572145 0.14272454 0.03945604
000380 fc 4b 2e be 90 f1 be 3e 62 ef 3a be 71 05 3c 3d
       -0.17021173 0.37293673 -0.1825538 0.045903627
000390 ca 35 83 be a7 1d 41 3e 4e 6a 38 3e 8f 30 1d 3d
       -0.25626975 0.18858968 0.18009302 0.038376387
0003a0 be 88 b8 3e 78 0a 32 3e fe 72 f1 be 01 00 71 3e
       0.36041826 0.17386806 -0.47158045 0.23535158
0003b0 c9 9b f5 bc 98 e5 e8 be e3 6a 63 be 5c f2 94 3e
       -0.02998151 -0.45487666 -0.22208743 0.29091156
0003c0 96 b2 c0 be f3 4f 77 3e 91 71 ad 3e 0f 03 cd 3d
       -0.3763625 0.24151592 0.33875707 0.10010349
0003d0 e8 da 3b 3e 27 73 1a 3e 15 19 0f ba 79 39 9b 3e
       0.18345225 0.1508299 -0.00054587546 0.30317286
0003e0 d5 82 8b bc bf 5d a3 bd 20 28 c0 3e f9 4a b3 3e
       -0.017030159 -0.07976865 0.37530613 0.35018137
0003f0 7b db 0f b8 bc b6 2e b8 d0 1b 33 94 16 98 e8 b5
       -3.4298264e-05 -4.1655017e-05 -9.0426756e-27 -1.732961e-06

bias f4 [64]
000000 46 50 6a bd 9f 64 87 3e 8b 0e 39 3d 94 cc 91 3e
       -0.05720546 0.26443955 0.045179885 0.28476393
000010 9a 80 41 be b3 72 1f 3d 36 00 17 3e a3 02 86 3e
       -0.18896714 0.038927745 0.14746174 0.26173887
000020 f4 c5 f6 bd 77 51 ae bc ef 92 b7 3e cf 7f c8 af
       -0.12049475 -0.02127908 0.3585429 -3.6470602e-10
000030 6e 3b ca bc cf 31 89 bd 31 f7 49 be c4 77 4c 3e
       -0.024686541 -0.06698953 -0.19723202 0.19967562
000040 29 de 99 bd 04 3e 1f be 74 22 ed bd a0 b4 f9 3c
       -0.07513077 -0.15551001 -0.11578837 0.030481637
000050 4f a2 93 bc 51 46 77 bc a7 34 92 3e a2 e8 6f bb
       -0.01802173 -0.015092448 0.28555796 -0.0036607166
000060 bf d4 b6 3e f7 b4 cd 3b 2f 68 7c 3d 87 31 49 3c
       0.35709187 0.006277676 0.061622795 0.012279875
000070 49 98 38 b2 17 68 68 bd 87 31 ca 3c 18 b4 48 3e
       -1.0744835e-08 -0.056739893 0.02468182 0.1959995
000080 1e 9e 63 3d e6 60 07 3e f3 f3 7c 3e c6 2c e3 bd
       0.055570714 0.13220558 0.24702434 -0.11092524
000090 b0 33 68 3e 97 57 8b 3e c5 0e 69 3d ce 89 09 be
       0.22675967 0.27215263 0.05689885 -0.13431475
0000a0 8a a3 20 3e 8b b1 74 3e 43 39 86 3e 28 56 4c 3e
       0.15687385 0.23895852 0.26215562 0.19954741
0000b0 b7 fc b8 bd 34 de 8a 3d f5 58 a7 3e d6 95 e3 bd
       -0.090325765 0.06780663 0.32685056 -0.11112563
0000c0 71 a7 a6 3c 02 2d 35 bd 60 76 00 be 6e 00 99 3e
       0.020343514 -0.044232376 -0.12545156 0.2988314
0000d0 c0 1a ed bc 8f 53 91 3d a4 c4 c0 3e 9c 2c dd 3c
       -0.02894342 0.07096016 0.37650025 0.02699881
0000e0 38 28 9f b6 85 34 44 be 34 4d b2 bc 1a 81 0c 3e
       -4.7432513e-06 -0.1916066 -0.021765329 0.13721123
0000f0 27 43 3f be 52 20 6d 3e 53 14 5e 3d 13 81 27 3e
       -0.1867796 0.2315686 0.0542186 0.16357832

weight f4 [64, 64, 3, 3]
000000 5c 93 bd bd 46 bd 15 bd c0 79 ad bc dc c6 04 be
       -0.09256622 -0.03655746 -0.021176219 -0.12966484
000010 dc f0 90 bd 3d ce 8c bd 46 e2 0f be 2e aa 9a bd
       -0.0707719 -0.06875274 -0.1405116 -0.075519904
000020 8c 8c e1 bd bb 13 30 3d 3c b1 17 3d 0c 56 89 bc
       -0.11013135 0.042987566 0.03703426 -0.016764663
000030 a2 b6 60 3d b1 a7 8d 3d 61 70 8c 3c 21 88 a4 3c
       0.054861672 0.0691675 0.01714343 0.020084443
000040 23 a9 b2 3c d7 c0 95 3d 3e c8 7f 3d 09 7a 88 3d
       0.021809166 0.07312172 0.062446825 0.06663901
000050 76 03 28 bc ec 25 91 3d 7e 5e 81 3d 83 5a 00 3c
       -0.010254731 0.07087311 0.06316851 0.00783408
000060 8a 87 2a 3d 6f 10 6b 3d 0e 67 86 3d 93 3d 1d 3c
       0.041633166 0.05738872 0.06562625 0.0095972
000070 1d 7c 91 3c 16 e4 9d 3d 6f 14 ed 3c f4 d4 8b 3d
       0.017759377 0.077095196 0.028940408 0.06827727
000080 90 da b8 3c c2 cb c5 3c 2b e8 39 3d 40 ab 2a 3d
       0.022565156 0.02414501 0.04538743 0.041667223
000090 02 ce 89 bc f8 9c 1e bd a1 47 93 bd f6 07 40 bd
       -0.016821865 -0.038723916 -0.071913965 -0.046882592
0000a0 a8 d4 93 bd 1a ae 7b bd 98 0b 30 bc 7c 55 e2 bc
       -0.07218295 -0.061445333 -0.010744952 -0.027628653
0000b0 a4 69 5d bd 45 66 7f bc da 32 34 3c ec 8d dd bc
       -0.054055825 -0.015588348 0.010998452 -0.027045213
0000c0 55 d3 b4 bd 0f d4 11 be b0 05 e3 bd 58 b1 bb bd
       -0.08829371 -0.1424105 -0.11085069 -0.09164685
0000d0 65 92 eb bd 58 53 e4 bd 60 ff b8 bd 9f be 22 be
       -0.11502532 -0.11148709 -0.09033084 -0.15893029
0000e0 2e 2e 08 bd 4a dc ec bd 4d f9 e1 bd 49 fe cd bd
       -0.033247165 -0.11565454 -0.110338785 -0.10058267
0000f0 a1 61 d5 bd b6 c6 00 be d1 b5 68 bd ec 0e 64 3d
       -0.10419012 -0.12575802 -0.05681402 0.055678293
000100 8b 00 1c 3d 6d 64 51 3c 81 86 0c 3d 90 eb 43 3d
       0.038086455 0.012780291 0.03430796 0.04783207
000110 7e ed 40 bc ee 58 b6 3d 71 5d f2 3c 21 f7 7e 3d
       -0.011775373 0.08903681 0.029585572 0.0622474
000120 87 98 a7 bd 3d 37 d2 bd c7 12 92 be 2a 91 fa bd
       -0.08183389 -0.10264442 -0.2852995 -0.12234719
000130 7c 5c e2 bd 13 7f 7a be fd 01 98 bd 6d 7a ce bd
       -0.11052796 -0.24462537 -0.07422254 -0.100819446
000140 f6 ce 91 be 26 1f 11 be f0 d7 0c be c5 dd 67 be
       -0.2847821 -0.14172038 -0.13754249 -0.22643192
000150 37 5b 11 be 87 11 1c be c7 27 62 be 80 84 ee bd
       -0.14194952 -0.15241061 -0.22085486 -0.11646366
000160 84 d8 0f be a8 14 51 be 07 f7 19 3b 60 f5 fe 3c
       -0.14047438 -0.20418036 0.0023493187 0.031122863
000170 f5 07 a2 3b 8d c9 79 3d 95 ec 5f 3d 68 5f 67 3d
       0.004944796 0.06098323 0.05466898 0.05648747
000180 7d 1a 9c 3d d2 f6 bb 3d 03 a5 1b 3d d9 a4 90 a8
       0.0762224 0.091779366 0.037999164 -1.6058703e-14
000190 56 d0 2f a8 c3 ef 2a a8 91 02 d6 28 1b a3 8d 28
       -9.759627e-15 -9.488886e-15 2.3759886e-14 1.572488e-14
0001a0 2a f1 66 a8 c8 0d 44 a8 5a 63 74 a8 44 02 51 a6
       -1.2819859e-14 -1.0883174e-14 -1.3566264e-14 -7.251451e-16
0001b0 5a c5 e1 bd 55 ba b5 bd 40 72 24 be 61 8c d4 bd
       -0.1102397 -0.08873431 -0.16059208 -0.10378338
0001c0 68 1f ca bd e8 f9 3e be 07 99 e3 bd 03 22 54 bd
       -0.098692715 -0.18650019 -0.11113172 -0.05179025
0001d0 dc fb 43 be a8 50 7a bb 39 43 57 bd 6b cf 96 bd
       -0.19139045 -0.0038195048 -0.052554343 -0.073637806
0001e0 2f 07 b8 bd 97 f6 a5 bc eb 1b cc bc f4 9e 9c bc
       -0.08985745 -0.020259185 -0.024915656 -0.019118764
0001f0 d2 1a ef bc 28 3c 7d bd e4 97 9b bd 6a 37 31 bd
       -0.029187594 -0.061824948 -0.0759733 -0.043265738
000200 de 54 55 bd da 89 1d bd e1 01 6f bd 30 9a 3e bd
       -0.05208289 -0.038461544 -0.0583514 -0.046533763
000210 a3 5e 7a bd dd df 39 bd f7 d7 5a bd 64 66 84 3d
       -0.06112541 -0.04537951 -0.053428616 0.06464842
000220 30 e4 27 3d 39 68 2f 3d 03 4c 95 3d cb 26 3e 3d
       0.0409891 0.042824004 0.07289889 0.046423715
000230 02 16 29 3d 2e 17 9e 3d 43 f5 a5 3d 70 39 bf 3c
       0.041280754 0.07719265 0.081034206 0.023342818
000240 fa 96 a1 bd 02 52 83 bd 9d cb 52 be a1 af 76 bd
       -0.078901246 -0.06412126 -0.20585485 -0.060226087
000250 e8 42 88 bd 60 67 3a be 55 f8 06 bd 78 fc ab bd
       -0.06653386 -0.18203497 -0.03295167 -0.08397764
000260 23 68 24 be 21 de 88 bc 2d df 9c bc 04 4b 7a bd
       -0.1605535 -0.016707482 -0.019149387 -0.061106697
000270 4c b3 4f bd fd ee 97 bd 8c 48 02 be 20 dc 9d bc
       -0.0507081 -0.0741863 -0.12722987 -0.019270003
000280 a6 f3 e7 bc ee 0d 88 bd bd 20 53 be 71 bc c2 bd
       -0.028314423 -0.06643282 -0.20617957 -0.095085986
000290 bb ba 8f bd f2 37 1d be 58 6d 48 bd 16 5e e7 bd
       -0.07018038 -0.15353373 -0.048932403 -0.11297242
0002a0 7a 62 02 be 86 f3 48 3a fe a5 64 bd 79 37 25 3c
       -0.12732878 0.00076656824 -0.055822365 0.0100840265
0002b0 bf 68 f6 3c aa 11 7c 3d d9 ea d9 ba 89 d0 75 3d
       0.030079244 0.061540283 -0.0016625776 0.060013328
0002c0 8f 20 51 3d 5c e1 6e 3d 99 c5 9f 3d b8 9b 0f 3d
       0.05105644 0.05832039 0.07801361 0.035060614
0002d0 08 09 07 bc 01 43 04 bc e6 e6 2b bc 50 73 43 bc
       -0.008241899 -0.008072616 -0.010492062 -0.011929348
0002e0 47 7f 4a bc 2d 2c 66 bc 7d 43 40 bc 3d 53 57 bc
       -0.012359447 -0.014048618 -0.01173484 -0.013142404
0002f0 f2 bc 7b bc f3 2c 43 bd 4f d4 5f bd e8 61 76 be
       -0.015364872 -0.04765029 -0.054645833 -0.24060786
000300 a3 f7 8e bd a5 d5 d8 bd 02 e9 82 be c7 ce 75 bc
       -0.06980827 -0.105876245 -0.25568396 -0.015002913
000310 00 18 fd bc 3e 69 54 be b7 00 5d bd 89 3f 39 bd
       -0.030895233 -0.20743272 -0.05395576 -0.045226607
000320 a4 25 e4 ba 93 62 21 bd 12 4c cb bc 70 44 5b bd
       -0.0017406237 -0.03940065 -0.024816547 -0.053532064
000330 06 62 83 bc ec 69 c0 bc 4f d8 5b bd 12 25 6b be
       -0.016037952 -0.023488007 -0.053673085 -0.2296336
000340 23 47 d4 bd 58 16 e0 bd 50 5c 9a be 28 4e 33 be
       -0.10365131 -0.10941762 -0.30148554 -0.17510283
000350 83 b9 01 be 4f 03 74 be c3 6c d5 bd 65 26 a2 bd
       -0.12668423 -0.23829387 -0.10421135 -0.079174794
000360 fc aa 7c 3d 13 bf 6b 3d 28 99 64 3d 0f 91 5b 3d
       0.0616865 0.05755527 0.055810124 0.053605136
000370 40 f0 aa bb 43 e6 0c 3d 95 0b 62 3d 8e 61 40 3d
       -0.0052166283 0.034399282 0.055186827 0.046968035
000380 be 77 94 3d 02 83 9a 3b ec b4 91 39 1f f1 26 3c
       0.072494015 0.0047153244 0.00027791352 0.010189324
000390 09 2a 8f 3d 6d eb 4c 3b e1 70 7e 3c 75 74 34 3d
       0.069904394 0.0031268254 0.015529842 0.044056375
0003a0 76 9f bc 3d b6 fe fe 3c 39 a6 dc bc a0 01 c4 bc
       0.09210102 0.031127315 -0.02693473 -0.023926556
0003b0 07 e3 d7 bd 4a 0b 04 bd 25 01 8e bd 79 1a 1a be
       -0.10541349 -0.03223733 -0.06933812 -0.15049161
0003c0 91 28 f2 bc 09 cf 09 bd 87 84 b3 bd a3 a5 6e 3c
       -0.02956036 -0.03364471 -0.08765512 0.014565858
0003d0 6c 25 84 3c ed bf 73 bc 23 d3 07 3c ca 06 94 3d
       0.016131125 -0.014877302 0.008290085 0.072278574
0003e0 69 9b cf 3c 14 ac cc 3d 63 bc 8a 3d b1 89 04 ba
       0.02534266 0.09993759 0.06774213 -0.0005055918
0003f0 a2 69 8c 96 77 1f 76 96 a4 70 cb 15 24 5b fd 15
       -2.2684884e-25 -1.988165e-25 8.216876e-26 1.0232968e-25

bias f4 [64]
000000 30 3f 06 3c f6 51 1c bd 45 fe 07 3b e0 35 5a bb
       0.008193776 -0.0381641 0.0020750922 -0.0033296272
000010 8d e4 f7 3c 9a 5e f2 ba 53 eb 35 3d c4 92 bf 3c
       0.030260349 -0.0018491328 0.044413876 0.023385413
000020 05 c5 f4 b8 41 97 31 3d eb 76 88 3d 66 b0 37 3d
       -0.000116715244 0.043357138 0.06663307 0.04484596
000030 ae 9d 09 bd 7a d6 de bc a2 e0 0f 3d e0 d7 eb bc
       -0.03359764 -0.02720188 0.035126336 -0.02878946
000040 39 b5 7d bc 7d 46 95 3c 00 67 01 3d bc 26 9f bc
       -0.015485101 0.018222088 0.03159237 -0.01942765
000050 16 0b 32 bc 29 a6 c1 bb b4 c4 8a 3c 9d 18 92 bc
       -0.010866901 -0.0059097004 0.016939498 -0.017834002
000060 ef 9f d3 b7 43 b9 2f 3c 33 74 77 3c e5 0d d0 bc
       -2.5227635e-05 0.010725322 0.015103388 -0.02539725
000070 c7 8a ea 3c a9 17 83 bb 18 02 91 bc 2a 92 d2 b8
       0.028630627 -0.0040006232 -0.017701194 -0.000100408055
000080 54 9a cd 3b 6e 56 2d ba 2e 46 4b 3c 12 e8 44 3d
       0.006274501 -0.00066123053 0.012406869 0.048072882
000090 c1 f6 86 3c 7d 68 77 3d 1a ad 74 bc f6 d3 f8 3a
       0.016475083 0.060402382 -0.014933849 0.0018984068
0000a0 e5 8d ec ba 5e cb a1 3c bd 6a 0b 3c 62 7d f9 3c
       -0.0018047659 0.019750293 0.008509335 0.030455295
0000b0 f8 ab 04 3c 81 b9 10 3c d1 7c c4 bb e7 52 6e 3d
       0.008097641 0.00883329 -0.0059963246 0.05818453
0000c0 51 ac 85 3c 75 2b 40 3d 67 2d 22 3d 96 a1 7b b8
       0.016317518 0.046916444 0.03959408 -5.9993552e-05
0000d0 ff d0 b0 bb 12 c2 3e 3d ef a5 7f bc 77 43 c7 b3
       -0.005396008 0.0465718 -0.0156035265 -9.2789314e-08
0000e0 d2 d2 40 bb 14 c0 e4 3c e1 fc e2 bb c0 23 6b 3d
       -0.0029422534 0.027923621 -0.006927118 0.05740714
0000f0 3d 61 1d 3a 72 83 15 3d ed e5 8a b5 d3 f2 75 3d
       0.00060035643 0.03650231 -1.0348718e-06 0.06004603

weight f4 [64, 64, 3, 3]
000000 3a a1 d6 3c a0 17 ca bc a7 64 25 bd 78 b2 b2 ba
       0.026199926 -0.024669468 -0.040379193 -0.001363351
000010 05 69 f6 3c 9a 50 02 bd 52 0e 99 bc 2d a4 a3 3c
       0.030079374 -0.03181515 -0.018683586 0.019975746
000020 e4 49 9a 3c 5b 8a 05 bd ad 12 26 bc b5 b4 84 3c
       0.018834062 -0.03260265 -0.010136289 0.01619945
000030 a9 56 bd bb 25 a1 47 3c a4 e7 65 3d 9b 76 89 bc
       -0.005778153 0.012184416 0.056129113 -0.016780188
000040 fe 8c a2 ba 7e 6e d0 3c 5a 3f 1a 3c 64 d1 b9 bc
       -0.0012401638 0.025443312 0.009414518 -0.022682853
000050 63 36 5b bd c1 0d 67 3d 47 6e 98 bc c9 a7 24 bd
       -0.053518664 0.0564096 -0.018607272 -0.040199075
000060 f2 d2 09 3d a8 a0 b0 3c 5b 65 04 bd f9 58 4c 3d
       0.03364844 0.021560982 -0.032323223 0.04988954
000070 8e 81 8d 3b 14 0b 4a bd 8e 0f dd 3b 12 24 0e bd
       0.0043184226 -0.04932697 0.006746239 -0.034702368
000080 b4 20 88 3c 4f e3 f9 3c 5d 85 31 bb 52 6b 35 bb
       0.016617157 0.030503897 -0.0027087547 -0.0027682376
000090 87 57 4a 3d e0 0b 77 bc f4 b9 b3 3b c7 2f 88 3c
       0.04939988 -0.015078515 0.005484814 0.016624345
0000a0 08 42 0b 3d 5f 4b 5e 3c 48 90 12 3d b7 3e 48 3c
       0.03399852 0.013567775 0.03578213 0.012221984
0000b0 1f f2 3f 3c 08 06 89 3d b9 f7 97 bc 31 5e bc bb
       0.011715441 0.066906035 -0.01855074 -0.005748533
0000c0 f3 6f b8 3c 12 da 62 bc 2f 69 48 bd 0d 1b 66 3d
       0.022514319 -0.013845937 -0.048928436 0.05617814
0000d0 9e 70 d5 3c 98 ed 37 3c 15 10 17 bd 04 8d 8a 3b
       0.026054677 0.01122608 -0.03688057 0.004228236
0000e0 5c d8 0d 3d b1 93 37 ba ec 43 89 3c 4b 32 07 3d
       0.034630165 -0.0007002904 0.01675602 0.033006947
0000f0 8d 29 e8 bc 1c aa ec bb b5 2e b2 3b 6c 8c f4 bc
       -0.028340125 -0.007222427 0.005437697 -0.029852115
000100 46 8b 5a bd 1d 26 cd 3b 99 72 ba bb da db f6 3b
       -0.053355478 0.006260647 -0.0056899306 0.0075335326
000110 b4 1f 89 3c 92 80 19 bc 40 c4 82 bc 1a fd 7a bc
       0.01673875 -0.009369032 -0.01596272 -0.015319133
000120 58 80 1e b9 4f 27 27 39 e7 d9 28 b6 e6 a6 25 b8
       -0.00015115866 0.00015941005 -2.5160787e-06 -3.9494502e-05
000130 12 f9 bd 3a 49 9d f8 3a f0 95 95 b9 e6 18 ec 3a
       0.0014493784 0.0018967773 -0.00028531207 0.0018012791
000140 b4 f6 5a ba b5 f5 c3 bd ec d9 6d bd 93 4f 43 3d
       -0.00083528017 -0.09568349 -0.058069155 0.04768331
000150 ac b7 16 bd 87 a8 a8 bc c9 f7 55 3d c1 15 80 bc
       -0.036796257 -0.020588173 0.05223826 -0.015635373
000160 d3 92 bc 3c 8c 4f df bb 10 54 5c 3d d1 16 dd bc
       0.02301923 -0.0068149026 0.053791106 -0.026988419
000170 73 74 3e bd 48 40 b0 bb fb 18 09 3c ef 72 40 3c
       -0.046497773 -0.0053787567 0.008367772 0.011746152
000180 a0 f3 ce 3b 3e 30 00 bc 67 63 29 bd bc a3 5c 3d
       0.0063156635 -0.007824002 -0.041354563 0.053867087
000190 b8 f9 07 bd 8a ca b0 3b b5 08 75 3c e3 c2 b7 bc
       -0.033197135 0.0053952383 0.014955689 -0.022431796
0001a0 f8 7f 57 bd fb 2d 06 bd 4d 67 10 bd 5f 36 f7 bb
       -0.052612275 -0.032758694 -0.035254765 -0.0075443233
0001b0 98 d6 a5 3a 0f e6 e6 bc 56 30 97 3c cb 5f 0e 3d
       0.0012652455 -0.028185872 0.018455666 0.034759324
0001c0 46 b1 b2 bc e1 99 65 3c 5d 71 b3 3c 96 e9 38 3d
       -0.021813046 0.014013738 0.021904642 0.04514464
0001d0 cc 0e 1e 3d 90 10 0e 3d 32 c1 58 bc ba ec fd bc
       0.03858833 0.034683764 -0.013229655 -0.03099667
0001e0 10 9f b6 3c ee be d8 bb f3 ec 8e bc 10 9f 51 3c
       0.022292644 -0.0066145575 -0.01744697 0.012794271
0001f0 e3 b4 e0 bb 0d 5d 3f bb a6 23 23 3d af c3 54 bc
       -0.006857501 -0.002919975 0.03982892 -0.012986108
000200 b9 e5 c9 bb e4 c7 81 3d da 89 03 bd f3 60 28 bd
       -0.0061614183 0.06336954 -0.032113887 -0.041108083
000210 6d c8 d6 3c ee b9 10 bd 02 6c 9d 3c 2a 01 d9 3c
       0.026218617 -0.035333566 0.019216541 0.026489813
000220 19 15 94 bc 7a ea 0d bd 1a 4c 93 3c 21 14 5c bc
       -0.018076466 -0.034647442 0.017980624 -0.0134325335
000230 c7 d8 a3 bc 1d 78 23 3c 9b 17 32 bc d2 34 f2 bb
       -0.020000828 0.009977368 -0.010869886 -0.0073915506
000240 05 43 8a bd 18 a8 f2 39 3b 4c 05 bc 02 af 9b bd
       -0.06751064 0.00046283077 -0.008135851 -0.076017395
000250 1d e3 d5 bc 6c 91 69 3d 18 bb 47 bd 16 55 aa bb
       -0.026109273 0.05702345 -0.04876241 -0.0051981313
000260 a6 85 03 3d e6 56 e2 3c a4 df fc 3b 9d b3 82 bd
       0.03210988 0.027629327 0.0077170897 -0.06381915
000270 1a 0f 79 3d 84 6f 36 bd 16 4b d9 bc 4e 48 1d 3b
       0.060805418 -0.044539943 -0.026525062 0.0023999396
000280 3c 57 d2 bc 44 4c d9 bb 3d 11 09 bd 53 f7 af 3c
       -0.025676362 -0.006631406 -0.033463705 0.021480238
000290 e3 c3 1a 3d 57 54 f5 bc d8 0d 59 bc 46 95 2d 3d
       0.03778447 -0.029947443 -0.0132479295 0.042378686
0002a0 00 0a 20 bd 17 eb b4 bb 71 7a 85 3d 1e ef 26 3c
       -0.039072037 -0.005521189 0.065174945 0.010188846
0002b0 25 5f 05 3c 57 e6 fa 3b d6 95 2f 3c 28 00 1c 3c
       0.00814036 0.007656853 0.010716876 0.009521522
0002c0 a1 86 0a 3c 8f 6a 2b 3c de 79 26 3c 4d a8 21 3c
       0.00845495 0.010462417 0.010160891 0.009866786
0002d0 9f 8a 9f 3c 98 b3 79 b9 51 46 65 bc 54 cf 8c bb
       0.01947528 -0.00023813394 -0.0139938155 -0.0042971764
0002e0 0b 99 3f bd f2 33 52 bd 8f e3 0e 3c 45 11 31 bd
       -0.046776813 -0.05131907 0.008721246 -0.04322936
0002f0 63 b2 06 bc b1 09 f4 b9 c0 6e 3f bd 66 fa 2c 3d
       -0.008221242 -0.00046546527 -0.04673648 0.042230986
000300 ee 61 b1 ba 9a 2c 6a 3c 4c 19 fa 3c e2 9c 8c bb
       -0.0013533214 0.01429286 0.03052964 -0.004291163
000310 f5 e4 c4 bc 23 2f fe bc e1 f0 0a 3c 46 1f 7f bc
       -0.024034956 -0.031028336 0.008480282 -0.015571421
000320 0a 01 9d bd 9e 9f 15 3d 31 9e 99 bd f5 42 28 bd
       -0.07666214 0.036529176 -0.07500876 -0.04107948
000330 cb b8 f0 bc 6d a9 0a bd dc d7 19 bd be 07 07 bb
       -0.029384991 -0.033852983 -0.037559375 -0.002060398
000340 dc 8e 74 3c f9 e3 1b 3d 03 6c 4c 3d 5d b6 9f 3c
       0.014926638 0.03805921 0.049907696 0.019496137
000350 25 53 3c bc a5 25 91 bc 88 05 f3 3c 5c a1 b0 3b
       -0.011494433 -0.017718146 0.029665723 0.0053903293
000360 45 8c 45 16 74 f3 ba 96 e0 33 15 96 d1 a0 77 15
       1.5957795e-25 -3.020356e-25 -1.2052493e-25 5.0008115e-26
000370 d4 6e b2 96 2e d1 7a 96 57 52 ff 16 4e 4f 8c 98
       -2.8827393e-25 -2.0260845e-25 4.1249436e-25 -3.626923e-24
000380 f4 44 24 96 07 62 36 b9 e2 88 6e ba e9 60 83 ba
       -1.3269572e-25 -0.0001739339 -0.00090993766 -0.0010023388
000390 1c d4 8a b9 a2 10 a2 b9 b7 b9 d0 39 36 cd 8c 3a
       -0.00026479445 -0.0003091144 0.0003981122 0.001074231
0003a0 ce d1 15 3b 5c 30 66 39 18 63 1c 3d 45 97 43 3c
       0.002286065 0.00021952525 0.03818044 0.011937921
0003b0 69 0d 6f 3c 36 94 00 3d 14 13 0e 3c 20 82 11 bd
       0.0145906 0.031391345 0.008671541 -0.035524487
0003c0 98 c5 97 bc 8c 31 13 3d 73 bd 21 bd 5c 15 86 bc
       -0.018526837 0.035935923 -0.039487313 -0.016367607
0003d0 0e 24 12 3b 43 4b b1 ba 37 83 63 bd 2d 17 d9 bb
       0.0022299322 -0.0013526458 -0.055545058 -0.006625077
0003e0 14 44 16 3d a3 7d 8c bc 65 aa c2 bc 95 7b cd bc
       0.036686018 -0.017149752 -0.023762891 -0.025083343
0003f0 60 48 32 bd a7 f8 5c bb c1 c1 d0 3c 5a 3e 89 bd
       -0.043526053 -0.0033717544 0.025483014 -0.06701346

bias f4 [64]
000000 d3 ee 14 bc 22 12 e1 3c 26 98 92 3c e3 89 13 bd
       -0.009090143 0.027474467 0.017894816 -0.03602017
000010 a6 16 f8 1f 46 79 2a 3d 58 17 20 bd 25 cc 9a 3d
       1.05069554e-19 0.04161956 -0.039084762 0.07558469
000020 4e c6 4e 3d cb 94 8c bb cb 56 f8 bc c5 2e 44 bc
       0.050482087 -0.0042901984 -0.030314824 -0.011974041
000030 39 37 3f bc 19 17 5c bb eb a5 b3 bb 62 43 94 bc
       -0.011670881 -0.0033583103 -0.0054824254 -0.018098537
000040 ae 27 73 3d 13 c0 bb bb 93 98 ca bc 4e 39 cb bb
       0.059364013 -0.005729684 -0.024730956 -0.0062018996
000050 9b 61 fa 3c 4a d1 3c 3d b3 dd ba 3d d7 79 ff 3b
       0.03056412 0.04609803 0.09124317 0.007796507
000060 88 c7 88 bc 00 2d 4c bd 1d d9 77 3b c5 93 f8 3c
       -0.016696706 -0.049847603 0.0037818619 0.0303439
000070 d4 12 fa 3c ae a6 c7 bc 1d 98 37 3d 80 31 2e 3d
       0.030526556 -0.024371471 0.0448228 0.042527676
000080 86 46 18 bc 7b 80 52 ba 9e 0f ac 3b 72 76 88 bc
       -0.009294158 -0.00080300093 0.005250885 -0.016658042
000090 5f ba 8d 3c 57 a6 89 3d f7 05 9c 3c 51 7b b9 bc
       0.017300783 0.0672118 0.019045813 -0.02264181
0000a0 56 cd 71 3d 61 4b d4 3d e6 45 6d bb c9 cf f4 3c
       0.059033714 0.1036594 -0.0036204993 0.029884236
0000b0 43 96 e9 3b 60 f5 11 bd 7e 4c d1 bc 23 69 f1 3b
       0.0071285083 -0.0356344 -0.02554917 0.0073672696
0000c0 f9 4c 75 bc bd b2 c7 bb a7 f5 dd ba 2c f9 b9 bc
       -0.014971965 -0.0060943053 -0.0016934172 -0.022701822
0000d0 d4 84 f2 3c dd 67 70 3d a4 c5 13 bc 06 74 71 3d
       0.029604353 0.0586928 -0.009019289 0.05894854
0000e0 1d 44 9e bc da 3b 29 bd 2e 09 be bc a4 fb 88 bc
       -0.019319588 -0.041316845 -0.023197737 -0.016721554
0000f0 9c 5c 1a bd 10 e5 04 bc 3d 64 8c bc 24 10 87 3c
       -0.037685975 -0.008111253 -0.017137641 0.016487189

weight f4 [128, 64]
000000 d4 48 b9 bc db 4b 43 3d f6 c9 9b bd 04 73 11 b9
       -0.022617735 0.047679763 -0.0760688 -0.00013871124
000010 fd 37 f1 1d e2 b2 2e bd c1 ea 26 20 cc f2 d5 3b
       6.385006e-21 -0.042651065 1.413842e-19 0.006529188
000020 05 46 f3 bd 51 89 51 20 03 28 3e 3c e6 c4 a0 9d
       -0.118785895 1.7748423e-19 0.011606219 -4.2555236e-21
000030 66 b1 0d bd 99 92 0e 16 88 4b af bc c7 a3 13 bb
       -0.03459301 1.1516927e-25 -0.02139832 -0.0022528039
000040 aa 57 29 bd a8 c0 09 b8 18 a5 07 3d dd 29 2c bc
       -0.04134337 -3.284277e-05 0.03311643 -0.010508028
000050 42 8a f0 3a 4a 6b 08 bd a8 2c bd bd c5 7a ed 39
       0.0018351751 -0.033305444 -0.09237033 0.00045295633
000060 51 ca 36 39 5e b7 f7 bc 44 a4 a7 39 7b 43 df b9
       0.00017432241 -0.030238803 0.0003197511 -0.0004258415
000070 db 55 3c bd ff a2 95 39 2b f7 f6 bc 35 fd 7b bd
       -0.045980316 0.00028540936 -0.030147156 -0.061520774
000080 5c 26 1a 3d 88 bc 32 97 04 01 9f 36 b7 5d 82 bd
       0.03763424 -5.775286e-25 4.7386875e-06 -0.06365531
000090 e7 cc d2 3c 82 14 23 bd ed 6c c1 3c aa 65 eb 3d
       0.02573247 -0.03981448 0.02361151 0.11494
0000a0 f7 71 6b bb 58 1d 4f bd 64 29 ac 3c 79 ef be bd
       -0.0035926083 -0.050565094 0.02101583 -0.093230195
0000b0 b6 f0 ec bc 2b df 79 bd 92 df 1b 32 65 ed 27 bd
       -0.028923374 -0.061003845 9.0730214e-09 -0.04099788
0000c0 cb 33 c1 96 a8 21 1c 3c 90 db 07 18 84 cc 87 3d
       -3.1213518e-25 0.009529509 1.7559192e-24 0.06630805
0000d0 73 03 bf bc 6f 70 75 bc 04 a0 8c 3d 4f f3 f7 3c
       -0.023317074 -0.01498042 0.06866458 0.030267386
0000e0 98 83 c6 24 35 f5 b3 bc d5 dd 0e 38 b3 0a 83 3d
       8.609174e-17 -0.02196751 3.4062035e-05 0.06398525
0000f0 37 87 50 3d c0 c3 7e bc 3f 64 26 23 07 cf b8 bb
       0.0509102 -0.0155496 9.020106e-18 -0.005639914
000100 9c 57 bd 3d 0f 6e c3 3d 4b 47 87 3c 64 91 84 3a
       0.09245226 0.095424764 0.016513487 0.001011413
000110 94 7f ad 1e 56 e1 22 be 59 31 7d 3c 23 9d b9 3d
       1.8369853e-20 -0.15906271 0.01545366 0.090631746
000120 04 23 16 bd 5e cb 20 2b a2 ec 37 3d ba f5 56 21
       -0.036654487 5.712565e-13 0.044903405 7.2831237e-19
000130 cb e0 20 3d 51 07 ab 37 46 de b2 bd a7 f2 a0 3d
       0.03927688 2.0388195e-05 -0.087338015 0.07858782
000140 18 c3 1d 3d fb c6 b8 af c0 a8 0e be 7b cd 2d 3d
       0.038516134 -3.361079e-10 -0.1393156 0.04243229
000150 c8 94 fd 3b e0 7e 0e 3e d5 12 11 3d b5 dc 52 35
       0.0077386834 0.13915586 0.03541835 7.855227e-07
000160 d1 f2 da 26 98 5b ac 3d e4 b4 97 bc 88 71 8e 3e
       1.5192604e-15 0.084159076 -0.018518873 0.27820992
000170 5d 2b 9f 3d f4 55 04 3c 7d b1 77 3c 2c 64 9f bd
       0.07771943 0.008077133 0.015118 -0.07782778
000180 fd ae b1 3d 1c 1f 6c 22 e8 66 6e bc 49 eb e9 bc
       0.086759545 3.2000433e-18 -0.014550902 -0.028554576
000190 36 2c 4d bd 94 a8 d1 3d 0e 9d 84 3d 98 74 bf bd
       -0.05009099 0.10237232 0.06475268 -0.0934841
0001a0 47 bc 76 3d 9e db 94 bd 8b da 3d bc cd d3 dd bd
       0.06023815 -0.07268451 -0.011587749 -0.108314134
0001b0 f2 37 cd 3c 31 fc 93 bc 79 c0 49 35 74 2c ad bd
       0.02505109 -0.01806459 7.515842e-07 -0.084557444
0001c0 ed db ff bb 60 e9 87 ba 1e 1d 9f 18 10 b8 3e be
       -0.0078081996 -0.0010369234 4.1129938e-24 -0.18624902
0001d0 29 aa 14 bd 97 52 15 3e 20 e5 9a bb ca 8b 10 3e
       -0.03629509 0.14582287 -0.004727021 0.14115825
0001e0 a7 35 bc b7 37 fc 46 3d 26 41 9b 35 da f2 55 be
       -2.243633e-05 0.048580375 1.1567361e-06 -0.20893422
0001f0 d1 2f 8a bd 1a 53 c1 bd 47 a6 aa 39 b2 ea 13 3c
       -0.067474015 -0.094396785 0.00032548813 0.009028124
000200 60 92 96 3d 37 51 79 3d 96 e8 13 be 0d 12 45 3c
       0.073521376 0.060868468 -0.14444193 0.012028229
000210 17 69 77 a0 df 0e d3 ba db 0c e8 3b 49 f7 32 3d
       -2.0956485e-19 -0.0016102454 0.0070816106 0.04369286
000220 6c fe 9a 3d 6d d8 57 2b 8e f4 2c 3d e8 dc c6 14
       0.07568058 7.6683695e-13 0.042225413 2.0080023e-26
000230 c0 70 84 3d b8 8e 78 36 23 ea 00 3e 84 9f aa 3c
       0.06466818 3.7037953e-06 0.12589316 0.020828016
000240 bf cb 60 3d f5 3d 3d 36 f5 b6 d0 3d 9d a6 42 be
       0.054881807 2.8199258e-06 0.10191146 -0.1900887
000250 1d f7 1c be 5d cc db bc 00 ac 80 3d 71 e7 27 b8
       -0.15328641 -0.026830846 0.062828064 -4.003145e-05
000260 61 d3 4e b2 bb 61 bd bd 6c 90 1d bd fa 87 fe 3d
       -1.203884e-08 -0.09247156 -0.03846781 0.12428279
000270 34 7c 99 3d ea 8d bb bc dd af c2 bd 70 bb 5e 3c
       0.07494393 -0.022894818 -0.095061995 0.013594493
000280 ed 29 f0 3c bd 79 08 1f 86 3c 61 bc 7e 2c 96 3d
       0.029316867 2.889982e-20 -0.01374734 0.07332705
000290 47 1e 97 bd 99 22 c1 3d e5 96 8b 3d d1 7a 78 bd
       -0.07378822 0.09430427 0.0681589 -0.060664
0002a0 c7 8e ab 3d a5 1b b5 3d cc 08 06 3e a9 27 bc 3c
       0.08376842 0.088431634 0.13089293 0.02296813
0002b0 93 fe 30 3d 21 1a ed bd f6 41 83 b9 fc 87 2b be
       0.04321153 -0.11577249 -0.00025035412 -0.16751093
0002c0 c6 0c 4b 3c cf 16 2d 3b ce 8a af 97 d0 3e 73 3d
       0.012393182 0.00264113 -1.1344149e-24 0.059386075
0002d0 aa 20 93 3d 75 e9 74 be c3 49 79 bc 52 09 73 bc
       0.071839646 -0.23917182 -0.01521534 -0.014833765
0002e0 86 7e 1a 36 09 34 6e 3d d7 d0 82 b9 e7 f2 7e 3c
       2.3021435e-06 0.058155093 -0.0002495113 0.015560842
0002f0 55 09 00 be 79 8d bd 3d d6 24 0a b9 2f 11 af bc
       -0.1250356 0.092554994 -0.00013174428 -0.021370498
000300 84 f5 74 3d d8 2d ab bd c4 bc d8 3d 5e ba bc 3b
       0.059804454 -0.083583534 0.10582879 0.0057595214
000310 8a b2 a4 18 2e b4 b2 3d a6 a0 ab 3c 23 0f 9e bd
       4.2573285e-24 0.08725773 0.020950627 -0.07717731
000320 f5 a8 8f 3d db ff 96 ab 9b 59 f4 3d 77 7a cd a1
       0.07014648 -1.0729155e-12 0.119311534 -1.3923757e-18
000330 22 1a 90 bb dc 08 df 36 34 e4 09 be 75 2b 59 3c
       -0.0043976465 6.6469493e-06 -0.13465959 0.01325499
000340 fa 21 32 bd 35 27 44 b8 73 83 1c be 55 bb db 3d
       -0.043489434 -4.6766556e-05 -0.15284519 0.1072909
000350 e8 a0 1c bd 85 17 25 3a 4b 0d 30 be 29 0e 60 24
       -0.03823939 0.0006297755 -0.17192571 4.858425e-17
000360 3e 51 c9 b9 55 01 97 bd fc 0f 54 3d f0 16 e7 bd
       -0.00038398238 -0.07373301 0.051773056 -0.11283672
000370 a7 a3 ec bd 19 e9 cc 3c ac cc ce 3d b7 b9 88 bd
       -0.11554652 0.025013493 0.10097632 -0.06676047
000380 38 dd 57 3d 9a 7a 11 1f 7e b8 a6 3c aa 70 e7 3c
       0.052701205 3.0806358e-20 0.020351645 0.028251965
000390 0b 50 77 bc 3f 04 86 bd 2f fc d8 3d 23 76 0d 3e
       -0.015094767 -0.06543779 0.10594975 0.13814597
0003a0 22 a7 5c bd 9d d8 14 bd bf b1 ed bd 83 34 a0 3d
       -0.053870328 -0.03633939 -0.11606168 0.07822516
0003b0 e4 df c2 bd 2a da 2a 3e 82 24 ac 3a e8 ef 4d 3d
       -0.0951536 0.16684785 0.0013133439 0.05027762
0003c0 0d ff 73 3b b8 11 5b bc 9f 34 40 97 6a 83 84 3d
       0.003723088 -0.013370924 -6.2104963e-25 0.06470378
0003d0 e1 a8 8a bd d2 f3 9f 3c f1 57 32 3b ea f9 e0 bd
       -0.06770492 0.019525442 0.0027213062 -0.10985167
0003e0 de 99 20 37 57 bd 95 3d bb de 8c 3a 31 b2 2e 3e
       9.572568e-06 0.07311504 0.0010747531 0.17060162
0003f0 83 9b 33 3d 3c 49 ee 3d 2b 30 b3 37 2d a3 4a 3d
       0.04384948 0.11635062 2.1360893e-05 0.049472023

bias f4 [128]
000000 28 9e ec 3d 43 fa e3 3d f5 9c 74 bd a8 f6 06 3e
       0.115536034 0.11131718 -0.05972 0.1318003
000010 db b9 ab bd f0 cc 73 a9 c4 80 ce 3d 7f 96 f9 bc
       -0.083850585 -5.4134594e-14 0.10083154 -0.03046727
000020 fe ef 95 3d e4 11 52 3d b5 48 e7 3b fb 5a ce 3d
       0.073211655 0.051286593 0.007058228 0.10075947
000030 25 24 8f bc ec b3 27 3e ab f0 f6 3d dd 10 0c 3e
       -0.01747329 0.16377228 0.120576225 0.13678308
000040 f2 79 be 3c 9a 74 07 3e 2b 06 88 bc cc 69 7a 3d
       0.023251507 0.13228074 -0.016604504 0.061136052
000050 39 3c 3f bd 0f 1c 9b bc 21 33 4d 3d 22 0b 04 bd
       -0.046688292 -0.018934278 0.05009759 -0.03223718
000060 3b 65 8e bd b1 40 48 b8 40 24 af 3d ae e9 f5 3d
       -0.06952902 -4.7743964e-05 0.08551836 0.120074615
000070 20 64 2c bd 90 02 b4 3d 5f 06 3b bb 08 b6 bd 3d
       -0.042087674 0.08789551 -0.0028537733 0.09263235
000080 33 15 fa bd e2 12 81 3d 69 fa 8b 3d f6 14 c1 bc
       -0.12211075 0.0630243 0.06834871 -0.023569565
000090 d8 da 2e bd 61 ce a4 3d 7e bf 05 be cc 3d c0 3d
       -0.042689174 0.08047176 -0.1306133 0.09386787
0000a0 da 47 e7 3d b2 e8 31 3d e5 0c b9 3c 53 44 2e bc
       0.112930015 0.043434806 0.022589156 -0.010636407
0000b0 43 6b 1d ac ec 66 89 3d da 7b cd 3c e1 82 18 3e
       -2.2370584e-12 0.06709084 0.025083471 0.14893676
0000c0 10 c0 02 bd da 57 01 3e e4 77 9b bc 67 3e 38 3d
       -0.031921446 0.12631169 -0.018978067 0.044981387
0000d0 0b d9 8f bd fd e7 9a 3d 75 39 a2 3d 15 65 96 3c
       -0.070238195 0.075637795 0.07921115 0.018358747
0000e0 dd 23 d4 3d c3 14 64 bc 0d 16 51 bd 1c 66 1a bd
       0.10358403 -0.013920966 -0.05104642 -0.037695035
0000f0 bd ba e7 bd aa 28 02 3d 25 78 02 3d 4e 5a b9 3d
       -0.113149144 0.03177706 0.03185286 0.090504274
000100 28 07 db 3d 85 5e 00 be 2d f0 ba 3d 2c fa 85 3d
       0.10694724 -0.12536056 0.09127841 0.06541857
000110 60 93 9f 3d dc 1d c8 3d e2 8f 9a bb 12 aa 7d bd
       0.077917814 0.0977132 -0.004716859 -0.06192977
000120 ec 67 13 3c d6 13 73 bd 7d 5c 89 3d 54 84 1f bd
       0.008996945 -0.05934509 0.06707094 -0.038944557
000130 9b 4d 1e 3e 59 f4 bb 3c d1 bd bd 3a 01 3e 1c bc
       0.15459292 0.022943662 0.0014476125 -0.009536267
000140 0d a2 ae bc 86 a1 dc 3d f0 a6 c7 3c 80 e6 06 bd
       -0.021317506 0.10772996 0.024371594 -0.032934666
000150 8e fa ca 3d 51 0a c7 3c a2 76 0a be 15 99 a9 3d
       0.09911071 0.024296911 -0.13521817 0.08281151
000160 bf 31 0c 3d e4 c7 a8 bd 18 81 05 3e f9 9e 29 bd
       0.03422713 -0.08241251 0.13037527 -0.041411374
000170 9a f1 ad 32 46 6d e3 3d 46 ea 97 3c ca 0b 6f 32
       2.0249718e-08 0.11104827 0.018544327 1.39143115e-08
000180 1a 5e b4 bb ac 87 b5 3d 5a ed dd 3d 92 5d 35 2d
       -0.005504382 0.08863768 0.10836287 1.0309436e-11
000190 e8 bf a3 3c 8c 5b a2 bc ed 35 93 3c e6 fe 99 3d
       0.019988969 -0.019819044 0.01797005 0.07519321
0001a0 b0 b7 7d bd e4 a4 61 3d 80 c7 b8 3d a9 63 60 3d
       -0.061942756 0.055088893 0.090224266 0.054782543
0001b0 f7 d5 b5 bd 30 5f bf bd c3 09 85 bb 11 dc 17 28
       -0.08878701 -0.093443274 -0.0040600016 8.429903e-15
0001c0 33 9a a9 bc d8 d7 b2 bc ef 95 da bd 83 55 cd 3a
       -0.02070341 -0.021831438 -0.10673129 0.0015665743
0001d0 8b 66 39 bb 17 bc ab 3d 31 c5 f3 bd 11 0f c5 25
       -0.002828988 0.08385485 -0.11902846 3.4184262e-16
0001e0 4a bc af 3d dd c9 bd 3d bd ec 77 bc bd b2 45 3c
       0.08580835 0.09267018 -0.015132126 0.01206654
0001f0 4c 1f fa bb 34 3d 6a 3d d6 7c b1 3d e3 26 a1 3d
       -0.0076331254 0.057187274 0.08666389 0.07868745

weight f4 [64, 128]
000000 ed 22 2f 1b 0e 25 9c bd c8 03 b6 bd 48 eb 25 3a
       1.4486946e-22 -0.07624255 -0.0888744 0.000632931
000010 df c7 9e 99 20 67 40 14 62 05 e4 3a 8e 46 01 17
       -1.6417544e-23 9.713861e-27 0.0017396624 4.17712e-25
000020 3c 1b 43 bc 71 88 c6 bc 6c 35 32 3c 08 b3 c9 bd
       -0.011908349 -0.024234982 0.010876995 -0.098486006
000030 79 21 b0 16 81 c3 be bc 61 60 7e 3d de 38 5b bd
       2.8455458e-25 -0.023286583 0.062103633 -0.05352103
000040 52 60 15 3c 2c 38 b1 bd 91 b5 d5 99 bb d9 be bc
       0.009117203 -0.08653292 -2.2097018e-23 -0.023297181
000050 c5 33 08 3b 90 7d c6 bc 57 72 c4 bc 77 28 ba 3c
       0.002078281 -0.024229795 -0.023980303 0.022724373
000060 d0 1d c4 bc 41 47 d0 95 bd a3 06 a6 99 f1 c0 bc
       -0.023939997 -8.412295e-26 -4.6712496e-16 -0.023552703
000070 ee 55 2e 3c 2d 2c 13 bd d0 63 5e 17 5f f4 a8 3c
       0.010640604 -0.0359308 7.185805e-25 0.020624338
000080 f1 db fc bc e9 f5 1f 3d 90 d9 79 3d df 0f 1d 96
       -0.030866595 0.039052878 0.0609985 -1.2687367e-25
000090 d6 d8 05 3d 61 1d c6 bc 75 53 08 97 8f 36 92 3c
       0.032677494 -0.02418393 -4.404931e-25 0.017848281
0000a0 cb 39 35 17 55 68 b4 3b 22 f9 b7 bd 8e c2 01 19
       5.85572e-25 0.0055056014 -0.08983065 6.708434e-24
0000b0 fc 9a 44 16 f4 24 b5 95 f8 eb 2f 3d ee f1 38 bd
       1.5881658e-25 -7.316362e-26 0.042949647 -0.045152597
0000c0 51 0a 47 99 98 52 91 3c 46 65 90 bc 68 ee 96 bc
       -1.0290142e-23 0.01773958 -0.017626416 -0.018424228
0000d0 a0 63 e9 95 1a 6f 37 97 ec 31 55 bd 7b 31 0b 3d
       -9.426513e-26 -5.927072e-25 -0.052049562 0.033982735
0000e0 91 d7 9f bc 10 c3 9f bc d7 bf 18 bd f0 b9 ad 93
       -0.01951197 -0.019502193 -0.037292328 -4.385469e-27
0000f0 93 35 85 3c ab e1 6c 3d 67 90 33 bd 40 59 61 bd
       0.016260898 0.0578324 -0.043838885 -0.055016756
000100 db d0 d7 18 69 26 85 bd 82 75 d0 3c 48 13 88 3d
       5.5787088e-24 -0.06501467 0.025446657 0.066443026
000110 d5 e8 3a bd ed da b3 bd d0 9e 6e 17 a3 90 b7 bc
       -0.045632202 -0.08781991 7.7102397e-25 -0.022407835
000120 49 a6 cc 3c f1 23 c1 3b 0c 98 1c 3d 87 92 a0 39
       0.024981635 0.005894177 0.03823094 0.0003062675
000130 83 a6 be bc 4c 09 dd 3a b0 e0 b5 bd 82 8c 99 17
       -0.023272758 0.0016863733 -0.08880746 9.922862e-25
000140 d9 d6 dc bb bb 25 ad bc fb d7 59 bd 9c d9 88 3c
       -0.006739479 -0.021136155 -0.05318449 0.016705327
000150 9a 8e 1e 3c 8a c9 36 97 cf de 86 bd 3d c9 d7 3b
       0.009677554 -5.906175e-25 -0.06585466 0.006585269
000160 96 cb 1b 1a a0 57 b1 3c fe b2 c7 bc 70 55 ca bc
       3.2217704e-23 0.021648228 -0.024377342 -0.024698943
000170 0d 02 a2 15 44 97 b2 bc 85 62 97 bc a9 02 88 15
       6.5434514e-26 -0.021800645 -0.018479595 5.493416e-26
000180 60 18 11 1b a8 73 1c 18 a7 fb c6 bc f8 52 29 98
       1.2001995e-22 2.0220919e-24 -0.024289919 -2.1884627e-24
000190 68 ea 0a 95 fd 99 5e 9b d9 e6 c5 bc 39 99 5e 9b
       -2.8053792e-26 -1.8413166e-22 -0.024157928 -1.8412919e-22
0001a0 53 5b 93 bc 4a 40 1f bd c4 dd a8 bc fb 97 a2 bd
       -0.017987883 -0.03887967 -0.020613559 -0.07939144
0001b0 91 b4 54 3d e8 82 99 bd 01 9b c9 18 12 52 3e 16
       0.051930014 -0.074956715 5.2113796e-24 1.5373975e-25
0001c0 6f f0 b0 9a 8f e3 a1 18 b1 4d 0b 3d 71 3b c7 bc
       -7.3180335e-23 4.18473e-24 0.03400964 -0.024320336
0001d0 39 84 85 98 c1 65 55 bd 6c e1 3c b9 9e a2 9a 15
       -3.4513205e-24 -0.052098993 -0.00018013053 6.245667e-26
0001e0 ea 4a c6 bc 64 cd 52 bc f4 6f c1 3b 3a e5 bc 16
       -0.024205644 -0.012866352 0.0059032384 3.05177e-25
0001f0 87 0f c2 bd d5 ca f5 bc 99 b9 b0 bc 30 83 63 94
       -0.09475618 -0.030003944 -0.021572875 -1.14864434e-26
000200 52 94 e9 17 d8 c5 09 bd df bc 51 bc a5 95 59 bd
       1.5094713e-24 -0.033635944 -0.012801378 -0.053121228
000210 cf 11 75 17 5a 4c 27 19 bb 3d 78 bc dc 34 b6 38
       7.9186247e-25 8.649117e-24 -0.015151436 8.688282e-05
000220 ac fd 31 3d 27 c5 c3 bb f4 88 2c bc 44 a0 1f bd
       0.04345481 -0.00597443 -0.010530699 -0.0389712
000230 8b 68 46 bb bf 29 35 bc 13 f4 e1 bc 73 2c 07 3b
       -0.0030274715 -0.011057316 -0.027582204 0.002062586
000240 eb c6 12 bc c4 39 96 3c 9f e0 a8 bc 62 6b 77 3c
       -0.008958559 0.018338092 -0.02061492 0.015101286
000250 80 0d 6e 97 1a 7f 59 3c f2 c4 ef bc c0 9f 2c bd
       -7.6918987e-25 0.013274932 -0.029268716 -0.042144537
000260 c6 bf 5e bc 14 8b 95 17 e8 5f a7 94 70 b5 ff bc
       -0.013595527 9.664008e-25 -1.6900519e-26 -0.031214446
000270 a6 58 41 bd d3 88 25 bd ad 36 49 bc 54 93 56 bc
       -0.047203682 -0.04041369 -0.012281102 -0.013096649
000280 7c aa a5 3b 91 a2 95 bc 96 7f b8 bb f5 e8 97 18
       0.0050557237 -0.018265994 -0.005630444 3.926781e-24
000290 6c 5e 94 bd cc 95 27 bc af 14 75 3b ad ca 5f ba
       -0.07244572 -0.010228585 0.0037396362 -0.0008536976
0002a0 79 62 21 96 b4 5f a5 bc 61 5d 90 3c 96 de e5 17
       -1.3036549e-25 -0.020187236 0.017622652 1.4854967e-24
0002b0 58 12 8c 19 08 95 41 bd fe 6f ea bb 8b ec 97 bd
       1.448307e-23 -0.047261268 -0.007154464 -0.07418164
0002c0 1a 66 4a bd 11 25 54 bc 43 87 61 bd 74 3e 35 3d
       -0.049413778 -0.01294829 -0.055060636 0.044249013
0002d0 57 46 90 bc f6 9e bc 99 4a 0c 89 3c 13 0d 09 bc
       -0.017611666 -1.9502948e-23 0.016729493 -0.008364934
0002e0 80 c6 07 3d 65 37 44 bd 71 54 70 bd 03 2d ee 1a
       0.03314829 -0.04790439 -0.05867428 9.8507213e-23
0002f0 ef 06 d4 bb 84 88 df bc 2a de 50 98 34 a5 09 3d
       -0.006470553 -0.027286775 -2.6995534e-24 0.033604816
000300 2b ab 0e 3d e2 eb c2 3c 8a 1f 04 bd 7a f3 14 bb
       0.034831207 0.023794118 -0.03225664 -0.002272813
000310 93 ed a8 bc 9a eb 91 3c 26 73 bf 19 18 8e 9c 93
       -0.020621097 0.017812539 1.9795445e-23 -3.952005e-27
000320 e0 fc 51 bb 9f fd 17 3a ec c9 4a bc a9 76 8a 3c
       -0.0032041594 0.00057979854 -0.0123772435 0.016902285
000330 f7 2a 16 3c 7c fb 25 bd 42 d1 7f bc b8 6f ee 98
       0.009165517 -0.040523037 -0.015613856 -6.1634365e-24
000340 1e 6c 3e 15 6f 0d ff bc a3 3a 9a bc a3 27 c1 bc
       3.8455484e-26 -0.031134335 -0.018826788 -0.02357847
000350 0b 3a 87 bc 0a 09 73 16 d7 e9 28 bd 3f 5a 09 bd
       -0.01650717 1.9632236e-25 -0.041238632 -0.03353333
000360 51 ed bc 19 e8 56 58 bc 4d ba 05 bd 11 59 80 bd
       1.9534596e-23 -0.013204314 -0.032648373 -0.06266988
000370 26 f5 f8 95 44 bc 9e 95 5d 59 83 bc d4 73 81 96
       -1.0055318e-25 -6.411272e-26 -0.016033823 -2.0914172e-25
000380 52 94 09 22 c2 a5 52 1a 78 c8 29 bc dc 4f f8 15
       1.8645482e-18 4.356088e-23 -0.010362737 1.002924e-25
000390 ed 39 b7 17 e6 35 88 97 cb 1a e8 bb ce 05 9a 16
       1.184072e-24 -8.8024e-25 -0.007083272 2.4883705e-25
0003a0 d8 50 43 bc 5d 54 09 bd ac 92 29 bd 56 a4 f6 3c
       -0.01192113 -0.03352772 -0.041399643 0.030107658
0003b0 5f bc 78 98 b5 ec f5 bc 1a 66 48 1a c2 c3 3e 17
       -3.2148352e-24 -0.030020097 4.1441508e-23 6.163939e-25
0003c0 ef 94 cc bc aa 76 03 97 51 43 e7 3c 9e 03 17 3b
       -0.02497336 -4.247816e-25 0.028230341 0.0023042927
0003d0 ce 27 2d 9a 5f 58 54 bc 19 10 98 95 38 46 80 9a
       -3.5807715e-23 -0.012960522 -6.141771e-26 -5.3053004e-23
0003e0 f6 4d 88 bb 59 98 3d bd 70 b6 9a bc 76 74 9e 3c
       -0.0041596843 -0.04628787 -0.018885821 0.019342642
0003f0 db 57 22 bc 31 9c 9e bc a8 a0 f2 bb 35 ef 87 96
       -0.009908642 -0.019361587 -0.0074044056 -2.1961387e-25

bias f4 [64]
000000 57 d5 9b bd 30 66 58 bd df 68 45 3d 3f aa ed 3c
       -0.07609051 -0.05283183 0.048195716 0.029011844
000010 38 42 c4 3d 1c 88 ef 3c ea e1 b0 3d 4c 05 7e bc
       0.09582943 0.029239707 0.0863684 -0.015504193
000020 1d 8b 4e bc d0 11 02 3c 77 ff 2e 3e 4f 21 a9 bd
       -0.012606409 0.007938817 0.1708964 -0.08258306
000030 93 28 6a 3d a5 85 b0 ae c2 29 e6 3d 73 9c d0 bc
       0.0571676 -8.0272934e-11 0.112384334 -0.025465226
000040 c1 55 03 3e 40 83 1f bd f9 e9 1b 3d 60 fd 43 bd
       0.12825681 -0.03894353 0.03806493 -0.04784906
000050 ea 77 39 3d ca ef f3 3d 3e e8 3e bc 85 d2 2b bd
       0.045280375 0.119109705 -0.011652051 -0.041948814
000060 e0 84 24 3d 8e 86 6d 3d 5a 43 a6 bc 24 0e e7 b3
       0.040165782 0.05798965 -0.020295788 -1.0759348e-07
000070 af f8 94 bc 7d d6 a3 3b 6f 43 e0 3d ad 42 53 bc
       -0.018184988 0.004999934 0.10950362 -0.012894315
000080 af ba aa bd ee 55 c5 3c 7c 5e 6f 3c 68 e1 5f 3c
       -0.08336388 0.024088826 0.014609929 0.013664581
000090 b2 36 c9 3b 1d dc 97 3d 3b bb 9f bc 22 cc 83 bc
       0.0061405534 0.0741503 -0.019498458 -0.016088549
0000a0 6a b5 45 bc 51 53 0a bd b5 16 ee ba e2 9d ef 3d
       -0.012067178 -0.033770863 -0.0018164726 0.11700036
0000b0 c6 e9 33 3d a4 8c ee 3c a4 20 76 3c 03 80 28 3d
       0.043924116 0.029119797 0.015022431 0.041137706
0000c0 4f 2b 8d 3d a3 f3 00 bd 31 6b f2 bc 9f 7a 31 3c
       0.06893026 -0.03148235 -0.029592128 0.010832458
0000d0 44 c1 2f bd 01 de 5f 3d 31 50 86 3d f2 00 0b 3d
       -0.04290892 0.05465508 0.06558264 0.03393645
0000e0 19 9a 2c bd ad d6 9a 3d 6e af 7f 3d 82 45 f2 ba
       -0.042139146 0.075604774 0.062423162 -0.001848385
0000f0 18 82 94 bc eb 2b d9 bc 4e 41 bf bb d6 cc 78 bd
       -0.01812844 -0.0265102 -0.0058366423 -0.06074222
