2-hypertuning-mlflow/models/20250921-1130model.pt (torch, 137605 bytes, 12 tensors)

weight f4 [32, 1, 3, 3]
00000000: f151 3b3e 18dc eebd 1a5f 8dbe 0108 893d
00000010: db1b a03c 4166 da3d b1ee 6abc 4df5 853d
00000020: 74d5 f6bc 78ae a2be 57d1 f2be bed5 9cbd
00000030: ef86 05bf 15ac 5fbe 9356 a6be c54b 353e
00000040: 0bc5 a6be a98e 9fbd f232 843e c1cd a4bd
00000050: b534 0d3d 9a14 69be 5a3a 30bc 153e a63e
00000060: db0e 9fbe 8df9 8d3e c71d 52bd 8929 bfbd
00000070: 9bc3 c7bd fbc8 7d3e 8041 87be c0b1 6cbe
00000080: e296 4d3b 2d47 093e e689 dcbd 07f5 61be
00000090: 1f77 8e3d a54f 623e 72bf ae3e b42b ba3e
000000a0: 4631 253e 4ccc 453e 70cb 7f3e 62e4 17be
000000b0: 6afa 2abe b6b5 33be c898 583e fe02 ac3e
000000c0: 7ab8 383d d89a a73e 2805 893e de00 91bd
000000d0: f6f6 2c3e c311 923e 700d af3e 73bd 903e
000000e0: 5426 e93d ca73 ca3e 196f ab3e 3462 623e
000000f0: 60a5 803e 140e 303e 5ae3 293a a521 cf3e
00000100: 2e79 10bd 484a 743e 410b c83e 37e0 d63e
00000110: 42e6 763e 0fbd 79bb 4772 6a3e d756 a63e
00000120: 6acf 2abf ad2d bdbd e011 f83c 76be 06bf
00000130: ab06 91be c245 593e bdd1 863e 9017 653c
00000140: f195 c93d d3b1 3f3d e781 6cbe 754d 323e
00000150: 6da5 f13d 4a7b 653e 5c6e 463e 4408 893e
00000160: a1b4 09be 96ea 983e 45a5 bc3d 6d8f 183d
00000170: 748c a7bd 5c46 7a3e a5a5 9bbe 0823 47be
00000180: 2d5b dbbd e0c2 e3be e404 c8be 31c8 60be
00000190: 44b9 843d 49c3 20bd d2dc 453e 5d23 1a3e
000001a0: 3790 73bd 83fd d93e 6206 84bd d432 03bf
000001b0: e374 bb3e ade4 0abe c1d3 9a3d 355e 61be
000001c0: 7c45 c4be ab52 4fbe b6f4 a6be cffc b1be
000001d0: 0fd1 06bf 3ee8 6fbe 0fcd 033e cbb7 463d
000001e0: 288e 59bc 6505 0dbe 96f1 a43d 4403 323e
000001f0: 734b c73d ad9b 14be 9185 463e fc74 aa3c
00000200: 2026 40bd b506 a0be 848a 43bc da8f 7f3c
00000210: be5c 14be 0aa3 07bd 4e60 a43e e426 8abd
00000220: 4a97 1cbe 8823 da3d 70a9 4fbe 4c50 e8bd
00000230: 3d7e 9d3e 3765 6abe 7459 743e 3f4f 623e
00000240: f253 23b9 72c1 c937 e24c acb7 b29c 99a0
00000250: 824a 6933 845c b89b 8416 199b 9fdc 61ae
00000260: e62f 5730 8965 db3e 8523 f33e 91ac b63e
00000270: 2ea7 bf3e 4245 0d3d a78f 843e f089 e73e
00000280: c9ab aebc 958a 813c 7681 ef3d 17a4 503e
00000290: f277 6abe 7eac ab3e c9d5 6ebe 5f7c 1a3d
000002a0: 16c6 01be 7729 bcbe 792b 1bbf 6951 653c
000002b0: 233a 233e 699b a03e be5f da3e 453c 683d
000002c0: cd76 5ebe 4a11 c53e 076b 32be 5b0c 6abe
000002d0: 90ed 90be 8d2e 963e d74c c83d 95e2 a5bd
000002e0: 3e2c 64be 82eb 18be 9d1f 03bf 0d2c b8bd
000002f0: 6dbd b13e 3a0c cabe c17b 49bc 1559 ccbe
00000300: 54fd b9be 2bb6 203e 99f9 fd3d 4812 80be
00000310: ad0f e8be 9248 ddbe f694 803e dba2 9bbb
00000320: c749 93be 40ef 47bd 6788 63be 80f1 efbe
00000330: 81b9 d4be 021d 9dbe 4bc1 b9bd 370d 783e
00000340: 7f52 083e b25a 92bd 8569 7d3e 37e7 6fbe
00000350: a985 9ebd e3af 40be 160c f0be 2d42 1fbf
00000360: 8899 a23e 6bcf 77be bc52 483e cd69 313d
00000370: 1bae 053d d4d8 19be 8a29 6d3e 6ad7 61be
00000380: 29b9 ad3d 6118 693e 2605 87be e41b 973e
00000390: bf0f 0ebe b193 d53d 2873 69be e76b 893e
000003a0: 44d0 4c3e e7f8 0c3e 88b8 20bc b857 18bc
000003b0: 1bb3 98bc d6a3 bdb9 8256 40ba ae9d 9ebc
000003c0: f562 77b9 3f18 e1bb 8dc0 9fbc 8473 923e
000003d0: 4f26 82be f9d5 833e 13eb c83e fd91 9b3c
000003e0: ce25 ac3e 217e 0fbe 9e0a 6f3e ca7d 7abd
000003f0: 2265 7d3e 4fce 9cbd c92a 7abe 7d55 1abe
0.18292977 -0.11663073 -0.2761162 0.0669098 0.019544533 0.10664035 -0.014339135 0.06540928
-0.03013108 -0.31773734 -0.4742534 -0.076579556 -0.5215902 -0.21842988 -0.32487926 0.17704685
-0.32572207 -0.07790882 0.25820118 -0.08047057 0.034474093 -0.22761765 -0.0107561 0.3246924
-0.3106602 0.27729455 -0.05129793 -0.09334094 -0.09754106 0.24783699 -0.2641716 -0.23114681
0.003137045 0.13406058 -0.107684895 -0.22066127 0.06956314 0.22100694 0.34130436 0.36361468
0.16132078 0.19316214 0.24979949 -0.14833215 -0.16697088 -0.17549786 0.21152031 0.33596033
0.045097806 0.32735324 0.26761746 -0.070802435 0.16891083 0.28529176 0.3418994 0.28269538
0.11384264 0.39541465 0.33483198 0.22107774 0.2512617 0.1719287 0.00064807164 0.40455356
-0.035271816 0.23856461 0.39071086 0.41967937 0.24111274 -0.0038107072 0.22895156 0.3248813
-0.6672274 -0.092372276 0.030281961 -0.5263437 -0.283254 0.21218017 0.26331893 0.0139826685
0.09843052 0.046800446 -0.23096429 0.1741236 0.117991306 0.22410312 0.19378036 0.2676412
-0.1344781 0.29866475 0.0921121 0.037246156 -0.08181086 0.24440902 -0.30399814 -0.19446957
-0.1071075 -0.44484615 -0.3906623 -0.21951367 0.06480649 -0.03924874 0.19322518 0.15052553
-0.059463706 0.42576227 -0.0644653 -0.5124943 0.36612615 -0.13563795 0.0755992 -0.22008593
-0.38334262 -0.20246379 -0.32608575 -0.3476319 -0.5266275 -0.23428437 0.12871192 0.048515122
-0.013278522 -0.13771589 0.08053891 0.17384058 0.09731188 -0.1451251 0.19386889 0.020807736
-0.04691136 -0.31255117 -0.01193488 0.015598262 -0.14488503 -0.03311447 0.32104725 -0.06745699
-0.15292087 0.10651308 -0.20279479 -0.113434404 0.30760375 -0.22890173 0.23862249 0.22100542
-0.00015576163 2.4051147e-05 -2.05398e-05 -2.60229e-19 5.4317304e-08 -3.0500033e-22 -1.2663139e-22 -5.1355028e-11
7.828461e-10 0.42850903 0.47488037 0.35678533 0.37432235 0.034489878 0.25890848 0.45222425
-0.021322148 0.015813151 0.116946146 0.20375095 -0.22897318 0.3353004 -0.2332374 0.037716266
-0.1267322 -0.36750385 -0.6061321 0.0139964605 0.15940146 0.3136857 0.4265117 0.056698103
-0.21725006 0.38489753 -0.1742364 -0.22856276 -0.28306246 0.2933239 0.09780281 -0.08099858
-0.22282502 -0.14933589 -0.51220113 -0.08992777 0.34714833 -0.39462453 -0.012297572 -0.39911714
-0.36326087 0.15694492 0.124011226 -0.25013947 -0.4532446 -0.4321943 0.25113648 -0.0047496385
-0.28767225 -0.04881215 -0.22220002 -0.46863937 -0.41547778 -0.30686194 -0.09070071 0.24223791
0.1331272 -0.07146205 0.24747284 -0.23428045 -0.077403374 -0.18817095 -0.4688422 -0.6221035
0.3175776 -0.24200217 0.1956281 0.04331379 0.032636743 -0.1502412 0.23160377 -0.2205483
0.08482582 0.22763206 -0.26371115 0.29513466 -0.13873194 0.104285605 -0.22797835 0.26840135
0.20001322 0.13766824 -0.009809621 -0.0092982575 -0.018640092 -0.00036170956 -0.00073371094 -0.019362297
-0.0002359262 -0.0068693454 -0.019500995 0.28603756 -0.25419852 0.25749186 0.39241847 0.018990511
0.33622593 -0.14012958 0.23343894 -0.061155118 0.2474561 -0.07656538 -0.24430384 -0.15071674

bias f4 [32]
00000000: 53c7 87bc 1065 4f3e 6d0c ca3e 43da ab3e
00000010: c59f c03d 8ba8 ed3c 7b0d d1bd 0aa1 c2bc
00000020: fba9 ed3d 7e3c 18be 5993 cf3d 6a0f 3b3d
00000030: 108c c53d 343f 1ebc 4194 30bc 75f6 d2bd
00000040: d463 13b9 07a7 9e3b 19f1 a83d 939c 66be
00000050: aaa7 643d 6b13 cc3d 4a69 253e beb3 b83d
00000060: ad6f b03e 897a 093e a66a 9bbc 89a5 2d3d
00000070: 74ec 95bd 949d 043d e633 033e 0c14 1f3e
-0.016574537 0.20253396 0.39462605 0.33564958 0.094054736 0.029011032 -0.10207649 -0.02375843
0.11604687 -0.14866826 0.10135526 0.045668997 0.096458554 -0.0096586235 -0.010777534 -0.10300914
-0.00014056201 0.0048416886 0.08249111 -0.22520666 0.05582396 0.09964641 0.16153446 0.09018658
0.34460202 0.1342565 -0.018971752 0.042394195 -0.073204905 0.03237684 0.12812766 0.15534991

weight f4 [32, 32, 3, 3]
00000000: 3e25 81be 7144 2ebe d173 15be 543c 8fbe
00000010: 3180 48be 915e 18be 546d 9ebe 2cde 7dbe
00000020: 91c0 40be a044 21bd 8f2f c4bd 4559 8bbd
00000030: cb5f 3fbd 4723 8abd 337c a5bd 0eea 4bbd
00000040: 2b6d acbd 7df2 bdbd 65a0 ea3c 1f6f 653d
00000050: 314f cb3d 643d 2f3d 0e47 b23d 83e3 623c
00000060: 7ab7 063e 18b4 663d 8d3a c93c 6854 a13d
00000070: 67ee 603d d06b e73b e913 a13d 8f8e 5dbc
00000080: 0847 b43d 2ef6 623d d002 8a3d c604 d73d
00000090: 84dd 763d 69d8 f93d 8bbc 953d ce1d de3d
000000a0: e6de e43d da54 563d b672 3d3d dda0 993d
000000b0: f417 ea3d bdf2 e33d ca82 c03d 9411 8e3d
000000c0: 60cf c33d de8e 163c 49b4 bb3d 63da 463d
000000d0: 2c19 9f3d d4c9 803a 0b1f 3d3c b18e 813d
000000e0: 5db4 ae3d a2c3 323d 0b77 713d d294 cabc
000000f0: a094 83bc 98ef 153d 1822 1c3d 1151 4e3d
00000100: 49b5 ba3d 1028 823d 5d8b e2bb 0367 193d
00000110: 7123 c13d 3b31 433d b340 c53d f318 a03d
00000120: 4156 78bc 5ac2 aabd 5f06 1ebe 2d3f d8bd
00000130: e60f ecbc f2cc 24be 922c 41bd 0b71 e6bd
00000140: 992a 22be d867 163d 1653 013d 5f86 84bd
00000150: fc18 1f3b ec2a b6bc dd2e 00bd b8ea 9c3c
00000160: 6d9b f6bc 7c8b 82bb c7ae 0dbe 3ba5 d9bd
00000170: dd56 06be 68c3 1ebe 5c13 f6bd 4bdd f3bd
00000180: 0847 e0bd 640e 84bd 12c9 4fbd 41cf 13be
00000190: 26a6 28be a1c4 28be d1c5 47be 14af edbd
000001a0: d302 1dbe 20e5 32be cdb7 09be 9d9f 0ebe
000001b0: 4c78 bbbd 7e44 d0bd ee60 22be 80f5 ddbd
000001c0: f16f 3fbe e3b8 18be 07df 84bd 0266 30be
000001d0: a57b 29be 6af3 85be 07cc 82be 54b7 50be
000001e0: 0732 92be 373a 8dbe 1ede 54be c27a a2be
000001f0: 49e0 9cbe 2511 84be 221e 2cbe 3c30 4dbe
00000200: f696 88be d25e 55be d1be 63be 1394 55be
00000210: bf72 75be bdae 89be 857e 8dbe 617f 43be
00000220: 89e5 73be b3cd 47be 4437 1abe 3255 61be
00000230: 42d8 2cbe a8cc 0cbe 93fd 5ebe eb50 2dbe
00000240: e060 6d1b caba a29b a237 9c1b 8ecf be9b
00000250: 07d6 ac1b f150 841b 46f9 241c ef8b 361c
00000260: c020 0c9c f844 653d 4144 e03d 99f8 1e3d
00000270: bbad 653d a03f d53d 9a31 063d 675b 173c
00000280: 72e7 5d3d 1fde 86bb d191 ecbd beae 34be
00000290: 7dd4 23be 09db d0bd 1e3e 0bbe 0e79 23be
000002a0: 52bd 1dbe d53f 33be da45 dfbd 53bb 11be
000002b0: 6433 10be 3d2c 19be 8ea7 b2bd f765 d3bd
000002c0: 398e d3bd 1f69 debd 6314 c1bd 9dfa 9dbd
000002d0: d2d3 bfbc 21d8 a7bd cdf0 fdbd 1205 8ebc
000002e0: ea7f 86bd 3faf 36be 5eb0 e9bc bbed 58bd
000002f0: 4b19 80bd a455 ebbd da5b 03be ba74 0bbe
00000300: d246 b8bd 8827 bdbd 0d94 bebd eae5 53bb
00000310: ad2f a7bd d066 95bd e439 84bd de44 bfbd
00000320: 1015 f0bd 2e9f d5bd f260 0cbe 2905 79bd
00000330: 5191 cd3c 552d d4bc 4e3c 4ebc c5a4 e5bd
00000340: daa1 27be bf9b 2dbe da94 13be 6df7 e7bd
00000350: 3828 19be 9fae 86bd 2bef 12be b2c6 f9bd
00000360: 18ec b53d 24c3 953c a24c e23d c3d4 d23d
00000370: 5100 a13d efc5 0f3d 1782 a73d 3b22 8c3d
00000380: 9fee 8a3d c80d 453d 2d05 ed3d e718 a43d
00000390: 5170 e93d 635a ee3d 9509 c33c 5abc 803d
000003a0: 5d64 8b3d 32ca 893d ca3d 3d3b d571 b63a
000003b0: 96ee 1239 dc5e 893b 7490 0c3b 6fb1 8239
000003c0: 1572 913b 49e6 1b3b 5af4 9439 4522 e93c
000003d0: d95f 413d 0ff2 273c 8b3b 293d 0004 ef3d
000003e0: 56fb aa3d 16db 643d ec13 c33c f96e ab3c
000003f0: 90ce 3bbd f15f 6bbd 6451 8fbc 8369 9cbb
-0.25223726 -0.17018296 -0.14594962 -0.27975714 -0.19580151 -0.14879824 -0.30942786 -0.24791783
-0.18823458 -0.039372087 -0.095793836 -0.06804136 -0.046722215 -0.0674501 -0.0808033 -0.04978376
-0.0841926 -0.092747666 0.028640935 0.056014176 0.09927214 0.042783156 0.08704959 0.013848188
0.13155928 0.056324095 0.024564052 0.07877427 0.05491486 0.007062413 0.07865126 -0.013522758
0.08802611 0.055410556 0.06738818 0.10498957 0.060269848 0.1219948 0.07311352 0.108455285
0.11175327 0.052327015 0.046251975 0.07501385 0.1143035 0.11130283 0.09399946 0.069369465
0.09561038 0.009189336 0.09165246 0.048548114 0.07768473 0.0009825774 0.011543046 0.06326044
0.08530495 0.0436436 0.05895142 -0.024729166 -0.01606208 0.036605448 0.03811845 0.05037028
0.09116609 0.063552976 -0.006913586 0.037451755 0.09430588 0.04765437 0.09631481 0.07817259
-0.015157283 -0.08337851 -0.15432118 -0.10558925 -0.028816175 -0.16093805 -0.047161646 -0.1125203
-0.15836562 0.036720127 0.031573378 -0.06470942 0.0024276366 -0.022237264 -0.031294692 0.019154891
-0.03010341 -0.003983913 -0.13836204 -0.10627218 -0.13119073 -0.15504229 -0.12015411 -0.11907443
-0.10951048 -0.06448057 -0.050728865 -0.1443453 -0.1646963 -0.16481258 -0.19509055 -0.11605659
-0.15333109 -0.17470217 -0.1344902 -0.13928075 -0.09153804 -0.10169314 -0.15857288 -0.10837841
-0.18695046 -0.14914279 -0.064878516 -0.17226413 -0.16551073 -0.26162273 -0.25546286 -0.20382434
-0.28553793 -0.27583477 -0.20787856 -0.31734282 -0.30639866 -0.2579433 -0.1680837 -0.20037931
-0.26677674 -0.20836952 -0.2224076 -0.20857267 -0.23969553 -0.26891127 -0.2763559 -0.1909156
-0.2381803 -0.19512062 -0.15060145 -0.22005156 -0.16879371 -0.13749945 -0.21776418 -0.16925399
1.9635483e-22 -2.6921361e-22 2.5843987e-22 -3.1566992e-22 2.8593325e-22 2.1889875e-22 5.4585227e-22 6.039961e-22
-4.6364443e-22 0.055973977 0.109505184 0.0388113 0.056073885 0.10412526 0.032762147 0.009238101
0.0541758 -0.0041158344 -0.1155125 -0.17644784 -0.15999027 -0.10198028 -0.13597915 -0.15964147
-0.15404251 -0.17504819 -0.10901995 -0.14231615 -0.14082104 -0.14958282 -0.08723365 -0.103221826
-0.10329861 -0.10859894 -0.094277166 -0.07713816 -0.023416433 -0.0819552 -0.12399445 -0.017336402
-0.065673664 -0.17840289 -0.028526481 -0.052961092 -0.06254824 -0.11490944 -0.12828007 -0.13618746
-0.08997883 -0.092360556 -0.09305582 -0.0032333084 -0.0816339 -0.072950006 -0.06456354 -0.09339307
-0.11722767 -0.10430752 -0.13708857 -0.060795937 0.025093706 -0.025900522 -0.01258762 -0.11213068
-0.16370335 -0.16953944 -0.14412251 -0.113264896 -0.14956748 -0.06576275 -0.14349048 -0.12196101
0.08882922 0.018281527 0.11049773 0.10294487 0.078613885 0.035100874 0.081791095 0.068424664
0.067837946 0.048108846 0.11573253 0.08012562 0.11398376 0.11638334 0.02380828 0.06285925
0.06806252 0.06728019 0.002887594 0.0013919423 0.00014012525 0.0041922163 0.0021448405 0.0002492773
0.0044386485 0.0023788384 0.00028410816 0.028458724 0.047210548 0.010250582 0.04131655 0.11670685
0.0834872 0.055873 0.02381321 0.02092694 -0.04585129 -0.057464544 -0.017494865 -0.00477332

bias f4 [32]
00000000: 2a8b 063d 8a2a e63c dfa8 43bb 0478 95bc
00000010: b465 733d 21a0 1e3b 2f9b 4c3d 9ab0 7a3c
00000020: 413a f33c 883d d7ba 8ac8 763c b8c0 9fbc
00000030: 4870 2c3c eb94 c83d 8388 afbc c1bb d83d
00000040: 3a70 ce3d 4e3e fd3c 4880 783d 6d1a 063d
00000050: f797 f9bc eaa0 8cbc bbe7 9e3c a4c7 b53b
00000060: 1841 5a3d 9bbf 30bc 9922 46bc 04ff 3f3c
00000070: ebe1 f23d 5726 82bc 25fe 8abc 3d7b 843c
0.03284756 0.028096456 -0.0029855294 -0.018245704 0.059423164 0.002420433 0.049952682 0.015300894
0.029690864 -0.0016421536 0.015062461 -0.019501075 0.010524817 0.09794029 -0.021427399 0.10582686
0.10079999 0.030913498 0.060669214 0.032740045 -0.03046797 -0.017166574 0.019397607 0.0055474807
0.053284734 -0.01078787 -0.01209321 0.011718515 0.11859497 -0.015887422 -0.016966889 0.016172046

weight f4 [32, 32, 3, 3]
00000000: 2497 63bc b9d8 72bc c1de 6dbc d2cc 65bc
00000010: 2887 7bbc 38a8 79bc f632 60bc 4611 7abc
00000020: 94d9 78bc 07cf 4cbc 3669 62bc 1ece 5bbc
00000030: ed8f 59bc e64d 6bbc 7ca2 69bc f5c3 58bc
00000040: 7d5d 69bc 3af9 67bc b9f7 0716 e4d9 7d97
00000050: b81f 3317 28d0 8197 4def 9b95 f8f3 c817
00000060: 5e9a c115 e403 ec97 fa4c b115 2164 0ebb
00000070: 0f3c c5ba 4d2d 42ba 13b4 57bb 7a6f 28bb
00000080: acfc b4ba b971 4fbb 0d97 22bb 7f24 a5ba
00000090: fc05 7cb8 c05c 86b8 cc89 3ab9 35ee 9db9
000000a0: 8d82 80b9 f57a e8b9 a0ba 6cb9 9385 1fb9
000000b0: 919f c4b9 eb2a 78bc 6e29 82bc 223b 88bc
000000c0: fece 8abc 1061 8fbc b2e7 8ebc 731c 86bc
000000d0: 4ac8 8ebc 6f61 8ebc 10e7 6fbc 3baf 7bbc
000000e0: 40ea 78bc 47bb 77bc 2bd4 82bc 0ea8 81bc
000000f0: 6840 6fbc b8c9 80bc 258a 80bc 2106 38bc
00000100: 3474 53bc 0989 4ebc bd18 5ebc 6deb 69bc
00000110: d8d8 5fbc 3a79 51bc bca7 5ebc 03b3 5cbc
00000120: 88f1 bb29 d7c4 962a 7556 e92c 87c5 4db2
00000130: d2aa 25b1 d076 95b4 766d 2fb3 b0b1 18b3
00000140: 71f1 f2b5 d4d7 74bb 6927 7dbb 9952 5dbb
00000150: 2012 a7bb ce07 adbb b977 9cbb 38f9 d1bb
00000160: 87e5 dbbb 8c39 cabb b735 83bc cc92 8abc
00000170: f95d 87bc fc00 80bc 445f 8abc 1824 8abc
00000180: 238c 7ebc 6901 89bc 4d33 8abc 1b0d 59bb
00000190: 1536 43bb 796b 0bbb 996e 98bb 1ba4 8bbb
000001a0: 3724 57bb c6a0 aabb 5acb a1bb 41d1 82bb
000001b0: 2e58 df15 fd9d 8c17 96bc c116 18f7 e316
000001c0: 38eb fc96 e3ef 5f15 c418 1397 6485 0316
000001d0: 66d2 8516 57ce 76bc 053f 8abc 6d9c 89bc
000001e0: a6fd 89bc 6e0a 8abc 97f8 8abc 18ac 84bc
000001f0: 2291 8abc 8359 8abc 50ef fbb5 d006 c7b7
00000200: cbfe 7eb9 7d30 39b8 dc01 07b9 5223 27ba
00000210: 8a15 3cb8 3dc1 f5b8 6b6d 25ba 57c6 58bc
00000220: 8934 89bc 885f 78bc bd51 6fbc 03cf 73bc
00000230: 628b 7abc c351 6cbc 8f1f 7cbc bb78 7bbc
00000240: b33b 5ebc b6c2 71bc 249a 6fbc c3b2 62bc
00000250: 6695 7abc 79ba 7bbc 9e40 5abc 1746 72bc
00000260: 33c2 79bc 3c95 5eb4 ad10 c2b3 7c1a 9eb5
00000270: 9c42 47b7 10e4 17b6 30df a2b7 a5b8 acb7
00000280: cf4e a8b6 87f9 00b8 01b8 6fbc 7f97 77bc
00000290: 23c1 70bc 4efa 6fbc cb85 7bbc 42b1 7bbc
000002a0: 5d24 6fbc f0bf 7cbc e763 7bbc fd75 4c2d
000002b0: 71d2 fda9 6c57 7e29 5a0d a0b4 6e5f 902d
000002c0: 472b 1faf 45c2 52b5 1503 4aaf 2688 fcb1
000002d0: 5f41 0d98 4eca 7018 632a 0497 6769 e817
000002e0: 90cc 3c95 021b a216 cc18 3316 9d9a a615
000002f0: 36a1 6f15 686f 8bbc 1e70 92bc 9b01 8ebc
00000300: 530f 85bc d198 91bc a59e 90bc 97a3 81bc
00000310: 8342 90bc 684e 90bc a562 56bc 88a2 6bbc
00000320: e1e2 70bc 9efe 7fbc 2dcc 83bc f415 78bc
00000330: 65ef 6dbc 8c41 7dbc 4b30 7dbc ed5f f0b5
00000340: 5286 dab9 8f4e dbba 01d8 27b8 432e 84ba
00000350: c922 37bb 340a 87b8 b133 9dba 7f96 41bb
00000360: ada5 2fbc 7bba 3fbc 9188 39bc 14da 3ebc
00000370: 90fd 4ebc f74d 4abc b54a 3cbc f69e 4cbc
00000380: 9911 48bc 14fc 7598 bda0 1217 1ff3 c114
00000390: 7baf b117 ba73 9718 36e0 dd14 3ff7 3396
000003a0: e2bd 8016 b14e a397 c2d9 ffb7 a855 0cb9
000003b0: e519 09ba a4b1 19b9 eacd d3b9 3f27 7aba
000003c0: 5303 2db8 e38a 3ab9 0a05 38ba 945e 72bc
000003d0: a36e 66bc ae8f 65bc b796 76bc 44be 74bc
000003e0: 241e 72bc 5f5b 63bc a41b 76bc c159 71bc
000003f0: 2a5e 57bc 73da 66bc 59af 60bc a1df 62bc
-0.013891015 -0.0148221785 -0.014518441 -0.014025884 -0.015352048 -0.01523786 -0.013684025 -0.015262907
-0.015188593 -0.012500531 -0.01381903 -0.013415841 -0.0132789435 -0.014361834 -0.014259931 -0.013230314
-0.014243481 -0.014158541 1.0983381e-25 -8.2023726e-25 5.7878054e-25 -8.388976e-25 -6.298155e-26 1.2986283e-24
7.819563e-26 -1.5252125e-24 7.161118e-26 -0.0021727162 -0.0015047806 -0.0007407263 -0.003291373 -0.002570121
-0.0013808212 -0.0031653477 -0.0024809272 -0.0012599378 -6.0087055e-05 -6.406894e-05 -0.00017789676 -0.00030122852
-0.0002451133 -0.00044342098 -0.00022576237 -0.00015213182 -0.0003750292 -0.015146951 -0.015888896 -0.01662976
-0.016944405 -0.017502338 -0.017444465 -0.016370988 -0.01742949 -0.017380444 -0.014642492 -0.015361602
-0.015192568 -0.015120334 -0.01597031 -0.015827205 -0.014602758 -0.015721187 -0.015690872 -0.01123193
-0.012906123 -0.012605914 -0.013555703 -0.014277321 -0.013662539 -0.01278525 -0.013589796 -0.013470414
8.346367e-14 2.6781938e-13 6.631857e-12 -1.1977483e-08 -2.410776e-09 -2.783986e-07 -4.0844917e-08 -3.5551864e-08
-1.8100674e-06 -0.003736009 -0.0038628227 -0.0033771156 -0.005098596 -0.0052804714 -0.0047750142 -0.006407883
-0.0067107114 -0.006171411 -0.016016824 -0.016915701 -0.016524302 -0.01562547 -0.01689113 -0.016862914
-0.015536341 -0.016724305 -0.016870165 -0.0033119384 -0.0029786874 -0.0021273775 -0.004651856 -0.0042615063
-0.0032827982 -0.005207154 -0.0049375715 -0.00399223 9.0208106e-26 9.08717e-25 3.1299846e-25 3.6829766e-25
-4.086124e-25 4.522373e-26 -4.752952e-25 1.0624186e-25 2.162009e-25 -0.015063844 -0.016875753 -0.016798222
-0.016844582 -0.016850676 -0.01696424 -0.016195342 -0.016914908 -0.016888386 -1.8770606e-06 -2.3725821e-05
-0.00024318245 -4.4152595e-05 -0.00012875296 -0.00063758076 -4.4842753e-05 -0.00011718504 -0.0006310555 -0.013230882
-0.016748684 -0.015159495 -0.01460689 -0.014880898 -0.0152920205 -0.01442379 -0.0153883835 -0.015348609
-0.013564038 -0.014755895 -0.014624152 -0.013836565 -0.015294408 -0.015364283 -0.01332107 -0.0147872185
-0.015244055 -2.0729652e-07 -9.036862e-08 -1.1779625e-06 -1.1876833e-05 -2.2633503e-06 -1.9415835e-05 -2.058998e-05
-5.0159647e-06 -3.074997e-05 -0.014631272 -0.015111803 -0.014694485 -0.01464708 -0.015351723 -0.015362086
-0.014596072 -0.015426621 -0.015343643 1.1622256e-11 -1.1271963e-13 5.6475156e-14 -2.9812037e-07 1.6413284e-11
-1.4476341e-10 -7.8513796e-07 -1.8372888e-10 -7.3496436e-09 -1.8256827e-24 3.112141e-24 -4.2705e-25 1.5019256e-24
-3.812767e-26 2.6189556e-25 1.4467329e-25 6.72908e-26 4.839284e-26 -0.017020896 -0.017875727 -0.01733475
-0.016242659 -0.017773064 -0.017653773 -0.015825076 -0.01760984 -0.017615512 -0.013085042 -0.014382012
-0.01470253 -0.01562467 -0.01608857 -0.015141953 -0.014522408 -0.015457522 -0.0154534085 -1.7909312e-06
-0.00041680277 -0.0016731786 -4.0017072e-05 -0.0010084588 -0.0027944318 -6.439202e-05 -0.0011993555 -0.0029539166
-0.0107206525 -0.011702175 -0.011324064 -0.011648674 -0.012633696 -0.01234769 -0.011492421 -0.012489071
-0.012211227 -3.1792775e-24 4.7378025e-25 1.9583914e-26 1.1482654e-24 3.914944e-24 2.2403733e-26 -1.4537522e-25
2.0799348e-25 -1.0553493e-24 -3.049977e-05 -0.0001338335 -0.0005229994 -0.00014657393 -0.00040398474 -0.0009542591
-4.124951e-05 -0.00017790082 -0.0007019794 -0.014793057 -0.014064464 -0.014011307 -0.015050582 -0.014937941
-0.014777694 -0.013876765 -0.0150212385 -0.014730872 -0.013145009 -0.014090168 -0.013713681 -0.013847263

bias f4 [32]
00000000: f639 46bc cf76 c63d 7cd4 f0bb 22d9 a43d
00000010: e3aa 6cbd fa62 78bd 84fc de3c 932d 1dbd
00000020: b4f3 28bd 847c b23d d031 463d 937d 2ebd
00000030: 001b fb3c 43e9 e03c fac0 5b3d 83ae 7f3d
00000040: 63e1 f6bc 7327 e0bb 1154 103d 6cc1 b6bc
00000050: c451 4f3d a449 91ba ac8f 96bd 7d07 8dbd
00000060: abd8 86bd 1e98 0b3d 349a 603d a499 b9bc
00000070: fdf8 f03d 552b 213d 1dfc aebc 97ed ca3c
-0.01209878 0.0969063 -0.007349549 0.08049227 -0.057780158 -0.060641266 0.027220018 -0.03837354
-0.04124804 0.08715156 0.04838735 -0.042600226 0.030652523 0.027454978 0.053650834 0.062422287
-0.03013677 -0.00684064 0.035236422 -0.022309028 0.050615087 -0.0011084569 -0.07351622 -0.06886194
-0.06584295 0.034080617 0.05483456 -0.02265627 0.11766241 0.039347965 -0.021360451 0.024771495

weight f4 [128, 32]
00000000: 1c16 86bc 7c0a 12be e345 49bd adbd f13d
00000010: e63a d8ba 3161 933b 8d00 4ebd 27c7 fcbd
00000020: 5b62 e5bd f2a8 9cbd 3ea6 143e 1fdb 38be
00000030: d70e 2cbe 0a1e ea3d 050d 673d 5801 7a3d
00000040: ac77 fbbb 4e39 f23d b9e1 de3c fd04 8abe
00000050: 2d93 9abd c0c6 62be 5bd2 103e 4b7c 12bc
00000060: c8e7 77bd 72b5 82bd 608e 673c 3a2e 3f3e
00000070: d4d0 e43d 2204 9d3c 4183 843e 5745 8e3c
00000080: 9c24 3e3c 2d5f 7d3d 634c f6bd c289 60bd
00000090: f7dc f6bd 47c3 923c 3056 a4bd 7286 5fbd
000000a0: 8227 773d 7a08 013d 719e 403e 55f6 d33d
000000b0: defc d33d ea80 edbd 6ef7 cabd 1a86 83bd
000000c0: c424 d03b e8b7 58bd 3bef 683c f618 20be
000000d0: fd47 403e ccf4 ea3d 1a30 023e 9e2b c13d
000000e0: 3bf1 c03c 4677 593d 0b86 36bd 8997 12be
000000f0: 0777 c6bd c1d3 ca3d 9981 c93d 3c07 bfbb
00000100: f7e0 3d3c 7d47 c13c 6057 f23a 9e2a 833d
00000110: 2455 9cbd e6d2 b9b1 4a18 52bd a2cc 21be
00000120: 0da5 3f3d a7ca 453c 1fc4 5d3d 7045 3f3d
00000130: 50cf d13c d3ca 633e 56a9 a43d 552b 593c
00000140: 0687 913c fbd9 833e a904 50bd 229f b63d
00000150: e0bb 2cbd 5a00 d73c 0522 64bc 69ff e6bd
00000160: dc3a f2bb 52ee 213e 86a5 bb3d 7103 86bd
00000170: 3b07 d03d 6299 3b3c 7623 2bbe 5c74 923c
00000180: 1296 52bc 32e3 bfbd 0e61 053e 0917 903d
00000190: 03c2 1e3e 76e0 672d e68b 1ebe 80ec 2c3e
000001a0: 8bc1 57bd 4bb3 863c d22a 683b 11ad a03d
000001b0: 90fd ab3d 2ede eb3d 7d35 b53b 3c79 993b
000001c0: 64b2 f9bc e7e2 1cbe 00b4 8bbd 0a38 fb3d
000001d0: 78de 0dbd eb9e cebd 66fc 673c f0a3 903e
000001e0: ae09 9396 0024 1f3d d9e6 9b3c 2dac 103e
000001f0: 85eb 14be efa4 433b 3a81 203e e3f2 98bc
00000200: 3f42 6abc 54b0 8a3d 7b3d 283d 9e39 cabd
00000210: aac4 14be 3856 bb3a 14e4 353e 2d58 803e
00000220: 497d 2c3d 572f ec3d a0b0 39be e7c2 123e
00000230: e071 413d c31d ffbd 0beb 3dbe 77b4 cc3d
00000240: 3f14 ee3b 0873 0d3e 4803 8b3e ee69 f5bd
00000250: c513 b23d 70f0 463d 4253 2a3e 3513 16be
00000260: 2aae 033e 09d1 183e 7252 fabd 5ab7 0b3e
00000270: 639c c5bd 917e fc3c a8d3 343e 2df5 b9bc
00000280: 96cc 31ba 2215 dc3d 0cb9 1a3e 2234 10bd
00000290: 3c23 373d 8966 96b8 d726 b1bd 4bde 10bc
000002a0: 7c59 e93d 974f 163e 700e 22bc 9b41 7dbb
000002b0: 9563 2c3d 7724 6e3e 9935 41bc 9ab0 46bd
000002c0: 8b0a 1dbc b31b 233e 1a08 e1bb 2ebe 093e
000002d0: 2994 e93d 6bfb 1d3e 01f0 c8bd 8527 13be
000002e0: cf5c b8bd 7b6c 04be e15c f53d e20e 0abe
000002f0: 55d5 1dbd 98a4 c3bd 8545 b7bd 0a99 b63c
00000300: ffa1 32bb 22d5 99bd 8bfc 17bc 3400 063e
00000310: d809 b33d 038a 08ba 0b67 d33c 9a53 f63d
00000320: fe65 093d b742 36be ebdf 9ebd 97ee 19be
00000330: 0cde eebc 1110 2c3e e2b5 83bc db6c 50be
00000340: 7503 643a ef66 813e 9c33 6f3d fcf3 813d
00000350: 0be5 b53d f978 2a3d ead9 cebb a234 2fbe
00000360: e2ca 453d d4d6 e03d 80e5 4cbb 3336 2d3e
00000370: fef4 b9bd f709 0e3d fd82 693e 2603 ad3c
00000380: e08b 1398 3fc2 a33c 6e6a 3cbc 6ac5 c73c
00000390: 9b61 54bc 402a d096 bc65 75bc bb1c 21bc
000003a0: 1891 9abc 6c36 34bc 773f 8abc d557 16bc
000003b0: 9b74 17bc ab8e 28bd 75fb 39bc be40 5ebc
000003c0: 1777 0625 2a72 613c 66fb f9bb 43cd 60bc
000003d0: d15e 9bbc 77bb 36bc 5f5a 1ba1 fc04 9cbc
000003e0: b441 dc1a eba8 2abc 172e 1ebd a826 1dbc
000003f0: fb0b 2f3c 2a8e 9bbc c018 01bd 3ab5 db19
-0.016367964 -0.14261812 -0.049138915 0.11803756 -0.0016497045 0.00449767 -0.050293494 -0.12342673
-0.112004004 -0.07649411 0.14516541 -0.18052338 -0.16802536 0.11431511 0.0564089 0.061036438
-0.007674178 0.11827336 0.027207242 -0.2695693 -0.07547603 -0.2214613 0.14142744 -0.008940767
-0.06052378 -0.06382264 0.014133066 0.18669978 0.11172643 0.01916701 0.2588139 0.017367048
0.011605408 0.061858345 -0.12026288 -0.054818876 -0.120538644 0.017915381 -0.080242515 -0.054571576
0.060340412 0.031502225 0.1881044 0.103497185 0.10350965 -0.11596854 -0.09910475 -0.06422062
0.006352039 -0.05290976 0.014217193 -0.15634522 0.18777461 0.114724725 0.12713662 0.094321474
0.023552528 0.053092264 -0.044561427 -0.14315619 -0.096906714 0.0990367 0.09839172 -0.00582972
0.01158928 0.023593659 0.0018489175 0.06404613 -0.07633427 -5.408185e-09 -0.051292695 -0.15800717
0.046788264 0.012072242 0.054142114 0.04669708 0.02561155 0.2224534 0.08040111 0.01325496
0.01776458 0.25752243 -0.050785694 0.08917071 -0.04217136 0.026245285 -0.0139241265 -0.11279184
-0.0073922705 0.15813568 0.091624305 -0.06543625 0.10157629 0.0114501435 -0.16712746 0.01787775
-0.012853162 -0.09369506 0.13025305 0.070356436 0.15503697 1.318067e-11 -0.15483055 0.16887093
-0.05267481 0.016442915 0.0035425914 0.0784551 0.083979726 0.11516987 0.005530058 0.0046836417
-0.030480571 -0.15320931 -0.06821442 0.12266548 -0.03463599 -0.10088905 0.014159298 0.28250074
-2.375524e-25 0.03885269 0.019030975 0.1412818 -0.14542969 0.0029852947 0.15674296 -0.018670505
-0.014298021 0.06771913 0.041074257 -0.09874271 -0.14528146 0.0014292663 0.17762786 0.25067273
0.04211167 0.11532467 -0.18133783 0.14332162 0.04722774 -0.124568485 -0.18546693 0.099953584
0.007265597 0.13813412 0.2715094 -0.11983095 0.08695177 0.048569143 0.16633323 -0.14655764
0.12859407 0.1492349 -0.122227564 0.13644162 -0.09648969 0.03082207 0.17658865 -0.022699917
-0.00067825 0.10746218 0.15109652 -0.035205968 0.044711336 -7.171656e-05 -0.08649986 -0.008842061
0.11394021 0.14678799 -0.0098911375 -0.003864384 0.042087156 0.23256098 -0.011792564 -0.048508264
-0.009585033 0.15928535 -0.006867421 0.13451454 0.114052124 0.1542794 -0.09811402 -0.14370544
-0.09002077 -0.12932007 0.11980606 -0.1348224 -0.038533527 -0.09552878 -0.08948807 0.022289772
-0.0027257202 -0.07511355 -0.0092765195 0.13086015 0.08742112 -0.00052085536 0.02580597 0.120276645
0.033544533 -0.17798887 -0.07757553 -0.15032421 -0.029158615 0.16803004 -0.01607794 -0.20354025
0.0008698025 0.25273845 0.058398828 0.063453645 0.08881577 0.041619275 -0.0063125985 -0.17109922
0.048289187 0.10978475 -0.0031264722 0.16915207 -0.09079932 0.034677472 0.22803874 0.021119665
-1.9069924e-24 0.019990085 -0.011499984 0.024386127 -0.012962724 -3.3630876e-25 -0.014977869 -0.00983351
-0.018868014 -0.010999303 -0.016875966 -0.009176214 -0.0092441095 -0.041151684 -0.011351456 -0.01356524
1.1662996e-16 0.013760129 -0.007628846 -0.013720813 -0.01896611 -0.011153094 -5.263565e-19 -0.019045345
9.1096017e-23 -0.01041625 -0.038618173 -0.009591736 0.010684009 -0.018988688 -0.031517744 2.2717266e-23

bias f4 [128]
00000000: 0a82 083d 93c9 be3d bad3 553d 0474 36be
00000010: fbb6 433c 1b6d 713d 4921 4d3b 7d64 0cbc
00000020: 4c73 433c 0ffb 60be a95f 213c 435c 3a3d
00000030: 5cec c1bc 5fa2 83b4 cfe6 243c 08cf 182b
00000040: d4f9 47b9 f400 2fa9 dd43 813e a94b 303e
00000050: 4641 0b3e 5c45 9a3c e112 053d 2ce1 5b3d
00000060: dc52 d63c 448f ea3d 5001 633d 5d31 c93d
00000070: ae61 8e3b 0194 d83d e29e 0a3e 8894 f13d
00000080: 8760 5e3e da07 bf2b 446c 21bc 1e10 ea3a
00000090: a5a5 a4bd 0846 933d 443d 61bd 57d7 18a7
000000a0: c269 053d cdac 963d 8ead b7ba 9383 893d
000000b0: e161 5f3e d236 923d 42f2 383e 3976 1dbc
000000c0: 1021 873e 8865 07be 76fa 6fbd ca19 7c3d
000000d0: ca29 473e d2f2 1b3d 653b 2a3e 87bb 14bc
000000e0: 40b2 8dbd bed3 303e 60c1 01be fb23 b3bd
000000f0: 08f3 353e 5158 e93b e572 d33d d23e 113e
00000100: e8d9 213e 0de6 49bd b825 853d 80b4 5e3d
00000110: 539c 8fa8 085f b93b e58d 203e 0425 d63d
00000120: 282d 3d3e 4076 ca3d cad7 95b9 eb4f b73d
00000130: 3274 08be 87c1 2bbe 3b05 ef3d 7f9f d8bc
00000140: 971e edbd 44b0 3b3e fe44 163e 76ae acbd
00000150: e2b8 0d3d ca5d 173e 77db 86bd 8e69 dc3c
00000160: 2a0d 373d 145b 13b5 f48a e93d 9e93 173e
00000170: 2f6a e23d 527b 3e3e bc9a 0c3e 05b4 2623
00000180: 21e7 90bd d1c6 02be 0283 dabc c9c9 e9bc
00000190: e131 983d 005a 37bd 6f79 1e3e e5b0 c33d
000001a0: 2d38 22be adfb 80bd b091 c5bd d96e ebbd
000001b0: 9499 d53c e167 e33d e964 283e 34a8 93af
000001c0: 1c6b e3bc 70d5 f63d e884 e1bd 17ab b73c
000001d0: cb7d 003e a2cb 863d 65eb 5a3e 2ffc 13bd
000001e0: 8750 9bbb f950 cdbd 9675 273e fd91 c23d
000001f0: 9dc9 193e dd22 b31b 324b 5fbd f4ee e8bc
0.03332714 0.09315791 0.05220387 -0.17817694 0.011945481 0.05894194 0.0031300357 -0.00856888
0.011929344 -0.21970771 0.009849467 0.045498144 -0.023672275 -2.4518792e-07 0.010064795 5.428856e-13
-0.00019071187 -3.8858633e-14 0.25247088 0.17216362 0.13599119 0.018831901 0.032488707 0.053681538
0.026162557 0.11453107 0.055421174 0.098238684 0.0043451404 0.105751045 0.13537171 0.11795908
0.2171651 1.3573545e-12 -0.009852473 0.0017857586 -0.08039407 0.07191092 -0.054990068 -2.1210973e-15
0.03257156 0.07357178 -0.0014013515 0.06714549 0.21814682 0.071393624 0.18061164 -0.009610706
0.26392412 -0.13222325 -0.058588468 0.061548032 0.19449535 0.03807337 0.1662422 -0.009077913
-0.06918764 0.17268273 -0.12671423 -0.08747097 0.1776849 0.007121124 0.10324649 0.1418412
0.15805781 -0.04929166 0.06501335 0.054371357 -1.5943984e-14 0.0056570806 0.15679128 0.10456279
0.18474257 0.09885836 -0.0002858027 0.0895079 -0.13325575 -0.16773044 0.116709195 -0.026443241
-0.115781 0.18328959 0.14674756 -0.08431713 0.034600146 0.14781871 -0.06584828 0.026905801
0.04469029 -5.4894304e-07 0.11403456 0.14802405 0.11055409 0.1860173 0.13730901 9.036999e-18
-0.07075334 -0.12771155 -0.026673798 -0.028538601 0.07431389 -0.044763565 0.1547601 0.09555224
-0.15841742 -0.06298003 -0.09646928 -0.11495752 0.026074208 0.11103798 0.16444744 -2.685866e-10
-0.027761035 0.12052429 -0.11011678 0.02242045 0.12547986 0.065818086 0.21378858 -0.036129173
-0.004739824 -0.1002521 0.16353449 0.09500501 0.15018316 2.9635596e-22 -0.05451507 -0.028434254

weight f4 [64, 128]
00000000: cf12 9b96 35d4 9497 01e8 7b98 3696 ccac
00000010: 31c0 82b9 8661 4db7 08b6 35b6 247a f914
00000020: 98e7 02b5 0308 c89e 82ab 5824 29cd 1b3a
00000030: 0ed9 0d96 b810 0818 92e8 fbb1 6aaf cf96
00000040: b57e 5d1b bcbe b016 b6a6 cdb0 386c ca9a
00000050: ad82 f896 5d23 dc20 ecad c795 fb3f 16b8
00000060: c839 c01a 6e7e 3e18 7c87 5797 aa7c c63a
00000070: 9c24 7717 57d0 0fb9 d2d8 3097 6041 0216
00000080: aeb1 2a19 821b 1f16 ca5b 52a8 ddfb 4a39
00000090: f357 e539 5022 11ba f643 8d97 d66f c599
000000a0: f609 bcb8 b9cb a837 9463 4917 fa43 7bb8
000000b0: d2c5 9699 5123 98b1 d8a5 9899 7609 99b9
000000c0: de29 b517 3e93 5b99 ba49 6c1a ec1b 6a39
000000d0: b97d 279d d280 b398 2e99 deb4 bd57 86a8
000000e0: a832 e119 c5d9 3717 32fe 9099 3aa8 82b9
000000f0: c8e1 53b2 db52 1d97 bde0 5596 7bbf bdb9
00000100: 7a65 87b9 9996 bb16 2e55 3699 d003 1fb6
00000110: dda1 1a16 6ff4 4298 163b 4495 9265 c8b7
00000120: d687 c79c 5927 cfb8 bfd9 2997 4225 7996
00000130: dd33 1617 47a2 3321 e019 c717 e13c 2417
00000140: 3cf4 c518 0294 1cb5 cedb a527 8742 8a36
00000150: cb46 62ba a43e bdba e1cc 8316 8c87 a094
00000160: 110f 3817 9436 c115 760d f016 4e0e 63b5
00000170: 1706 a339 878e a819 68ea 73b9 b3b6 8d16
00000180: d0f1 0417 95ca 3799 5e52 a719 4f37 2ab4
00000190: c1cd 813a 9018 4194 c8ca 139f 007a 55bb
000001a0: 95e8 5319 db18 51b9 d6fc 4299 0c31 68b7
000001b0: a0f3 782f 3acd 759a 52f3 3fba 0ae9 3699
000001c0: e497 03b9 f0cb 1c39 8e09 8718 b60a 8aba
000001d0: 2673 f43a 0977 3916 fcfc 5398 11be 3cb7
000001e0: e2fb 89b7 95ba 5098 36e0 58b9 dc1f fb1f
000001f0: 9e88 1596 7433 141a 322d 2396 2289 da96
00000200: 297b 84bc 71c6 21bd 6e4c 2818 7b06 80b5
00000210: 8812 233d e22a 013d 7b36 c3bc 0c7a ac96
00000220: 4f9c 3d3c 9062 a9b8 5961 2fbc 520c a5bd
00000230: 6058 e818 877a d41a 60ee a2bc 5262 da96
00000240: d9e7 bd96 1e5d b59a c69a b8bd 8344 9dbd
00000250: 2809 25bd 65fe 32bd d2f6 9c15 78d5 c4bd
00000260: 4440 afbc 768d f43c 71d3 3217 adfd 0cbd
00000270: 11ae 1415 808d 03bd a7d2 a3bd 9877 f33b
00000280: 1860 0aba 93b9 eb18 c16c 5d3b 7e22 a7bd
00000290: 3bf3 37bd 3765 093d 6ddf 459b 7e4a 9396
000002a0: 73e3 a8bc d19a 1a3d 4801 4317 66cf 5c3d
000002b0: b381 5fbd a684 81bd 92bd cbbc 1ffa 393d
000002c0: 1612 eabb 56ed be96 a809 d7a3 0cdc 573d
000002d0: 76a7 b7bd d018 21bd 615e 623d 4ad4 053b
000002e0: ee84 bf14 4cca dabc 5864 9023 f0ab 813c
000002f0: 51f4 4d3d be2c 1d16 c4dd 543d adc9 433c
00000300: 516e 8dbc c67e 95bc 8505 883c 0a11 b6bd
00000310: 40c2 5596 4615 0e3d 3c6d 8bbd f9fd 0abc
00000320: aac0 61bd 053d c0bd 0eae 4416 0221 c7bb
00000330: 9ec6 7819 e9ca eea5 0939 a5bc 8a64 de16
00000340: d525 049a 95cd 763b f898 a03c d86e 89bc
00000350: 4eff d93c 25d6 48bb 7650 f895 92b3 a0bc
00000360: 46a6 06bd 87c7 3798 f2c1 93bc 561f b93c
00000370: d82f 5d3d a6d5 a6bb 4344 49bd baca e418
00000380: 8ea4 cb20 630a f418 2569 bd96 6246 663c
00000390: d7c7 6e3d 806b e416 30c5 85bd b0a2 b7bd
000003a0: f0d0 2797 12f9 97bc 765d 7697 6d48 2bbd
000003b0: 1eea a33b 9c3e 4f97 8c9c 5c3d c40d 3e99
000003c0: 3bcc ad3c 4da6 353c 927c c02e 4027 943c
000003d0: 7e1d 4c3d 1e07 07bd 000f b3bc fc71 37bd
000003e0: 6817 c6bc 28d7 a019 1538 19bd 3833 47bd
000003f0: 54a7 103d fe0e b616 f453 5915 9879 4119
-2.505347e-25 -9.617844e-25 -3.2558122e-24 -5.8147055e-12 -0.00024938726 -1.2241659e-05 -2.7077058e-06 2.519075e-26
-4.8765787e-07 -2.1179137e-20 4.6982807e-17 0.0005943352 -1.145838e-25 1.7586029e-24 -7.3315016e-09 -3.3553356e-25
1.8321633e-22 2.8554704e-25 -1.4963095e-09 -8.372008e-23 -4.014903e-25 3.729285e-19 -8.064986e-26 -3.5822373e-05
7.950269e-23 2.4620755e-24 -6.964125e-25 0.0015143354 7.985621e-25 -0.00013715155 -5.7142333e-25 1.0521945e-25
8.824676e-24 1.2852598e-25 -1.1677245e-14 0.00019358048 0.0004374381 -0.0005536424 -9.129067e-25 -2.0414493e-23
-8.966394e-05 2.0122026e-05 6.507229e-25 -5.990637e-05 -1.5589535e-23 -4.4277972e-09 -1.5783415e-23 -0.00029189483
1.170742e-24 -1.135177e-23 4.8863212e-23 0.0002232638 -2.2167263e-21 -4.640049e-24 -4.1462175e-07 -1.4915039e-14
2.3284915e-23 5.9405353e-25 -1.499192e-23 -0.0002492087 -1.2333153e-08 -5.0834014e-25 -1.7276918e-25 -0.00036191553
-0.00025824812 3.030652e-25 -9.426381e-24 -2.3695065e-06 1.2491096e-25 -2.519732e-24 -3.9628495e-26 -2.3889155e-05
-1.3203828e-21 -9.877858e-05 -5.488168e-25 -2.0125816e-25 4.8533075e-25 6.086233e-19 1.2866605e-24 5.30681e-25
5.116992e-24 -5.832991e-07 4.6035012e-15 4.1204653e-06 -0.0008631765 -0.0014438224 2.1293488e-25 -1.6209335e-26
5.9472623e-25 7.803819e-26 3.8782586e-25 -8.4584906e-07 0.0003109432 1.7428359e-23 -0.00023261609 2.2895078e-25
4.295671e-25 -9.501789e-24 1.7300663e-23 -1.5852605e-07 0.0009903238 -9.748854e-27 -3.1296198e-20 -0.0032573938
1.0955414e-23 -0.00019941053 -1.0080625e-23 -1.3839697e-05 2.2642022e-10 -5.0830593e-23 -0.00073223293 -9.456241e-24
-0.00012549717 0.00014953292 3.490633e-24 -0.0010531757 0.001865004 1.4981742e-25 -2.7398835e-24 -1.12499265e-05
-1.6448965e-05 -2.697757e-24 -0.0002068289 1.0635534e-19 -1.2079233e-25 3.0647246e-23 -1.3181296e-25 -3.5306342e-25
-0.016172009 -0.03949589 2.1752078e-24 -9.538629e-07 0.039812595 0.031535037 -0.02382969 -2.786512e-25
0.011572911 -8.076907e-05 -0.010704362 -0.080589905 6.005983e-24 8.78791e-23 -0.019889057 -3.5281848e-25
-3.0680913e-25 -7.5010284e-23 -0.09013896 -0.07679083 -0.040291935 -0.04369964 6.339731e-26 -0.096110284
-0.021392949 0.02985261 5.778178e-25 -0.03442161 3.0025676e-26 -0.032117367 -0.07999163 0.007430028
-0.00052786013 6.093346e-24 0.0033786746 -0.08160876 -0.044909697 0.03354379 -1.6367651e-22 -2.3796142e-25
-0.020616269 0.0377453 6.3009515e-25 0.053908728 -0.05456705 -0.06324129 -0.024870668 0.04540455
-0.0071432693 -3.0845936e-25 -2.3314436e-17 0.052700087 -0.089674875 -0.039330304 0.055265788 0.0020420724
1.9338503e-26 -0.02670779 1.5655009e-17 0.015829057 0.050281826 1.2696477e-25 0.051969305 0.011949939
-0.017264517 -0.018248927 0.016604194 -0.08889969 -1.7267297e-25 0.034688257 -0.06807944 -0.008483403
-0.05511538 -0.093866386 1.5887676e-25 -0.006076933 1.286141e-23 -4.1423916e-16 -0.020168798 3.5929483e-25
-2.732752e-23 0.0037659158 0.019604191 -0.016776487 0.026610997 -0.0030645218 -1.0029335e-25 -0.019616876
-0.032873414 -2.3752931e-24 -0.018036816 0.02259795 0.054000705 -0.005091387 -0.049137365 5.914132e-24
3.449843e-19 6.308301e-24 -3.0600952e-25 0.0140548665 0.05829605 3.6903229e-25 -0.06531751 -0.08966577
-5.4224326e-25 -0.018551383 -7.960485e-25 -0.041817117 0.005002274 -6.696433e-25 0.053860232 -9.82555e-24
0.021215549 0.0110870125 8.753277e-11 0.018085122 0.049832813 -0.03296577 -0.021857738 -0.04478644
-0.024181083 1.6630513e-23 -0.037407 -0.04863283 0.035315827 2.9413147e-25 4.3889028e-26 1.0002422e-23

bias f4 [64]
00000000: 0937 c0ba d22f 8a3c 6b57 a53c c017 ed3d
00000010: 8ecc 31bd cd64 943d c8da 49bd a26f 2bbd
00000020: 00c5 313d 6279 043d f51d 36bc 241c de3d
00000030: d95e 6bbd 2693 873d e96a b23d 575c 543d
00000040: 13c4 232a 312e b13d 6deb 403d ccba afbc
00000050: 4159 b23d b168 bc3d 0b9d c73d e53a 91bb
00000060: ee96 5c3d 00d8 a73c 51cb 1c3d d8e2 e7bd
00000070: 7a20 fdbb 34fb 38ba 0270 92bc e11c 36bd
00000080: 1026 033e 9dc8 cabc 2509 6dbc 36ee cfbc
00000090: 35ab da29 213c 8dbb 6973 f83c 6fba 3b3c
000000a0: c92a eba7 49ed 69bc 6464 0b3c 3910 3c3d
000000b0: eb1b 77bd 6150 a43d c620 d3bb ee88 053d
000000c0: fe7a d83d 4e9d bb3d 25b6 dd3c dc0c 9abd
000000d0: 2686 3ebd 320f 303e 9e88 7a3d 2f28 ac3d
000000e0: 16b6 da3a 705c b13d b604 5fbd 04d3 6522
000000f0: 401c 1ebc 7b2a a7bc c4e5 8abd 21bd 833d
-0.0014664839 0.016868506 0.020183286 0.115767956 -0.04340797 0.07245789 -0.04928091 -0.04185451
0.043400764 0.032342322 -0.011115541 0.10845211 -0.0574635 0.06619863 0.08711798 0.051845875
1.4545335e-13 0.086513884 0.04709952 -0.021451376 0.0870843 0.09199656 0.097467504 -0.0044320696
0.053854875 0.020488739 0.038279835 -0.11322564 -0.007724819 -0.0007056475 -0.017875675 -0.044461135
0.12807488 -0.024753863 -0.014467512 -0.025382143 9.7108445e-14 -0.0043101464 0.03032847 0.011458023
-6.527199e-15 -0.014277765 0.008507822 0.04591391 -0.06032936 0.080231436 -0.006443116 0.03260129
0.10570334 0.09160863 0.027064392 -0.07521984 -0.046514653 0.17193297 0.061165445 0.08406102
0.0016686346 0.08660209 -0.054447852 3.1146998e-18 -0.00965029 -0.020405998 -0.067821056 0.06432558

weight f4 [10, 64]
00000000: 70c6 f517 198e a23d b32d 7dbc dca5 8339
00000010: 3322 96bd 874b d13d 8a88 5020 17e4 4cbd
00000020: 06b3 d3bd 3593 3fbd 6221 55bc 73e3 45bd
00000030: 708a bfb8 d4b2 4e3d c136 213d 9ad6 f3b8
00000040: eedc 68bc 2c5a 62be bb17 c23d b87d 0a3e
00000050: e7a8 bbbd 1071 94bd 4634 823d eb3b 479b
00000060: 79a3 313d 0a99 6a3e 1aa9 4abd 54f8 85bc
00000070: ed37 f23d 4e11 ae1a ec17 01b2 322e 84b5
00000080: 955a 1b3e 576d 883d 26c5 283c 2073 b396
00000090: d7d1 879f b843 933c 0715 673d 6803 83be
000000a0: c4a6 17ab c6e5 25ba 5f65 613e 2337 553c
000000b0: 58f6 af3b f07c a7bc 8c20 76bd ff31 963b
000000c0: 07ca b1bc a651 083e 3b45 f13c 6b13 b1bd
000000d0: 6cc1 b199 6066 093e 317d 50bc b3ef 083e
000000e0: 0500 623d f711 873d 8c8b d03d 18f2 4621
000000f0: b62d 3fbc 4f48 adbc dfe9 4b3b 637b 84be
00000100: 4a45 1697 49a1 013d afcc 42bb d72b 1e3e
00000110: c58b 3a3b 5155 7d3c 2a4e 191d 2dce 923b
00000120: c8a6 a63d 923c 853c 8e05 c4bb 8fa5 8ebe
00000130: 2d6c 3d36 9bf4 353e 695d be3d 9054 8a3d
00000140: 2cc1 473c aa3d 033e 7108 fd3c 348e 2cbc
00000150: 982f 903e f33d 49be 4efd 80be b00b 0e97
00000160: 3eb5 f0bc 3213 9cbd cd98 a0bc 77d0 af3d
00000170: ec8d 6bbe 13d2 3a96 4f69 aeac c279 f4b4
00000180: e3d8 e83c 8272 473d f979 e93a 9d18 1e98
00000190: 0a4f 4f99 416b 373e 9473 743b 4529 2fbe
000001a0: f7f1 2e28 608e 95b8 6d07 193b f9d6 933b
000001b0: b049 ef3a bd3b 0bbe 6a4e 07be 21cf 18be
000001c0: 37e7 f83c b5d6 39bd 97af 5ebd b70d fabd
000001d0: fc04 741c ff27 1e3d 3b8d 7dbd de29 d0bd
000001e0: 9f66 a73d d4b0 abbd 08f5 3fbe 919e 171f
000001f0: a8c8 67bc 2c44 2bbc 81db 553c 0287 fd3d
00000200: 3c56 8a1a d507 853d b60a 623a 056f 7cbd
00000210: c5d8 043d 127f 0a3d 45f1 7424 3ad7 58bd
00000220: 3c63 1c3d 73b2 ee3d b50d 0cbc ccb1 903c
00000230: 4358 22bd 05bc c7bc e430 093d bead 8a3d
00000240: ac01 73bc 7b81 91be f7fd 02bd 8049 95bc
00000250: f070 803d f084 0a3d 0c63 8bbc bd51 6b1d
00000260: bf53 8e3d 3acc 05be c737 f4bc bc37 fbbc
00000270: 5279 9dbd a4e5 0d27 3e82 4d34 753f 4fbb
00000280: 575e 923d de64 e13d fab0 be3b d274 8d19
00000290: fe06 9f9c bee1 03bd 584b 7c3d af1f 0fbe
000002a0: 0c95 a8ab e30c 6f3c 5a72 8e3d f8b9 23bd
000002b0: e2bb 413c 7132 be3d 7869 82bd 9b45 0e3d
000002c0: 5b3c 063d e660 623d 179d c0bc 3019 60bd
000002d0: ae68 c49b 85d1 7c3d 20fa 08be 3623 723c
000002e0: 880b 423d c60c f13d 7008 a3bd c015 3b22
000002f0: 227d 41bc 4946 e13c b06f 1dbc 4f93 673d
00000300: f35d 1c17 6d3f 27bd c3b9 183e 03f2 11bd
00000310: a454 2cbd 1f2d 16bd ed0e 1622 c914 db3b
00000320: d23b 39be a90f bf3d 70a1 bc3b 7732 adbd
00000330: 4be6 b1b8 d8b2 fa3d 2eda a33d 2e62 563d
00000340: 1a86 6f3c c3d7 6cbc dafc 94bd 9ec2 a6bd
00000350: defa a23d 0072 b5bd 0643 0a3e f54e 089b
00000360: f0a5 bf3d 7a2f 943c ac68 85bd 8c5c f13d
00000370: d2aa f3bd 155e a517 ef2d e3ae c2a9 8438
00000380: a02f b9bd 05ec a3bd ba4b 02bc a558 9121
00000390: d253 169a 6e8f a73d b7db 37bc 2c84 3abe
000003a0: 5ad0 e229 dfe5 1bbb b3e3 57bd 94bc 9f3d
000003b0: 42a0 2a3c 29cb 143d c4ec febd 6ff9 d6bd
000003c0: 2ed2 ebbd 2613 423c d0a6 843c 8847 7b3d
000003d0: 986f b419 1b9c f43d 979f 5a3d 84af 063e
000003e0: 0157 913d b460 2c3d 0467 9bbd 0d45 cba0
000003f0: 987f 78b9 9bf2 e73b b8f7 9cba c24f 82be
1.5882847e-24 0.07937259 -0.01545279 0.00025109842 -0.07330742 0.10219484 1.7663462e-19 -0.05002221
-0.103368804 -0.046771247 -0.013008447 -0.048312616 -9.133376e-05 0.050463513 0.039358858 -0.000116271156
-0.01421283 -0.2210471 0.094771825 0.1352452 -0.09163075 -0.072481275 0.063576266 -1.6480255e-22
0.04336879 0.22909942 -0.049477674 -0.016353764 0.11827073 7.199267e-23 -7.5142275e-09 -9.848211e-07
0.15171273 0.0666148 0.01030091 -2.8991664e-25 -5.7521875e-20 0.017976627 0.056416538 -0.25588536
-5.387741e-13 -0.00063284894 0.22011326 0.013013634 0.0053699426 -0.020445317 -0.060089633 0.0045835967
-0.02170278 0.13312396 0.029451957 -0.08646282 -1.8379494e-23 0.13417959 -0.01272516 0.13372688
0.0551758 0.065952234 0.101828665 6.740542e-19 -0.011668613 -0.021152643 0.003111474 -0.25875387
-4.855507e-25 0.031647954 -0.0029724052 0.15446411 0.0028464657 0.015462236 2.0289791e-21 0.0044801445
0.0813728 0.016264234 -0.0059821075 -0.27860686 2.8226161e-06 0.17769091 0.0929516 0.0675441
0.012192052 0.12816492 0.030887814 -0.010531951 0.2816131 -0.19652538 -0.25193256 -4.5897426e-25
-0.029383298 -0.07620849 -0.019604111 0.085846834 -0.23003358 -1.5091248e-25 -4.957069e-12 -4.5537132e-07
0.028423732 0.048693188 0.001781284 -2.0433448e-24 -1.0717611e-23 0.17912008 0.0037300335 -0.17105587
9.711408e-15 -7.131393e-05 0.0023350373 0.0045117107 0.0018256214 -0.13597007 -0.13213506 -0.14922763
0.03038369 -0.045370776 -0.054366674 -0.12209647 8.073927e-22 0.038612362 -0.061902266 -0.101642355
0.0817387 -0.08383337 -0.18745816 3.2106657e-20 -0.014146961 -0.010453265 0.013052822 0.12379266
5.721478e-23 0.064956345 0.0008622812 -0.061629314 0.03243329 0.03381259 5.311343e-17 -0.05293963
0.038180575 0.1165513 -0.00854819 0.017662905 -0.039634954 -0.024381647 0.03349389 0.0677142
-0.014831942 -0.28419098 -0.03198048 -0.018223524 0.06271541 0.033818185 -0.017015003 3.1144249e-21
0.06949567 -0.13066188 -0.029811753 -0.030666225 -0.07689156 1.969217e-15 1.9139495e-07 -0.0031623517
0.071469 0.11005567 0.005819437 1.4626242e-23 -1.0523545e-21 -0.032197706 0.06159529 -0.1397693
-1.1978487e-12 0.014590475 0.069554046 -0.039972275 0.01182458 0.09286965 -0.06367773 0.03473435
0.032772403 0.05526819 -0.023512406 -0.05471152 -3.2493128e-22 0.06172325 -0.13376665 0.014778903
0.04737428 0.117700145 -0.07960594 2.535474e-18 -0.011809619 0.027499335 -0.009609148 0.05653697
5.05249e-25 -0.040831972 0.14914612 -0.03563119 -0.042072907 -0.036664125 2.0336692e-18 0.0066858274
-0.18089226 0.09329159 0.0057565495 -0.08456891 -8.482913e-05 0.12241143 0.08000599 0.052339725
0.014619375 -0.0144557385 -0.0727479 -0.08142589 0.07958005 -0.088596344 0.1350213 -1.1275169e-22
0.09357822 0.018089045 -0.06514105 0.1178523 -0.11897816 1.0686625e-24 -1.0330924e-10 6.32587e-05
-0.09042287 -0.080040015 -0.007952625 9.849046e-19 -3.1086982e-23 0.08181654 -0.011221818 -0.18214482
1.00725594e-13 -0.0023788137 -0.052707385 0.0779964 0.010414185 0.03632656 -0.12447503 -0.104967944
-0.11514698 0.011845386 0.016192824 0.061347514 1.8656636e-23 0.11943837 0.053374853 0.13152891
0.07096673 0.04208441 -0.07588008 -3.4435232e-19 -0.00023698655 0.0070784814 -0.0011975681 -0.25451475

bias f4 [10]
00000000: 970e fd3d 60bb 42bd 795b 643d 1a7d c23b
00000010: 4e22 003c 74fd 87bd 370d 433e 91ec 90bd
00000020: caa2 f4bd b22d 23be
0.123562984 -0.047541976 0.055751298 0.0059353234 0.007820679 -0.06640139 0.1904801 -0.070763715
-0.11945112 -0.159354
