2-hypertuning-mlflow/models/20250921-1134model.pt (torch, 62789 bytes, 12 tensors)

weight f4 [16, 1, 2, 2]
0	0x3e903334	0.28164065
1	0x3ee377f3	0.44427451
2	0xbe1ff02f	-0.15618967
3	0x3ee159d6	0.44013852
4	0x3ee96701	0.45586398
5	0x3f0b81de	0.54495037
6	0xbec4c5c7	-0.38432142
7	0x3d0eabbd	0.03483175
8	0xbf3125de	-0.69198406
9	0xbe1f7bbf	-0.15574549
10	0xbee8f71c	-0.4550103
11	0x3e509667	0.20369874
12	0x3f155309	0.58329827
13	0xbddb1405	-0.10697178
14	0x3e1835e8	0.14864314
15	0x3ee1dc66	0.44113463
16	0xbd4bdc3e	-0.049770586
17	0x3f18a314	0.5962384
18	0xbdd3d50d	-0.103433706
19	0x3ea8581f	0.3287973
20	0xbe889585	-0.26676574
21	0xbd40f3cf	-0.047107514
22	0x3f11eae9	0.5699907
23	0xbe341e82	-0.17589763
24	0xbf40d4ff	-0.75325006
25	0xbf30524b	-0.6887557
26	0xbeeaed57	-0.458842
27	0xbf49376d	-0.786002
28	0x3eb9b2c0	0.36269188
29	0x3ebcd00f	0.36877486
30	0xbddd4449	-0.1080404
31	0x3e327265	0.1742645
32	0xbd0549f0	-0.032541215
33	0x3eeaadbf	0.45835683
34	0x3ef8e1e8	0.48609853
35	0xbe84994a	-0.258982
36	0x3ea8e547	0.32987425
37	0xbe4a92cf	-0.19782566
38	0xbc87b95d	-0.01656788
39	0x3f15cf86	0.5851978
40	0x3ee21b32	0.44161373
41	0x3b671a57	0.0035263503
42	0xbe562af4	-0.20914823
43	0x3f25e27d	0.6479872
44	0x3ea0a804	0.31378186
45	0x3e807d5d	0.25095645
46	0xbd705338	-0.058673114
47	0x3f0e6c95	0.55634433
48	0x3ec8c602	0.39213568
49	0x3edb52b6	0.4283654
50	0x3e50e099	0.20398177
51	0xbe8c83a1	-0.27444175
52	0xbec3ff19	-0.38280562
53	0xbe1408c3	-0.14456467
54	0xbf5c0405	-0.85943633
55	0xbf76c14c	-0.963887
56	0x3e88df61	0.26732925
57	0x3eb7593e	0.35810274
58	0x3edb4128	0.42823148
59	0xbe82a7d4	-0.25518668
60	0x3ea2ea47	0.31819364
61	0x3f069218	0.5256667
62	0xbd95fc2c	-0.073234886
63	0x3ef8fef8	0.48632026

bias f4 [16]
0	0x3e81550c	0.25260198
1	0xbdfcb294	-0.123387486
2	0x3f018d4e	0.5060624
3	0x3efbb5ed	0.49162236
4	0xbe0953ac	-0.13410825
5	0xbd94714b	-0.072481714
6	0x3e9b366d	0.3031496
7	0x3c17f11a	0.009273792
8	0x3eab6aa4	0.33479798
9	0x3e941d61	0.28928664
10	0x3a2220f5	0.00061847206
11	0x3e8b8214	0.2724768
12	0x3ebc494b	0.36774668
13	0x3ec46a38	0.38362288
14	0x3eada00b	0.33911166
15	0x3c0c0472	0.008545982

weight f4 [16, 16, 2, 2]
0	0xba29434e	-0.00064568676
1	0x3e15031a	0.14551964
2	0xbdc6b065	-0.09701613
3	0xbd42e227	-0.047578957
4	0x3e72a5d2	0.23696068
5	0x3ee07b81	0.43844226
6	0x3e8f37ac	0.27972162
7	0x3ee7ea58	0.45295978
8	0x3dc4f1fb	0.096164666
9	0x3da8992f	0.082323425
10	0x3e292de7	0.16521417
11	0x3e58721a	0.21137276
12	0x3dd19aa9	0.10234577
13	0x3cdd81d2	0.027039442
14	0xbd1652ef	-0.036700185
15	0x3db8e9a4	0.090289384
16	0x3e008eb2	0.12554434
17	0x3ec266a0	0.37968922
18	0x3ebe06b4	0.3711449
19	0x3eee55e5	0.46549907
20	0x3e492777	0.19643961
21	0x3d639818	0.05556497
22	0x3ebda977	0.37043354
23	0x3f08b529	0.5340143
24	0x3e9a7e24	0.30174363
25	0x3ec8126c	0.39076555
26	0x3ea4b09f	0.32166
27	0x3e2bc727	0.1677519
28	0xbe9400a0	-0.28906727
29	0xbd8bf0c7	-0.06833034
30	0xbe8953c7	-0.2682173
31	0xbd53a32e	-0.051669292
32	0xbdad2062	-0.08453442
33	0xbcbb1315	-0.022836247
34	0xbbe97ed4	-0.007125715
35	0xbd81e9e9	-0.06343443
36	0x3da0fd3d	0.07860801
37	0x3c83ccf5	0.016088942
38	0x3dde67d3	0.10859647
39	0x3d96fa4a	0.073719576
40	0xbe874e11	-0.26426747
41	0xbd7b7206	-0.061388038
42	0xbe0e0eb1	-0.13872792
43	0x3dd02d09	0.1016484
44	0xbb96b155	-0.0045987763
45	0x3d5271a9	0.051377926
46	0xbde40d35	-0.111353315
47	0x3dfde2cb	0.12396773
48	0xbd201f0e	-0.039092116
49	0xbd15b7dd	-0.0365523
50	0xbde7b524	-0.11313847
51	0x3dc55bc3	0.09636643
52	0x3e7ab2c8	0.24482262
53	0x3e467f7b	0.19384567
54	0x3e5e94aa	0.21736398
55	0x3e035323	0.12824683
56	0xbd5f3981	-0.0544982
57	0xbdd79ebd	-0.10528324
58	0xbd804da6	-0.0626481
59	0x3cb25afa	0.021771897
60	0xbe9e0788	-0.3086512
61	0xbdc4f62e	-0.096172675
62	0xbe8944ce	-0.26810306
63	0xbc95d2ab	-0.01828893
64	0xbbc6b03e	-0.00606349
65	0xbd8b3688	-0.067975104
66	0x3d90cb77	0.07070058
67	0x3daefa0b	0.08543786
68	0x3ef3fc36	0.4765336
69	0x3ec90381	0.39260486
70	0x3e76e3a7	0.2411028
71	0x3e09495b	0.13406889
72	0x3df1965e	0.117962584
73	0x3d908def	0.07058322
74	0x3d9dfcc2	0.07714225
75	0x3e17f442	0.1483927
76	0xbda86263	-0.08221891
77	0xbd0990e9	-0.033585463
78	0xbdeeccc2	-0.11660148
79	0xbde1ee20	-0.11031747
80	0x3e58ce94	0.21172553
81	0x3e09d89c	0.13461536
82	0xbdf18775	-0.117934145
83	0x3df36c92	0.118859425
84	0x3e318ade	0.1733813
85	0x3df77396	0.12082593
86	0x3e31937d	0.17341419
87	0x3ed9d61d	0.42546168
88	0x3d5b89c1	0.05359817
89	0x3e14b1a5	0.14520891
90	0x3e9bd276	0.30434006
91	0x3e48e5af	0.19618867
92	0xbd06dfe2	-0.032928355
93	0xbca2bf00	-0.019866467
94	0xbe90155b	-0.28141293
95	0xbe0cd059	-0.13751353
96	0x3db7160f	0.08939754
97	0x3d52618b	0.051362555
98	0xbe24a60a	-0.16078964
99	0xbd397d2f	-0.0452854
100	0x3d1a4e4a	0.03767232
101	0xbd7b48d8	-0.061348766
102	0xbc78ff1e	-0.015197543
103	0x3dcddbde	0.10051702
104	0xbdb678f7	-0.08909791
105	0xbde66d37	-0.112513
106	0xbe8c3256	-0.27382153
107	0x3d1a051a	0.03760252
108	0x3ddf0c20	0.108909845
109	0xbc102ac8	-0.008799262
110	0xbe34d001	-0.17657472
111	0x3cfd0c71	0.030889722
112	0x3daea910	0.0852834
113	0x3dcf8115	0.10132042
114	0x3d408680	0.04700327
115	0xbe203b2b	-0.15647571
116	0x3e1c2db6	0.15251812
117	0x3d349301	0.044085506
118	0x3e807189	0.2508662
119	0x3ddab861	0.10679699
120	0xbde9dd76	-0.114191934
121	0xbd5ac7df	-0.05341327
122	0xbd32201a	-0.043487646
123	0xbcc62179	-0.024185883
124	0x3da0e540	0.07856226
125	0xbcfa5289	-0.030556934
126	0xbeaf84f8	-0.34281135
127	0xbe40ee84	-0.18840986
128	0xbda3b946	-0.079943225
129	0xbdd9f073	-0.10641565
130	0x3a0d5350	0.00053911377
131	0xbcffc398	-0.031221196
132	0xbe57bc21	-0.21067859
133	0xbeb8732a	-0.36025363
134	0xbe9fe235	-0.3122727
135	0xbe2c3fd3	-0.16821222
136	0xbd16b90e	-0.036797576
137	0x3d4437ee	0.0479049
138	0xbcc2534c	-0.02372136
139	0x3e0e5e5b	0.13903181
140	0x3e1621a5	0.14661272
141	0x3e0449c8	0.1291877
142	0x3dc88833	0.09791603
143	0xbc0e998e	-0.0087036025
144	0xbe37d4ab	-0.1795222
145	0xbe247fcd	-0.16064377
146	0xbdda3823	-0.106552385
147	0xbe2714a9	-0.16316475
148	0xbe1baf9e	-0.15203711
149	0xbe2535d3	-0.16133814
150	0xbe4c0845	-0.1992503
151	0xbe79f9c3	-0.24411683
152	0xbe9499f2	-0.290237
153	0xbe25c1da	-0.1618723
154	0xbe936331	-0.28786615
155	0xbdfcda6d	-0.12346349
156	0x3e110cc4	0.14165026
157	0x3e092720	0.13393831
158	0x3e090a91	0.13382937
159	0x3dff9fcd	0.124816515
160	0xbd9cc547	-0.07654815
161	0x3dc6d1eb	0.097080074
162	0x3d25bff2	0.040466256
163	0x3c44374d	0.011976075
164	0x3c5a7774	0.013334144
165	0x3d642b91	0.05570561
166	0x3dd16e8d	0.10226164
167	0x3d1b2720	0.03787911
168	0xbd822ac0	-0.0635581
169	0x3db94a7c	0.0904741
170	0x3e029f90	0.12756181
171	0x3cbe1de0	0.023207605
172	0x3dc466c8	0.095899165
173	0xbcb0e1d9	-0.021592068
174	0xbc59e9b8	-0.013300352
175	0xbcad524d	-0.021157408
176	0x3e014a7b	0.12626068
177	0x3d7579f8	0.05993077
178	0x3d8c4a79	0.06850142
179	0x3d86cbcf	0.06581842
180	0xbe3becc3	-0.18352036
181	0xbd5ca440	-0.05386758
182	0xbe026db2	-0.12737158
183	0xbe4ebc1d	-0.20188947
184	0x3e1508e4	0.14554173
185	0x3dec6812	0.11543287
186	0x3e023a2d	0.12717505
187	0x3d8f94ae	0.0701078
188	0x3e2dae83	0.16961102
189	0x3d8f5505	0.06998638
190	0x3e2b7221	0.16742755
191	0x3e1d72b4	0.15375787
192	0x3e0b7b28	0.13621199
193	0x3b3d92e3	0.0028926663
194	0xbcf133c8	-0.029443637
195	0x3e0c5c8d	0.1370718
196	0x3c8627fc	0.016376488
197	0x3e4ee368	0.20203936
198	0x3e42a923	0.19009833
199	0x3e4631d4	0.19354945
200	0x3d5ae36f	0.053439554
201	0x3cfac466	0.030611228
202	0xbcc9aae2	-0.024617616
203	0xbbdf1ad7	-0.0068086195
204	0xb93412c6	-0.00017173131
205	0xbbc5ef26	-0.0060404716
206	0x3dc8f83a	0.098129705
207	0x3cda7966	0.026669215
208	0x3dbf4451	0.09339202
209	0x3e6124df	0.21986721
210	0x3e241b6e	0.16026089
211	0x3e6ddf5a	0.23229733
212	0x3def0fff	0.11672973
213	0x3e07e364	0.13270336
214	0x3e050f0c	0.12994021
215	0x3e5f38fa	0.21799079
216	0x3d64f6e8	0.05589953
217	0x3e7a19e0	0.24423933
218	0x3dd7c599	0.10535736
219	0x3e83d67a	0.2574957
220	0x3dd86e6b	0.105679356
221	0x3dc3f14b	0.09567507
222	0xbdef2b14	-0.116781384
223	0xbc97692f	-0.018482773
224	0xbcc95639	-0.024577247
225	0x3dc6625a	0.09686728
226	0x3ae9605a	0.0017805204
227	0xbc01063f	-0.007875024
228	0x3dcd3b58	0.100210845
229	0x3de5d600	0.11222458
230	0x3dda3b66	0.106558606
231	0xbd4b86cb	-0.049689095
232	0x3b75b5f5	0.0037492488
233	0x3e21a1a9	0.15784325
234	0x3de755f1	0.11295689
235	0xbbcfeac5	-0.0063451254
236	0xbdcb4bb3	-0.09926548
237	0x3bec954a	0.007219945
238	0x3d88744b	0.06662806
239	0x3dd84752	0.10560478
240	0xbc2eace2	-0.010661336
241	0x3d437c7e	0.047726147
242	0xbc1110f0	-0.008854136
243	0xbcc5d6a1	-0.024150195
244	0x3e3a0e03	0.18169408
245	0xbd220abe	-0.039561026
246	0x3cfc6115	0.030808011
247	0x3e091ec7	0.13390647
248	0x3cfe624e	0.031052735
249	0xbd9f8aaf	-0.07790124
250	0xbd32af0e	-0.043623976
251	0xbd27b2fa	-0.04094217
252	0x3d27144d	0.040790845
253	0x3dce3326	0.100683495
254	0x3da328d8	0.07966775
255	0xbc14e76a	-0.009088377

bias f4 [16]
0	0x3cd7732e	0.02630004
1	0x3e09f0f7	0.13470827
2	0xbdc326cc	-0.09528884
3	0x3bddf9f6	0.0067741824
4	0x3d54172a	0.051779903
5	0xbddffffb	-0.10937496
6	0x3c4ff41f	0.01269248
7	0x3e7276d6	0.23678145
8	0xbc8c4bbe	-0.01712596
9	0x3df0b639	0.11753506
10	0xbcbcf290	-0.023064882
11	0xbd21be6c	-0.03948824
12	0xbc4be8df	-0.0124456575
13	0xbc95eba1	-0.018300833
14	0x3dc44f29	0.09585411
15	0x3d58fde1	0.052976493

weight f4 [16, 16, 2, 2]
0	0xbdad6437	-0.0846638
1	0xbc1a218f	-0.009407415
2	0x3b8687e5	0.0041055554
3	0xbcdd6ce8	-0.02702947
4	0xbceb90cd	-0.02875557
5	0x3d0106c9	0.03150061
6	0xbce1174f	-0.027476935
7	0xbcc0a4c3	-0.023516065
8	0xbc106083	-0.008812073
9	0xbc58932b	-0.013218681
10	0xbc165688	-0.009175904
11	0xbc3d2e04	-0.0115466155
12	0xba2c76f9	-0.00065790076
13	0xbca6d7c5	-0.020366559
14	0xbcb1e239	-0.021714317
15	0xbcaacf19	-0.020850705
16	0xbc00f3a9	-0.007870593
17	0xbc283836	-0.010267308
18	0xbc085bf5	-0.0083227055
19	0xbc28d7ff	-0.010305404
20	0xbc998b0d	-0.018743062
21	0xbcb95347	-0.022622718
22	0xbca332c8	-0.019921675
23	0xbd826385	-0.06366638
24	0x96129808	-1.1841759e-25
25	0x18c51fe8	5.0955524e-24
26	0x9b3c2d80	-1.5565697e-22
27	0x1c6dfb9c	7.874192e-22
28	0x984cfcc8	-2.6494004e-24
29	0xbb9bc59f	-0.004753783
30	0x947c5680	-1.2739808e-26
31	0xbb94caf7	-0.004540797
32	0xbc500d1a	-0.012698436
33	0xbc8058c1	-0.015667321
34	0xbc601ccc	-0.013678741
35	0xbca76b5b	-0.020436933
36	0xbc3636b5	-0.011121442
37	0xbc3c6ae1	-0.011500091
38	0xbc39a1e0	-0.011330098
39	0xbc37d4fc	-0.011220213
40	0x9703dd46	-4.260767e-25
41	0x1696f53a	2.4388567e-25
42	0x9495e0cc	-1.5133822e-26
43	0x96a3ed18	-2.6483697e-25
44	0xbcac1f02	-0.02101088
45	0xbc8c9834	-0.01716242
46	0x3c6523a3	0.013985547
47	0x3cd2c10f	0.025726823
48	0x99dceaa6	-2.284224e-23
49	0x98c24ccc	-5.022537e-24
50	0x96872e76	-2.1839747e-25
51	0x966dcc72	-1.9209219e-25
52	0x94c8d560	-2.0279001e-26
53	0x1779211a	8.049802e-25
54	0x96e7be80	-3.7440285e-25
55	0x1aefab8a	9.912522e-23
56	0x9ca3c03c	-1.0836127e-21
57	0x1d15ea71	1.984119e-21
58	0x9cbb7392	-1.2404496e-21
59	0x2056e416	1.8201972e-19
60	0xbbfe2815	-0.007756243
61	0xbc450600	-0.012025356
62	0xbc173946	-0.009229964
63	0xbc770570	-0.01507698
64	0xbe2c70e1	-0.16839935
65	0xbd59e522	-0.053197034
66	0xbd478704	-0.048712745
67	0x3e083140	0.13300037
68	0xbda1acf0	-0.07894313
69	0xbd3cf2c7	-0.046129968
70	0x3c7ae097	0.015312335
71	0x3e03a48e	0.12855741
72	0x3d499b93	0.049220633
73	0x3e2e58a7	0.17026006
74	0x3bfc11a3	0.007692532
75	0xbdce5e3c	-0.100765675
76	0x3c42f7b9	0.011899882
77	0x3d012224	0.0315267
78	0x3dc1dc4d	0.09465847
79	0x3df23219	0.118259616
80	0x3e4460fb	0.1917762
81	0x3dadcaf0	0.08485973
82	0x3e296883	0.16543774
83	0x3d0cc558	0.03436789
84	0x3d985008	0.0743714
85	0x3e091aee	0.13389179
86	0x3de00e68	0.10940248
87	0x3d8ee7c4	0.069777995
88	0x3cbe7081	0.023247005
89	0x3c90cad6	0.017674845
90	0x3cc4ce1e	0.024024066
91	0x3c9f2a70	0.019429415
92	0xbe522d1b	-0.20525019
93	0x3ef81d5f	0.48459908
94	0xbbd7b504	-0.006582858
95	0x3ee2c570	0.44291258
96	0x3e3892b0	0.18024707
97	0x3e09ec4e	0.1346905
98	0x3da7ccb3	0.0819334
99	0xbd108fbb	-0.035293322
100	0x3dfe967b	0.124310456
101	0xbd31f7a6	-0.043449067
102	0xbdbdea91	-0.092732556
103	0x3c924496	0.01785497
104	0x3cc37257	0.023858232
105	0x3bb895c6	0.0056330888
106	0x3cbf0b86	0.023320924
107	0x3ba63ead	0.0050733895
108	0x3d2df402	0.042469032
109	0xbc60b92a	-0.013716022
110	0xbd8a3453	-0.06748261
111	0xbdb5b842	-0.08873035
112	0x3a89bf9c	0.0010509375
113	0x3b080d8b	0.0020760025
114	0x3b223f27	0.002475688
115	0x3abd57d0	0.0014445726
116	0xbc9ababd	-0.018887872
117	0xbc9db1dd	-0.01924985
118	0xbc9eec66	-0.019399833
119	0xbc9d93d1	-0.019235523
120	0x3c62b09c	0.013836052
121	0xbd129921	-0.035790566
122	0x3c12519b	0.008930589
123	0xbc54db54	-0.012991745
124	0x3e5373e0	0.20649672
125	0x3e30388d	0.17209072
126	0x3e1780a9	0.14795174
127	0xbd93e29f	-0.07220959
128	0xbcc138ca	-0.02358665
129	0xbcd0db6a	-0.02549525
130	0xbcf04098	-0.029327676
131	0xbcffa34a	-0.031205792
132	0xbcc2c73a	-0.02377664
133	0xbcdc8694	-0.02691964
134	0xbce9d822	-0.028545443
135	0xbcfc0b3b	-0.030767074
136	0xbcc9e136	-0.024643522
137	0xbcc6b6c8	-0.024257079
138	0xbca665d1	-0.020312222
139	0xbca355ba	-0.019938339
140	0xbccea12f	-0.025223343
141	0xbcceda1b	-0.025250485
142	0xbcb9e43d	-0.02269184
143	0xbcbe307f	-0.023216484
144	0xbcc7c339	-0.024385082
145	0xbcc0bcf7	-0.023527605
146	0xbcba1e0d	-0.022719407
147	0xbcb1edf4	-0.02171991
148	0xbcc83150	-0.024437577
149	0xbcca1db2	-0.024672363
150	0xbca3278a	-0.019916315
151	0xbca80d6a	-0.020514209
152	0x987418c2	-3.154876e-24
153	0x169f3f9e	2.5727984e-25
154	0x9a1fff01	-3.308642e-23
155	0x1b433bad	1.6149304e-22
156	0x17d029d8	1.3452248e-24
157	0xbd07fc3c	-0.033199534
158	0x1e0c8420	7.438861e-21
159	0xbd098131	-0.033570472
160	0xbcc473a0	-0.023980916
161	0xbcc613cd	-0.024179364
162	0xbc9e78e1	-0.019344749
163	0xbca34574	-0.019930579
164	0xbcc63253	-0.024193918
165	0xbcd1c777	-0.025607808
166	0xbcb52685	-0.022113094
167	0xbcc2c178	-0.023773894
168	0x16c6d4e2	3.2122973e-25
169	0x1566fd88	4.664813e-26
170	0x97c6adf1	-1.2839359e-24
171	0x9b951e7a	-2.4669677e-22
172	0xbcc3f750	-0.023921639
173	0xbcc6bc18	-0.024259612
174	0xbc9fbafb	-0.019498339
175	0xbca60a6e	-0.020268645
176	0x990a10d8	-7.137834e-24
177	0x98a39096	-4.2280507e-24
178	0x9fb7f798	-7.7913124e-20
179	0x162bff30	1.3893793e-25
180	0x1618dad5	1.2347513e-25
181	0x1704b0b3	4.2874526e-25
182	0x17ecd909	1.530593e-24
183	0x16f802b8	4.0068277e-25
184	0x9ba76ac7	-2.7696836e-22
185	0x99bc4947	-1.9468341e-23
186	0x96cbe341	-3.2939836e-25
187	0x9a53f76c	-4.3833643e-23
188	0xbcd16500	-0.025560856
189	0xbcc777d3	-0.024349129
190	0xbcaa64bf	-0.020799993
191	0xbca76e62	-0.020438377
192	0xbdc2c84c	-0.0951086
193	0xbdf95eb4	-0.12176266
194	0xbe52c686	-0.20583543
195	0xbe5e52e4	-0.21711308
196	0xbe5aa593	-0.21352224
197	0x3d924cec	0.07143578
198	0xbe07191e	-0.13193175
199	0xbe12947f	-0.1431446
200	0x3df55783	0.11979582
201	0xbd918c9d	-0.07106898
202	0x3cd13f78	0.02554296
203	0x3d5e8670	0.05432743
204	0xbdd44501	-0.10364724
205	0x3de19b0f	0.11015903
206	0xbcc6f7df	-0.024288116
207	0x3ce11f96	0.027480882
208	0x3e00b271	0.1256807
209	0x3dcfc547	0.101450495
210	0x3e4c8088	0.19970906
211	0x3e0ff457	0.14058052
212	0xbdc6fe0b	-0.097164236
213	0x3dbbf6c2	0.09177925
214	0x3e0a8516	0.13527331
215	0x3ce3ba9c	0.027798943
216	0xbd144325	-0.036196847
217	0xbd06c723	-0.032904755
218	0xbd061e2b	-0.032743614
219	0xbd003beb	-0.031307142
220	0x3aded271	0.0016999972
221	0x3e55b823	0.20871024
222	0xbea5ec07	-0.32406637
223	0x3cb32ace	0.021870997
224	0xbd9d0a9a	-0.07668038
225	0xbde1d54c	-0.11027011
226	0x3e2dc64b	0.16970174
227	0x3e311de8	0.17296565
228	0xbd1852d8	-0.03718838
229	0xbd5941a4	-0.053041115
230	0x3d06bf34	0.03289719
231	0xbd8947bf	-0.067031376
232	0xbbfbcd74	-0.007684404
233	0xbbef76d3	-0.007307866
234	0xbbf1fcfc	-0.0073848944
235	0xbbfc6828	-0.007702846
236	0x3e03e265	0.12879331
237	0x3bd1fd24	0.0064083505
238	0x3e16a86c	0.14712685
239	0x3e2db9fa	0.16965476
240	0x3a9336fb	0.0011231595
241	0x3a8adb92	0.0010594002
242	0x3a6e511e	0.0009091067
243	0x3a667bdc	0.000879226
244	0xbc7139c0	-0.014723241
245	0xbc789add	-0.015173641
246	0xbc68059d	-0.014161495
247	0xbc6b2898	-0.01435294
248	0xbc997084	-0.01873041
249	0xbd6beb24	-0.057597294
250	0xbd602fde	-0.05473315
251	0x3d5ba997	0.05362853
252	0x3d9d95d6	0.076945946
253	0x3d0cc433	0.034366798
254	0x3e0f2682	0.13979533
255	0x3e453087	0.19256793

bias f4 [16]
0	0xbccdedd8	-0.025137827
1	0xbd89b6b8	-0.06724304
2	0xbcc5758f	-0.024103908
3	0x3d7bf948	0.06151703
4	0xb6bc4ad0	-5.611546e-06
5	0xbaeca161	-0.0018053466
6	0xbda66b05	-0.08125881
7	0xbb9100c5	-0.0044251406
8	0xbd81e21f	-0.06341957
9	0x3c27c3e6	0.010239577
10	0xb5507f1f	-7.7671024e-07
11	0xbd17486b	-0.036934298
12	0xba84da70	-0.00101359
13	0x3bfc5d70	0.0077015683
14	0xbc96d5fc	-0.018412583
15	0x3dfa7759	0.12229795

weight f4 [128, 16]
0	0x3c03b425	0.008038555
1	0xbda0a7af	-0.07844483
2	0x3bc1276f	0.0058945934
3	0xbe05d86f	-0.13070844
4	0x2d5fc44e	1.2719671e-11
5	0x3e286008	0.16442883
6	0x3df10242	0.11768009
7	0xbc596b5f	-0.013270228
8	0x3cbb5fc5	0.022872815
9	0xbd0ab79d	-0.033866514
10	0xb03c4184	-6.8487105e-10
11	0xbe032978	-0.12808788
12	0xb5237be8	-6.090254e-07
13	0x3e0e4db4	0.13896829
14	0xbb516576	-0.0031951345
15	0x3ea73d6b	0.32664046
16	0x158883ba	5.513779e-26
17	0x39daf7fd	0.00041764966
18	0x9a366833	-3.772089e-23
19	0xb69a58e9	-4.599908e-06
20	0x9a6eefb6	-4.9410883e-23
21	0x35368f19	6.800852e-07
22	0xb401ce8b	-1.2089201e-07
23	0x39c7f273	0.00038136877
24	0xba4f0328	-0.00078968937
25	0xb971b8fc	-0.00023052463
26	0xaf1de004	-1.4358653e-10
27	0xb50dc1fc	-5.280888e-07
28	0x2e02012c	2.955962e-11
29	0x354d9d1a	7.6597064e-07
30	0xa94bab8b	-4.5223845e-14
31	0xb69ed6be	-4.733766e-06
32	0x3c50ec11	0.012751595
33	0x3dcbd44a	0.099526
34	0xbc627e24	-0.01382402
35	0xbd81c646	-0.06336646
36	0xaa2553e0	-1.4684044e-13
37	0x3d33dba7	0.04391065
38	0x3f834cc2	1.02578
39	0xbe005ad3	-0.12534647
40	0xbe14766d	-0.14498301
41	0x3dbc1ca0	0.09185147
42	0xa7c184b0	-5.371212e-15
43	0x3d8c5917	0.0685293
44	0xa5049fa6	-1.1503266e-16
45	0x3c980638	0.018557653
46	0x3bbc7945	0.005751761
47	0xbd8b7e7f	-0.068112366
48	0x3c4cd2e9	0.012501457
49	0x3c188b5d	0.009310571
50	0x3c346291	0.011009828
51	0xbe3265da	-0.17421666
52	0xa261fc90	-3.0626892e-18
53	0x3e09b080	0.13446236
54	0x3c5a52ba	0.013325388
55	0x3e22dae2	0.1590381
56	0xbe3b6963	-0.1830192
57	0x3df4f264	0.11960295
58	0x2d3c0761	1.0688201e-11
59	0xbdb10efc	-0.08645436
60	0x98161636	-1.939826e-24
61	0x3e9e78c1	0.30951503
62	0xbbbdb9a3	-0.005789952
63	0x3d960582	0.07325269
64	0x3b9c3c1d	0.0047679082
65	0xbdeb8cc6	-0.1150146
66	0x3bc4d55a	0.006006879
67	0x3e52d34e	0.20588419
68	0xa4439fe2	-4.241931e-17
69	0x3e752ee7	0.23943673
70	0x3e38c285	0.18042953
71	0x3c9392ee	0.018014397
72	0x3c8eab38	0.017415628
73	0xbde17682	-0.11008932
74	0x35e2fb78	1.6911499e-06
75	0xbbecce3a	-0.0072267326
76	0x340bc204	1.3015966e-07
77	0x3d46a759	0.04849944
78	0xbc0dfab3	-0.008665728
79	0x3d9796f8	0.07401842
80	0x3c4dfe5a	0.012572849
81	0xbc9122fe	-0.01771688
82	0x3baf3c4b	0.0053477637
83	0xbe071363	-0.13190989
84	0xb51585b7	-5.5701406e-07
85	0x3eb94aa4	0.3618976
86	0x3e5c4aed	0.21512957
87	0x3e4d4163	0.20044474
88	0xbe116b67	-0.14201127
89	0xbd14e0b9	-0.036347125
90	0x9de5706c	-6.0732037e-21
91	0xbd8a162f	-0.067425124
92	0xaaab45cb	-3.042413e-13
93	0x3e10c1cc	0.14136428
94	0xbc2bdc04	-0.0104894675
95	0x3ecd51c4	0.40101445
96	0xbcec3402	-0.028833393
97	0x3c2b28ca	0.010446737
98	0xbc112914	-0.008859891
99	0x3e3bb450	0.18330503
100	0x258af8d9	2.410781e-16
101	0xbe809eee	-0.25121254
102	0x3ea1ea71	0.31624177
103	0x3e5300c9	0.20605768
104	0x3e23e91a	0.1600689
105	0x3d373c4a	0.04473523
106	0x1dc30150	5.1617427e-21
107	0x3e3c2ada	0.18375722
108	0x9e9d03d0	-1.6624598e-20
109	0xbe808878	-0.25104117
110	0x3c388363	0.011261794
111	0xbe875833	-0.26434478
112	0xbc501703	-0.012700799
113	0x3c66eb38	0.014094166
114	0x3c017105	0.007900481
115	0x3e0314a1	0.12800838
116	0xae0f891a	-3.2636206e-11
117	0x3df40017	0.1191408
118	0xbf53c5b4	-0.82723546
119	0x3c1fce16	0.009753725
120	0x3e1ef7a0	0.15524149
121	0x3e60f3f1	0.21968056
122	0x2440ddc6	4.1821213e-17
123	0xbd85e734	-0.06538239
124	0xa34661d4	-1.07543174e-17
125	0x3ec89959	0.39179495
126	0xbc6b5485	-0.014363413
127	0x3e80a704	0.25127423
128	0x3b3e9b41	0.0029084238
129	0x3e2af3bf	0.16694544
130	0x3c16c13f	0.009201347
131	0xbbf56dfa	-0.007489917
132	0x2bdba838	1.5607576e-12
133	0xbd24c13d	-0.04022335
134	0xbf320040	-0.6953163
135	0x3d79b2f4	0.06096168
136	0x3e9d7c6e	0.30758995
137	0x3d15d8e8	0.03658381
138	0xa0890785	-2.321368e-19
139	0x3af84098	0.0018940149
140	0x96c72fa7	-3.2180257e-25
141	0x3e0b37ab	0.13595454
142	0xbbbab3bd	-0.005697696
143	0xbd347721	-0.044058923
144	0x986ac1db	-3.0341663e-24
145	0x180dc5cf	1.832369e-24
146	0xa1c4ea41	-1.3343483e-18
147	0xaa5a7b13	-1.940499e-13
148	0x97bd8df7	-1.2249676e-24
149	0x1c0bcce8	4.6256077e-22
150	0xb0a9a801	-1.2344118e-09
151	0xa33097e5	-9.573144e-18
152	0x971514d0	-4.8170766e-25
153	0x9617df39	-1.226812e-25
154	0x99dd81b4	-2.2903251e-23
155	0x9581e4e6	-5.2463823e-26
156	0xb38f7b59	-6.681393e-08
157	0x180eca2e	1.8455144e-24
158	0x9e437682	-1.0347721e-20
159	0x9f0e97f3	-3.019536e-20
160	0xbc80b5fd	-0.015711779
161	0x3e958823	0.29205427
162	0x3c75d548	0.0150044635
163	0xbadb255b	-0.0016719507
164	0x362a087d	2.5336915e-06
165	0xbde681ce	-0.11255227
166	0xbf382d68	-0.71944284
167	0x3c2de30c	0.010613214
168	0x3e6b85e6	0.23000297
169	0x3dff9b86	0.124808356
170	0xa708e732	-1.8999123e-15
171	0x3e83decc	0.25755918
172	0x2e323a89	4.0524504e-11
173	0x3e166b25	0.1468931
174	0xbc5ab2e8	-0.013348319
175	0x3d4dc59d	0.050237287
176	0xbc603b1d	-0.013685969
177	0x3e2d4a12	0.16922787
178	0xbc9e01f0	-0.019288033
179	0x3dc1cd82	0.09463026
180	0xaedb829d	-9.9821686e-11
181	0xbe2d165d	-0.16903062
182	0xbf04c584	-0.51863885
183	0x3e4d4b76	0.20048317
184	0x3e56a162	0.2096
185	0x3e7076ef	0.2348287
186	0x322f00d8	1.01865325e-08
187	0xbda7df99	-0.08196945
188	0x3221bd94	9.4145385e-09
189	0xbd537e6a	-0.05163423
190	0x3bc904e7	0.0061346176
191	0xbe552c06	-0.20817575
192	0x1dd59b0d	5.654095e-21
193	0x209e28e5	2.6793303e-19
194	0xa0385c8a	-1.5616025e-19
195	0x1d145525	1.9631656e-21
196	0x9681d719	-2.097682e-25
197	0xb4871244	-2.5159e-07
198	0x2d5afea5	1.2448408e-11
199	0x9b9183d6	-2.4073435e-22
200	0x2903afcc	2.9240323e-14
201	0xafc9d52a	-3.671315e-10
202	0x9715731c	-4.8289785e-25
203	0x1d757f5a	3.249132e-21
204	0xa5f0a90f	-4.1747922e-16
205	0xb626490b	-2.4778444e-06
206	0x361e2e56	2.3570806e-06
207	0xaeeaaea4	-1.06721104e-10
208	0x3c62b5ed	0.01383732
209	0x3b74cb3e	0.0037352587
210	0x3c56a5a0	0.0131010115
211	0x3d09e913	0.033669543
212	0x27bcb3e0	5.2375503e-15
213	0x3e32af13	0.17449598
214	0x3ee972a8	0.45595288
215	0x3db608d6	0.08888404
216	0xbe0f4cf6	-0.13994202
217	0xbcbf2640	-0.023333669
218	0x1dd8e090	5.7406916e-21
219	0xbddf65d9	-0.10908098
220	0x20469dbf	1.6823446e-19
221	0x3dc0d6e3	0.094159864
222	0xbb533c1b	-0.003223187
223	0x3e651f04	0.22375113
224	0x3cb2837e	0.021791216
225	0x3e2cc9e9	0.16873898
226	0xbc1ecf91	-0.009693042
227	0x3c792a87	0.015207893
228	0xb57c0d08	-9.389628e-07
229	0x3d0a124c	0.033708856
230	0x3f87c6c4	1.0607533
231	0xbdc6fc71	-0.09716118
232	0x3e221367	0.15827714
233	0xbc820ed7	-0.015876217
234	0xae97041c	-6.867415e-11
235	0xbd0fcbf2	-0.035106607
236	0x32112967	8.449525e-09
237	0xbdb99b04	-0.0906277
238	0xbb86f324	-0.00411834
239	0xbd8e5e8c	-0.06951627
240	0xa21301ed	-1.9923234e-18
241	0xadb4f1fc	-2.0571093e-11
242	0x342a2999	1.5847617e-07
243	0xb6076bc6	-2.01793e-06
244	0x319276a8	4.262649e-09
245	0xaddb668c	-2.4942957e-11
246	0xb5006077	-4.782409e-07
247	0xae8693e5	-6.119886e-11
248	0x2f0c9713	1.2786598e-10
249	0xae30e7a5	-4.022351e-11
250	0xac262bbb	-2.3614294e-12
251	0x2dc36bdc	2.2216833e-11
252	0xa6e015f4	-1.5549073e-15
253	0x2e3c5273	4.281948e-11
254	0x974e7408	-6.670864e-25
255	0xb0c49e44	-1.4305859e-09

bias f4 [128]
0	0x3e279690	0.16366029
1	0xb684191a	-3.9368288e-06
2	0x3e85d412	0.2613836
3	0x3eb24ebe	0.348257
4	0x3d8d0673	0.06885996
5	0x3e545bc4	0.20738131
6	0x3d39075d	0.045173038
7	0x3e8f7af5	0.28023496
8	0xbd9fb03e	-0.077972874
9	0xb58334d1	-9.775632e-07
10	0xbdec11d9	-0.11526842
11	0x3de5e664	0.11225584
12	0x945fe064	-1.1302876e-26
13	0xbc3ac9f4	-0.011400688
14	0x3dcf5477	0.10123532
15	0x2e1d2321	3.5728868e-11
16	0x3e2e2fbe	0.170104
17	0x19dc8789	2.2802209e-23
18	0xbd131c47	-0.03591564
19	0x3e9eea37	0.31038067
20	0xbe04a12c	-0.12952107
21	0xbacaf2fb	-0.0015483791
22	0x3e56c54a	0.20973697
23	0xbcab4b12	-0.02090982
24	0xbc9723b7	-0.018449647
25	0xbbe9fd21	-0.007140771
26	0x3e1bc8d9	0.15213336
27	0x3e8ff373	0.28115425
28	0xb681e311	-3.8709336e-06
29	0xbe069456	-0.13142523
30	0x3e0d5810	0.13803124
31	0xbc40edf6	-0.011775484
32	0x3e1eb9a5	0.15500505
33	0x3e1efc62	0.15525964
34	0xbd359fbd	-0.04434179
35	0xbd54977c	-0.05190228
36	0x3b47f3fa	0.0030510412
37	0x3e43b2f2	0.19111231
38	0x3e422c0e	0.18962118
39	0xbe3b347e	-0.18281743
40	0xb63b1ccd	-2.7881936e-06
41	0xb47c3439	-2.3488327e-07
42	0x3dd2de00	0.102962494
43	0x3c9c6206	0.01908971
44	0x3e6e4e62	0.23272088
45	0xbd410870	-0.047127187
46	0xb170dbfc	-3.5049643e-09
47	0x3e82f6bc	0.25578868
48	0x3c49dc82	0.01232064
49	0x3e2c4e3d	0.1682672
50	0x3e35fe0d	0.17772694
51	0xa4583250	-4.688015e-17
52	0x3d885a02	0.06657793
53	0x3dc45224	0.095859796
54	0xa2559c9c	-2.8949791e-18
55	0x3de5976e	0.112105235
56	0xbc0fb190	-0.008770362
57	0x3d3ae84b	0.045631688
58	0x3c8ffd0f	0.017576722
59	0xb520de39	-5.992802e-07
60	0xbd085352	-0.033282585
61	0x3cf5a3e1	0.02998537
62	0x3e777489	0.24165548
63	0x3e261c3f	0.16221713
64	0xbe88b48f	-0.26700255
65	0xb74accb7	-1.2087802e-05
66	0xbdc31c02	-0.095268264
67	0x3e82c83a	0.25543386
68	0x3e5539b0	0.20822787
69	0x3cdaec48	0.026723996
70	0xbbe39604	-0.0069453735
71	0x3e9f489a	0.31110078
72	0xbdf32b38	-0.11873478
73	0x2011d9dc	1.2354061e-19
74	0x3e59bcb7	0.21263395
75	0xb357aba8	-5.021471e-08
76	0xbe4c4024	-0.19946343
77	0x3dc7dc9f	0.09758877
78	0xbd111c57	-0.035427418
79	0xb310833f	-3.364698e-08
80	0x3e5719f6	0.21005997
81	0xbdac9f1d	-0.08428786
82	0x3de14e57	0.1100127
83	0x3af9383e	0.0019013954
84	0xbc885ee0	-0.016646802
85	0x3de91b04	0.11382106
86	0x3d4d64e6	0.050145052
87	0xbd3ad5f7	-0.04561421
88	0xbd0dfd84	-0.0346656
89	0xbd4c40bf	-0.049866434
90	0x3e422315	0.18958695
91	0x3e2a3c8f	0.16624664
92	0x3dccbfc4	0.09997514
93	0x9855cc39	-2.763271e-24
94	0xbd6afd38	-0.057370394
95	0x3e907c08	0.28219628
96	0x3e7eb811	0.24874903
97	0x3e8833d5	0.26602045
98	0xbc4ac620	-0.012376338
99	0xbd4f2aaf	-0.050577816
100	0xbd863a4f	-0.0655409
101	0xb50e105c	-5.292293e-07
102	0x3dd15805	0.102218665
103	0x3e968d1c	0.29404533
104	0x3ae516e2	0.0017478133
105	0x3e41da89	0.18931021
106	0xbdf000ae	-0.1171888
107	0x3df51491	0.11966813
108	0x296ede02	5.3039177e-14
109	0x3d6218ba	0.055199362
110	0x3e4fd715	0.20296891
111	0x3e1627cd	0.1466362
112	0xb3b9ab36	-8.645877e-08
113	0xbe276836	-0.16348347
114	0x3e5612f2	0.20905665
115	0xbcdef990	-0.02721861
116	0x3e2e0ea9	0.1699778
117	0x3bf6aafb	0.0075277067
118	0xb98e77e3	-0.00027173673
119	0x3e355f05	0.17712028
120	0x39df6b16	0.0004261366
121	0x3d00284b	0.031288426
122	0x3e0c01d7	0.13672577
123	0xbdbc9139	-0.092073865
124	0xbdadc926	-0.08485632
125	0xbe24b8b9	-0.16086091
126	0x14c3c471	1.976745e-26
127	0x17c22cfa	1.254831e-24

weight f4 [64, 128]
0	0xbdd2a560	-0.10285449
1	0x9ba7fa2d	-2.7789505e-22
2	0x3e206fdf	0.15667675
3	0xbd444194	-0.047914103
4	0x3d86b791	0.06577981
5	0xbc33b56a	-0.010968545
6	0x3d874fc1	0.06607009
7	0xbc296c5d	-0.010340777
8	0x3df6c464	0.12049177
9	0x978424b9	-8.53957e-25
10	0x3d562d89	0.05228952
11	0x3d78f013	0.060775828
12	0x97822c92	-8.412304e-25
13	0x3d330e37	0.04371473
14	0x3c87334f	0.016503958
15	0xac2a6c1c	-2.4218466e-12
16	0xbdcd59bd	-0.10026882
17	0x94535ca0	-1.0671045e-26
18	0x3ab853e0	0.0014063083
19	0xbe58160e	-0.21102163
20	0x3e24dd6a	0.16100088
21	0x3c93face	0.018063929
22	0x3d7a42e8	0.061098963
23	0x3e44a67e	0.19204137
24	0xbc22b7d1	-0.009931521
25	0x3e08a44c	0.13343924
26	0x3de2f402	0.11081697
27	0x3e047b11	0.12937571
28	0x1ad52b9d	8.8165196e-23
29	0x3ce6b16f	0.028160779
30	0x3ca6866d	0.020327771
31	0x3c8a8515	0.016909162
32	0xbd04b998	-0.03240356
33	0x3d03c633	0.03217144
34	0xbd9b6aad	-0.07588706
35	0x3e0cb613	0.13741331
36	0x3dc8ac09	0.09798438
37	0xbd05c5bf	-0.03265929
38	0x3cf85972	0.030316088
39	0x3d5c8ffc	0.05384825
40	0x18b02780	4.553482e-24
41	0x18f4effe	6.331485e-24
42	0xbd8b3935	-0.06798021
43	0xba20bee3	-0.000613196
44	0xbe28e3a6	-0.16493091
45	0xbc2fb2cb	-0.01072378
46	0x1724f6ca	5.330275e-25
47	0xbd2c2299	-0.042025182
48	0xbcd010a6	-0.025398564
49	0x3d9dfcb1	0.07714213
50	0x3dbde01d	0.09271262
51	0x96f1a2c0	-3.903836e-25
52	0xbe040436	-0.12892231
53	0xbd648e8c	-0.055800006
54	0x97c52ef0	-1.2742675e-24
55	0xbdb4f7c4	-0.0883632
56	0xba76c91c	-0.0009414123
57	0x3d1dd3bc	0.038532004
58	0x3cfbb516	0.030725997
59	0x9664c600	-1.8480171e-25
60	0x3d032f30	0.032027423
61	0x3b86f2f8	0.0041183196
62	0xbc4f5f65	-0.012657021
63	0xbc932a2b	-0.017964443
64	0x3de54993	0.11195674
65	0x9ec715a4	-2.1078895e-20
66	0x3df33fe5	0.11877421
67	0xbd252445	-0.040317792
68	0x3d4d64d3	0.05014498
69	0x3e9b4775	0.30327955
70	0xbd425f08	-0.04745391
71	0xbd3a75aa	-0.04552237
72	0x3dad3d17	0.084589176
73	0x97f6eeb2	-1.5957633e-24
74	0x3c9eedb4	0.019400455
75	0x2fbdc9bc	3.452224e-10
76	0x3ddc7b11	0.107656606
77	0x3d8c9682	0.068646446
78	0x3d25d847	0.04048946
79	0x96db4b4e	-3.5428882e-25
80	0xbd2aac08	-0.041667968
81	0x3dbd2394	0.092353016
82	0xbc8f31c0	-0.017479777
83	0xbcf93275	-0.030419568
84	0xaba444fc	-1.1672048e-12
85	0xbd5552b3	-0.05208082
86	0xbe7b54a9	-0.24544014
87	0x3e164f94	0.14678794
88	0x3d662db3	0.056195926
89	0xbcaa6721	-0.020801129
90	0xbd46b58c	-0.04851298
91	0xbc1bb2fd	-0.009503123
92	0x3c921581	0.01783252
93	0x991dee32	-8.164813e-24
94	0x2cea2a59	6.6553815e-12
95	0x3c9112c6	0.017709147
96	0xbdeda800	-0.11604309
97	0xbc5bc255	-0.013413032
98	0xbc3f838e	-0.01168908
99	0x3d8a4e3a	0.06753202
100	0x3e0d6fef	0.1381223
101	0x158bedb4	5.651668e-26
102	0xbd7738af	-0.060356792
103	0xbe1835d7	-0.14864288
104	0x3dd11092	0.10208239
105	0xbdaf39b3	-0.08555927
106	0x3e1e963a	0.15486994
107	0x3da2e352	0.07953514
108	0x12077680	4.274455e-28
109	0x3e0a2de1	0.13494064
110	0xbe53953e	-0.206624
111	0x3d85da0d	0.065357305
112	0x172bd0c4	5.551658e-25
113	0x3d5e9ec5	0.054350633
114	0x3ceba50a	0.02876522
115	0x297c3274	5.5999e-14
116	0x3e099761	0.13436653
117	0xbbac7c67	-0.0052638534
118	0xbb60e9b7	-0.0034318992
119	0x3c3ae010	0.01140596
120	0x3da1c4d9	0.07898874
121	0x3cc108c1	0.023563745
122	0x3dd8c0ac	0.10583624
123	0xbb3b7d20	-0.0028608516
124	0x3e273886	0.16330156
125	0x3dd19d82	0.1023512
126	0x13e4850e	5.7686494e-27
127	0x18bd4eb9	4.8934844e-24
128	0x3bb902e3	0.005646096
129	0x15ae45c5	7.038812e-26
130	0xbc9ca795	-0.019122878
131	0x3bb1ef80	0.005430162
132	0xbc46401b	-0.012100245
133	0x3a9f4274	0.0012150542
134	0xbc46e3c4	-0.0121392645
135	0xbc1216c8	-0.008916564
136	0xbc88e90c	-0.016712688
137	0x987ed729	-3.2937359e-24
138	0xbc725bb4	-0.014792372
139	0xbc8aa650	-0.016925007
140	0x10e1ff60	8.914032e-29
141	0x3aa4a79c	0.0012562159
142	0xbc825999	-0.015911864
143	0x1774b508	7.9069146e-25
144	0x38e86e60	0.00011083181
145	0x97ba9528	-1.2057621e-24
146	0x9a7fce21	-5.2899274e-23
147	0x3c11f02a	0.008907357
148	0xbcb4067a	-0.021975745
149	0xbc0bbf88	-0.008529551
150	0xbc7b9a77	-0.0153566515
151	0xbc51ff12	-0.012817161
152	0x9585b62c	-5.400569e-26
153	0xbcc7686f	-0.02434179
154	0xbd01cc06	-0.031688713
155	0xbca12ea5	-0.019675562
156	0x1899d7b9	3.9767397e-24
157	0x3a904323	0.0011006336
158	0xbb7831e2	-0.003787153
159	0x94142419	-7.4792095e-27
160	0x3b1da75a	0.0024056048
161	0xbc8f05c3	-0.017458802
162	0xbbf1d1f2	-0.0073797638
163	0xbc7e27a9	-0.015512385
164	0xbc0d94ba	-0.008641416
165	0xbca7bb32	-0.020475004
166	0xbbd49037	-0.0064869183
167	0xbc99c337	-0.018769844
168	0x95562255	-4.324404e-26
169	0x97f6c4a0	-1.5947013e-24
170	0xbc88b544	-0.016687997
171	0xb9addcd4	-0.0003316166
172	0x3b9ad0b0	0.0047245845
173	0x9a7ce447	-5.229678e-23
174	0x14fe2179	2.5660648e-26
175	0xba8337e5	-0.0010011165
176	0xbc8a0af9	-0.016850935
177	0xbbcf50e9	-0.006326784
178	0xbcacd003	-0.021095281
179	0x95dddd48	-8.961031e-26
180	0x3c20333a	0.009777838
181	0x141bdb92	7.868803e-27
182	0x198f8853	1.4840914e-23
183	0x3b82493b	0.003976015
184	0xbc1c3470	-0.009533986
185	0xbbf8dba1	-0.007594541
186	0xbc999781	-0.018749
187	0x1476da10	1.2462831e-26
188	0xbc5b7e38	-0.013396792
189	0x969c76e0	-2.527818e-25
190	0x178ad008	8.970555e-25
191	0xbb92d2f7	-0.0044807154
192	0xbcaf798e	-0.021420266
193	0x97b086f0	-1.1407796e-24
194	0xbc82a3e6	-0.015947293
195	0x3bef50af	0.0073033194
196	0xbc3ee63e	-0.011651574
197	0xbd13ef89	-0.03611711
198	0xbc0ffeee	-0.008788807
199	0x3a666e0a	0.0008790201
200	0xbc297abd	-0.0103442045
201	0x9960a3fa	-1.1613643e-23
202	0xbb41ac1c	-0.0029552048
203	0x9501f69c	-2.6245883e-26
204	0xbca7525e	-0.020425018
205	0xbcaeff47	-0.02136196
206	0xbc6a1170	-0.014286384
207	0x97a44965	-1.0616779e-24
208	0xbb4b7f64	-0.0031051273
209	0xbc4f7398	-0.012661837
210	0x3a53c158	0.00080778217
211	0x17c26f3f	1.2565039e-24
212	0x97b6c339	-1.1810755e-24
213	0xba926634	-0.0011169375
214	0x3ce44282	0.027863745
215	0xbc86c4ac	-0.016451202
216	0xbcd9aeaf	-0.026572553
217	0xbca431e0	-0.020043314
218	0x3b4ee612	0.0031570238
219	0xbc190e18	-0.009341739
220	0xbbf413a2	-0.0074486295
221	0x97cd8ddd	-1.3283626e-24
222	0x972e49fb	-5.631581e-25
223	0xba91b09f	-0.0011115259
224	0xbcef3218	-0.029198691
225	0xbb3a18bb	-0.0028396088
226	0x37327d22	1.06387615e-05
227	0xbcc66d59	-0.024222063
228	0xbb8a02f1	-0.0042117764
229	0x980c3cd9	-1.8125296e-24
230	0xba021bba	-0.0004963238
231	0x3b1a30ee	0.00235277
232	0xbca49efa	-0.020095337
233	0x198f3f9d	1.4811547e-23
234	0xbbe5e348	-0.0070156194
235	0xbcacdf75	-0.021102646
236	0x1a798188	5.1596628e-23
237	0xbca9f4ba	-0.020746578
238	0x3c133869	0.008985617
239	0xbb78b2a4	-0.0037948275
240	0x94e55049	-2.3154758e-26
241	0xbc9be266	-0.019028854
242	0x382babdf	4.0929644e-05
243	0x159ad6b8	6.253887e-26
244	0xbc96ae89	-0.018393772
245	0x9483ece4	-1.3321057e-26
246	0x16b3de96	2.905948e-25
247	0x968c006e	-2.261849e-25
248	0xbc282892	-0.010263579
249	0xbcc0201a	-0.023452807
250	0xbc7033a4	-0.01466075
251	0x9600a6c8	-1.0392385e-25
252	0xbcb17c7f	-0.02166581
253	0xbc2adbcc	-0.01042838
254	0x9723870f	-5.283861e-25
255	0x193003db	9.099765e-24

bias f4 [64]
0	0xbda29b66	-0.07939796
1	0xbbb62289	-0.005558316
2	0x3d24504e	0.040115647
3	0x3c70fbdc	0.014708485
4	0x3e1f8757	0.15578972
5	0x3d813a0b	0.06309899
6	0xbb0f06a2	-0.0021824022
7	0xbb232db0	-0.0024899058
8	0xbd338ac7	-0.04383352
9	0xbd46934e	-0.048480324
10	0x3c97c1c5	0.018525014
11	0xbd30a698	-0.043127626
12	0x3d7f44af	0.06232136
13	0xbdaabf81	-0.08337308
14	0x3cd43463	0.025903886
15	0xbd4e54de	-0.050373904
16	0x3dadf9a7	0.08494883
17	0xbd71b34a	-0.059008874
18	0xbba51909	-0.005038385
19	0x3dd52f91	0.10409463
20	0x3c315e36	0.010825684
21	0xbc92f97a	-0.017941225
22	0x3de49ebe	0.1116309
23	0x3df63ac8	0.120229304
24	0xbaa0fb8e	-0.0012282
25	0xbc0883d9	-0.008332216
26	0xbbf4fc1b	-0.0074763424
27	0x3d16df77	0.036834206
28	0xbc6b847a	-0.014374847
29	0xbdb413bf	-0.08792829
30	0xbcce9ef2	-0.025222275
31	0xbc47208d	-0.012153757
32	0x3e0bcad5	0.13651593
33	0x3d72d5d4	0.059285954
34	0xbd848588	-0.064707816
35	0x3da6094b	0.08107241
36	0xba3589c5	-0.00069251313
37	0x3c58ef66	0.013240671
38	0xb843edbb	-4.6713027e-05
39	0x3bc10dd0	0.005891539
40	0xbb975494	-0.004618237
41	0xbd332229	-0.04373375
42	0xbc394e56	-0.011310181
43	0xbb10bec2	-0.0022086357
44	0xbb9a0b36	-0.0047010435
45	0xb7ac4aaa	-2.0538766e-05
46	0xbcff03ad	-0.031129682
47	0xbc6da2ef	-0.014504178
48	0x3e25c70e	0.16189215
49	0x3df61b2b	0.12016901
50	0xbc4f72ad	-0.012661618
51	0x3d675911	0.056481425
52	0xbbfdbd37	-0.0077435034
53	0xb92c69c6	-0.00016442602
54	0x3c5230ce	0.012829019
55	0xbc559da6	-0.013038075
56	0x3da88fe6	0.082305714
57	0xbd0c4913	-0.034249377
58	0x3cd61257	0.026131792
59	0x3ca38bd7	0.019964142
60	0x3e1532b8	0.14570129
61	0x3d3009ad	0.042977978
62	0x3e3aee59	0.18254985
63	0xbd04da09	-0.032434497

weight f4 [10, 64]
0	0xbc19d2f3	-0.009388673
1	0xbbe0c469	-0.0068593514
2	0xbe5e92e2	-0.21735719
3	0xbc214ad4	-0.009844501
4	0xbe21abf4	-0.15788251
5	0x3d516a05	0.0511265
6	0x3d830d3e	0.0639901
7	0x9812d202	-1.8976085e-24
8	0x3d18d656	0.03731378
9	0xbd74d68d	-0.059774924
10	0x3be74ca1	0.0070586954
11	0xbd0c8d24	-0.03431429
12	0xbd364431	-0.044498626
13	0x3e08ed38	0.13371742
14	0x3ca0190e	0.019543197
15	0xbd957887	-0.072983794
16	0x3db690e1	0.08914352
17	0x398ab414	0.0002645558
18	0x3d793589	0.06084207
19	0x3e16f650	0.14742398
20	0x3d6e3149	0.05815247
21	0xa50f251c	-1.2415846e-16
22	0x3d62e21f	0.055391427
23	0x3dd173f8	0.102271974
24	0x979d244b	-1.0155049e-24
25	0xbd9d5420	-0.07682061
26	0x1a55b31a	4.4192045e-23
27	0xbe469217	-0.19391666
28	0x3d8f0f17	0.069853
29	0xbe658b4e	-0.22416422
30	0xbd18925d	-0.037248958
31	0x173a74e2	6.024737e-25
32	0x3e34c765	0.17654188
33	0x3c91c35a	0.017793346
34	0x3dd72bfa	0.10506435
35	0x3d778333	0.060427856
36	0x9f08de10	-2.8982806e-20
37	0x3d7a4253	0.061098408
38	0x1c0f000e	4.73148e-22
39	0x3c425420	0.011860877
40	0x3caf1494	0.021372117
41	0x3c6cb153	0.014446574
42	0xbbfd49d3	-0.007729748
43	0xbac0d8b3	-0.0014713019
44	0x19169190	7.784214e-24
45	0x183a3148	2.4064817e-24
46	0xb90166f4	-0.00012340752
47	0x3c316c6f	0.010829075
48	0xbe2f9c62	-0.17149499
49	0x3e2b2083	0.16711621
50	0xbc8daff1	-0.01729581
51	0x3a635c35	0.0008673103
52	0x3af9573a	0.0019023188
53	0x1e1cb6fa	8.29641e-21
54	0x3d878f6d	0.06619153
55	0x19029550	6.750996e-24
56	0xbe8a7748	-0.2704413
57	0xbe2b8760	-0.1675086
58	0xbdbf4a13	-0.093403004
59	0xbd259b06	-0.040431045
60	0x3dc81bda	0.09770937
61	0x3bf57a47	0.0074913832
62	0xbc62e10a	-0.013847599
63	0x17df17ec	1.4417076e-24
64	0xbde930f5	-0.11386291
65	0x3bb626fa	0.0055588456
66	0xbf01965c	-0.50620055
67	0x3dc0707a	0.09396453
68	0x3d7ff117	0.06248578
69	0x3d936f24	0.07198933
70	0x3d80164b	0.06254252
71	0x1d8182a4	3.4281095e-21
72	0x3dc01458	0.0937888
73	0x3d861fbe	0.06549023
74	0xbd1fe3be	-0.03903555
75	0x3d91789c	0.071030825
76	0x3dc4902c	0.09597811
77	0x3da15b47	0.07878738
78	0xbc08a6ca	-0.008340547
79	0xbd45b140	-0.048264742
80	0xbe6e6212	-0.23279598
81	0x1d6079cd	2.9709123e-21
82	0x3d70d0be	0.058792822
83	0xbe08ea0e	-0.13370535
84	0xbdf9c2b3	-0.12195339
85	0x1ba5d2b4	2.7433124e-22
86	0x3dc502c9	0.09619672
87	0xbd8154a8	-0.06314975
88	0x180f1e49	1.8497607e-24
89	0xbdd4d0d5	-0.10391394
90	0x98cf567c	-5.3595573e-24
91	0x3e29abb6	0.16569409
92	0x3da26fa0	0.07931447
93	0xbf159119	-0.58424526
94	0xbb45e39a	-0.0030195476
95	0x16997f01	2.4798634e-25
96	0x3e5cd21c	0.21564525
97	0x3da50796	0.080580875
98	0x3e1f665f	0.15566395
99	0x3e3cd908	0.18442166
100	0x1abf2314	7.905242e-23
101	0xbe04889b	-0.12942736
102	0x97ff17b0	-1.6484968e-24
103	0xbe8edcb5	-0.2790276
104	0x3bd90cab	0.0066238246
105	0x3dcdcc56	0.100487396
106	0x3bac9820	0.005267158
107	0x3a8d297e	0.0010769812
108	0x17f4dbe9	1.5823644e-24
109	0x9f66ae25	-4.8848443e-20
110	0x3aa19a33	0.001232928
111	0xbc1206b0	-0.008912727
112	0x3e7daf21	0.24773838
113	0x3e1fcb49	0.15604891
114	0xbec78216	-0.38966435
115	0x3d58a8ff	0.052895542
116	0xbc38dd11	-0.011283175
117	0x9b2a8f84	-1.4108443e-22
118	0x3e6dde9d	0.23229451
119	0x1c145355	4.9076796e-22
120	0x3c95cfbe	0.018287536
121	0x3da6d4db	0.08146068
122	0x3d94a485	0.07257942
123	0xbe04961f	-0.12947892
124	0xbcb83ae8	-0.022489026
125	0xbbb1a843	-0.0054216697
126	0xbf286cd1	-0.6579104
127	0x9b40ee0e	-1.5958787e-22
128	0x3de2cedd	0.11074612
129	0xbcd06c50	-0.025442272
130	0x3c6cbbe6	0.014449095
131	0x3b1f37d5	0.0024294753
132	0x3ccd2c30	0.025045484
133	0x3bc491f1	0.005998843
134	0xbd9b9933	-0.0759758
135	0x18b0772f	4.561528e-24
136	0x3c2bfe3a	0.010497624
137	0xbd7ea46a	-0.062168516
138	0xbe121d9e	-0.1426911
139	0x3c117aa0	0.008879334
140	0xbe3b5088	-0.18292439
141	0x3d547b47	0.05187538
142	0xbbb644a7	-0.005562383
143	0xbe949308	-0.29018426
144	0x3e0f5827	0.13998471
145	0xba3b1b3c	-0.0007137542
146	0x3cfaa766	0.0305974
147	0x3e086607	0.1332017
148	0x3d6cff4b	0.057860654
149	0x2d8ddc61	1.6127712e-11
150	0x3e04807e	0.12939641
151	0x3defb166	0.11703758
152	0x99bd6808	-1.958416e-23
153	0xbd572b91	-0.052531783
154	0x17b36926	1.1594147e-24
155	0xbe23f7b5	-0.16012461
156	0xbdaa7de7	-0.08324795
157	0x3d32c7f6	0.04364773
158	0xba8ac3d5	-0.0010586927
159	0x218c3076	9.499597e-19
160	0x3c84f221	0.016228737
161	0xbe4f8188	-0.20264256
162	0x3dd880b8	0.10571426
163	0xbe42801f	-0.18994187
164	0x9a309ffd	-3.6525184e-23
165	0x3ddaa51c	0.10676023
166	0x1a4d6576	4.2474966e-23
167	0xbc95b60b	-0.018275281
168	0x3c1879e2	0.009306403
169	0x3dd647ec	0.10462937
170	0x3a9d0126	0.0011978492
171	0xbc54badc	-0.012984004
172	0x98b3a1fa	-4.643397e-24
173	0xa18e00f8	-9.622551e-19
174	0x3cf740a5	0.030182192
175	0xbc0ca0a8	-0.008583225
176	0x3d98b34d	0.07456074
177	0xbe67dfb7	-0.22643934
178	0x3dbb0dd7	0.09133499
179	0x3d68b42e	0.056812458
180	0xbc475ba7	-0.012167848
181	0x9f503fe7	-4.4098572e-20
182	0x3c8ca003	0.017166143
183	0x1c742945	8.0786167e-22
184	0x3e0b89e1	0.13626815
185	0xbe190b82	-0.14945796
186	0xbb399e50	-0.0028323121
187	0xbda5cf58	-0.08096188
188	0x3d8e5d8d	0.06951437
189	0xbe6827c0	-0.22671413
190	0xbd3d89df	-0.046274062
191	0x22a34169	4.4250494e-18
192	0xbd642df2	-0.05570788
193	0x3c6fcda9	0.014636436
194	0xbeaa64ec	-0.33280122
195	0xbcfd9f62	-0.030959789
196	0xbe0fcb1d	-0.14042325
197	0x3d1e6be6	0.03867712
198	0xbd3cac91	-0.04606301
199	0x9bcf5e90	-3.4306387e-22
200	0x3dee3a0b	0.116321646
201	0x3d9c95de	0.076457724
202	0xbbdc30b4	-0.006719673
203	0xbb03e392	-0.0020124656
204	0xbd0adf51	-0.033904377
205	0x3bc9e067	0.006160784
206	0x3aef78aa	0.0018270214
207	0x3dc09e2a	0.094051674
208	0xbd4336e9	-0.04765979
209	0x3a581285	0.0008242506
210	0x3d1389e5	0.03602018
211	0x3cae5540	0.021280885
212	0xbda71062	-0.08157422
213	0xa080c230	-2.1812546e-19
214	0x3c8ff958	0.017574951
215	0xbb143323	-0.0022613488
216	0x98890711	-3.5420805e-24
217	0x3ddaea9b	0.10689279
218	0x9b1d02de	-1.2987662e-22
219	0x3c34b442	0.011029305
220	0xbcdf5e90	-0.02726677
221	0xbeb99609	-0.3624728
222	0xbd7abff6	-0.061218224
223	0xa050a495	-1.7672741e-19
224	0x3e72be7a	0.23705474
225	0x3e0c47a2	0.13699201
226	0x3d0fbdcd	0.035093118
227	0x3e1da82d	0.15396185
228	0x19289b90	8.716812e-24
229	0x3d90a1c0	0.07062101
230	0x1a49d8b4	4.1740877e-23
231	0xbd19d446	-0.037555955
232	0xbc2a2a00	-0.01038599
233	0xbcbc9c2a	-0.023023684
234	0x3c2fce2e	0.010730309
235	0xbbfb236d	-0.007664135
236	0x9eaacfc1	-1.8085375e-20
237	0x16db12a6	3.5393127e-25
238	0x3884914b	6.3213134e-05
239	0x3c1c939d	0.009556678
240	0x3deda101	0.11602975
241	0x3e311f0d	0.17297001
242	0xbe131986	-0.14365205
243	0xbdc07bcc	-0.093986124
244	0x3badde0c	0.005306011
245	0x1cbbc61c	1.2425832e-21
246	0x3dcbf4f0	0.099588275
247	0x1bb40c58	2.978648e-22
248	0xbdd4d49f	-0.10392117
249	0xb99c251a	-0.00029782281
250	0xb9fdab03	-0.00048383334
251	0xbd87bd83	-0.06627943
252	0x3de692a0	0.11258435
253	0x3da7223a	0.08160825
254	0xba4d6ce7	-0.0007836357
255	0x96ad2578	-2.7973304e-25

bias f4 [10]
0	0x3dd17c3e	0.102287754
1	0x3de11bfc	0.10991666
2	0x3cd32286	0.025773298
3	0xbdd1b046	-0.102386996
4	0xbd2c65b4	-0.04208918
5	0x3d692342	0.05691839
6	0x3d016783	0.031592857
7	0x3d5323a3	0.051547658
8	0xbbabc6f4	-0.005242223
9	0xbe2180fa	-0.15771857
