2-hypertuning-mlflow/models/20250921-1132model.pt (torch, 137605 bytes, 12 tensors)

weight f4 [32, 1, 3, 3]
-0.13637896 -0.5292571 -0.68153274 0.005764228 -0.28076208 -0.29176253 -0.0069022514 0.35757947
0.29228118 0.36333016 0.25869796 -0.0106211165 0.30330855 -0.16558388 0.33131343 0.091053456
-0.18151337 0.3440964 -0.40568072 -0.26890793 -0.2714892 -0.23130521 -0.23011309 0.036501195
-0.40776318 -0.3265648 -0.5693759 0.003108456 -0.69112754 -0.61204696 -0.2352684 -0.19176276
-0.025275672 0.3974065 -0.03723905 -0.05360737 -0.25206897 -0.22154382 -0.005841961 -0.14908835
-0.3613412 -0.025314163 -0.61893445 -0.40020338 0.30180654 -0.3257852 -0.54285884 -0.3620882
-0.064659044 -0.6451302 -0.554421 -0.20444524 0.18367217 -0.33999664 0.002698688 0.20629762
0.1914691 -0.26104185 0.22242992 -0.19429755 0.056983113 0.27823922 0.2742546 0.27705762
0.29019323 0.025410593 0.39511052 0.24855374 0.11273399 0.08898985 0.059215236 -0.121971644
-3.6772256e-25 4.1339613e-19 3.1224187e-23 -3.1723941e-09 -0.00012050902 -6.510813e-21 -1.0829075e-16 -1.9216795e-06
-4.5590053e-07 -0.14068514 0.31369114 -0.002619427 0.39550468 0.04404639 0.046253283 -0.069776855
0.3955146 -0.1164823 1.4246902e-13 -2.652215e-22 7.5221575e-17 -6.168704e-08 2.4337245e-22 2.1355338e-22
9.941712e-07 -0.00022415207 6.314799e-13 -0.008732009 0.23474796 -0.06677506 0.012188071 -0.08931959
-0.03015266 0.19324072 0.31144974 0.04502228 -0.16709638 -0.1791517 0.24447893 -0.0064446707
0.35359964 0.35655844 -0.33236092 0.11482346 -0.1087819 0.27592802 0.18971427 -0.033578586
0.1321316 -0.3119234 -0.5405386 -0.00071919133 -0.5700456 -0.9128396 -0.22706062 0.04897336
0.04684562 -0.5268563 -0.49124238 -0.21833679 -0.021409493 -0.40506002 -0.5849444 0.13031411
0.2452366 0.21816707 0.09242959 -0.07220831 -0.25987318 0.1027259 0.09665902 -0.43894985
-0.21526463 -0.12800133 0.034585793 0.4066096 -0.11057921 0.2053106 0.37421504 0.17381316
-0.13882051 0.2980879 0.24284072 -0.011839716 0.22858196 -0.13732415 -0.20663294 0.16226274
0.23137899 0.3154515 -0.0155533785 -0.344212 -0.35439712 0.10582533 -0.11574821 -0.32736135
0.19427636 0.2494457 0.17816871 0.37276188 -0.00092191476 0.2787048 0.3808107 -0.051958174
0.36845005 0.10550284 -0.25432488 -0.20355071 0.034076568 0.004240112 -0.11029748 0.050361503
0.12407465 -0.14169224 0.2229098 0.2617371 -0.20064668 0.4395531 -0.24128489 0.15824962
0.26211673 -0.26958805 -0.060722567 0.052026555 0.18281285 -0.2778569 0.34816536 -0.2610574
-0.26075533 0.084251955 0.10337949 -0.03554692 0.25490844 0.08801547 -0.025781568 -0.09830951
-0.05042291 -0.4928067 0.13692321 -0.114537776 -0.084274754 0.19288868 0.30542204 0.24967371
-0.3219629 -0.5930619 0.18438677 -0.66075474 -0.11828696 -0.33644062 0.18344408 -0.46950644
0.17512198 -0.1659533 0.23382418 0.36055964 -0.1464748 0.101231806 0.24858414 -0.22857372
-0.28342748 -0.035646856 0.36322388 0.34961978 -0.088249594 0.21310619 -0.30042124 -0.13269432
0.099321984 -0.17009573 0.06161281 -0.46576867 -0.18394454 0.24930622 -0.44334486 -0.09478041
-0.18754485 0.12921548 -0.64818054 -0.5241927 0.24939153 0.15866278 -0.22057685 0.21946613
00000000: eda6 0bbe 657d 07bf ee78 2ebf d9e1 bc3b
00000010: 0cc0 8fbe e661 95be 482c e2bb a814 b73e
00000020: e1a5 953e 6906 ba3e 0f74 843e 3104 2ebc
00000030: 424b 9b3e d28e 29be eaa1 a93e 3c7a ba3d
00000040: a4de 39be 672d b03e 62b5 cfbe 4dae 89be
00000050: a200 8bbe 46db 6cbe c4a2 6bbe 4782 153d
00000060: 56c6 d0be 8033 a7be 9ec2 11bf 3db7 4b3b
00000070: bced 30bf 1caf 1cbf 33ea 70be 755d 44be
00000080: ed0e cfbc dd78 cb3e f987 18bd 6793 5bbd
00000090: 2f0f 81be 62dc 62be ec6d bfbb 9eaa 18be
000000a0: b701 b9be a65f cfbc 7d72 1ebf 75e7 ccbe
000000b0: 6386 9a3e 51cd a6be ccf8 0abf a063 b9be
000000c0: f66b 84bd 4127 25bf 89ee 0dbf 185a 51be
000000d0: 8f14 3c3e 0a14 aebe 79dc 303b af3f 533e
000000e0: 7a10 443e 47a7 85be abc4 633e f0f5 46be
000000f0: 2067 693d 5f75 8e3e 196b 8c3e 7fda 8d3e
00000100: 3594 943e e029 d03c ed4b ca3e df84 7e3e
00000110: 14e1 e63d 4f40 b63d ad8b 723d 45cc f9bd
00000120: f79b e396 a806 f420 acfd 161a 5901 5ab1
00000130: cab9 fcb8 b8f8 f59d 93b3 f9a4 34f6 00b6
00000140: 7ec2 f4b4 c40f 10be 209c a03e b1aa 2bbb
00000150: 977f ca3e fd69 343d 1574 3d3d 2be7 8ebd
00000160: e480 ca3e 468e eebd e667 202a 0a51 a09b
00000170: fb72 ad24 cf78 84b3 101c 931b c915 811b
00000180: 766f 8535 5d0a 6bb9 ecbe 312b b310 0fbc
00000190: c561 703e 5dc1 88bd 7ab0 473c 30ed b6bd
000001a0: b602 f7bc e5e0 453e 5776 9f3e 4869 383d
000001b0: 501b 2bbe 8b73 37be af58 7a3e d12d d3bb
000001c0: 030b b53e d48e b63e 362b aabe 9028 eb3d
000001d0: 0bc9 debd 7046 8d3e 7544 423e b389 09bd
000001e0: 824d 073e 6db4 9fbe bd60 0abf 1d88 3cba
000001f0: 82ee 11bf dbaf 69bf 9482 68be 4a98 483d
00000200: 31e1 3f3d 0ee0 06bf 1f84 fbbe ae93 5fbe
00000210: f662 afbc 0764 cfbe ebbe 15bf 1071 053e
00000220: 4e1f 7b3e 3067 5f3e ba4b bd3d f3e1 93bd
00000230: 190e 85be f561 d23d 2af5 c53d 09be e0be
00000240: 556e 5cbe c812 03be d5a9 0d3d 222f d03e
00000250: 5a77 e2bd f13c 523e 1d99 bf3e 14fc 313e
00000260: f726 0ebe fa9e 983e 3dab 783e 5efb 41bc
00000270: 6411 6a3e b49e 0cbe 9697 53be 3428 263e
00000280: 9dee 6c3e dc82 a13e 99d3 7ebc 8e3c b0be
00000290: 8a73 b5be f3ba d83d 660d edbd e89b a7be
000002a0: 62f0 463e b26e 7f3e dc71 363e a5da be3e
000002b0: a7ac 71ba 65b2 8e3e 9ff9 c23e 18d2 54bd
000002c0: 7ca5 bc3e df11 d83d df36 82be 996f 50be
000002d0: df93 0b3d a3f0 8a3b a5e3 e1bd dd47 4e3d
000002e0: da1a fe3d c517 11be 7742 643e 6802 863e
000002f0: 5376 4dbe 1b0d e13e 6313 77be 300c 223e
00000300: 2a34 863e 7207 8abe 3ab8 78bd cc19 553d
00000310: 4b33 3b3e 4243 8ebe bb42 b23e 51a9 85be
00000320: b981 85be 4a8c ac3d a0b8 d33d a699 11bd
00000330: 5c83 823e 7441 b43d de33 d3bc 7f56 c9bd
00000340: 4188 4ebd 2951 fcbe 9935 0c3e c892 eabd
00000350: 3e98 acbd 9c84 453e 4760 9c3e 77aa 7f3e
00000360: 52d8 a4be e8d2 17bf e3cf 3c3e 3927 29bf
00000370: 6f40 f2bd f241 acbe c4d8 3b3e 2663 f0be
00000380: 2d53 333e a9ef 29be 9b6f 6f3e 469b b83e
00000390: 7dfd 15be 9f52 cf3d d78c 7e3e 3b0f 6abe
000003a0: 681d 91be 7002 12bd 7bf8 b93e 5d01 b33e
000003b0: 34bc b4bd 8238 5a3e d0d0 99be 05e1 07be
000003c0: 5369 cb3d 932d 2ebe b75d 7c3d 3b79 eebe
000003d0: f55b 3cbe 214a 7f3e 19fe e2be 3b1c c2bd
000003e0: c20b 40be 1051 043e 29ef 25bf 7e31 06bf
000003f0: 7e60 7f3e 7f78 223e e6de 61be bbbb 603e

bias f4 [32]
0.08172972 0.06731915 0.15830196 0.13317457 0.17122622 0.28244546 0.2586139 0.03064003
-6.8212207e-06 0.018126683 -1.4696579e-05 0.112702936 -0.07317668 0.12547518 0.16960998 -0.104674004
0.07003688 0.21430196 0.32673603 -0.068284914 0.3131813 -0.0013567626 0.24398577 -0.056418207
0.18333386 -0.05552259 0.34008935 0.2267297 0.025609072 0.15628964 0.17222749 0.3084659
00000000: e961 a73d 9fde 893d e919 223e ea5e 083e
00000010: ed55 2f3e b19c 903e 0b69 843e cd00 fb3c
00000020: d7e1 e4b6 697e 943c 5391 76b7 ccd0 e63d
00000030: a8dd 95bd 917c 003e 3dae 2d3e 535f d6bd
00000040: 7f6f 8f3d f971 5b3e f249 a73e f6d8 8bbd
00000050: 4d59 a03e 66d5 b1ba 68d7 793e c716 67bd
00000060: dfbb 3b3e a86b 63bd 3120 ae3e d52b 683e
00000070: 1eca d13c 640a 203e 675c 303e 3eef 9d3e

weight f4 [32, 32, 3, 3]
-0.10344152 -0.17295633 -0.2218145 -0.14906879 -0.100381084 -0.10786477 -0.081264816 -0.07899861
-0.102359235 0.123129226 0.057912394 -0.007499024 0.018153686 -0.010605839 -0.0039623184 0.07382168
0.027390944 0.063739344 -0.06680616 -0.1089124 -0.13147455 -0.06224185 -0.10248164 -0.099689
-0.07924163 -0.072727636 -0.07730113 -0.08724994 -0.15165618 -0.13181537 -0.07457066 -0.13240518
-0.06200952 -0.12913902 -0.08081548 -0.0081011895 -0.09888998 -0.011335025 -0.10750774 -0.07612055
-0.081666924 -0.06883818 -0.04560068 -0.09359884 -0.09878111 -0.078838974 -0.12170472 -0.07513302
-0.110230185 -0.06991616 -0.09827074 -0.05319727 -0.09876428 -0.0020766489 0.11863088 0.053397622
0.04778267 0.1031805 0.10298221 -0.026645957 0.05371724 -0.008322071 0.024949206 0.13922867
0.06626557 0.037254896 0.10973073 -0.014615841 -0.05100915 0.060080517 -0.007128058 -0.04118894
2.2074738e-24 -3.0075292e-24 3.154412e-26 1.9239232e-25 4.85041e-25 -2.7390943e-24 -1.0099796e-24 -1.5089026e-25
5.948911e-25 0.043597095 0.01992728 -0.039258134 -0.0087557975 -0.029569577 -0.039674275 0.015449917
-0.03588862 -0.08961552 9.8619206e-23 8.9419794e-23 -1.9897786e-23 -1.1969334e-22 -5.509835e-23 -2.3181298e-23
-9.716496e-23 5.623974e-23 -8.674775e-24 0.11591056 0.022907851 0.06391276 0.082347624 0.088386394
-0.014992366 0.0034402707 0.007827871 -0.035760276 0.061279245 -0.038017996 -0.057008136 -0.009653795
-0.11687089 -0.12594455 0.015574204 -0.03758606 -0.051332273 -0.14218481 -0.17187695 -0.14220898
-0.10687576 -0.11719775 -0.052305248 -0.124638356 -0.21008293 -0.0565169 -0.057270393 -0.14036986
-0.1595662 -0.123377234 -0.09386335 -0.05988288 -0.1545451 -0.08182592 -0.057305295 -0.25562435
-0.2654557 -0.32307145 -0.27606454 -0.30918694 -0.38784257 -0.20469628 -0.20127425 -0.2857261
0.13266177 0.09353572 0.0048545157 0.08945405 -0.005473639 0.0596359 0.072049744 -0.011468215
-0.04171162 0.10800096 0.09009456 0.015329237 0.06886007 0.049378883 0.07963971 0.10860356
0.06959963 -0.02482653 0.015616445 -0.0172595 0.0379262 -0.0034994958 0.07604932 0.104498476
0.022975255 -0.010360598 0.08117507 -0.007140029 0.019610621 -0.076586485 -0.0014714267 -0.065684035
-0.034913354 -0.010619662 -0.070487194 -0.038981352 0.11353519 0.058460608 0.07178452 0.002446351
0.0118023865 0.06341158 0.08948969 0.09543146 0.019335503 0.12767276 0.029437058 -0.018026529
0.09549861 0.024277398 0.010134393 0.024316216 -0.0015276048 0.00025366686 0.07111789 0.1099795
0.07108045 0.060721073 0.055295873 0.07349708 -0.005111051 0.03596711 0.027981346 -0.30172914
-0.26252285 -0.224306 -0.2818947 -0.10933811 -0.05524944 -0.13344169 -0.1175043 0.0017335684
-0.04630242 -0.113946036 -0.11880237 -0.09226576 -0.12695199 -0.028865539 -0.021095872 -0.059542578
-0.06393509 -0.062411014 -0.2237603 -0.14346637 -0.0947579 -0.17420647 -0.19536741 -0.034655266
-0.1308728 -0.18238783 0.076108605 0.088344 -0.002308492 0.112201266 0.05699863 0.0539948
0.09909823 0.04318381 0.016009267 -0.036921922 -0.04224419 -0.052998167 -0.07123978 -0.04309386
-0.018689921 -0.10214167 -0.10999445 0.03221856 0.010679911 0.07611659 -0.0136472285 0.099607885
00000000: 26d9 d3bd 771b 31be 5723 63be 7da5 18be
00000010: 9994 cdbd 34e8 dcbd 2b6e a6bd 06ca a1bd
00000020: b8a1 d1bd 2d2b fc3d 8c35 6d3d 5fba f5bb
00000030: 0ab7 943c 1dc4 2dbc 56d6 81bb d22f 973d
00000040: f962 e03c c689 823d abd1 88bd 770d dfbd
00000050: 44a1 06be 4ff1 7ebd e5e1 d1bd bf29 ccbd
00000060: 7049 a2bd 3af2 94bd 0e50 9ebd 19b0 b2bd
00000070: c24b 1bbe 9cfa 06be 81b8 98bd 3995 07be
00000080: b2fd 7dbd 053d 04be 9682 a5bd daba 04bc
00000090: d486 cabd 8ab6 39bc 052d dcbd 17e5 9bbd
000000a0: fd40 a7bd 08fb 8cbd c7c7 3abd c0b0 bfbd
000000b0: c04d cabd 5476 a1bd 5340 f9bd 57df 99bd
000000c0: 5dc0 e1bd 3430 8fbd 2b42 c9bd 61e5 59bd
000000d0: ed44 cabd 6318 08bb bff4 f23d 77b7 5a3d
000000e0: c3b7 433d 4c50 d33d 56e8 d23d 9f48 dabc
000000f0: 9c06 5c3d 4c59 08bc 4762 cc3c f691 0e3e
00000100: 3eb6 873d 9798 183d 81ba e03d 4877 6fbc
00000110: f8ee 50bd fd16 763d 7c92 e9bb bcb5 28bd
00000120: 86cb 2a18 41b2 6898 ec32 1c15 8f2b 6e16
00000130: e81c 1617 5aed 5398 6a49 9c97 08cb 3a96
00000140: 211c 3817 de92 323d 893e a33c 23cd 20bd
00000150: 7a74 0fbc e63b f2bc 7e81 22bd a621 7d3c
00000160: f2ff 12bd 5788 b7bd 5572 ee1a 2c34 d81a
00000170: 8870 c099 4bb3 109b 3a38 859a 1d32 e099
00000180: 32ee ea9a b7fa 871a 68cb 2799 8462 ed3d
00000190: 3fa9 bb3c b1e4 823d dfa5 a83d ed03 b53d
000001a0: 8aa2 75bc 2a76 613b 7840 003c 5e79 12bd
000001b0: f2ff 7a3d c2b8 1bbd 5d81 69bd f32a 1ebc
000001c0: 015a efbd 9cf7 00be f22a 7f3c d7f3 19bd
000001d0: ca41 52bd e598 11be 8300 30be 3b9f 11be
000001e0: aee1 dabd 6005 f0bd 073e 56bd 6542 ffbd
000001f0: fb1f 57be 447e 67bd 5c94 6abd 1ebd 0fbe
00000200: 5265 23be 34ad fcbd 6e3b c0bd c047 75bd
00000210: 1241 1ebe 5994 a7bd f5b8 6abd 32e1 82be
00000220: cfe9 87be 9f69 a5be 5558 8dbe c04d 9ebe
00000230: 4d93 c6be e79b 51be d61a 4ebe b14a 92be
00000240: 7dd8 073e a88f bf3d a112 9f3b af33 b73d
00000250: 365c b3bb c644 743d d18e 933d 2ee5 3bbc
00000260: ced9 2abd 9b2f dd3d 7f83 b83d 7b27 7b3c
00000270: 8206 8d3d 8341 4a3d 251a a33d 8b6b de3d
00000280: 408a 8e3d 0261 cbbc 1edc 7f3c cc63 8dbc
00000290: 8158 1b3d cc57 65bb bfbf 9b3d 4c03 d63d
000002a0: 9a36 bc3c 7fbf 29bc 1d3f a63d e8f6 e9bb
000002b0: 74a6 a03c 60d9 9cbd e3dc c0ba 5a85 86bd
000002c0: 4e01 0fbd 17fe 2dbc 975b 90bd e9aa 1fbd
000002d0: 2385 e83d 6474 6f3d c303 933d f652 203b
000002e0: cc5e 413c eedd 813d 5f46 b73d 9271 c33d
000002f0: 7d65 9e3c a6bc 023e fc25 f13c 5fac 93bc
00000300: c694 c33d 65e1 c63c ba0a 263c cd32 c73c
00000310: e939 c8ba 97fe 8439 42a6 913d ef3c e13d
00000320: a192 913d a9b6 783d ed7d 623d a385 963d
00000330: 9a7a a7bb 4052 133d 2339 e53c 3e7c 9abe
00000340: 6569 86be 79b0 65be 8154 90be a9ec dfbd
00000350: 3d4d 62bd f0a4 08be 18a6 f0bd e738 e33a
00000360: 9ba7 3dbd 8a5c e9bd a84e f3bd d5f5 bcbd
00000370: b4ff 01be 6c77 ecbc 40d1 acbc ebe2 73bd
00000380: 67f0 82bd b1a2 7fbd 6c21 65be d9e8 12be
00000390: 6e10 c2bd 2e63 32be 650e 48be aef2 0dbd
000003a0: 8503 06be e0c3 3abe d4de 9b3d b3ed b43d
000003b0: 124a 17bb c7c9 e53d 6577 693d a729 5d3d
000003c0: 03f4 ca3d 82e1 303d de25 833c 713b 17bd
000003d0: 3e08 2dbd 9b14 59bd 29e6 91bd 3083 30bd
000003e0: 9b1b 99bc a72f d1bd c544 e1bd 9cf7 033d
000003f0: cbfa 2e3c 04e3 9b3d a098 5fbc 38ff cb3d

bias f4 [32]
0.08288869 0.017200543 0.07935782 0.07442154 0.0398548 0.020438602 -0.003589263 -0.032416593
0.010155153 0.09178794 -0.057223413 0.008375362 0.024059905 0.05887684 0.08284855 0.0031888895
0.0102683045 0.025886517 0.04953646 0.052642874 -1.0492166e-09 0.09106534 0.016227141 0.040344022
-0.000952823 0.04724934 -0.014084107 0.045536913 -0.012222971 0.035703655 0.0046384637 -0.014178673
00000000: 8cc1 a93d 27e8 8c3c 5a86 a23d 526a 983d
00000010: c93e 233d db6e a73c d739 6bbb 43c7 04bd
00000020: cd61 263c 51fb bb3d 1963 6abd d038 093c
00000030: 4719 c53c d728 713d 80ac a93d b0fc 503b
00000040: 643c 283c f60f d43c bee6 4a3d 0ea0 573d
00000050: 0734 90b0 7780 ba3d c8ee 843c c63f 253d
00000060: dec6 79ba 8688 413d 07c1 66bc ea84 3a3d
00000070: db42 48bc ff3d 123d 41fe 973b aa4d 68bc

weight f4 [32, 32, 3, 3]
0.0756412 -0.043270197 -0.05638096 0.019130874 -0.04040267 0.029289298 0.0017422065 0.024002077
0.06500323 0.0011544041 -0.002648155 0.0034982709 0.000765638 -0.0024452347 -0.003889651 0.0036588523
0.010573942 0.002333839 -0.053727802 0.08729537 0.1164886 0.02133215 0.019779462 0.12249035
-0.067706265 -0.12490631 -0.13429365 0.07181142 -0.06380627 -0.10378689 0.05752153 0.011358209
-0.021467123 0.028439589 0.087909535 0.039253738 -0.09100073 -0.03891064 -0.021568792 -0.04730395
-0.064084806 0.019975888 0.030907158 -0.07946224 0.00753901 0.11154404 0.010012396 0.010835073
-0.0006665593 0.017770512 0.05108345 -0.04525623 0.008525889 0.045963775 0.011031887 0.012889317
0.0144785745 -0.003399703 0.04174547 -0.07464703 -0.032305177 0.026540505 -0.24944483 0.009548859
0.051766895 0.08267538 0.010279077 -0.04062824 -0.011467688 -0.086696856 -0.006311571 -0.15836701
-0.03535395 -0.02323619 0.05616306 0.042838585 0.035736773 0.05440732 -0.07409148 -0.06188229
0.056443647 0.04854216 -0.036497463 -0.058515593 0.111569494 0.064656205 -0.022934034 0.028812082
0.030092318 0.022230344 0.012057493 -0.011696602 0.01484044 0.032212675 -0.027576223 0.026467297
-0.014572216 -0.04640497 -0.015751988 0.006664804 0.029660426 0.02855151 -0.015105544 -0.012113751
0.15927142 -0.09276852 -0.104048274 0.06790482 0.08097113 -0.026239533 -0.04318924 0.0156434
-0.021626556 0.03269119 0.02081426 0.07601951 0.0989035 0.07739109 -0.06638638 -0.035153747
0.074703775 -0.031296518 0.01087128 -0.020754147 0.035151657 0.11351428 0.00039114594 -0.02953673
0.106934115 -0.019916914 0.048497487 0.082443595 -0.042514417 -0.10619546 -0.10226626 -0.013114358
-0.016876997 -0.020738898 -0.015019376 -0.019273907 -0.022118602 -0.02015665 -0.023179008 -0.025043262
0.046937786 -0.016160568 -0.10498608 0.030389886 -0.0038868818 -0.036264513 0.05134072 0.10817636
0.047007166 0.10801439 -0.022084158 -0.021391813 0.057584006 -0.030940155 -0.016554063 0.025348134
0.045791082 0.07662546 0.07133542 0.018384665 -0.019772246 0.037062086 -0.028977672 -0.034803867
0.074678846 0.05907078 0.067894965 0.08251725 -0.017740283 -0.025500257 0.085712984 -0.018763408
0.003289337 -0.037169583 0.09339646 0.07063705 -8.867544e-19 -1.03207396e-19 -1.1667949e-18 4.9453003e-19
7.474452e-19 2.644011e-18 -1.5215832e-18 -1.9465719e-18 1.5619695e-18 0.07030015 -0.040864423 0.009809524
0.06499555 0.0073194955 -0.019835252 -0.057216093 0.059875835 0.06932107 0.08882558 0.01847803
-0.08996686 0.024904383 0.06771262 0.034973163 -0.014474844 -0.0142823765 0.015168224 0.035802398
-0.056529973 -0.032513842 -0.024697863 -0.01262412 -0.0030755363 -0.046304647 -0.0050117504 0.070036754
-4.3959977e-15 -4.4583077e-05 -0.00035086015 -4.53262e-15 -2.6249197e-08 -8.821203e-11 5.707774e-16 -1.628116e-13
4.9055253e-09 -0.011267174 -0.016355675 0.0769023 -0.040947106 -0.02090728 0.014383759 -0.022930946
-0.14720148 -0.21791156 -0.011232541 -0.011293601 -0.01031092 -0.013311058 -0.010139465 -0.006865682
-0.011550431 -0.006659438 -0.003134644 0.13823095 0.026079822 -0.025376432 0.003592414 0.044689182
0.016291134 -0.014599552 0.09316412 0.0910309 -0.0011576533 -0.0010254116 7.84079e-05 -0.0011590353
00000000: c6e9 9a3d 173c 31bd b9ef 66bd 5ab8 9c3c
00000010: 457d 25bd 1cf0 ef3c c05a e43a 01a0 c43c
00000020: 6a20 853d 604f 973a ab8c 2dbb 3f43 653b
00000030: 19b5 483a 3b40 20bb 84e9 7ebb 5bc9 6f3b
00000040: 543e 2d3c 52f3 183b af11 5cbd eac7 b23d
00000050: 9391 ee3d c3c0 ae3c 8a08 a23c 38dc fa3d
00000060: 95a9 8abd e1ce ffbd 4684 09be de11 933d
00000070: ddac 82bd 398e d4bd b29b 6b3d c817 3a3c
00000080: d2db afbc 24fa e83c ea09 b43d 87c8 203d
00000090: 975e babd c360 1fbd 09b1 b0bc c9c1 41bd
000000a0: e53e 83bd 79a4 a33c 0231 fd3c 19bd a2bd
000000b0: cd09 f73b 3471 e43d 080b 243c 9785 313c
000000c0: 0abc 2eba 7793 913c e13c 513d 995e 39bd
000000d0: 2cb0 0b3c 8344 3c3d 16bf 343c b72d 533c
000000e0: 8b37 6d3c 8dcd 5ebb 4cfd 2a3d 8be0 98bd
000000f0: 6f52 04bd 796b d93c 776e 7fbe d172 1c3c
00000100: 8609 543d b651 a93d 9369 283c cc69 26bd
00000110: f8e2 3bbc 1f8e b1bd 4cd1 cebb f62a 22be
00000120: 4ecf 10bd d359 bebc 3d0b 663d 8377 2f3d
00000130: b960 123d 36da 5e3d 46bd 97bd 4978 7dbd
00000140: 7431 673d 25d4 463d 5d7e 15bd 0cae 6fbd
00000150: 8c7e e43d 796a 843d 28e0 bbbc 5107 ec3c
00000160: 2a84 f63c 691c b63c cb8c 453c 1ba3 3fbc
00000170: 5125 733c 70f1 033d 88e7 e1bc f2d1 d83c
00000180: 4ec0 6ebc 2313 3ebd 500a 81bc 6e64 da3b
00000190: 6cfa f23c dbe4 e93c 3e7d 77bc c178 46bc
000001a0: 0c18 233e 6cfd bdbd 4317 d5bd af11 8b3d
000001b0: 31d4 a53d 4af4 d6bc 33e7 30bd 9626 803c
000001c0: 2d2a b1bc 32e7 053d ab82 aa3c 1eb0 9b3d
000001d0: eb8d ca3d 387f 9e3d 95f5 87bd 60fd 0fbd
000001e0: 4bfe 983d c730 00bd 741d 323c 9a04 aabc
000001f0: 2ffb 0f3d 2d7a e83d b812 cd39 03f7 f1bc
00000200: 4600 db3d cc28 a3bc 4da5 463d 30d8 a83d
00000210: 9923 2ebd 017d d9bd f970 d1bd 9bdd 56bc
00000220: a141 8abc 9fe4 a9bc d413 76bc 50e4 9dbc
00000230: 1232 b5bc 8f1f a5bc e7e1 bdbc 8727 cdbc
00000240: d641 403d 2b63 84bc f102 d7bd 36f4 f83c
00000250: 0ebb 7ebb 198a 14bd a64a 523d 918b dd3d
00000260: 968a 403d a636 dd3d d6e9 b4bc e23d afbc
00000270: 35dd 6b3d 3576 fdbc 639c 87bc e4a6 cf3c
00000280: 6e8f 3b3d cfed 9c3d 4e18 923d 709b 963c
00000290: 68f9 a1bc 6ace 173d 9562 edbc 808e 0ebd
000002a0: 39f1 983d 34f4 713d 840c 8b3d cefe a83d
000002b0: 1254 91bc eae5 d0bc 4a8a af3d b8b5 99bc
000002c0: eb91 573b 223f 18bd a546 bf3d 28aa 903d
000002d0: a2dc 82a1 0bb1 f39f 4430 aca1 a2f5 1121
000002e0: 5d9b 5c21 f517 4322 ca8b e0a1 b4a1 0fa2
000002f0: 8a81 e621 86f9 8f3d 7461 27bd 20b8 203c
00000300: 631c 853d 61d8 ef3b 8a7d a2bc 6c5b 6abd
00000310: 5d40 753d 35f8 8d3d 30ea b53d 3d5f 973c
00000320: 8c40 b8bd 4704 cc3c eaac 8a3d 0540 0f3d
00000330: e527 6dbc a100 6abc 2584 783c 89a5 123d
00000340: f98b 67bd 3c2d 05bd 2c53 cabc 66d5 4ebc
00000350: f08e 49bb f1a9 3dbd 9c39 a4bb 6e6f 8f3d
00000360: ec61 9ea7 b7fe 3ab8 a7f3 b7b9 0a4e a3a7
00000370: 987a e1b2 f5fa c1ae f083 2426 404f 37aa
00000380: 758d a831 f499 38bc 56fc 85bc f47e 9d3d
00000390: 27b8 27bd be45 abbc dca9 6b3c aed9 bbbc
000003a0: fcbb 16be 3524 5fbe b108 38bc cc08 39bc
000003b0: 22ef 28bc a016 5abc 0020 26bc 84f9 e0bb
000003c0: 053e 3dbc 6a37 dabb 996e 4dbb 6a8c 0d3e
000003d0: 5aa5 d53c 3ce2 cfbc b56e 6b3b 010c 373d
000003e0: fc74 853c f632 6fbc d5cc be3d 696e ba3d
000003f0: 66bc 97ba 1b67 86ba ec6e a438 c5ea 97ba

bias f4 [32]
-0.031460505 -0.03410749 0.046297282 -0.019742586 0.043757156 0.042772803 -0.0070077605 0.10319033
0.033912554 -0.022049412 0.010834995 -0.057070486 -4.353275e-09 -0.00357843 0.11006328 0.0010934726
0.014697505 0.0071205217 -0.01638302 0.05911605 -0.03337266 0.024626495 0.013915882 -0.011024822
0.051038604 -0.013537875 -0.012224253 0.070802286 -0.0052465117 0.020652821 -0.011884988 0.0581108
00000000: bbdc 00bd 4cb4 0bbd 38a2 3d3d 34bb a1bc
00000010: b43a 333d 8932 2f3d 5ba1 e5bb 7455 d33d
00000020: e4e7 0a3d f8a0 b4bc 4385 313c bec2 69bd
00000030: d093 95b1 1884 6abb db68 e13d da52 8f3a
00000040: cecd 703c 4453 e93b af35 86bc ac23 723d
00000050: c5b1 08bd 81bd c93c 71ff 633c 74a1 34bc
00000060: db0d 513d f7cd 5dbc 3c48 48bc ca00 913d
00000070: eeea abbb 1b30 a93c 41b9 42bc 9705 6e3d

weight f4 [128, 32]
-0.06627368 2.2767883e-07 0.008109889 0.0023863958 0.032699153 0.00064992416 -0.08017926 0.049429804
0.15313382 0.10381016 -0.09530735 0.057889376 5.3465605e-25 0.07027291 -0.17257376 0.104490474
-0.17706439 -0.061485007 0.021533113 0.21081258 0.013420336 0.0559196 0.07551883 -0.071164474
0.17568816 -0.01078043 -0.003350793 0.066969514 -0.0019614124 -0.1282267 0.0309286 -0.22580056
3.9394683e-18 1.10065175e-16 5.9810485e-17 1.4892528e-23 1.0659331e-22 -2.8756026e-25 6.9707093e-15 -1.2422561e-22
-2.67087e-23 -3.2027218e-13 2.823539e-25 -1.8877504e-21 1.8757295e-25 9.423488e-20 -1.4759468e-23 9.7057205e-23
-9.327103e-27 -1.1248956e-18 -1.40851e-24 1.6723057e-22 1.1655601e-16 8.160168e-24 -5.0303416e-23 -3.4978136e-24
1.7559579e-20 -2.0283352e-22 7.3486435e-22 -9.815574e-26 1.5359151e-22 -3.851113e-25 -1.4892005e-26 -2.183935e-14
0.01982496 -1.4999769e-23 0.06500753 -0.09280924 -0.2505414 -0.030233769 -0.10776095 0.12064495
0.18836989 -0.05511903 -0.21922646 0.008485709 2.265844e-19 -0.01829141 0.10227955 0.11337204
-0.05508173 -0.27811196 0.035985302 0.16452053 -0.09800155 1.4461074e-20 0.12290173 -0.07437462
-0.11175231 -1.8842705e-12 1.7553629e-20 0.029738734 -0.066640705 -0.09591765 -0.044596173 -0.061797682
0.04855462 1.6199144e-25 -0.113830365 0.035703678 0.057157736 -0.07880648 0.0020314832 0.007051383
0.27305716 -0.030882338 -0.018682396 -0.0027476863 -6.20949e-24 0.06392639 0.071299545 -0.053332612
0.036726147 -0.08924211 0.0027798917 0.09383377 0.06624741 7.320332e-16 -0.007459439 0.013348127
0.024126133 -9.836437e-26 -0.0022131314 0.073126025 -0.07647032 0.0052003576 -0.11527067 0.029139135
-0.06867066 5.979743e-18 0.10482326 0.02590632 0.018739032 -0.041062877 0.011521603 -0.1264192
-0.032411434 0.13891107 0.016632553 -3.7494788e-06 -8.635604e-14 -0.007168034 -0.0075525246 -0.06967818
-0.007060685 9.849863e-25 -2.6150582e-22 -0.056816854 -0.034884248 -0.07263883 -0.039870903 -0.0058648568
-0.08901412 -1.1425532e-22 1.4940153e-20 -0.00032798297 -0.05240895 -0.0824726 0.084372215 -0.070435524
0.12156543 -6.830066e-24 0.079796694 -0.101410836 -0.044830933 0.05894181 0.16092616 0.026120704
-0.04953849 -0.17978887 -0.14913793 -0.019901255 -4.9720054e-25 0.09420148 0.05894235 -0.055953454
0.0071824524 -0.064728454 0.0160086 0.037138015 -0.015427872 -4.6601188e-23 -0.18099783 0.016029822
-0.13935943 -0.07639805 0.09290643 0.045888208 -0.16469416 -0.1814516 -0.1900807 0.06800359
-0.086066805 9.430518e-16 -0.053461183 -0.001988289 0.008710822 -0.008418924 -0.00043977535 -0.017285904
-0.06370235 0.014468769 -0.06302518 -5.9577507e-25 -1.8907732e-23 -0.012702029 -0.0045199855 0.033511344
-0.0064997794 -4.1905496e-06 -4.120334e-12 -0.0007542946 -0.011605356 6.0120347e-26 0.03126657 0.005445841
-0.022540271 -7.501358e-24 -0.00011608576 -0.0035613952 0.01725952 0.06466591 0.006645686 -0.015532145
0.03965784 -6.4879505e-14 0.050001547 0.059552003 -0.06445431 -0.0019995978 -0.03469919 0.11009323
-0.040522285 -0.07087714 -0.08599785 -0.019699179 -1.1071043e-23 -0.018029658 -0.063420705 0.056343246
-0.02318632 -0.07162788 -0.0028671236 0.07277456 -0.07613834 -2.3164592e-11 0.046006322 -0.10114379
-0.08241758 -1.4864612e-18 4.249864e-24 -0.041426234 -0.033216882 -0.01955556 -0.01228449 -0.08143456
00000000: 7fba 87bd e177 7434 57df 043c 1465 1c3b
00000010: 8cef 053d ac5f 2a3a 0635 a4bd e876 4a3d
00000020: 1dcf 1c3e 6c9a d43d 8030 c3bd 691d 6d3d
00000030: d177 2517 3eeb 8f3d 2db7 30be 1aff d53d
00000040: 5e50 35be b4d7 7bbd 3666 b03c 41df 573e
00000050: f8e0 5b3c f30b 653d 9ea9 9a3d aebe 91bd
00000060: 99e7 333e 67a0 30bc fa98 5bbb 5027 893d
00000070: 0a8b 00bb dc4d 03be fa5d fd3c 4338 67be
00000080: 3a57 9122 03cb fd24 e1e9 8924 1d08 9019
00000090: 08dd 001b befd b196 7225 fb27 f72d 169b
000000a0: c527 019a 164c b4aa c3c4 ae16 67a2 0e9d
000000b0: 3e34 6816 7d81 de1f acbe 8e99 80ab ea1a
000000c0: 08be 3894 5b01 a6a1 d4f4 d997 5b2b 4a1b
000000d0: 4361 0625 32d7 1d19 9d40 739a ab50 8798
000000e0: 75d8 a51e ef35 759b 6019 5e1c 9705 f395
000000f0: 45ae 391b 525f ee96 b87b 9394 1db6 c4a8
00000100: f467 a23c a111 9199 ab22 853d c512 bebd
00000110: f646 80be cfac f7bc c6b1 dcbd b314 f73d
00000120: 09e4 403e 7ec4 61bd e77c 60be a507 0b3c
00000130: 77c0 8520 ded7 95bc f177 d13d 9a2f e83d
00000140: 619d 61bd b164 8ebe 5365 133d 1278 283e
00000150: 09b5 c8bd bb94 881e e7b3 fb3d b951 98bd
00000160: 65de e4bd 0098 04ac 12ca a51e a59e f33c
00000170: ec7a 88bd 7970 c4bd 7aaa 36bd 911f 7dbd
00000180: 36e1 463d 2389 4816 e51f e9bd 053e 123d
00000190: 3b1e 6a3d 4b65 a1bd a222 053b 4a0f e73b
000001a0: 26ce 8b3e f5fc fcbc d30b 99bc 8712 34bb
000001b0: cf37 f098 d7eb 823d 7f05 923d 4c73 5abd
000001c0: 286e 163d 91c4 b6bd d82e 363b eb2b c03d
000001d0: b9ac 873d 84fe 5226 4f6e f4bb 1ab2 5a3c
000001e0: 2ba4 c53c d489 f395 2f0a 11bb 19c3 953d
000001f0: 799c 9cbd c367 aa3b 0713 ecbd 32b5 ee3c
00000200: 34a3 8cbd 139d dc22 94ad d63d 7e39 d43c
00000210: 9982 993c 8c31 28bd 1bc5 3c3c 0974 01be
00000220: dac1 04bd b43e 0e3e fe40 883c 8e9f 7bb6
00000230: de74 c2a9 d4e1 eabb 2b7b f7bb 6fb3 8ebd
00000240: 525d e7bb 546b 9817 1112 9e9b cab8 68bd
00000250: c9e2 0ebd abc3 94bd ac4f 23bd fc2d c0bb
00000260: 094d b6bd 4f20 0a9b 131b 8d1e 21f5 abb9
00000270: c4aa 56bd 65e7 a8bd 57cb ac3d 8040 90bd
00000280: 4cf7 f83d d91c 0499 736c a33d 7cb0 cfbd
00000290: a4a0 37bd f86c 713d d4c9 243e 16fb d53c
000002a0: dfe8 4abd 931a 38be 9db7 18be f507 a3bc
000002b0: 49e0 1997 b5ec c03d 896d 713d 732f 65bd
000002c0: c75a eb3b 5a90 84bd 7824 833c 081e 183d
000002d0: 2fc5 7cbc 7a59 619a 7f57 39be f950 833c
000002e0: 3db4 0ebe 9576 9cbd ba45 be3d 46f5 3b3d
000002f0: 96a5 28be 73ce 39be 84a4 42be 7745 8b3d
00000300: cb43 b0bd 78e8 8726 1dfa 5abd f44d 02bb
00000310: d6b7 0e3c 87ef 09bc a691 e6b9 2b9b 8dbc
00000320: 6176 82bd 6a0e 6d3c 5813 81bd 2a62 3897
00000330: 47dd b699 2c1c 50bc 631c 94bb 3143 093d
00000340: 1afc d4bb 8c9c 8cb6 abf8 90ac dbbb 45ba
00000350: 6424 3ebc ccd9 9415 6011 003d 0673 b23b
00000360: 60a6 b8bc ed18 1199 1173 f3b8 4c66 69bb
00000370: d663 8d3c 906f 843d 0ec4 d93b 8a7a 7ebc
00000380: 4270 223d 7d18 92a9 6cce 4c3d cdec 733d
00000390: 9f00 84bd af0b 03bb bd20 0ebd 8f78 e13d
000003a0: b2fa 25bd 0928 91bd a41f b0bd 2c60 a1bc
000003b0: 2625 5699 efb2 93bc b7e2 81bd 2dc8 663d
000003c0: 3df1 bdbc a3b1 92bd 5ae6 3bbb d40a 953d
000003d0: 6bee 9bbd 06c2 cbad 2071 3c3d 7a24 cfbd
000003e0: 8cca a8bd eb5c dba1 9d68 a418 8eae 29bd
000003f0: 6d0e 08bd fb32 a0bc e344 49bc 2ac7 a6bd

bias f4 [128]
0.1124117 -1.0574848e-17 -0.10889982 0.047680017 0.1255859 -0.09236039 -0.007434944 -0.03145941
0.11444029 0.15291692 0.116491765 -0.1581731 0.0027805264 -0.049371727 0.01665177 -0.11279279
-0.05636434 0.0030879846 0.0478525 0.17417607 -0.0009837126 0.12817426 0.2069444 0.19211628
-0.017949238 0.10093764 0.0842451 -0.030118817 0.08388551 0.0708491 -0.070882455 -0.0483279
0.016711928 -0.12143842 0.08188408 -0.03128026 -0.05382117 0.021658152 -0.0001567589 0.0040203687
-0.059881065 0.04711818 -0.04649806 0.019368172 7.41116e-25 0.18556 0.14593954 -0.0030471936
0.16523524 0.0094340695 0.120298505 0.16665052 0.16128959 0.13539876 0.07592676 -0.002294696
0.12563178 -0.0032770885 0.13896981 -0.096524425 0.1297205 0.036405716 0.193253 -0.023875475
0.18420203 0.006632171 -0.023457766 0.15166827 -0.14614102 0.19642308 0.040640652 -0.13601217
-1.1164193e-19 0.106748216 -0.023888506 0.17149052 -0.06624121 0.021985592 0.12145429 0.2353489
1.4878665e-25 0.058659386 0.22061162 -0.08052457 -0.036965508 -0.046504885 0.17897923 0.19220355
2.8666817e-20 -0.07884275 0.041967496 0.1542171 0.1929986 -0.035134893 0.1417689 0.13020092
-0.013382539 0.15814568 -0.013912529 -0.008560087 0.063713916 0.024069367 0.0013695407 0.12288988
1.2790043e-24 0.07102088 -0.034291487 -2.2694018e-24 -0.050498173 0.14949986 0.18502995 -0.055400584
-0.044298843 0.06387141 -0.039353915 0.16521928 0.10067352 0.033543654 0.01906368 -0.03204162
0.1968864 0.10025539 0.10033513 -0.05315332 -0.0368006 -0.038143348 -0.067288384 0.07945321
00000000: 1b38 e63d 4f12 43a3 de06 dfbd 1f4c 433d
00000010: 9799 003e 7227 bdbd d5a0 f3bb 95db 00bd
00000020: ac5f ea3d 4196 1c3e 3c93 ee3d 21f8 21be
00000030: 7e39 363b 023a 4abd 4b69 883c e8ff e6bd
00000040: 4bde 66bd c95f 4a3b fc00 443d 365b 323e
00000050: ebef 80ba 1d40 033e 3ce9 533e 21ba 443e
00000060: 480a 93bc 65b8 ce3d b288 ac3d bdbb f6bc
00000070: 2bcc ab3d 5519 913d d22a 91bd 7af3 45bd
00000080: 74e7 883c b5b4 f8bd d7b2 a73d bb1f 00bd
00000090: 9673 5cbd 706c b13c a65f 24b9 4cbd 833b
000000a0: d945 75bd fefe 403d c074 3ebd 00aa 9e3c
000000b0: 425d 6517 7103 3e3e 2d71 153e 6db3 47bb
000000c0: 6d33 293e 5b91 1a3c 105f f63d 6fa6 2a3e
000000d0: 1929 253e f9a5 0a3e 7d7f 9b3d 9c62 16bb
000000e0: 9ea5 003e 6cc4 56bb 1a4e 0e3e 99ae c5bd
000000f0: 73d5 043e 291e 153d 1de4 453e 8096 c3bc
00000100: 759f 3c3e af52 d93b 802a c0bc ed4e 1b3e
00000110: fea5 15be 2223 493e d076 263d c646 0bbe
00000120: b4cd 03a0 cf9e da3d d4b1 c3bc 369b 2f3e
00000130: 79a9 87bd 211b b43c 07bd f83d 4dff 703e
00000140: 5f30 3816 d344 703d 03e8 613e 11ea a4bd
00000150: 2569 17bd e87b 3ebd 5546 373e 02d1 443e
00000160: 0e60 071f 4f78 a1bd 1ce6 2b3d 16eb 1d3e
00000170: 6da1 453e 9be9 0fbd de2b 113e 6453 053e
00000180: 7042 5bbc f1f0 213e 60f1 63bc 9b3f 0cbc
00000190: 717c 823d 1f2d c53c 2982 b33a b0ad fb3d
000001a0: 95ea c517 6573 913d 3b75 0cbd 2296 2f98
000001b0: 2cd7 4ebd 7e16 193e 7e78 3d3e b9eb 62bd
000001c0: b472 35bd 04cf 823d 9231 21bd 3e2f 293e
000001d0: eb2d ce3d 1265 093d 6f2b 9c3c 133e 03bd
000001e0: 979c 493e b352 cd3d 817c cd3d 4cb7 59bd
000001f0: 3abc 16bd 333c 1cbd 7ece 89bd 5db8 a23d

weight f4 [64, 128]
0.0062570353 -1.676397e-25 8.141946e-06 -3.6542554e-24 0.022304047 -1.5905747e-27 -5.8104625e-25 4.7097035e-24
0.048840668 -0.0370442 0.007868294 6.0733095e-26 0.011155652 1.840508e-05 0.045722105 0.05542389
0.009310197 0.007237086 -0.0013411638 0.033367522 1.9925483e-25 0.013319776 0.035229973 -0.07266915
0.05286653 0.009708052 0.03154163 -0.02959362 -0.045397375 0.051437408 -0.029987443 -1.0044272e-24
-0.04014322 -0.00013365512 -0.0671542 -4.5213987e-25 -1.8413591e-25 -0.051180586 3.7250446e-25 0.066372596
-8.9600036e-08 0.028429553 2.823338e-24 -0.047866352 1.12060465e-26 -0.07679428 -0.079561226 -0.012959559
0.00866904 0.027666766 -0.00708824 -0.05046889 -0.028526584 -0.03693663 -0.06464345 -0.0018176024
0.058905654 0.0045997156 -0.025778001 0.0053465483 0.011737986 -0.00036849786 -0.004461313 -5.852763e-26
-0.04245958 -0.002828295 -1.0965644e-24 -0.04900846 -0.010675299 -0.09001187 -0.0028241116 1.0498705e-25
-3.6897827e-25 -0.07313821 -0.016777847 -0.011092668 -0.07625777 0.04224148 -0.050587006 0.035194352
2.043592e-25 0.04467827 -0.008887939 9.4487276e-26 -0.016114613 6.0415016e-25 -0.026055712 0.0032991355
-1.1922504e-24 -2.7322647e-24 -0.015445089 -0.080714405 -0.094498 7.1712273e-25 0.047654632 0.050627004
-0.059998017 -0.053529 6.2088284e-25 -0.013293301 0.0229274 0.03715035 0.011729435 -0.026843362
1.2707127e-24 -0.031188378 -4.1144717e-25 -1.9660818e-23 0.039542314 -0.084496915 0.05756912 0.027432226
4.685139e-17 0.045705996 4.888114e-24 -0.0746608 -0.021400353 0.025448866 -0.035093248 -1.7778914e-22
-0.08518766 -0.06218937 0.049575288 0.008971844 -6.635478e-25 -2.3959574e-25 0.002654154 0.018725682
0.17374076 -7.812093e-23 -0.081837684 0.03649363 0.058582433 -0.19033676 0.00033134638 0.09735495
0.07154546 0.026442934 0.045640655 0.04530552 0.07833225 0.0043757223 0.028856825 -0.062085547
-0.043804485 -0.002769836 0.040869888 -0.018820219 -4.657984e-24 0.009256016 0.17385039 -0.1529285
0.059923075 0.027174735 -0.0122955525 0.020997528 0.13724479 0.078737766 -0.020831892 -0.15384775
0.12379127 0.10812449 0.11625185 0.03459661 0.027172176 0.030810274 -0.010012988 0.045297287
0.009230909 0.037515864 -3.924241e-10 -0.025494019 -1.2437323e-25 -0.011979706 0.08212353 0.10190067
0.01786766 0.14634576 -0.027224507 -0.06755051 -0.086263314 0.00059034664 -0.048782285 0.032785553
-0.08928415 0.024468003 0.042912845 -0.004292196 0.13556494 0.04382769 0.20316559 -0.017058214
0.018064423 -0.09080794 -0.01571957 0.03863033 -0.08985069 -0.017544918 0.018384967 0.0037905865
1.2480413e-25 0.015977183 0.06911344 -0.066597596 -0.034338675 -0.09570657 -0.1371322 -0.101399906
5.692283e-23 0.08700565 0.09120041 -0.013844447 0.031130766 0.06463163 -0.1016542 -0.04068562
1.2679342e-24 -0.010422588 -0.0055174655 -0.03864296 0.015285724 0.030447183 -0.03294782 -0.109074965
-0.018897468 -0.05570302 0.05340662 0.15021719 0.002768419 -0.08701741 0.04270547 0.03610395
-1.1733094e-24 0.058807023 0.00555178 2.0708393e-25 -0.0074857445 0.02812067 0.09217229 -0.037854865
0.077728376 0.04766126 0.003649956 -0.071636416 -0.024264485 0.012150903 -0.12708035 0.039284524
0.14109428 -0.0077138958 -0.08667269 -0.07099048 0.096390754 0.028336449 -0.029773999 0.028615253
00000000: d107 cd3b 2487 4f96 6499 0837 fe5d 8d98
00000010: fab6 b63c 6009 fc92 3ad3 3397 a532 b618
00000020: 270d 483d a9bb 17bd 04ea 003c 2c5e 9615
00000030: 32c6 363c 9c64 9a37 1a47 3b3d 2904 633d
00000040: cc89 183c 1425 ed3b fdc9 afba 62ac 083d
00000050: 60aa 7616 313b 5a3c 4e4d 103d 90d3 94bd
00000060: 938a 583d 850e 1f3c cc31 013d 526e f2bc
00000070: 99f2 39bd 08b0 523d 3aa8 f5bc 766d 9b97
00000080: 386d 24bd c625 0cb9 2488 89bd 36ee 0b97
00000090: 00f3 6396 bca2 51bd b091 e616 5bee 873d
000000a0: 246a c0b3 18e5 e83c f871 5a18 820f 44bd
000000b0: 68f5 5d14 5246 9dbd fff0 a2bd 5554 54bc
000000c0: 9708 0e3c 6aa5 e23c 7744 e8bb 78b8 4ebd
000000d0: 95b0 e9bc dd4a 17bd c963 84bd 9e3c eeba
000000e0: 0e47 713d 36b9 963b 632c d3bc 1932 af3b
000000f0: ae50 403c f232 c1b9 3530 92bb 4be8 9095
00000100: 19ea 2dbd eb5a 39bb 64af a997 18bd 48bd
00000110: 73e7 2ebc 2558 b8bd bb14 39bb b9f7 0116
00000120: f162 e496 7cc9 95bd b271 89bc 06be 35bc
00000130: 092d 9cbd 6705 2d3d 5234 4fbd f427 103d
00000140: 04fc 7c16 9000 373d b89e 11bc 6df0 e915
00000150: cb02 84bc b5f9 3a17 ca72 d5bc 4f36 583b
00000160: e77d b897 1466 5398 660d 7dbc 984d a5bd
00000170: 2b88 c1bd 51f0 5d17 8131 433d 435e 4f3d
00000180: 7bc0 75bd 3a41 5bbd 6827 4017 25cc 59bc
00000190: 3ed2 bb3c f72a 183d d12c 403c 9ce6 dbbc
000001a0: 1ea2 c417 c57e ffbc 68ac fe96 d425 be99
000001b0: 1ff7 213d b80c adbd 99cd 6b3d 8cb9 e03c
000001c0: 5c10 5824 3636 3b3d 8919 bd18 c3e7 98bd
000001d0: cb4f afbc 247a d03c f0bd 0fbd 13ef 569b
000001e0: de76 aebd 48ba 7ebd 750f 4b3d a4fe 123c
000001f0: ac5b 4d97 764d 9496 51f1 2d3b 9a66 993c
00000200: 19e9 313e 83e2 bc9a 849a a7bd 587a 153d
00000210: 22f4 6f3d a4e7 42be 8fb8 ad39 0862 c73d
00000220: 6d86 923d da9e d83c b2f1 3a3d 4892 393d
00000230: a96c a03d 3862 8f3b 2665 ec3c 6a4d 7ebd
00000240: 556c 33bd 2386 35bb 2f67 273d dc2c 9abc
00000250: 7032 b498 8ca6 173c d605 323e 4a99 1cbe
00000260: e671 753d 8d9d de3c 4973 49bc 0203 ac3c
00000270: e689 0c3e 4441 a13d a5a7 aabc 448a 1dbe
00000280: 4786 fd3d 5f70 dd3d 7315 ee3d 2db5 0d3d
00000290: 2f98 de3c d465 fc3c 840d 24bc a689 393d
000002a0: 3d3d 173c 3caa 193d c8bc d7af d5d8 d0bc
000002b0: 73f7 1996 8746 44bc 6230 a83d 4cb1 d03d
000002c0: 335f 923c aadb 153e ee05 dfbc ec57 8abd
000002d0: d2aa b0bd 7ec1 1a3a efcf 47bd 254a 063d
000002e0: 9cda b6bd 1f71 c83c 61c5 2f3d 8da5 8cbb
000002f0: 89d1 0a3e aa84 333d a40a 503e abbd 8bbc
00000300: d7fb 933c 83f9 b9bd 54c6 80bc d63a 1e3d
00000310: a303 b8bd 5cba 8fbc 129c 963c 7d6b 783b
00000320: 0280 1a16 95e2 823c 598b 8d3d 5264 88bd
00000330: b6a6 0cbd ce01 c4bd 626c 0cbe c1aa cfbd
00000340: 86a1 891a 0530 b23d 48c7 ba3d d2d3 62bc
00000350: f305 ff3c 975d 843d 1430 d0bd f7a5 26bd
00000360: 0c34 c417 81c3 2abc dbcb b4bb 1548 1ebd
00000370: f970 7a3c 5f6c f93c 4bf4 06bd b262 dfbd
00000380: ddce 9abc da28 64bd e6c0 5a3d 89d2 193e
00000390: 5d6e 353b 2f36 b2bd eeeb 2e3d bce1 133d
000003a0: 938f b597 a2df 703d b5eb b53b c22d 8016
000003b0: fa4a f5bb 525d e63c d3c4 bc3d b40d 1bbd
000003c0: 0e30 9f3d 7438 433d 1a34 6f3b 1db6 92bd
000003d0: 50c6 c6bc 9514 473c 5a21 02be cfe8 203d
000003e0: 057b 103e d9c4 fcbb 7481 b1bd 7563 91bd
000003f0: 8468 c53d d721 e83c 9ae8 f3bc 896a ea3c

bias f4 [64]
0.016497439 0.10707042 -0.033414356 0.14044523 -0.022725888 0.12221422 0.06934211 0.05724642
0.0694501 -0.06499674 0.08228344 0.053719547 0.04286564 -0.00024111877 -0.00880603 -0.05099825
0.07899978 0.001566744 -0.036455825 -4.1741856e-07 -0.01592693 0.035571963 -0.13218486 -0.046851803
0.1145658 0.05340362 0.001935053 0.059405446 -0.057330154 -0.052483454 -0.005687906 0.012358153
0.029114947 -0.033829033 0.045719516 -0.045766305 0.047287785 0.042264674 0.11058178 0.016163459
-0.0055836793 -0.0031102975 -0.044954695 0.012659794 -0.0041901027 0.07976779 -0.0029291874 0.070910096
0.06473472 -0.013584142 0.0016279573 0.033793937 0.02248691 0.015637038 0.032553453 0.010424406
-0.013534144 0.006052703 -0.016280062 -0.009828006 -0.0049139075 0.020253101 -0.015747864 0.022992838
00000000: a325 873c bd47 db3d 7edd 08bd e0d0 0f3e
00000010: a42b babc 734b fa3d 3c03 8e3d 397b 6a3d
00000020: db3b 8e3d 031d 85bd 3884 a83d 0709 5c3d
00000030: e293 2f3d d4d4 7cb9 2b47 10bc 8ae3 50bd
00000040: a3ca a13d 345b cd3a b452 15bd 9219 e0b4
00000050: 3179 82bc e8b3 113d 785b 07be ade7 3fbd
00000060: 79a1 ea3d c1bd 5a3d 9ba1 fd3a 2053 733d
00000070: 06d3 6abd e4f8 56bd 9d61 babb da79 4a3c
00000080: 7882 ee3c 5090 0abd 6344 3b3d 7375 3bbd
00000090: d6b0 413d b91d 2d3d b378 e23d 3b69 843c
000000a0: 4cf7 b6bb 22d6 4bbb 6a22 38bd 066b 4f3c
000000b0: 214d 89bb 4c5d a33d 9cf7 3fbb 5039 913d
000000c0: a393 843d 0590 5ebc 2f61 d53a 836b 0a3d
000000d0: 7836 b83c 3f19 803c c556 053d 21cb 2a3c
000000e0: 50be 5dbc c155 c63b c45d 85bc a505 21bc
000000f0: d804 a1bb d5e9 a53c aa01 81bc 7a5b bc3c

weight f4 [10, 64]
0.06782131 -0.021564538 0.13037312 0.07282065 0.13636999 0.07157739 -0.0676055 0.15021458
0.0897788 0.01842687 -0.24519378 -0.070640415 0.014491427 0.06229481 -0.04268306 -3.622591e-05
0.023312783 0.20153618 0.00054370315 -1.890227e-19 0.015197137 0.0032336432 -0.06351489 -0.026391996
-0.04545345 -0.06545948 -0.060950693 -0.03142539 0.011012081 -0.011440715 -0.12906873 -0.11873543
0.10073266 0.10151549 -0.08976554 -0.14303862 0.06472097 -0.018139742 0.022285966 0.10311397
-0.089188695 0.01438662 -0.0033679567 -0.069229625 0.01405297 0.019058375 7.627543e-16 0.044946432
0.103918105 -0.010654466 0.27537334 0.10173864 -0.11184708 -0.026424957 -0.07461403 0.08145526
-2.061221e-05 -0.10811134 0.0030375621 7.5062607e-22 0.0056629553 -0.14760908 -0.008014044 0.119138174
-0.03334849 -0.038013536 0.0339328 -0.030497445 0.008352164 0.069715686 -0.026523398 -0.25653782
-0.019266378 -0.18639734 -0.07941024 0.07923886 -0.12932628 0.07278525 -0.048435647 -0.0006003222
-0.081782185 -0.16705886 -0.029871473 1.328257e-24 0.007096246 -0.11389073 0.10756416 0.020038461
0.10093969 0.079008825 -0.11104204 -0.23671028 -0.1823948 0.1423333 -0.08808806 0.014382561
-0.049040638 0.10286473 -0.032483425 0.05876728 0.10453309 0.09633542 0.015794996 -0.1184065
-0.17097588 -0.015140595 0.003893621 0.06870525 0.031062359 -0.031029299 -3.7338818e-14 -0.058849897
0.117116645 0.008675378 -0.23095739 0.094781436 -0.018938344 0.016860297 -0.16298565 0.0025735695
-0.051425543 0.051117003 0.0032920747 -9.388654e-23 -0.007305437 -0.06598861 0.053721998 0.12656248
0.047390707 -0.12813409 -0.09489333 0.11907737 0.056590732 0.07642819 -0.17713046 -0.13827905
0.059964918 -0.012750341 0.037887998 0.097912244 0.07718995 -0.080861874 0.020533724 -0.0004435507
-0.017840516 -0.08703011 -0.00052871683 6.0958662e-24 -0.033076152 0.12647077 0.034032993 0.016604748
-0.17106184 -0.0049880617 0.02585934 -0.15745023 0.055271145 0.13349687 -0.047593694 -0.20444344
0.06295843 -0.06152929 0.036232065 -0.1529196 -0.08330092 0.08410178 0.025099317 -0.046168778
-0.016624093 -0.0130191855 0.010245875 0.13411406 0.021212665 -0.17213506 -2.4090267e-22 -0.1405473
-0.03467455 0.019840281 -0.34673184 0.13975854 -0.035163455 -0.016652774 -0.036604412 0.014709185
-0.034555558 -0.043546654 -0.012650009 -1.9365153e-20 -0.018646609 -0.1420722 -0.035762403 0.11114959
-0.12268143 0.03201619 -0.16401981 0.08284821 0.10546142 0.09473551 -0.0433565 -0.00404828
-0.07743398 -0.11934309 -0.18908715 -0.21132794 -0.021785716 0.04136743 0.058196772 0.0010491223
0.066689506 0.08424714 -0.035328485 -1.0692538e-22 0.008683391 0.06747671 -0.01342697 0.020714192
-0.06532521 0.12067167 -0.047544815 -0.13758014 0.06267597 0.075489976 -0.0010145743 0.08597312
0.136218 0.11923054 0.031870846 -0.083792485 0.051582582 -0.043017123 0.08524255 -0.10636828
-0.05260841 0.0150949685 0.07562523 0.06382233 -0.047568012 0.07379929 -5.2152546e-18 0.117146984
-0.052638236 -0.007992184 -0.10031107 -0.049680617 0.022083094 -0.051783115 -0.12556931 0.073546335
-0.014681653 -0.039577056 -0.02530787 3.714636e-21 0.00014166745 0.013758115 0.13603121 -0.0074009774
00000000: e6e5 8a3d 1da8 b0bc 8880 053e fe22 953d
00000010: 93a4 0b3e 2b97 923d c174 8abd dad1 193e
00000020: f3dd b73d f3f3 963c 1414 7bbe ecab 90bd
00000030: 736d 6d3c d828 7f3d 6fd4 2ebd 46f1 17b8
00000040: 73fa be3c 805f 4e3e 4d87 0e3a 9b28 5fa0
00000050: 6afd 783c 88eb 533b 1814 82bd 0734 d8bc
00000060: 662d 3abd 9f0f 86bd 6fa7 79bd e9b7 00bd
00000070: 046c 343c d671 3bbc 982a 04be 902b f3bd
00000080: ed4c ce3d 5ae7 cf3d ffd6 b7bd b778 12be
00000090: 6e8c 843d cc99 94bc 0f91 b63c 6b2d d33d
000000a0: 90a8 b6bd dcb5 6b3c f0b8 5cbb 43c8 8dbd
000000b0: 6e3e 663c 4f20 9c3c 55d9 5b26 c019 383d
000000c0: 04d3 d43d 1290 2ebc bcfd 8c3e 595c d03d
000000d0: 1510 e5bd 2779 d8bc 3ecf 98bd 04d2 a63d
000000e0: 62e8 acb7 7a69 ddbd d611 473b e1dc 621c
000000f0: 5090 b93b d626 17be 564d 03bc b7fe f33d
00000100: 6d98 08bd 15b4 1bbd 1ffd 0a3d c7d5 f9bc
00000110: 84d7 083c 19c7 8e3d 9947 d9bc ed58 83be
00000120: 86d4 9dbc f2de 3ebe d6a1 a2bd fc47 a23d
00000130: 1c6e 04be 6f10 953d 7564 46bd f15e 1dba
00000140: 6b7d a7bd 7a11 2bbe 05b5 f4bc ae89 cd17
00000150: a087 e83b 8b3f e9bd 994a dc3d b327 a43c
00000160: 78b9 ce3d 61cf a13d 026a e3bd 2e64 72be
00000170: b4c5 3abe d2bf 113e 8367 b4bd d5a4 6b3c
00000180: d6de 48bd beaa d23d 570d 05bd f6b5 703d
00000190: 7215 d63d 814b c53d 8264 813c 1b7f f2bd
000001a0: 4d14 2fbe 4210 78bc 1f2c 7f3b 57b5 8c3d
000001b0: 7d76 fe3c 2831 febc ba28 28a9 970c 71bd
000001c0: dada ef3d 2c23 0e3c 1880 6cbe c51c c23d
000001d0: 9624 9bbc 9b1e 8a3c b6e5 26be 55a9 283b
000001e0: 97a3 52bd 1060 513d d9bf 573b f400 e39a
000001f0: 7262 efbb 0925 87bd 990b 5c3d 9899 013e
00000200: c21c 423d 9535 03be 6f57 c2bd d6de f33d
00000210: afcb 673d 6286 9c3d b061 35be 0699 0dbe
00000220: c69d 753d cee6 50bc 7230 1b3d 3786 c83d
00000230: c415 9e3d e99a a5bd 5736 a83c 5e8c e8b9
00000240: 4626 92bc d83c b2bd 9699 0aba 89d2 eb18
00000250: dc7a 07bd 8e81 013e 2e66 0b3d ae06 883c
00000260: d62a 2fbe e572 a3bb f7d6 d33c a23a 21be
00000270: ff63 623d 67b3 083e 9bf1 42bd 9f59 51be
00000280: 59f0 803d 2306 7cbd 1368 143d f596 1cbe
00000290: ac99 aabd 8e3d ac3d 159d cd3c 791b 3dbd
000002a0: 402f 88bc 6c4e 55bc 51de 273c 3255 093e
000002b0: 2fc6 ad3c 2c44 30be e29d 919b a2eb 0fbe
000002c0: e706 0ebd 1688 a23c d686 b1be dd1c 0f3e
000002d0: 8e07 10bd 666b 88bc 82ee 15bd cbfe 703c
000002e0: 218a 0dbd fa5d 32bd fc41 4fbc 11e6 b69e
000002f0: c6c0 98bc 607b 11be 997b 12bd 65a2 e33d
00000300: 6740 fbbd 6923 033d cff4 27be 53ac a93d
00000310: 28fc d73d b104 c23d 9696 31bd 6fa7 84bb
00000320: b595 9ebd 266a f4bd 10a0 41be 5a66 58be
00000330: f577 b2bc e570 293d bd5f 6e3d b482 893a
00000340: 8294 883d c489 ac3d 9ab4 10bd cd43 019b
00000350: c844 0e3c 3b31 8a3d cbfc 5bbc cfb0 a93c
00000360: 39c9 85bd b522 f73d 5abe 42bd cfe1 0cbe
00000370: 425c 803d 7d9a 9a3d 77fb 84ba ad12 b03d
00000380: bb7c 0b3e 242f f43d 018b 023d 659b abbd
00000390: 4248 533d b932 30bd a593 ae3d 9dd7 d9bd
000003a0: eb7b 57bd e350 773c 67e1 9a3d 48b5 823d
000003b0: add6 42bd 1524 973d b068 c0a2 c2ea ef3d
000003c0: 319b 57bd a6f1 02bc e46f cdbd e77d 4bbd
000003d0: 9be7 b43c 881a 54bd 3e95 00be 769f 963d
000003e0: 518b 70bc 8d1b 22bd 7352 cfbc c155 8c1d
000003f0: 918c 1439 b769 613c c44b 0b3e e683 f2bb

bias f4 [10]
-0.029168587 0.008438286 -0.038819395 -0.077534355 -0.07454933 0.10431561 0.14121619 -0.08016067
-0.090795055 -0.12330735
00000000: f6f2 eebc bd40 0a3c 1601 1fbd 55ca 9ebd
00000010: 52ad 98bd 6ca3 d53d fa9a 103e 472b a4bd
00000020: c2f2 b9bd 9088 fcbd
